Nicola_Dainese_Ex4_NN/params/gaussian_net_params_4.pth (torch_old, 201845 bytes, 19 tensors)

encoder_cnn.0.weight f4 [8, 1, 3, 3]
-0.13174534 -0.17847165 -0.18057747 -0.19478749 -0.2245009 -0.21253796 -0.16958787 -0.17932944
-0.13399877 -0.093042 -0.13241047 -0.13588056 -0.1438851 -0.16851781 -0.16292816 -0.12561695
-0.13478665 -0.103286736 -1.053e-41 2.2028e-41 5.9863e-41 3.3672e-41 4.3156e-41 -6.5547e-41
-4.51e-42 -4.5326e-41 4.18208e-40 6.3742e-41 5.4945e-41 6.5806e-41 5.8689e-41 -4.6803e-41
5.6924e-41 5.0515e-41 5.2008e-41 6.8633e-41 0.47333142 0.79616874 0.746553 0.7892845
1.0431551 0.88866824 0.7119625 0.84351534 0.57195973 5.111e-41 5.608e-41 5.6185e-41
-4.9913e-41 5.047e-42 1.0166e-41 3.6428e-41 2.84919e-40 3.366e-41 -2.3455036e-13 -3.4499335e-13
-2.612566e-13 -5.08229e-13 -2.1457026e-13 7.20056e-14 -1.1014195e-13 -3.706595e-14 9.569664e-16 -0.125442
-0.17170155 -0.17316289 -0.18747975 -0.21687052 -0.20627336 -0.16500525 -0.17371933 -0.13130635
00000000: 40e8 06be 46c1 36be 4de9 38be 5f76 47be
00000010: 90e3 65be 8da3 59be 71a8 2dbe 23a2 37be
00000020: f936 09be ce8c bebd 9c96 07be 4624 0bbe
00000030: 9e56 13be ef8f 2cbe a4d6 26be bba1 00be
00000040: 8305 0abe ff87 d3bd 5a1d 0080 683d 0000
00000050: e0a6 0000 dd5d 0000 4d78 0000 b8b6 0080
00000060: 920c 0080 5a7e 0080 cb8d 0400 b0b1 0000
00000070: 2a99 0000 71b7 0000 9aa3 0000 7882 0080
00000080: ae9e 0000 d18c 0000 fa90 0000 52bf 0000
00000090: 7f58 f23e b7d1 4b3f 191e 3f3f 8d0e 4a3f
000000a0: 1b86 853f c37f 633f 2d43 363f 9ff0 573f
000000b0: f46b 123f 798e 0000 549c 0000 9f9c 0000
000000c0: 238b 0080 120e 0000 571c 0000 8c65 0000
000000d0: 3d1a 0300 d55d 0000 450a 84aa c836 c2aa
000000e0: 0b13 93aa c20d 0fab ab95 71aa 6724 a229
000000f0: 8304 f8a9 21ee 26a9 d4e9 8926 de73 00be
00000100: 88d2 2fbe 9d51 31be b1fa 3fbe 4e13 5ebe
00000110: 5339 53be 23f7 28be 7be3 31be 2c75 06be

encoder_cnn.0.bias f4 [8]
0.9608455 0.70871085 -9.2998706e-11 -1.3408156e-12 -0.00019448716 -3.0061142e-10 -1.9018105e-12 0.9261338
00000000: f8f9 753f 136e 353f 9e81 ccae f9b3 bcab
00000010: 40ef 4bb9 4c43 a5af f9d3 05ac 1b17 6d3f

encoder_cnn.3.weight f4 [16, 8, 3, 3]
0.18875274 0.15763938 0.17780402 0.25991523 0.21585387 0.24938726 0.25071225 0.20529272
0.21098967 0.14055529 0.12040791 0.13422054 0.19361655 0.16161324 0.18902203 0.19002646
0.15811147 0.16095793 1.10354e-40 -3.2125e-41 -2.1741e-41 -1.24322e-40 -1.105e-41 -1.24271e-40
1.22789e-40 7.1997e-41 5.256e-42 -1.29048e-40 8.916e-42 4.27e-42 2.25525e-40 4.1626e-41
-2.78814e-40 1.08285e-40 -6.2623e-41 1.89816e-40 0.01749732 0.07993383 -0.0058077225 -0.279782
-0.2616958 -0.3282076 -0.2616717 -0.23278958 -0.21980174 -2.01027e-40 -1.73837e-40 2.50214e-40
-1.43657e-40 1.86823e-40 1.10498e-40 -1.49359e-40 1.17818e-40 2.01134e-40 -1.6140259e-13 -9.52977e-13
1.2738766e-13 -2.142828e-13 1.2621682e-12 1.32547e-13 -8.5653826e-13 1.7045317e-12 -1.988599e-12 0.18185416
0.15381998 0.1734759 0.25022477 0.2068678 0.24108595 0.24269548 0.20005451 0.20384227
-1.0842156e-11 -2.314901e-11 -9.386652e-12 1.7644693e-11 1.32334334e-11 6.2353187e-12 1.8703634e-11 6.1587783e-12
3.0198944e-12 1.0110328e-11 -8.105439e-12 -5.9065808e-12 -8.478303e-12 4.982751e-12 4.7823178e-12 -7.314587e-12
3.6639615e-12 4.6497376e-12 -7.7423e-41 -6.2487e-41 -8.2503e-41 9.3828e-41 -3.4326e-41 6.5048e-41
7.0571e-41 8.2287e-41 -3.93e-42 8.5318e-41 -9.7663e-41 -8.3415e-41 -3.6833e-41 6.953e-42
6.87e-43 6.0027e-41 -1.17748e-40 5.1977e-41 -4.971933e-13 4.1162295e-12 6.485058e-12 1.7014831e-12
4.9596815e-12 1.13302805e-11 -1.6011689e-11 -1.6329773e-11 -1.6310075e-11 -7.579e-41 5.0514e-41 -8.5936e-41
5.1994e-41 9.4918e-41 3.9232e-41 -7.3065e-41 2.6885e-41 -2.2461e-41 -4.146071e-21 -1.741616e-20
3.1783771e-19 3.7345876e-19 -3.3555778e-19 -1.6320921e-19 -9.201649e-19 -3.7894692e-19 -5.085961e-19 3.1989668e-11
-2.6279557e-11 -1.8242437e-11 1.0811163e-12 1.6235235e-11 1.1322153e-11 1.3463056e-11 7.364479e-12 1.1031256e-11
-0.00027997693 0.0002507352 6.4037085e-05 -4.0893145e-05 -2.5654223e-05 2.5174465e-06 -6.3647836e-05 -3.3211305e-05
-6.91184e-05 -0.00022760521 -0.00024638913 -0.0002845777 -0.0001848888 -0.0004178763 -0.00041922202 -0.00017939867
-0.00037060954 -0.00040938685 -6.7253e-41 -9.9911e-41 -5.9985e-41 4.0547e-41 -7.3452e-41 5.4435e-41
-5.757e-42 1.01521e-40 -4.361e-41 8.4556e-41 -9.8047e-41 -2.8343e-41 -4.9602e-41 6.9182e-41
1.27563e-40 9.2077e-41 -7.7401e-41 9.81e-42 0.00016067528 -0.00038460208 5.4443644e-06 -0.00034971038
-0.0007694756 -0.00024191907 -0.00016270336 -0.0003279307 8.875488e-05 -4.2874e-41 -4.2829e-41 -7.4698e-41
6.529e-42 7.564e-42 -2.9664e-41 8.7567e-41 -1.21975e-40 7.0065e-41 1.1472979e-16 7.109486e-17
1.9581916e-17 2.0681291e-16 9.1030015e-17 8.33775e-17 -1.2220434e-16 1.4197263e-16 5.714428e-17 -0.00023500872
0.0003591055 0.00017461294 7.653224e-05 0.00016432928 6.0341114e-05 4.7987105e-05 5.5325636e-05 3.289691e-05
0.12847178 0.07531043 0.03233236 0.068491295 -0.089761816 -0.10174214 0.017508192 -0.11180826
-0.0570264 0.0937859 0.052375376 0.018576516 0.049444534 -0.0731345 -0.084805995 0.009973535
-0.091279685 -0.051949766 2.58226e-40 3.2425e-41 2.60651e-40 -1.45788e-40 4.0134e-40 3.5357e-40
2.7537e-40 2.415e-40 2.42e-40 4.28088e-40 2.3692e-40 -2.56795e-40 4.788e-41 5.19938e-40
-2.1812e-40 -5.41252e-40 -8.8723e-41 -4.27112e-40 -0.19414298 -0.021391235 0.15367663 -0.0021082999
00000000: 6648 413e 386c 213e 4212 363e 9c13 853e
00000010: cc08 5d3e 605f 7f3e 5b5d 803e 4138 523e
00000020: ad0d 583e baed 0f3e 6c98 f63d 1c71 093e
00000030: 6b43 463e f17d 253e fe8e 413e 4c96 423e
00000040: f9e7 213e 28d2 243e 9f33 0100 8d59 0080
00000050: 9b3c 0080 8f5a 0180 ce1e 0080 6b5a 0180
00000060: 4956 0100 b3c8 0000 a70e 0000 bc67 0180
00000070: db18 0000 e70b 0000 ac74 0200 0974 0000
00000080: 3809 0380 db2d 0100 91ae 0080 2111 0200
00000090: 8a56 8f3c 59b4 a33d b54e bebb 963f 8fbe
000000a0: fefc 85be d40a a8be d5f9 85be 6460 6ebe
000000b0: b513 61be 6230 0280 96e4 0180 7fb9 0200
000000c0: 7590 0180 c908 0200 0634 0100 5aa0 0180
000000d0: 6e48 0100 ae30 0200 21b9 35aa 9d1e 86ab
000000e0: fe6c 0f2a d042 71aa 67a2 b12b 123c 152a
000000f0: 1618 71ab 3ae4 ef2b 6aef 0bac fa37 3a3e
00000100: fc82 1d3e aba3 313e 761d 803e 27d5 533e
00000110: 3cdf 763e 2a85 783e 17db 4c3e 07bc 503e
00000120: bbbc 3ead f09e cbad b921 25ad 5134 9b2d
00000130: 16ce 682d c262 db2c d784 a42d 58b1 d82c
00000140: 9581 542c dfdc 312d a797 0ead c0d1 cfac
00000150: e226 15ad a250 af2c 4a43 a82c f9ad 00ad
00000160: 08ea 802c 1d99 a32c d3d7 0080 30ae 0080
00000170: fce5 0080 8e05 0100 b05f 0080 54b5 0000
00000180: b9c4 0000 62e5 0000 f50a 0080 d5ed 0000
00000190: 3f10 0180 87e8 0080 ad66 0080 6213 0000
000001a0: ea01 0000 55a7 0000 3c48 0180 e490 0000
000001b0: 8ef2 0bab b3d3 902c 362c e42c 6476 ef2b
000001c0: d780 ae2c 0c53 472d 1ed7 8cad 61a3 8fad
000001d0: 0677 8fad 46d3 0080 d08c 0000 8eef 0080
000001e0: f090 0000 9808 0100 5d6d 0000 adcb 0080
000001f0: f24a 0000 9d3e 0080 57a2 9c9d b17d a49e
00000200: 479e bb20 7e73 dc20 0f14 c6a0 f5ae 40a0
00000210: d9ca 87a1 d7b0 dfa0 6f1c 16a1 2ab1 0c2e
00000220: 4d28 e7ad 5176 a0ad 5227 982b 80ce 8e2d
00000230: 722e 472d 37d8 6c2d aa8e 012d 5c10 422d
00000240: dec9 92b9 1c75 8339 a64b 8638 ae84 2bb8
00000250: 0634 d7b7 67f1 2836 ac7a 85b8 5e4c 0bb8
00000260: a9f3 90b8 4fa9 6eb9 ca2d 81b9 5f33 95b9
00000270: b6de 41b9 6816 dbb9 07cb dbb9 f71c 3cb9
00000280: 5f4e c2b9 f9a2 d6b9 79bb 0080 8316 0180
00000290: 37a7 0080 0771 0000 c1cc 0080 be97 0000
000002a0: 0c10 0080 001b 0100 9179 0080 b5eb 0000
000002b0: 5111 0180 024f 0080 458a 0080 dac0 0000
000002c0: 9863 0100 ac00 0100 c3d7 0080 591b 0000
000002d0: f17a 2839 6ba4 c9b9 bcae b636 5559 b7b9
000002e0: a2b6 49ba a8ab 7db9 5a9b 2ab9 1dee abb9
000002f0: ea21 ba38 8477 0080 6477 0080 3ad0 0080
00000300: 3312 0000 1615 0000 b152 0080 1af4 0000
00000310: 0454 0180 50c3 0000 4246 0425 ffee a324
00000320: 7e9c b423 6670 6e25 a3e6 d124 6441 c024
00000330: 5be4 0ca5 edae 2325 07c4 8324 ac6c 76b9
00000340: 5346 bc39 4e18 3739 ef7f a038 ce4f 2c39
00000350: c716 7d38 c345 4938 730d 6838 cafa 0938
00000360: 1b8e 033e 5b3c 9a3d f06e 043d 2a45 8c3d
00000370: 0bd5 b7bd 2f5e d0bd 576d 8f3c bbfb e4bd
00000380: 8494 69bd d212 c03d 9087 563d c72d 983c
00000390: 5a86 4a3d 8ac7 95bd c4ae adbd 0a68 233c
000003a0: d8f0 babd 47c9 54bd d4cf 0200 635a 0000
000003b0: 97d6 0200 6696 0180 c65e 0400 9cd9 0300
000003c0: 9fff 0200 34a1 0200 99a2 0200 56a9 0400
000003d0: 7094 0200 d7cb 0280 7885 0000 60a9 0500
000003e0: 0860 0280 cae4 0580 53f7 0080 9da6 0480
000003f0: 6bcd 46be ac3c afbc 685d 1d3e 672b 0abb

encoder_cnn.3.bias f4 [16]
0.17957594 -3.6261042e-08 -0.0021162182 0.09325216 -9.855021e-05 3.9043373e-09 0.09533564 0.17301068
-1.3526308e-07 -4.3394182e-05 -1.0335767e-05 -0.0011244769 0.18208086 -3.5332392e-05 -0.0023140407 -0.000524278
00000000: c1e2 373e 70bd 1bb3 40b0 0abb fdfa be3d
00000010: beac ceb8 ea26 8631 553f c33d b629 313e
00000020: d53c 11b4 2602 36b8 c867 2db7 2f63 93ba
00000030: 6873 3a3e de31 14b8 29a7 17bb b36f 09ba

encoder_cnn.6.weight f4 [32, 16, 3, 3]
-0.0008538011 -0.00017178703 -6.8065405e-05 -0.00066444196 -0.00018053927 -0.00035373794 -0.0009650924 -0.00056589633
-0.0010384797 -3.4268761e-16 -1.9532212e-16 5.3751682e-17 3.0463778e-16 1.3466958e-15 -3.069861e-16 -4.182612e-16
1.2653396e-15 8.7651557e-16 -1.422211e-09 -2.6158498e-09 -6.384892e-10 1.4034084e-09 4.8841725e-10 8.1969387e-10
3.294637e-10 -4.2200227e-10 2.8048616e-10 -0.002737555 -0.0052831857 -0.005132897 -0.0020169872 -0.0037589788
-0.00198072 -0.0015596736 -0.0019360268 -0.0007967507 -2.0367271e-07 1.1201381e-07 -6.779952e-09 2.5860524e-07
9.953716e-09 4.5574236e-08 -7.0157057e-07 -2.7832778e-07 -7.249215e-08 3.4518845e-13 -1.6381328e-12 -2.2431447e-12
2.3801293e-12 1.421155e-12 -6.3964676e-12 -1.2098833e-13 -7.061383e-12 -1.7765853e-12 -0.0017616206 -0.00390807
-0.0062764236 -0.001509572 -0.003602126 -0.004664395 -0.0012262091 -0.0028139076 -0.0019376272 -0.0008542598
-0.00017507406 -0.000106031905 -0.0006318496 -0.00013550368 -0.0002771268 -0.00079390267 -0.00042635028 -0.0010192146
-5.274174e-11 -5.0113674e-11 -3.1470465e-11 -4.5071828e-11 5.9299815e-11 -8.197871e-12 -2.8849305e-11 5.7826577e-11
-4.8178644e-12 -4.1606385e-11 -2.4424312e-11 9.046546e-11 2.1626441e-10 6.6237384e-11 2.2538624e-10 -8.0311174e-10
-1.3160424e-10 -1.12927674e-10 2.8154696e-11 -1.3322177e-10 -7.240413e-11 -1.3023096e-11 -2.88825e-10 -4.800507e-11
-8.239731e-11 -1.7433369e-10 -2.4116879e-11 1.048007e-10 9.839211e-11 4.8763146e-11 7.911806e-12 -1.0235248e-10
1.190792e-10 -1.4449521e-10 -1.2693631e-10 -4.1761143e-11 -0.0013684273 -0.000436731 -0.0002126776 -0.0010921104
-0.00029956287 -0.00020849948 -0.0009754388 -0.00038078616 -0.00069106696 2.1710302e-09 4.003727e-09 6.322651e-10
-1.3910286e-09 5.2746607e-10 1.4656999e-10 1.964512e-09 2.7367703e-10 -1.0140809e-09 -3.869419e-06 7.559272e-06
3.1236766e-06 2.4190174e-05 9.872744e-06 1.4268277e-05 2.0480697e-05 3.3905137e-05 2.5085405e-05 1.3891882e-07
4.1861918e-07 5.0398404e-07 1.2399393e-07 2.652822e-07 1.533476e-07 4.897792e-08 1.2009842e-07 3.3226655e-08
0.094766356 -0.1331018 -0.041044448 -0.028439544 -0.08603575 0.09804993 -0.053091984 0.1742607
0.06651687 -6.4038497e-12 4.1033878e-12 -6.997311e-12 7.092601e-12 -1.8406108e-12 7.81469e-12 -6.773047e-13
-9.8343955e-12 1.2777951e-11 0.0002698024 0.00043780683 -0.0003075917 -4.769816e-06 2.5120831e-05 -0.00050338457
-7.5953154e-05 4.4598113e-05 0.0007706697 -0.12028689 0.07355734 0.052677207 0.0046183495 0.07231731
-0.16381219 0.11747905 -0.23937984 0.10792741 -8.614332e-06 9.022083e-06 7.940873e-06 5.1979237e-06
1.3466705e-05 2.4503337e-05 5.1005977e-06 -9.741762e-06 -5.4358743e-06 1.2043831e-10 -1.088021e-10 -5.6114335e-10
-2.388124e-09 -8.222836e-10 6.0845134e-10 -1.138383e-09 -1.1719868e-09 4.224791e-11 -0.06592379 -0.019255904
0.14528039 -0.08605781 0.22025515 -0.014450664 0.09874139 -0.14603326 -0.17697561 0.06253793
-0.09002937 -0.031614404 0.0019848011 -0.11400306 0.07139653 -0.012878774 0.14162162 0.09431818
-2.280378e-08 1.1279067e-08 1.8326447e-10 -4.3837227e-09 -5.873559e-08 -2.5277972e-08 -1.0857117e-08 3.0498295e-08
1.4852502e-08 5.9220005e-05 1.6397542e-05 1.6064987e-05 5.790935e-05 3.107802e-06 2.9785744e-05 4.1033814e-05
7.047384e-05 9.467113e-05 1.5251896e-05 1.6852722e-05 3.5278695e-06 2.1122381e-05 -6.498974e-06 3.4219597e-06
-7.1232366e-06 -1.1666533e-06 -2.4197839e-06 -0.00027128006 9.1969974e-05 -7.42602e-05 0.00012741704 -0.00018699298
6.527191e-05 -6.3233754e-05 1.53839e-05 -6.462173e-05 0.059697393 0.0017364562 -0.05048403 0.11985383
00000000: 9fd1 5fba bb21 34b9 56be 8eb8 f22d 2eba
00000010: 244f 3db9 e775 b9b9 41fe 7cba a958 14ba
00000020: 991d 88ba c48b c5a5 ea30 61a5 c9e2 7724
00000030: 9a9c af25 4e14 c226 27f7 b0a5 751c f1a5
00000040: cb5a b626 6fa3 7c26 9a77 c3b0 84c2 33b1
00000050: af81 2fb0 0be2 c030 4f41 0630 d450 6130
00000060: e51f b52f 8aff e7af eb32 9a2f 8d68 33bb
00000070: 931e adbb dc31 a8bb 6e2f 04bb 3359 76bb
00000080: f8ce 01bb f66d ccba 48c2 fdba 09dd 50ba
00000090: 21b1 5ab4 3e8c f033 17f5 e8b1 6fd6 8a34
000000a0: e800 2b32 67bd 4333 9053 3cb5 146d 95b4
000000b0: fbac 9bb3 e652 c22a f48b e6ab e7d8 1dac
000000c0: 997c 272c 8102 c82b 420e e1ac 8338 08aa
000000d0: 4973 f8ac 3b08 faab 2ee6 e6ba 440f 80bb
000000e0: 75aa cdbb d5dc c5ba a511 6cbb c8d7 98bb
000000f0: c0b8 a0ba 8969 38bb fbf7 fdba 68f0 5fba
00000100: 1694 37b9 725d deb8 b5a2 25ba fe15 0eb9
00000110: 544b 91b9 e81d 50ba c487 dfb9 2b97 85ba
00000120: ecf5 67ae fb66 5cae 9868 0aae 5e3a 46ae
00000130: d466 822e ee37 10ad dcc2 fdad f052 7e2e
00000140: 7783 a9ac a0fc 36ae a9d6 d6ad 87ef c62e
00000150: 05c9 6d2f 55a8 912e 96d0 772f f7c1 5cb0
00000160: 4db3 10af a154 f8ae bda6 f72d 987a 12af
00000170: e737 9fae cf1a 65ad 81c8 9eaf e720 53ae
00000180: 9031 b5ae 92ae 3faf 6222 d4ad 8d75 e62e
00000190: d55d d82e 6c76 562e 9b2f 0b2d 5313 e1ae
000001a0: d1ed 022f c9df 1eaf 6591 0baf deaa 37ae
000001b0: cd5c b3ba 0bf9 e4b9 3502 5fb9 2525 8fba
000001c0: a60e 9db9 a7a0 5ab9 97b4 7fba 41a4 c7b9
000001d0: b828 35ba 2b31 1531 2891 8931 b3cb 2d30
000001e0: 782e bfb0 20fd 1030 c927 212f 1000 0731
000001f0: 9e74 962f cd5f 8bb0 0ed6 81b6 a7a5 fd36
00000200: 5ba0 5136 01ec ca37 1da3 2537 c861 6f37
00000210: f6cd ab37 5d35 0e38 7f6e d237 b729 1534
00000220: 95be e034 8549 0735 3123 0534 1c6c 8e34
00000230: dea7 2434 cb5b 5233 67f4 0034 18b5 0e33
00000240: dd14 c23d d74b 08be 391e 28bd 0cfa e8bc
00000250: 8333 b0bd 67ce c83d fb76 59bd 6671 323e
00000260: ff39 883d c050 e1ac 0860 902c 2d32 f6ac
00000270: 788c f92c 7f85 01ac 3c7a 092d f2a4 3eab
00000280: 2e02 2dad c6ca 602d 4474 8d39 7089 e539
00000290: 4244 a1b9 680c a0b6 93ba d237 91f5 03ba
000002a0: 0a49 9fb8 dc0e 3b38 c506 4a3a f958 f6bd
000002b0: 3ba5 963d 0ec4 573d 8655 973b 191b 943d
000002c0: 62be 27be db98 f03d fd1f 75be 0c09 dd3d
000002d0: 4686 10b7 8d5d 1737 ca39 0537 d369 ae36
000002e0: 0fef 6137 848c cd37 cd25 ab36 8d70 23b7
000002f0: ce65 b6b6 5f6c 042f 2342 efae f43e 1ab0
00000300: 521c 24b1 1007 62b0 f53f 2730 4b75 9cb0
00000310: 9f13 a1b0 ebce 392e 0d03 87bd 8fbe 9dbc
00000320: 62c4 143e 143f b0bd 918a 613e 7ac2 6cbc
00000330: ed38 ca3d be89 15be 1839 35be e313 803d
00000340: 5161 b8bd 1b7e 01bd 7013 023b 707a e9bd
00000350: 5838 923d 7e01 53bc 4205 113e e429 c13d
00000360: 0be2 c3b2 dcc5 4132 5d80 492f a29f 96b1
00000370: 7744 7cb3 d922 d9b2 1b86 3ab2 3bfd 0233
00000380: ff29 7f32 ff62 7838 748d 8937 4cc3 8637
00000390: b1e3 7238 a28f 5036 66dc f937 b91b 2c38
000003a0: 5bcb 9338 2d8a c638 65e2 7f37 f25e 8d37
000003b0: 56c0 6c36 f82f b137 c311 dab6 d2a4 6536
000003c0: 2304 efb6 e795 9cb5 9263 22b6 983a 8eb9
000003d0: 01e0 c038 24bc 9bb8 409b 0539 8c13 44b9
000003e0: 97e2 8838 5d9c 84b8 ac0c 8137 8785 87b8
000003f0: 4185 743d cd99 e33a 58c8 4ebd ed75 f53d

encoder_cnn.6.bias f4 [32]
-0.000370663 0.01618017 -4.2654338e-07 0.0009315612 0.0050969445 -3.794721e-13 -1.0392519e-10 3.0608402e-12
0.017633516 -4.0147115e-17 0.018849203 -1.3327718e-07 -2.5944899e-11 -2.2977959e-08 -5.448876e-15 -6.1823544e-06
0.008422321 -3.6806422e-10 -2.9239008e-10 -9.610575e-13 0.014193126 0.02106705 0.022304311 -0.0015414223
0.012461752 0.027859462 -2.3092239e-10 0.016356088 -0.0052000196 0.0024482906 0.012260235 0.0049450323
00000000: 8c55 c2b9 478c 843c adff e4b4 0434 743a
00000010: 4504 a73b b19f d5aa ae88 e4ae 3263 572c
00000020: 2a74 903c 5925 39a4 a569 9a3c f41a 0fb4
00000030: b836 e4ad 1161 c5b2 0351 c4a7 0572 cfb6
00000040: c6fd 093c 6f58 caaf 3fbe a0af bf41 87ab
00000050: 498a 683c ce94 ac3c 88b7 b63c 8d09 caba
00000060: 602c 4c3c 8739 e43c e0e6 7daf 34fd 853c
00000070: ed64 aabb 8073 203b 27df 483c f009 a23b

encoder_lin.0.weight f4 [64, 288]
4.8243606e-08 -8.596561e-08 6.387221e-07 2.7112308e-05 -6.617835e-05 -3.598846e-05 -2.796274e-05 -2.4030262e-05
5.756069e-06 -0.003982102 0.008385248 -0.0755759 0.010426452 -0.006983492 0.041709706 0.04838321
0.059731852 0.051775005 1.719261e-06 -1.931732e-06 -1.271174e-06 4.4831813e-07 -3.5095314e-07 -8.439186e-08
-1.0881727e-06 4.3051646e-08 1.1728093e-06 0.0048831976 1.2180878e-05 -0.0032858155 0.09685271 0.030361297
0.097535975 0.01818345 0.019840846 0.012098094 0.020730207 0.037689447 0.06458352 0.026281426
0.045357887 0.004641905 0.0062351576 -0.05103316 0.024955517 -9.247838e-14 -3.6125254e-14 -2.315521e-14
-5.010316e-14 -1.5194367e-14 -1.3757691e-14 -7.878211e-14 -1.4219183e-14 -3.103344e-14 -4.970803e-15 6.812177e-16
-1.3322226e-15 2.6220781e-12 3.1171855e-12 2.0150632e-12 -7.0963656e-13 6.40242e-12 7.890597e-11 1.4302709e-10
5.047578e-11 2.4148775e-11 4.2788953e-11 -2.77352e-12 -1.1672978e-12 3.4758196e-11 -2.4842307e-12 3.4048788e-11
0.024496103 0.08246963 0.003114306 0.03848632 -0.012711722 0.07146588 -0.028327223 0.045762435
0.047933716 2.8255007e-18 1.8727884e-17 1.9193214e-17 5.181923e-18 1.4819622e-17 -6.3827546e-17 2.9907306e-18
-3.610109e-17 -4.920762e-17 0.022211263 0.048174873 0.011232978 -0.010099127 0.07390546 -0.11027202
-0.028558584 -0.010117554 0.023082446 2.268783e-08 2.2451184e-07 2.2876492e-09 4.1854168e-08 9.1661704e-08
-7.3455546e-08 -8.379251e-09 2.0071963e-07 -6.3849136e-08 -5.7364006e-11 -2.5973081e-11 1.9254246e-11 -1.7733803e-10
-4.945397e-11 1.5979866e-10 -3.9783094e-12 -1.0832005e-10 -6.425989e-11 4.4799973e-09 -1.494274e-09 -7.528787e-09
2.5604082e-08 1.2248471e-08 -5.8811174e-09 3.6833768e-08 -3.7117942e-09 -2.8486955e-09 6.126306e-15 1.0877015e-15
2.862014e-16 3.3964452e-15 9.072961e-17 4.0289605e-17 2.3334665e-15 -3.6335943e-16 -1.7408002e-15 6.638437e-05
6.4452084e-05 0.00011434295 -4.710983e-05 -5.3720723e-06 -2.3605893e-05 1.0564507e-05 -5.0339244e-05 0.00014666945
0.02954436 0.040197942 0.05042474 -0.0054745097 0.041886 0.096731916 0.0046788626 0.018329965
0.0055352687 -5.5254308e-17 -2.988043e-12 -2.928289e-13 8.299095e-10 -2.9964065e-10 1.4077843e-10 1.0520336e-09
6.129309e-10 4.529208e-11 -2.0086531e-10 5.1318054e-11 -8.912743e-11 -2.958567e-11 -1.0539125e-10 1.0673694e-09
-5.2986292e-11 3.687716e-10 6.3730826e-10 -1.970543e-15 3.2629598e-12 -1.9829921e-12 -4.047762e-15 2.8068422e-13
-1.8286563e-15 -3.3147103e-15 7.08711e-13 -2.1230119e-13 0.007124251 0.026021566 -0.060277116 -0.0049080434
0.08735168 -0.07583927 0.00794244 0.02794498 0.02948696 0.011267398 0.022138776 -0.028516723
-0.008596036 0.13314201 -0.023200642 0.008199138 0.02281559 0.04530614 0.02881361 0.035892323
0.047175806 -0.031016521 0.029534118 -0.003131576 -0.047464978 0.013795841 0.050112188 -6.3031e-05
7.735436e-05 -0.00028782905 0.00022446636 2.3445202e-05 -3.7175465e-05 -0.00011661803 1.114669e-05 -5.160441e-05
0.00096743373 -0.010185276 -0.043562327 -0.03112838 0.042933997 0.018929014 -0.013609309 0.015197326
0.014478102 0.018842034 0.054346833 -0.04453626 -0.0027307528 0.107362166 -0.17806639 0.011712727
0.05349944 0.0006546495 -1.0539053e-10 5.178148e-13 -1.09556825e-11 2.2327796e-11 -3.5875802e-11 -2.7687446e-11
6.0425744e-12 -3.5530218e-11 1.6187042e-10 0.016224997 0.025898492 -0.062718555 -0.012992214 0.021795696
-0.15759893 -0.026839877 0.04218764 -0.04002303 0.03127606 0.012996991 -0.012839186 0.01684412
00000000: 6834 4f33 189c b8b3 a674 2b35 3d6f e337
00000010: 3bc9 8ab8 51f2 16b8 8791 eab7 9894 c9b7
00000020: 4224 c136 4b7c 82bb 4762 093c 8ac7 9abd
00000030: b6d3 2a3c c7d5 e4bb ccd7 2a3d 792d 463d
00000040: 63a9 743d 0712 543d 5cc1 e635 e7a2 01b6
00000050: 359d aab5 60b0 f034 a26a bcb4 ea3a b5b3
00000060: 540d 92b5 c9e7 3833 6c69 9d35 3b03 a03b
00000070: 795c 4c37 d656 57bb b75a c63d 41b8 f83c
00000080: f1c0 c73d 75f5 943c 4589 a23c 1637 463c
00000090: 65d2 a93c 4060 1a3d 5d44 843d 254c d73c
000000a0: 31c9 393d 1f1b 983b 4b50 cc3b 2608 51bd
000000b0: 836f cc3c 283e d0a9 95b1 22a9 4790 d0a8
000000c0: 03a5 61a9 d3db 88a8 27d6 77a8 cb66 b1a9
000000d0: 3413 80a8 1fc3 0ba9 9117 b3a7 ff58 4426
000000e0: 57fe bfa6 2983 382c 395a 5b2c 27cc 0d2c
000000f0: b4be 47ab df43 e12c 1d84 ad2e 8c42 1d2f
00000100: adfe 5d2e 356a d42d 1430 3c2e 4b2b 43ac
00000110: 5648 a4ab 40de 182e eccf 2eac 87bf 152e
00000120: 0dac c83c d6e5 a83d 6219 4c3b d5a3 1d3d
00000130: d444 50bc b45c 923d 7e0e e8bc 6471 3b3d
00000140: 2556 443d 337c 5022 f7bb ac23 b206 b123
00000150: e12d bf22 d8af 8823 222d 93a4 4ead 5c22
00000160: a57c 26a4 1bee 62a4 65f4 b53c 0453 453d
00000170: 860a 383c cf76 25bc bf5b 973d 4cd6 e1bd
00000180: b1f3 e9bc 19c4 25bc 6617 bd3c 11e3 c232
00000190: 5811 7134 c034 1d31 25c3 3333 8ed7 c433
000001a0: 9dbe 9db3 56f4 0fb2 6485 5734 6f1d 89b3
000001b0: 214a 7cae 2e76 e4ad b55c a92d 38fc 42af
000001c0: 3880 59ae 53b3 2f2f 6df9 8bac c432 eeae
000001d0: 1a4f 8dae 79ee 9931 185f cdb0 f557 01b2
000001e0: f9ef db32 586d 5232 db12 cab1 2833 1e33
000001f0: 9312 7fb1 c8c2 43b1 33b9 dc27 1ac1 9c26
00000200: dffb a425 5bbd 7427 4f35 d124 92cd 3924
00000210: dc24 2827 6376 d1a5 31e0 faa6 d637 8b38
00000220: 732a 8738 67cb ef38 cb97 45b8 c041 b4b6
00000230: 4505 c6b7 363e 3137 5a23 53b8 48cb 1939
00000240: 0307 f23c 99a6 243d 2c8a 4e3d 8463 b3bb
00000250: a890 2b3d 621b c63d 2551 993b b928 963c
00000260: 3361 b53b c6d0 7ea4 cc43 52ac 18d9 a4aa
00000270: b01f 6430 acba a4af 9bc9 1a2f 2497 9030
00000280: 2d7b 2830 5932 472e 8fda 5caf feb2 612e
00000290: 48fe c3ae 811e 02ae 00c2 e7ae b9b2 9230
000002a0: 4309 69ae fdbb ca2f 952e 2f30 1afe 0da7
000002b0: 429c 652c 698a 0bac 04d6 91a7 dc02 9e2a
000002c0: c1c4 03a7 9dd9 6ea7 027c 472b a707 6faa
000002d0: 8d72 e93b 2e2b d53c 23e5 76bd a7d3 a0bb
000002e0: 70e5 b23d 9f51 9bbd 0221 023c dfec e43c
000002f0: a38e f13c e49a 383c 615c b53c e79b e9bc
00000300: 63d6 0cbc 6156 083e 460f bebc ad55 063c
00000310: c3e7 ba3c ee92 393d 850a ec3c d403 133d
00000320: 6b3b 413d 5c16 febc 89f1 f13c 213b 4dbb
00000330: a36a 42bd f307 623c 7042 4d3d 832f 84b8
00000340: 4e39 a238 c3e7 96b9 bb5e 6b39 30ac c437
00000350: daec 1bb8 d490 f4b8 ab02 3b37 d071 58b8
00000360: 619b 7d3a 25e0 26bc 696e 32bd f200 ffbc
00000370: 8fdb 2f3d 0511 9b3c 94f9 5ebc 35fe 783c
00000380: 9035 6d3c 9c5a 9a3c c99a 5e3d a76b 36bd
00000390: 6ef6 32bb b2e0 db3d 0957 36be bde6 3f3c
000003a0: 3b22 5b3d c99c 2b3a 98c1 e7ae 7dc0 112b
000003b0: 02bc 40ad ba65 c42d 90c8 1dae 968a f3ad
000003c0: ac9a d42c 7843 1cae 79fa 312f 49ea 843c
000003d0: 1329 d43c 9672 80bd 4cdd 54bc e38c b23c
000003e0: 9d61 21be 4ddf dbbc f2cc 2c3d 30ef 23bd
000003f0: 531b 003d 55f1 543c 735b 52bc aefc 893c

encoder_lin.0.bias f4 [64]
0.007401777 2.5529135e-07 -0.0037510067 0.00044241684 -0.0036983946 -0.0067345686 1.2376195e-11 0.0049168672
-0.0015919058 0.0031332818 0.0018907927 5.2607247e-06 0.0017990607 -0.0021343785 -0.00029928086 0.00792327
-0.0049593924 0.002488885 -0.0021334735 -0.00018424258 -0.001547792 -0.0024721744 -0.0027449979 0.0020513514
0.00228205 -0.0044450243 0.0019755492 0.0048230407 -6.5274506e-08 0.0056918687 -0.0053589605 0.005057092
0.005473454 -0.0022111663 0.0061014965 0.006116476 -0.0026602375 0.0016754958 0.011166477 0.008699575
0.00028801296 0.005473563 0.0051518613 -0.0041255313 -0.0023743883 0.004217658 -0.008936209 -0.0029148273
-0.006481133 -0.0035574753 -0.0013496047 0.000629798 -0.0025822867 0.0035948528 -0.0008243105 -0.0017901775
0.004161192 0.004907281 0.0052319025 -0.0068141776 -6.604806e-07 0.0048561664 -0.002701689 0.010683385
00000000: 9b8a f23b fa0e 8934 73d3 75bb 2ff4 e739
00000010: c460 72bb a8ad dcbb 6db9 592d ac1d a13b
00000020: 7fa7 d0ba bf57 4d3b 7ad4 f73a 4885 b036
00000030: 76ce eb3a eee0 0bbb cce8 9cb9 9ad0 013c
00000040: 6682 a2bb 901c 233b bfd1 0bbb 3e31 41b9
00000050: 48df caba 3404 22bb 6ce5 33bb f76f 063b
00000060: 728e 153b 91a7 91bb 3778 013b 990a 9e3b
00000070: 0a2d 8cb3 db82 ba3b 389a afbb f6b5 a53b
00000080: a95a b33b 37e9 10bb 10ef c73b b86c c83b
00000090: 6157 2ebb 4f9c db3a 99f3 363c aa88 0e3c
000000a0: 7200 9739 935b b33b f2d0 a83b 772f 87bb
000000b0: a09b 1bbb 4834 8a3b 2d69 12bc b006 3fbb
000000c0: af5f d4bb 8824 69bb 38e5 b0ba 0719 253a
000000d0: 953b 29bb 9f97 6b3b 8b16 58ba 64a4 eaba
000000e0: 9c5a 883b 42cd a03b 6170 ab3b 7749 dfbb
000000f0: e24b 31b5 7a20 9f3b d20e 31bb 5d09 2f3c

encoder_lin.3.weight f4 [4, 64]
0.25074923 -0.0011020256 -0.107368656 0.00081667653 -0.19858085 0.02008564 3.1029632e-12 -0.053113084
0.18150909 0.3671151 -0.04636845 -1.7841272e-05 -0.10619065 -0.44366345 -2.2466356e-05 -0.012444195
0.4960544 -0.059036322 -0.031141557 0.32187933 -0.11504238 -0.29352257 0.18042311 -0.122649655
-0.14376926 0.39361024 0.3087086 -0.061175358 -1.1546376e-05 -0.043207265 0.2790465 -0.044075932
-0.012893904 0.20724809 -0.09206672 0.10998079 -0.11517709 0.33265623 -0.14325769 -0.116960004
0.039350968 -0.114112206 0.09259673 -0.15995882 0.3712898 0.0017792628 -0.4094549 -0.26627782
-0.08994923 0.026568118 -0.018396027 0.0006701519 0.16593458 0.10088664 0.014079189 0.06797793
-0.42370796 0.20335872 -0.23060204 0.04975911 -1.0732114e-06 -0.0060536326 0.032603465 -0.35648447
0.19109951 -0.00091949385 0.015711349 0.00018168463 -0.30236953 0.078419305 6.1522946e-11 -0.07227754
-0.29219112 -0.17480907 -0.25558951 -2.4108664e-05 0.08347317 0.100631624 0.0001928018 0.3483941
-0.0013994208 -0.09706621 0.124267556 -0.14573999 -0.25223374 0.09163223 -0.21006906 -0.15767555
-0.1607787 -0.050984588 0.2395559 -0.09584103 -2.3822774e-06 -0.15338342 -0.044186223 -0.093577035
-0.15727481 -0.13629718 -0.06855554 -0.18358047 -0.045908116 -0.12359701 0.24691449 0.37739378
-0.06660352 -0.004030634 0.27360722 0.08727967 0.28527647 -0.09048021 -0.028061109 -0.27026278
0.353787 -0.002835293 -0.4431998 0.029704932 -0.2634891 -0.11232772 0.28379023 -0.09538962
0.021087397 -0.09954137 0.0047496245 -0.024641642 -5.5451346e-06 0.1911567 -0.38862693 0.21399203
-0.3137093 0.0004941353 0.1703785 0.0015062158 0.19457437 0.16378607 -3.364319e-12 0.10257612
0.2208164 -0.06954491 -0.1685372 -9.291733e-06 -0.28864318 -0.06068858 4.2132404e-05 -0.3198342
-0.0728074 -0.11153051 0.37369803 0.27138332 -0.027939316 0.03522618 -0.1123772 -0.1951884
0.14405197 -0.04998909 -0.10694114 0.08187163 1.076271e-05 0.06054094 0.013893804 0.080617204
-0.019359145 0.30295053 0.10323633 0.05131671 0.028901715 0.07582132 0.009237059 0.0007354897
-0.14574589 -0.44254726 0.18321306 -0.032095302 0.20424068 -0.09919773 0.3759761 0.08607622
0.3719685 -0.18296961 -0.08720411 0.22669646 -0.3290927 -0.08308633 0.17750861 -0.41520327
-0.15975393 0.2224848 -0.13094945 0.24125189 4.185453e-06 -0.23015924 -0.22109172 -0.36047572
0.13271138 0.0003235917 0.11546792 -0.0005618817 -0.047333945 0.17499757 1.3436603e-11 -0.063747495
0.008354959 0.2021915 0.07201462 7.1649742e-06 -0.4237785 0.1404297 0.00034882137 0.27250823
-0.14937232 0.11520738 -0.1675544 0.16472307 0.35571817 0.12528951 -0.16050859 0.06788682
-0.074278146 -0.16922143 -0.14508985 -0.048435137 1.0028494e-05 -0.037959073 -0.42427483 -0.056219827
0.08650424 -0.18234092 -0.06633594 0.12626614 -0.50943804 -0.054444674 -0.21239848 -0.28733042
-0.23589769 0.10363133 -0.18871333 0.27350703 0.046337992 0.14581257 -0.05646002 -0.11822257
0.18546401 -0.36652133 -0.170041 -0.14978908 -0.29981682 0.24436982 0.08788074 -0.32594714
-0.034971714 0.074592896 -0.04084345 0.42844906 -8.560114e-06 0.14401472 0.13007714 0.00870217
00000000: 3462 803e d871 90ba 19e4 dbbd 3c16 563a
00000010: c758 4bbe a48a a43c 045a 5a2c 1b8d 59bd
00000020: 85dd 393e 83f6 bb3e d8ec 3dbd d7a9 95b7
00000030: 7c7a d9bd db27 e3be 2276 bcb7 bde2 4bbc
00000040: d8fa fd3e 12d0 71bd 941c ffbc 5ecd a43e
00000050: 579b ebbd 9748 96be d6c0 383e be2f fbbd
00000060: 4038 13be 4887 c93e 0e0f 9e3e 0393 7abd
00000070: 4fb7 41b7 1afa 30bd 2fdf 8e3e f788 34bd
00000080: f440 53bc d838 543e 7a8d bcbd 9c3d e13d
00000090: f7e1 ebbd eb51 aa3e 25b2 12be ba88 efbd
000000a0: 7b2e 213d a9b3 e9bd 5ba3 bd3d 3fcc 23be
000000b0: b219 be3e 2736 e93a 13a4 d1be 9155 88be
000000c0: 4d37 b8bd 62a5 d93c 44b3 96bc 22ad 2f3a
000000d0: c1ea 293e a89d ce3d 66ac 663c 0338 8b3d
000000e0: 40f0 d8be 453d 503e f122 6cbe 35d0 4b3d
000000f0: 430b 90b5 8d5d c6bb 368b 053d 2285 b6be
00000100: 97af 433e 300a 71ba 16b5 803c 9982 3e39
00000110: 2ed0 9abe 4d9a a03d 574a 872e 3f06 94bd
00000120: 139a 95be 2601 33be a1dc 82be f63c cab7
00000130: fbf3 aa3d f417 ce3d d72a 4a39 b660 b23e
00000140: c56c b7ba a6ca c6bd fd7f fe3d dd3c 15be
00000150: c824 81be aea9 bb3d 581c 57be b375 21be
00000160: 2ca3 24be 37d5 50bd 244e 753e 4d48 c4bd
00000170: 37df 1fb6 8b10 1dbe 9dfc 34bd 51a5 bfbd
00000180: a60c 21be 7d91 0bbe d966 8cbd 85fc 3bbe
00000190: 260a 3cbd 6e20 fdbd 27d7 7c3e c239 c13e
000001a0: 6d67 88bd 6913 84bb 3f16 8c3e afbf b23d
000001b0: c20f 923e b04d b9bd 69e0 e5bc e25f 8abe
000001c0: 9223 b53e 53d0 39bb 16eb e2be c257 f33c
000001d0: 0be8 86be 130c e6bd f44c 913e a25b c3bd
000001e0: 7abf ac3c 59dc cbbd bda2 9b3b 45dd c9bc
000001f0: 5810 bab6 95be 433e 1cfa c6be ba20 5b3e
00000200: 819e a0be dc88 013a b477 2e3e 376c c53a
00000210: 813e 473e 89b7 273e 2fbe 6cac 6e13 d23d
00000220: b21d 623e 906d 8ebd 0495 2cbe b0e3 1bb7
00000230: 0ac9 93be 9794 78bd 53b7 3038 4fc1 a3be
00000240: 0c1c 95bd 1c6a e4bd 5955 bf3e c1f2 8a3e
00000250: fee0 e4bc 5449 103d 0426 e6bd 78df 47be
00000260: 5c82 133e 5cc1 4cbd f503 dbbd 50ac a73d
00000270: 7d91 3437 c7f9 773d d6a2 633c a21a a53d
00000280: 1297 9ebc 551c 9b3e 926d d33d 7831 523d
00000290: 4ac3 ec3c 3548 9b3d 0957 173c e1cd 403a
000002a0: 693e 15be 8e95 e2be 349c 3b3e 5d76 03bd
000002b0: 7824 513e 2e28 cbbd f07f c03e bb48 b03d
000002c0: a872 be3e 635c 3bbe 1298 b2bd 1e23 683e
000002d0: d77e a8be 2a29 aabd d1c4 353e 8695 d4be
000002e0: 8996 23be 0ed3 633e 9d17 06be bc0a 773e
000002f0: c470 8c36 ddae 6bbe de65 62be 4690 b8be
00000300: 7ee5 073e bea7 a939 727a ec3d 3e4b 13ba
00000310: 3de1 41bd 9032 333e 1561 6c2d 0c8e 82bd
00000320: 3de3 083c 4a0b 4f3e 677c 933d a96a f036
00000330: 7ff9 d8be cecc 0f3e 03e2 b639 3386 8b3e
00000340: 0ff5 18be d9f1 eb3d 6193 2bbe 2aad 283e
00000350: b120 b63e e54b 003e 5d5c 24be 3f08 8b3d
00000360: 241f 98bd 6248 2dbe 6f92 14be ec63 46bd
00000370: 0e40 2837 f97a 1bbd 8d3a d9be c346 66bd
00000380: 2329 b13d 94b7 3abe 23db 87bd e94b 013e
00000390: 886a 02bf 6101 5fbd fd7e 59be f91c 93be
000003a0: 2a8f 71be aa3c d43d 113e 41be 1d09 8c3e
000003b0: e8cc 3d3d e44f 153e 9f42 67bd ad1e f2bd
000003c0: 47ea 3d3e afa8 bbbe 3a1f 2ebe 4f62 19be
000003d0: 9781 99be 153c 7a3e d1fa b33d 8be2 a6be
000003e0: 803e 0fbd 29c4 983d 764b 27bd ad5d db3e
000003f0: 699d 0fb7 9878 133e f132 053e 8c93 0e3c

encoder_lin.3.bias f4 [4]
-0.04997634 -0.090842456 0.011027013 -0.02733862
00000000: feb3 4cbd 9c0b babd a5aa 343c 3ef5 dfbc

decoder_lin.0.weight f4 [64, 4]
-0.29934308 -0.057714365 -0.11940025 -0.07471196 -0.15508081 0.20355117 -0.048116095 -0.23373021
0.00485842 0.08529638 0.23515835 0.39660665 0.049299695 -0.033823933 -0.22934356 -0.34892452
-0.20912854 -0.19706984 0.11100189 -0.021406192 0.43908876 -0.13143319 0.02927912 -0.101438455
-0.0070307455 0.3103489 -0.053199265 -0.18679425 0.33231175 -0.18800956 0.16177583 0.03944931
-0.05821985 -0.19479983 -0.04040909 0.080110304 -0.13741003 0.08335537 -0.054137424 -0.25300878
-0.11833486 0.18063863 0.25963214 -0.16296735 0.010462887 0.0345996 -0.0037159866 -0.011101002
0.10156087 -0.21447617 0.11958267 -0.21389198 -0.30533502 -0.15840922 0.02447164 0.03308618
0.006895314 0.03332659 -0.021392988 -0.014798037 0.32350254 -0.007286769 0.24726348 0.17765631
-0.015345374 -0.0053283176 0.2249214 0.4293481 0.010665251 0.0333279 -0.008999932 -0.007981879
-0.21065608 -0.09987623 -0.14726405 -0.18869908 0.0009721732 -0.14462842 0.0668651 0.3972225
-0.21010241 0.100534536 0.28550985 0.24933428 -0.00023635729 -0.02210455 0.34414914 -0.11739995
-0.18326138 -0.15357073 -0.1055587 0.077098235 0.26008612 0.026338702 -0.36635926 0.06006895
-0.062686786 -0.19010955 0.19217762 -0.22029538 -0.01598918 -0.16739888 -0.21290457 -0.32473725
0.05401425 -0.17867835 -0.36852393 0.0285975 -0.17257807 0.32653013 0.012881159 -0.12901406
-0.061864316 -0.082190804 0.25372168 -0.20911519 -0.051890448 0.29630995 -0.24239327 0.17953023
-0.05944149 -0.13677919 0.11500439 -0.16706683 0.33581352 -0.111752614 -0.19920674 -0.13863395
0.13416474 0.31008273 0.107064605 -0.24630243 -0.24099544 0.003186383 -0.10175461 -0.15901254
-0.13732089 0.26308957 0.30342042 0.2012068 0.20803322 0.14244288 0.1468539 -0.30292943
0.20940197 -0.077477604 -0.18754618 0.29830343 0.39831454 0.2522678 -0.0448074 -0.10179936
-0.30445856 0.20632626 0.13530688 0.28187677 -0.25116712 -0.20798051 -0.014011584 0.11207445
-0.15628491 0.0074272407 0.33382946 0.090014696 -0.20631465 0.311754 -0.11661086 0.22291641
-0.10561021 -0.2478754 -0.0656094 0.2544935 0.12187812 -0.23880367 0.002359251 0.14336048
0.29131415 -0.19345997 0.34648317 0.05099862 0.06708177 -0.18890776 -0.1684612 0.22068867
-0.13295257 -0.24885853 0.059975166 0.04448811 -0.12552023 -0.24084745 -0.07681572 -0.01729981
0.25537086 0.29509 -0.23733374 0.008958088 -0.33200145 0.07196859 -0.064803116 -0.04643772
-0.052421 -0.22241661 -0.15013467 0.14746422 -0.054164473 -0.23005481 0.060314827 -0.07500892
-0.40063596 0.20758092 -0.025236946 0.022343846 0.09514042 -0.18444474 0.33639973 -0.07873719
0.008240546 -0.2356889 -0.22670254 -0.24143647 -0.1347787 0.101281784 -0.40311453 0.08188324
0.0016135083 0.026571203 0.00388435 0.0010289014 -0.20848525 0.08439709 -0.38258553 -0.08237933
-0.07740695 0.14490883 0.15200931 -0.26976752 -0.38769263 0.029612504 -0.19889995 0.12830554
0.12323654 0.2716637 0.16731632 0.20053609 -0.15936582 -0.14582235 0.1724651 -0.14559011
0.2653544 -0.19645175 -0.013983606 -0.26938176 0.09175345 -0.26514253 -0.22946154 -0.14785746
00000000: 7f43 99be e665 6cbd 1e88 f4bd 9602 99bd
00000010: 81cd 1ebe b86f 503e 6215 45bd f956 6fbe
00000020: 6233 9f3b deaf ae3d 5acd 703e 0710 cb3e
00000030: 7aee 493d f78a 0abd 0ad9 6abe 3ca6 b2be
00000040: cb25 56be adcc 49be f554 e33d 0a5c afbc
00000050: 3ed0 e03e 6c96 06be c4da ef3c f7be cfbd
00000060: 2b62 e6bb 0de6 9e3e 79e7 59bd fe46 3fbe
00000070: c424 aa3e 9485 40be 90a8 253e 9a95 213d
00000080: f077 6ebd 9b79 47be 0184 25bd df10 a43d
00000090: 37b5 0cbe 38b6 aa3d 34bf 5dbd 5e8a 81be
000000a0: 8c59 f2bd 55f9 383e 81ee 843e eae0 26be
000000b0: 876c 2b3c 4fb8 0d3d e987 73bb fae0 35bc
000000c0: 25ff cf3d a49f 5bbe c2e7 f43d 8006 5bbe
000000d0: df54 9cbe 0736 22be c078 c83c 6085 073d
000000e0: 16f2 e13b 7681 083d 5940 afbc 7773 72bc
000000f0: 20a2 a53e d9c5 eebb a332 7d3e 89eb 353e
00000100: 2a6b 7bbc 2b99 aebb cc51 663e 84d3 db3e
00000110: 4ebd 2e3c d682 083d 7374 13bc 6dc6 02bc
00000120: 3ab6 57be e98b ccbd 63cc 16be 553a 41be
00000130: 70d9 7e3a 7919 14be 92f0 883d bf60 cb3e
00000140: 1625 57be 0de5 cd3d 592e 923e 7c51 7f3e
00000150: add6 77b9 9a14 b5bc 5134 b03e 636f f0bd
00000160: dfa8 3bbe a541 1dbe 292f d8bd aee5 9d3d
00000170: 022a 853e 43c4 d73c 7193 bbbe dc0a 763d
00000180: ee61 80bd 14ac 42be 36ca 443e 1d95 61be
00000190: befb 82bc 9d6a 2bbe a803 5abe f643 a6be
000001a0: 0c3e 5d3d 75f7 36be 2baf bcbe 4e45 ea3c
000001b0: 4eb8 30be f52e a73e 7f0b 533c 431c 04be
000001c0: 7065 7dbd a753 a8bd cfe7 813e 4b22 56be
000001d0: 148b 54bd f0b5 973e f135 78be c6d6 373e
000001e0: eb78 73bd d80f 0cbe 6c87 eb3d 9113 2bbe
000001f0: c0ef ab3e 8ede e4bd dafc 4bbe 0ff6 0dbe
00000200: 7b62 093e 2ac3 9e3e b044 db3d b436 7cbe
00000210: 82c7 76be a3d2 503b b964 d0bd 2fd4 22be
00000220: d99d 0cbe adb3 863e ec59 9b3e 2809 4e3e
00000230: a906 553e 8cdc 113e de60 163e 9119 9bbe
00000240: 786d 563e 94ac 9ebd 1b0c 40be 3abb 983e
00000250: e2ef cb3e 3f29 813e f787 37bd 2f7c d0bd
00000260: fee1 9bbe 3147 533e e38d 0a3e 2752 903e
00000270: fa98 80be d8f8 54be d890 65bc 4a87 e53d
00000280: 2709 20be 3660 f33b b2eb aa3e a059 b83d
00000290: 2644 53be 389e 9f3e add1 eebd 3344 643e
000002a0: 2a4a d8bd 0dd3 7dbe 395e 86bd f94c 823e
000002b0: 3c9b f93d f388 74be aa9d 1a3b 17cd 123e
000002c0: 2127 953e 5f1a 46be 3e66 b13e eee3 503d
000002d0: 2b62 893d 0971 41be 1881 2cbe 36fc 613e
000002e0: b824 08be c5d4 7ebe 85a8 753d 2a39 363d
000002f0: 6088 00be b7a0 76be 8f51 9dbd 55b8 8dbc
00000300: f8bf 823e 0916 973e 9e07 73be f2c4 123c
00000310: 18fc a9be 4564 933d 7fb7 84bd 7b35 3ebd
00000320: 67b7 56bd 2ec1 63be e7bc 19be dc00 173e
00000330: 91db 5dbd 7d93 6bbe ae0c 773d 479e 99bd
00000340: 2820 cdbe 1890 543e b6bd cebc 710a b73c
00000350: fbd8 c23d 15df 3cbe 963c ac3e f740 a1bd
00000360: 5b03 073c 6e58 71be b624 68be 1f3b 77be
00000370: 6d03 0abe d36c cf3d 0765 cebe 66b2 a73d
00000380: 5b7c d33a daab d93c 9490 7e3b 34dc 863a
00000390: 287d 55be 62d8 ac3d 40e2 c3be 7fb6 a8bd
000003a0: 8987 9ebd fb62 143e 54a8 1b3e f81e 8abe
000003b0: a67f c6be ec95 f23c 6eac 4bbe 8762 033e
000003c0: 7063 fc3d 8117 8b3e f854 2b3e 5559 4d3e
000003d0: cb30 23be 7452 15be b19a 303e 9315 15be
000003e0: 88dc 873e a62a 49be 7f1b 65bc 68ec 89be
000003f0: 3ce9 bb3d c3c0 87be f7f7 6abe f267 17be

decoder_lin.0.bias f4 [64]
0.055162996 0.010633854 -0.08692811 -0.011224009 0.1546962 0.13310012 -0.002091509 0.09068099
-0.062885284 -0.03066259 0.009348709 0.9714118 -0.09942658 0.14845274 0.99848264 -0.044080313
-0.0056777047 0.95267713 0.06075179 0.064631864 0.07883685 0.009474751 -0.042587504 -0.03674768
-0.030330427 0.12459557 -0.009343214 0.0031541463 -0.015944561 0.019233717 -0.18396348 0.015113549
0.024326216 0.03384936 0.017283043 -0.011522796 0.007835136 -0.0032310141 0.0068932083 0.07237368
0.003995892 -0.023551455 0.0593694 0.0368474 0.09623936 0.028917301 0.032141667 0.04993038
0.00021345261 -0.026128747 0.008730555 0.055559136 -0.012635975 0.038917985 0.076781146 -0.02009339
0.7236639 -0.07467745 0.006042346 0.035812948 -0.045177173 0.124630556 -0.029120034 0.020396758
00000000: 98f2 613d 9e39 2e3c 5d07 b2bd e8e4 37bc
00000010: ae68 1e3e 664b 083e b311 09bb f4b6 b93d
00000020: 00ca 80bd 1d30 fbbc 542b 193c 72ae 783f
00000030: 2aa0 cbbd ff03 183e 8f9c 7f3f 8f8d 34bd
00000040: 0a0c babb a6e2 733f ded6 783d b65d 843d
00000050: 3775 a13d fc3b 1b3c 3c70 2ebd bc84 16bd
00000060: 8477 f8bc f62b ff3d 4814 19bc cbb5 4e3b
00000070: 2b9e 82bc 0790 9d3c ec60 3cbe d29e 773c
00000080: c647 c73c a0a5 0a3d 2b95 8d3c 1cca 3cbc
00000090: f15e 003c 6cbf 53bb 6ce0 e13b a738 943d
000000a0: f9ef 823b fbee c0bc 542d 733d 4ded 163d
000000b0: 2419 c53d fae3 ec3c fba6 033d cc83 4c3d
000000c0: 40d2 5f39 f40b d6bc 9a0a 0f3c fa91 633d
000000d0: 1f07 4fbc 7768 1f3d 6f3f 9d3d e59a a4bc
000000e0: 0a42 393f 7ef0 98bd dffe c53b 99b0 123d
000000f0: b30b 39bd 4e3e ff3d 238d eebc 1a17 a73c

decoder_lin.3.weight f4 [288, 64]
-4.5271063e-05 -0.00026065257 -1.472579e-05 -0.00013060456 6.439612e-05 -5.3645384e-05 -0.00019259447 9.891037e-06
-5.2290638e-05 -5.270547e-05 -0.0001498625 -3.2587846e-05 -4.9551304e-06 4.010621e-05 -5.8334954e-05 -1.1498676e-05
-8.796893e-05 -7.151477e-05 2.185867e-05 1.6208144e-06 2.9777588e-05 1.6410475e-05 -2.8576143e-05 2.781002e-05
-6.894274e-05 -0.00028728333 -2.7522532e-05 -0.00045172937 -2.7078853e-05 -0.00010478498 6.6316046e-05 7.509703e-05
-0.00036240302 3.8181755e-05 3.64963e-05 -0.00014447681 -3.4211014e-05 -0.00015563403 0.00015163298 7.1690505e-05
-2.83666e-05 -0.0002621993 -4.6603753e-05 3.9103335e-05 -0.000114381044 -0.0001391188 9.1615766e-05 3.084473e-05
-0.00025184426 0.000100517405 -9.859595e-05 8.742089e-05 -0.00010838938 -5.805314e-05 -7.533549e-05 -1.1835313e-05
-3.3543794e-05 -1.150757e-06 -0.00028882406 -5.097573e-05 0.0001420332 -6.163093e-05 -0.00010561758 8.262925e-06
0.014765682 -0.026077153 0.05551747 -0.00094272365 0.0055921865 -0.011446286 -0.06585912 -0.01987687
0.0005127536 -0.002748807 0.04595605 -0.032819048 -0.026234869 0.016575212 -0.032466237 0.05947334
0.052045554 -0.03287042 0.017399047 0.03100605 0.040545005 0.028068805 0.024531912 0.052509576
-0.015628275 0.009718361 0.09264348 -0.043649808 0.0001243909 -0.023966368 -0.0048005204 0.041789595
-0.04334962 0.004591003 0.042553537 -0.018629476 0.04235143 0.010026446 -0.020139702 0.029940432
0.0612878 -0.03372444 0.0049446966 -0.0056900983 0.016407114 0.031047927 0.0070367665 0.0023972774
-0.005102617 0.009924261 0.0048242426 -0.010239384 -0.028108422 0.012091444 0.020779429 0.020791693
-0.021904137 0.035946667 0.00097574305 -0.022060841 0.0046503246 -0.013529386 -0.036986765 0.017463848
-0.0038067359 0.032309223 -0.0056112655 0.035043288 -0.04148684 -0.019735157 0.031631548 0.02556258
0.0072193705 0.03170713 -0.0024198878 -0.08210992 -0.043909874 -0.04357836 -0.07744153 0.0075758384
0.027565833 -0.07582817 -0.0038986462 0.063605 -0.035813753 -0.017439034 0.0058581717 0.07430663
-0.062133096 0.0030965805 0.05513882 0.0077087134 -0.030891996 0.04675119 -0.046291884 0.011309069
0.005023691 -0.001177205 -0.048595592 0.014018785 0.057113554 -0.002682504 -0.048344936 -0.009029831
-0.019219449 -0.006156279 0.041164234 0.020388853 0.04297752 0.04660653 -0.01771284 -0.029168
0.0692445 -0.0012907098 0.03606329 -0.04210685 -0.018252447 0.018478973 -0.005752517 0.08140957
-0.06548284 0.07937929 0.010661546 0.027935637 -0.026359389 -0.062069684 -0.022924209 -0.00155673
-0.002205799 0.02774729 -0.016385524 0.011158573 -0.014779625 -0.0020943205 0.024830665 0.0036257922
0.0013794141 0.022345945 0.026331482 -0.0034640145 -0.0075353263 -0.021884099 -0.0010635734 -0.004001167
-0.01666122 -0.0053988867 0.008349298 -0.0216181 -0.025967047 0.009356243 -0.00499367 0.0065596923
-0.011550917 0.0052747703 -0.0042113066 0.021846013 0.0060701794 -0.014489321 -0.008240513 0.0061692703
0.037682433 0.009650441 -0.023491224 0.025230546 -0.011320817 0.02123388 -0.046366937 -0.01866772
-0.0029307238 -0.031666186 -0.008762455 0.0077881906 0.0012378062 -0.004196147 -0.009201175 -0.009424088
0.012045902 6.4121545e-05 0.004066965 -0.016637387 -0.0028496133 0.0054663196 -0.002583547 0.006200675
-0.0057521807 0.012464838 0.032548144 -0.020417728 -0.019488594 -0.01292638 -0.0074276635 -0.0072329
00000000: 6fe1 3db8 32a8 88b9 c90e 77b7 e5f2 08b9
00000010: 670c 8738 4b01 61b8 2ff3 49b9 aef1 2537
00000020: a552 5bb8 1110 5db8 6924 1db9 efae 08b8
00000030: 3f44 a6b6 b737 2838 aeac 74b8 70ea 40b7
00000040: f67b b8b8 33fa 95b8 235d b737 c28a d935
00000050: e2ca f937 3aa9 8937 cdb6 efb7 9049 e937
00000060: 5a95 90b8 849e 96b9 30e0 e6b7 17d6 ecb9
00000070: 6527 e3b7 02c0 dbb8 2813 8b38 697d 9d38
00000080: e900 beb9 5925 2038 9b13 1938 b37e 17b9
00000090: cc7d 0fb8 b131 23b9 abff 1e39 8c58 9638
000000a0: cff4 edb7 cb77 89b9 6678 43b8 e302 2438
000000b0: dbdf efb8 6be0 11b9 d721 c038 475f 0138
000000c0: f709 84b9 dfcc d238 4cc5 ceb8 bc55 b738
000000d0: 1b4f e3b8 167e 73b8 6ffd 9db8 4890 46b7
000000e0: 60b1 0cb8 b673 9ab5 4f6d 97b9 c6ce 55b8
000000f0: bfee 1439 db3f 81b8 027f ddb8 fea0 0a37
00000100: c2eb 713c c19f d5bc 4966 633d 1d21 77ba
00000110: a93e b73b 3489 3bbc 25e1 86bd d1d4 a2bc
00000120: 506a 063a 5425 34bb 693c 3c3d 446d 06bd
00000130: 82ea d6bc bdc8 873c 51fb 04bd 519a 733d
00000140: b82d 553d 22a3 06bd 7288 8e3c 6600 fe3c
00000150: 8512 263d 8df0 e53c 26f7 c83c 4814 573d
00000160: de06 80bc c339 1f3c ddbb bd3d 24ca 32bd
00000170: ee6e 0239 1e55 c4bc af4d 9dbb 912b 2b3d
00000180: 5f8f 31bd 2070 963b 9e4c 2e3d d89c 98bc
00000190: b178 2d3d f645 243c 04fc a4bc a345 f53c
000001a0: eb08 7b3d a322 0abd 1f07 a23b 0174 babb
000001b0: 3668 863c 3958 fe3c ad94 e63b a41b 1d3b
000001c0: db33 a7bb 5e99 223c ae14 9e3b 17c3 27bc
000001d0: a243 e6bc 311b 463c 9f39 aa3c 5753 aa3c
000001e0: 4e70 b3bc d03c 133d 02c9 7f3a f0b8 b4bc
000001f0: c061 983b 5caa 5dbc 6f7f 17bd 5810 8f3c
00000200: 6e7a 79bb ad56 043d b5de b7bb 8d89 0f3d
00000210: 1bee 29bd a0ab a1bc 1590 013d 9e68 d13c
00000220: 7890 ec3b 56df 013d fb96 1ebb 3f29 a8bd
00000230: d7da 33bd 397f 32bd aa99 9ebd bd3e f83b
00000240: bed1 e13c cd4b 9bbd 6e80 7fbb 5743 823d
00000250: 71b1 12bd 4edc 8ebc e8f5 bf3b 132e 983d
00000260: 467f 7ebd 00f0 4a3b 3ed9 613d 6099 fc3b
00000270: 3611 fdbc 2d7e 3f3d 8f9c 3dbd ac49 393c
00000280: c69d a43b 724c 9aba 2c0c 47bd 0caf 653c
00000290: e7ef 693d f3cc 2fbb 5705 46bd dbf1 13bc
000002a0: 1b72 9dbc 9cba c9bb d49b 283d 8606 a73c
000002b0: 3209 303d 7de6 3e3d 851a 91bc bbf1 eebc
000002c0: 0fd0 8d3d 092d a9ba 1ab7 133d 3b78 2cbd
000002d0: 2886 95bc 3761 973c 9c7f bcbb 10ba a63d
000002e0: de1b 86bd 9c91 a23d c4ad 2e3c 47d9 e43c
000002f0: a5ef d7bc c83c 7ebd 8dcb bbbc 310b ccba
00000300: 2b8f 10bb 494e e33c ef3a 86bc 73d2 363c
00000310: 3e26 72bc de40 09bb ae69 cb3c b39e 6d3b
00000320: 75cd b43a d80e b73c 1fb5 d73c 8504 63bb
00000330: e6ea f6bb 4846 b3bc 9a67 8bba 391c 83bb
00000340: 1c7d 88bc 25e9 b0bb 7ecb 083c 7118 b1bc
00000350: d8b8 d4bc ed4a 193c f1a1 a3bb b0f2 d63b
00000360: 0f40 3dbc fbd7 ac3b 00ff 89bb 69f6 b23c
00000370: 5be8 c63b 9e64 6dbc 3703 07bc 9727 ca3b
00000380: e558 1a3d e21c 1e3c ab70 c0bc 4ab0 ce3c
00000390: f37a 39bc adf2 ad3c 42eb 3dbd 0ced 98bc
000003a0: 6311 40bb 67b4 01bd 6690 0fbc 1434 ff3b
000003b0: e23d a23a d57f 89bb 86c0 16bc 7d67 1abc
000003c0: 2d5c 453c fe78 8638 2d44 853b 214b 88bc
000003d0: 94c0 3abb d01e b33b ba50 29bb 082f cb3b
000003e0: ca7c bcbb 5239 4c3c 3451 053d 1443 a7bc
000003f0: 8ba6 9fbc 2bc9 53bc c263 f3bb f601 edbb
