Nicola_Dainese_Ex4_NN/params/gaussian_net_params_8.pth (torch_old, 203905 bytes, 19 tensors)

encoder_cnn.0.weight f4 [8, 1, 3, 3]
00000000: 76e4 4a3c 6fda 63bd 451a 69bd 1420 6dbd
00000010: d12c 1abe dcbe 17be 69c3 1fbd 9e68 01be
00000020: 8d64 e8bd 8c92 8f3e a79c e23e 7828 b33e
00000030: 76fc ea3e 612b 1b3f 3ebe e93e d892 be3e
00000040: 6884 e93e ad97 913e af4c 453c cd1a 80bd
00000050: abf4 80bd 04ed 84bd 669e 29be 179b 25be
00000060: f315 30bd 2141 0dbe 2fa3 fbbd e94a 9c3e
00000070: 0d98 003f c30c ce3e 964c 053f 1b43 343f
00000080: 122c 0a3f 24ea d63e 060a 083f e6e0 ad3e
00000090: 3412 433c da3b 82bd 95e8 82bd f08a 87bd
000000a0: b701 2cbe 4213 28be 70fd 35bd b900 10be
000000b0: 2cf8 ffbd 0574 9c3e d33a 003f 5a11 cd3e
000000c0: 3050 043f 5432 333f c1ae 093f 9edb d43e
000000d0: 9f26 073f 2446 ad3e 07c9 463c 6734 73bd
000000e0: e9d8 73bd 9789 7abd 51e8 21be 882a 1ebe
000000f0: d77b 25bd 51fa 06be e0bd f0bd fdab 9c3e
00000100: 7cba 003f d4f1 cd3e 5497 053f 2e95 343f
00000110: e3a7 0a3f 34ad d73e 408d 083f f7b5 ae3e
0.012383571 -0.055628236 -0.05690982 -0.05789192 -0.15056159 -0.14818901 -0.039004717 -0.12637565
-0.113473035 0.28041494 0.4426014 0.34991813 0.45895737 0.60613066 0.45652956 0.37221408
0.4560883 0.28436032 0.012042209 -0.06255112 -0.06296667 -0.0649052 -0.1656433 -0.16172443
-0.042989682 -0.13794376 -0.12286984 0.30525902 0.5023201 0.4024411 0.52069986 0.70414895
0.53973496 0.4197551 0.53140295 0.33960646 0.011906195 -0.06359072 -0.06392018 -0.06618297
-0.16797529 -0.16413596 -0.04443115 -0.14062776 -0.12498507 0.30557266 0.5008976 0.400523
0.51684856 0.6999867 0.5378228 0.41573805 0.52793306 0.33842576 0.01213289 -0.059376147
-0.059533034 -0.061166372 -0.15811278 -0.15445912 -0.040401306 -0.13181426 -0.11754966 0.30599967
0.5028455 0.40223563 0.52184033 0.7054013 0.54162425 0.4212433 0.5334053 0.34123203

encoder_cnn.0.bias f4 [8]
00000000: f26e 383f 81e2 853d 8ef9 4a3f 2544 22ba
00000010: ab89 4e3f 267f 38ba 8c04 413f 9a0a f93a
0.7204429 0.06537343 0.7928704 -0.0006189964 0.80678815 -0.00070379896 0.75397563 0.0019000352

encoder_cnn.3.weight f4 [16, 8, 3, 3]
00000000: 6056 253d 5534 893c bcac 4c3c 4887 e83b
00000010: cdb7 63bd cfdf 0bbd a1c8 9db8 2a4e 16bd
00000020: fad9 f5ba 8511 2cbd b980 39bc 8725 2b3d
00000030: cb7a 073d 6bff 983e f0dd 963e 3015 ac3d
00000040: 9a6b a03e 0205 433e 5e7f 3a3d 1d04 933c
00000050: bc95 843c 5749 0e3c 3ada 6ebd 87b1 14bd
00000060: e9d0 aa3a 76de 2abd 0811 37bb fb59 6abd
00000070: 2a56 92bc 15ad 273d 9e42 0c3d 51db b13e
00000080: 65c6 ab3e f949 bf3d 204c b83e 0ef0 5a3e
00000090: 1ad1 383d 2ec2 9e3c 9e0e 803c 9298 223c
000000a0: 3d82 6dbd e1d8 19bd df84 303b b320 29bd
000000b0: 0f1b 98b9 7d38 6bbd a4ba 8dbc 4d5e 253d
000000c0: dbf4 083d bbed b03e 1c5f aa3e b817 c13d
000000d0: 65f7 b43e 3257 5b3e 8105 333d 8e87 8f3c
000000e0: 1cc3 663c 1204 0e3c 4ac0 6abd 49b9 11bd
000000f0: a934 f53a a727 21bd ef94 39bb c2d2 78bd
00000100: 95db 8ebc b064 203d 4935 0e3d 4658 b23e
00000110: 0bf2 ac3e 8f48 be3d a881 b63e 6472 5c3e
00000120: c7af bb3d d03e bf3d 8677 bb3d 01c6 d33d
00000130: d7bf d93d c247 d73d 8557 cb3d de72 cd3d
00000140: 1c0b cd3d b963 3b3d f78c 8f3c a0fd c03a
00000150: c787 53bb a255 aabd 24d2 aabd d819 77bb
00000160: 544a 91bd 99bc 97bd 2112 ca3d 7963 d23d
00000170: 8f2c ca3d 5628 e73d 6595 ed3d 288a e93d
00000180: 7146 db3d 70b8 e23d e90c e03d 9ad8 2d3d
00000190: 3362 2d3c ac8f 0ebc aab7 6fbc 7111 d9bd
000001a0: 0d79 d4bd 4e1c 70bc 01eb bdbd 3c01 c5bd
000001b0: 9ef9 cd3d f268 d43d 853d ce3d 112f ea3d
000001c0: 6aaa f23d 9f75 ee3d 3cad dc3d c0e0 e53d
000001d0: c3bc e13d 568d 233d a97b 073c 7f9d 3cbc
000001e0: ab0b 7fbc f7bd d7bd 31ee d8bd b0fa 86bc
000001f0: 7add bdbd 1c81 c2bd e000 c13d 4b11 c83d
00000200: d522 c23d 91ed db3d 1720 e53d 372e e03d
00000210: a191 d23d 8be5 d83d b1ec d63d 312c 2b3d
00000220: 741b 0f3c b522 20bc dec7 7bbc a008 dcbd
00000230: 62a5 d5bd 4b12 85bc 577c bbbd 9a71 c6bd
00000240: 6358 c93d 386b c73d 0ad9 c13d 9ba3 d83d
00000250: 4452 d33d 8d65 d13d e38d b43d 40a4 b33d
00000260: 7e28 ac3d c16e f0bb c2b7 21bd f464 32bd
00000270: fb89 23bd eec3 b1bd cf27 adbd 1dbe 083d
00000280: fcc1 91bc ffd6 0bbc 2950 d83d 84d9 da3d
00000290: 2af3 d13d 7aa4 ec3d 4768 e53d 5ddf e33d
000002a0: 833a c43d 9903 c73d 50f3 bc3d 877f 9ebc
000002b0: 0e7b 62bd 223f 73bd 19d7 59bd fa54 dfbd
000002c0: 4a8b dbbd 4807 e23c 13a0 03bd 8543 a3bc
000002d0: 3096 db3d 74ab dc3d 114b d53d 3e29 ef3d
000002e0: 8073 eb3d 2d80 e83d f217 c43d 71c4 c93d
000002f0: e24e bd3d 4102 aabc 9caa 66bd 6770 79bd
00000300: b60e 5fbd b932 e0bd c647 debd 6b4d d63c
00000310: e2f6 f4bc ceed aabc f750 cf3d 2192 d03d
00000320: fe5c c93d 6229 e13d 2609 de3d d6d1 d93d
00000330: ba9c bb3d cb5e be3d 3a45 b43d 97fc 9cbc
00000340: d072 60bd 4beb 76bd 26ce 64bd 2c2a e5bd
00000350: 10cd debd 4e7a d93c e53c f7bc 29d9 adbc
00000360: 0366 03bd 380b 1abd 6985 5e3a 0b15 24bd
00000370: 29e1 93bc 139a 6f3c ee3d 1a3c c5fd 0f3d
00000380: 88c9 dc3c 7c3e 5d3e f028 923e eef6 f43d
00000390: 563d 8b3e 6a4d 723e 9146 4d3d 8591 403d
000003a0: f8e9 30bd 9335 85bd 24b4 05bd e223 27bd
000003b0: 3e89 a43a c6ae 28bd 34bd 94bc a524 7e3c
000003c0: 2b94 043c 5b03 153d d8d0 f13c 458f 7d3e
000003d0: 5119 a63e d2e0 073e 0ef1 9b3e 18f7 863e
000003e0: c2dc 4f3d 97da 563d a277 51bd b59e 96bd
000003f0: 65b4 febc 4969 28bd 5c08 393b 1398 2cbd
0.040365577 0.016748587 0.012492355 0.007096205 -0.055595208 -0.034148987 -7.5237134e-05 -0.036695637
-0.0018756979 -0.042008895 -0.011322194 0.041783836 0.03307609 0.29882368 0.294662 0.08402479
0.31332093 0.19044879 0.045531623 0.017946297 0.01618468 0.008684478 -0.058313586 -0.036302116
0.0013032231 -0.04171606 -0.0027933735 -0.05721472 -0.017863352 0.04093655 0.03424322 0.34737638
0.335498 0.09340281 0.3599558 0.21380636 0.04512129 0.019379701 0.01563197 0.009924071
-0.057985533 -0.037560347 0.0026934666 -0.04129095 -0.0002901186 -0.05742692 -0.017300911 0.040373135
0.033436637 0.34556374 0.33275688 0.09428352 0.35344997 0.21419981 0.04370642 0.017520692
0.014084604 0.008667963 -0.057312287 -0.035577092 0.001870771 -0.039344456 -0.002831753 -0.06074787
-0.01743869 0.039158523 0.034718785 0.34832972 0.33778414 0.09291183 0.35645795 0.21528012
0.09164386 0.093381524 0.09153657 0.103405006 0.10632294 0.105117336 0.099288024 0.10031675
0.100118846 0.0457494 0.017523272 0.0014724024 -0.0032276975 -0.083171144 -0.083408624 -0.0037704613
-0.07094255 -0.07409019 0.09866739 0.10272879 0.0987178 0.1128699 0.1160076 0.11403304
0.10706795 0.11070335 0.109399624 0.042442895 0.010582495 -0.008701246 -0.014631191 -0.1059903
-0.10374651 -0.014655186 -0.09273339 -0.09619376 0.10057376 0.10371579 0.10070328 0.114347585
0.1184891 0.11643528 0.10775229 0.11224508 0.110223316 0.03992971 0.008269229 -0.011512159
-0.015566747 -0.1053428 -0.105923064 -0.016476959 -0.09270759 -0.09497282 0.09423995 0.09768923
0.094793 0.107386716 0.11187761 0.10946315 0.10281683 0.10590657 0.10494364 0.04179019
0.008734573 -0.0097739 -0.015367476 -0.107438326 -0.10431935 -0.016244074 -0.09154575 -0.096896365
0.098313116 0.09737247 0.09465225 0.1057808 0.10318425 0.102244474 0.08816125 0.087715626
0.08406161 -0.0073374216 -0.039481886 -0.043553308 -0.03992651 -0.08679949 -0.084548585 0.03338443
-0.017792694 -0.008535146 0.10562164 0.10686019 0.10251458 0.11554809 0.1120153 0.111265875
0.09581473 0.09717483 0.09226096 -0.01934792 -0.055293135 -0.05938638 -0.05318365 -0.1090488
-0.10719927 0.027591363 -0.03213508 -0.019929657 0.10722005 0.107748896 0.104147084 0.11677788
0.11496639 0.113525726 0.0957488 0.09851921 0.09243561 -0.020753028 -0.05631505 -0.06089821
-0.05445739 -0.109471746 -0.108535334 0.026159963 -0.02990288 -0.020865347 0.10122865 0.10184122
0.0983219 0.10994221 0.10841589 0.10635726 0.091607526 0.09295424 0.088022664 -0.019163413
-0.054796994 -0.060282987 -0.05586066 -0.11189684 -0.10878956 0.026547577 -0.030180404 -0.021221714
-0.032079708 -0.037608355 0.00084885076 -0.04005913 -0.0180517 0.0146241365 0.009414179 0.035154123
0.026951566 0.21605867 0.28546858 0.119611606 0.27195233 0.23662344 0.050116125 0.04701378
-0.04319188 -0.06504359 -0.0326425 -0.040805705 0.0012553108 -0.041182302 -0.018156625 0.015511666
0.008091967 0.036380153 0.02951853 0.24761684 0.3244119 0.13269356 0.30457348 0.26360393
0.05074764 0.052454557 -0.05113948 -0.0735449 -0.031091878 -0.041116033 0.0028233742 -0.042137217

encoder_cnn.3.bias f4 [16]
00000000: 7563 da3c 90fe 0c3e fde2 083e bb94 b83c
00000010: b0b0 033e 1bf7 c83c 1723 053e b5fe 043e
00000020: 1d34 0a3e 537c 123e 1a82 023e 7e52 00ba
00000030: b288 e2ba 0053 953d 33d0 cd3c f5b2 1e3e
0.026658753 0.13768983 0.13367839 0.022531858 0.1286037 0.024531892 0.13001667 0.12987788
0.13496442 0.14305238 0.12744942 -0.0004895105 -0.001728317 0.072912216 0.025123691 0.15497954

encoder_cnn.6.weight f4 [32, 16, 3, 3]
00000000: 16a6 d2bd 9c38 ffbd 41a4 0f3c 1cc2 d6bd
00000010: 2338 54bd d93c f4bc fe73 27bd 7b92 64bc
00000020: 4b86 55be 23b3 b13d 516b ac3d f0c8 ec3b
00000030: e937 be3d 3d37 513d 01f5 63bb fc15 853c
00000040: ff57 2cbc d56a 833d f93e 743d 9d24 6f3d
00000050: 554a c73b 871b dc3d 4992 ce3d 542d e43b
00000060: b5cb 923c 0cfd e5bc 8c53 123d 7ebc e93a
00000070: 6584 82bb d4a1 a03c 6e19 a7bd 03bc 38be
00000080: 32d1 26bc 8a12 e93b 15ba 623d e114 ccba
00000090: c467 d53d 97f8 8e3d cc48 453b 8859 d33d
000000a0: 330e 093d 8b12 33ba 2f26 733c 397d e1bb
000000b0: 7829 953d f705 43bd 8e37 cdbd 314e a2ba
000000c0: 4966 a6bd c836 10be 3f9f 01bc 43c8 0bbd
000000d0: 405c 403d a7bb eebd 7a82 c93d 3d73 ac3d
000000e0: 5f2a a33c bc69 4a3d 50b6 34bc 1553 153d
000000f0: 85f8 193d 862f 853d 2716 e93d 8996 5d3d
00000100: 9090 1b3d 1f90 81ba e554 eb3d 1486 dd3d
00000110: e6e2 923c f287 cf3c d7f7 d9bc fe04 973c
00000120: edce 783d 59a2 9c3d bf17 363c beb9 b63d
00000130: 7bd6 983d e824 09bc 0241 3a3c 244d d9bc
00000140: 2417 4a3d 42ec b43d f72f d23d e0d4 ab3c
00000150: aba2 a43d 7bbd 3f3d 0679 863b e9b1 0b3d
00000160: c80b 413b e499 983d 3df4 d13d d94d 983d
00000170: f927 2a3c 5e7e 9d3d aa22 893b 4295 b03c
00000180: 560b b13c 732b 1d3d 3b43 d03d a638 e7b9
00000190: 3ec6 14ba 02c3 18ba 9a50 a2b9 bf25 a8b9
000001a0: 4ad0 1db9 658f 3fb9 2439 d0b8 d0f5 d0b8
000001b0: b6cf 3cba 077f fcb9 851b 08ba d6d5 78b9
000001c0: a63f ddb9 96c8 beb8 a6e9 37ba e8ac 1aba
000001d0: 9002 9bb9 031a 8c3d b6b6 f6bc b2e3 ecbc
000001e0: 97f7 ed3d 3d49 a23c c863 673c dade 4bbc
000001f0: 72eb 29bd 4ee6 ee3b 8fcd aebc 10cf cdbc
00000200: d1c1 ec3c 5718 d1bd 218d 49be 1b39 96bc
00000210: 8f87 dfbb 589e 733d fe25 68bd 7f42 993d
00000220: 88fd e63d 6ac8 613d 1e19 5e3d ffbb 4c3d
00000230: 990f 263d c38d 823d edfb 173d 3bc5 c03d
00000240: 3bd7 e93c f97b e03d 7f2b dd3d aa28 423c
00000250: 43f5 cebd 2ca7 16be 65a9 b2bc aeb2 a4bd
00000260: f233 c0bd 0df6 0fbd cc72 65bd 605c 30bd
00000270: de59 b03c 5dfe 443d 98a1 703d d4c0 a83c
00000280: 28f9 d73c 6836 223d 630b f7bc 3a51 40bd
00000290: 676d 3abd b005 28bb 9bb3 1b3b b3ad 183d
000002a0: cf86 ac3c be2b 783d 7289 523d b669 353d
000002b0: 2d82 2bbc 0d57 bc3d af39 e4bc 0c29 8d3d
000002c0: 7c21 b53a 6263 7d3c 2963 22be 6b21 e5bd
000002d0: 7ffe 1dbd 7da2 56bd 4d2c 0bbd 1320 803c
000002e0: fdcb 343d 58d6 5c3d 5b58 1a3d 2984 373c
000002f0: c4ee e43c 3f6c 173d 561c 143d 0f22 1f3e
00000300: 8fca 833c a165 c9bb 4a63 e7bd cb9d 853c
00000310: c94c e0bd c19e a6bd 2459 d23b 55c8 67bd
00000320: 4f12 323c 35fe 043d f0ac a83d 8376 203d
00000330: 60c4 3d3b 49ec 05bd 6d19 ca3b ea48 d0bc
00000340: 9359 dbbc 72db f5bc 1932 06bc b86f f1bc
00000350: 9b27 0f3c 3138 103d 0741 973d 44ca 373d
00000360: c106 f3bc 9bbf 4dbd ecae 45bd aa50 183c
00000370: d5c3 fa3c b522 5f3d bf26 eb3b a09d 493d
00000380: 59bd 453d eaac e2bc 77bf 7ebd 002d 14bd
00000390: 68bf c33c d309 853d 895f 7e3d c522 bfba
000003a0: 2fcf 013c dc4b e23c b580 43bc da0c 67bd
000003b0: cf29 a9ba 2d16 ca3c e9b7 8a3d 4601 303d
000003c0: b1f9 c93c f9c6 79bc 738c 923c 67df 4aba
000003d0: decf 60b9 dded 05ba e229 1d3a b670 2eba
000003e0: 75df 09ba d620 b439 1ac3 433a 8caa 5a3a
000003f0: 2111 c1ba 476c 3bba 57d1 82ba 46cb bfba
-0.10285585 -0.12461969 0.0087671885 -0.10486242 -0.05181135 -0.02981417 -0.040882103 -0.013950939
-0.2085201 0.08676746 0.084189065 0.007226102 0.09288008 0.05107807 -0.0034783485 0.016245835
-0.010519027 0.06416861 0.059630368 0.058384527 0.006081859 0.10747438 0.100864954 0.0069634113
0.0179194 -0.028074764 0.035724208 0.0017832664 -0.003983068 0.019608416 -0.08159147 -0.18040471
-0.010181712 0.0071128057 0.055353243 -0.0015570187 0.10420182 0.069810085 0.0030103205 0.10319811
0.033460807 -0.0006831071 0.014840647 -0.006881383 0.072833 -0.04761311 -0.10020362 -0.0012382922
-0.08124978 -0.14083397 -0.007911502 -0.03412653 0.046962976 -0.116568856 0.098393396 0.084204175
0.019917665 0.049417242 -0.011029795 0.036456186 0.037590522 0.06503205 0.11381178 0.05409864
0.037979662 -0.000988487 0.11490802 0.10816589 0.01793046 0.025333378 -0.026607437 0.018434998
0.060744215 0.07648153 0.01111406 0.08922146 0.07462784 -0.008370616 0.011368038 -0.026526041
0.049338475 0.08834125 0.10263055 0.02097553 0.08038839 0.046811562 0.0041037826 0.034105215
0.0029456485 0.07451227 0.10251663 0.07436723 0.010385507 0.07690118 0.0041850405 0.021555547
0.02161185 0.038371515 0.10169073 -0.0004410196 -0.00056752923 -0.0005827398 -0.000309591 -0.0003207158
-0.0001505028 -0.00018268598 -9.928856e-05 -9.963999e-05 -0.0007202582 -0.00048159828 -0.0005192089 -0.00023730783
-0.00042199827 -9.097268e-05 -0.00070157123 -0.0005900399 -0.00029565813 0.06840899 -0.03011642 -0.028917167
0.1161949 0.019810313 0.014122911 -0.012443269 -0.041484304 0.007290638 -0.021338252 -0.02512315
0.028901013 -0.102097206 -0.19682743 -0.018337777 -0.0068215798 0.05947718 -0.056676857 0.07483386
0.11278826 0.05512277 0.054223172 0.049983975 0.04054222 0.06374695 0.03710549 0.09412619
0.028545013 0.10961146 0.10799312 0.011850515 -0.10105374 -0.14712209 -0.02180929 -0.08041893
-0.09384908 -0.03514676 -0.056017682 -0.043056846 0.021527227 0.048094142 0.058747858 0.02059976
0.026363924 0.039602667 -0.030156797 -0.046952464 -0.04551449 -0.0025638156 0.0023758176 0.037275027
0.021060375 0.06058859 0.05140061 0.044290267 -0.010468048 0.09196291 -0.027859537 0.06892595
0.0013819183 0.015465589 -0.15858139 -0.111880146 -0.038572785 -0.052401055 -0.033977795 0.015640294
0.04413985 0.05391535 0.03768192 0.011200943 0.027945884 0.036968466 0.036159836 0.15540336
0.016087798 -0.0061461483 -0.11298235 0.016310593 -0.109521456 -0.08135749 0.006419318 -0.056587536
0.010868623 0.032468993 0.0823611 0.03917552 0.002895616 -0.032696042 0.006167582 -0.025425393
-0.02677611 -0.030011866 -0.008190655 -0.029472217 0.00873747 0.03520984 0.0738545 0.04487063
-0.029666306 -0.050231557 -0.04826252 0.009296576 0.030610958 0.05447646 0.0071762498 0.04922259
0.04827628 -0.027670342 -0.062194314 -0.036175728 0.02389498 0.064960144 0.06210283 -0.0014582506
0.007922932 0.027624063 -0.011932542 -0.05640874 -0.0012906137 0.024668777 0.06773359 0.042969964
0.024655195 -0.015245193 0.017889237 -0.0007738978 -0.00021439741 -0.0005108992 0.0005995316 -0.00066543685
-0.0005259433 0.0003435674 0.0007467732 0.00083414535 -0.0014729836 -0.00071496185 -0.0009980601 -0.0014632724

encoder_cnn.6.bias f4 [32]
00000000: 4c38 c33c 0d67 e13a 2156 c83c 3597 223a
00000010: 19f3 97ba 5501 4cba f9ae 893c 6802 c23b
00000020: df1d c83c 13f1 823a e137 963c 28ec aebb
00000030: 7630 8ab8 e1d6 1c3d c18a 913c 9ec7 6d3c
00000040: 8d48 343a 5ac1 823c 6bcd 7d3c 1191 cd3b
00000050: d833 933c 0f8a 3b3c b3f3 893b 01a3 933b
00000060: d572 d6b7 8b58 f7ba ce60 c53a f1cc 8a3c
00000070: fda9 9f3c 4118 d93c 711c 0c3c 06ad 68b6
0.023830555 0.0017196849 0.024455132 0.0006202341 -0.0011592834 -0.0007782181 0.016807066 0.005920697
0.024428306 0.0009990059 0.018337192 -0.0053382106 -6.589379e-05 0.038290862 0.017766358 0.0145129245
0.0006877266 0.015961338 0.01549087 0.006273397 0.017969057 0.01144649 0.0042099594 0.0045055156
-2.556426e-05 -0.0018870992 0.0015058757 0.016943427 0.019490236 0.026500823 0.008551703 -3.4671407e-06

encoder_lin.0.weight f4 [64, 288]
00000000: 12fa c4ba 60d7 34ba 6fca e3ba 41c8 e5ba
00000010: 76fe c2b8 4f0f 8bb9 c9f9 11bb 558a 93b9
00000020: 989a eeb9 33d6 34b9 8cda 5eb5 f13b 24b9
00000030: b027 a5b9 64f8 90b9 2406 d3b9 6efc e2b9
00000040: 693d c1b9 f0c1 67ba 5e24 1ebb 8a8b 19b9
00000050: ee7e 93b9 f39e 05bb d733 43b9 49e3 04b9
00000060: 9b08 1fbb aba5 d3b9 581a 69ba 54af 06ba
00000070: ca77 a8ba ecb5 a2b9 6758 deb9 a216 0dba
00000080: 74b9 b3b9 6e13 34b9 f7d7 89b9 e5dc 56b9
00000090: 5662 97a3 f267 bf27 1e86 5a28 307e 3fa5
000000a0: 966b 0224 3031 a629 86a8 0524 491c 32a3
000000b0: f56f dd27 89e9 69b8 8b14 b8ba 1ec3 07ba
000000c0: 7acc e6b9 02e6 09ba d156 83b9 7a0d 8db9
000000d0: 7d62 4cba 0430 8eb7 d84f 16ba 96c7 2bb8
000000e0: 1ec4 89ba 0c30 feb9 71b9 d7b8 b34d 04ba
000000f0: 51b0 35ba e309 94b9 61bc 23ba bb14 ba3a
00000100: 7dcc 1238 a390 c937 96a4 fe39 845a 913a
00000110: ea5f 4738 a317 72ba edb3 19ba ad23 053a
00000120: f16e 06bb 3909 2eb8 d13f aeba fa55 87ba
00000130: 6bcb 16b9 683c 82ba 642f cfba b7fb 4cb8
00000140: 041a 01bb 4c2f 0bb8 5f02 39ba a1ef ebb8
00000150: bff6 98b9 36bd ffb9 b2c5 05ba e844 84b9
00000160: b934 7bba 54b7 cdb9 e843 43ba 5cab 6337
00000170: 200f aeb9 66e8 1fba 2fdc 26b8 ca7f 81b9
00000180: fc92 67ba d0f3 fdb8 b86a 93ba afac 1bb9
00000190: d237 eeb8 213e 1bba f086 47b8 b131 01ba
000001a0: 33dd 67ba 3ed0 c3b7 266b 21b9 caa9 60ba
000001b0: a896 df30 bd44 5934 506b 8eb0 b0ee e02f
000001c0: ba3b bb2b 02bc f130 5dce 3caf e8d5 45a7
000001d0: a07b 1e39 5cc6 3cbb 6c48 87b8 34c5 1cbb
000001e0: 2c26 41bb b26d 4bb9 0840 75ba 7e2b 7ebb
000001f0: 0e0c 65ba 5936 20bb 27e5 20bb 1612 0cb9
00000200: f504 61ba 0514 16bb 92b6 6db9 1aa2 e2b9
00000210: ffff 22bb 663d 84b9 8d65 82ba dad5 acba
00000220: 3991 60b9 9eb5 37ba 2ca4 1cba 5474 7bb9
00000230: a2f6 c5b9 0d51 38ba d6d6 86b8 05d2 3eba
00000240: eb1a aab8 414f 05ba cdf0 afb9 dcac 24b9
00000250: 22a7 80b9 54e0 beb9 fc94 2bb9 6da4 3fba
00000260: a0b5 3bba 7943 02bb 94cb ff38 75cb 4439
00000270: c874 1dbb b814 0dba 53ab 83b8 f378 0dbb
00000280: 9000 13ba afd4 8aba 59ee eaba 6bd6 35b9
00000290: 9323 81b9 1e11 79ba fa70 80b8 1c8e 26b9
000002a0: dc68 9cba 4bca 11b8 fec3 39ba 7dfc 8fba
000002b0: be81 97ba 5b98 96ba 555e cdb9 712a f2b8
000002c0: dbe1 04ba 11cf 0cba b559 03b9 7a8a 0fba
000002d0: 01f8 d4ba c23f 60ba ccca 8cba 721d a0ba
000002e0: 8dcb 8ab9 2a58 b0b9 196a b7ba df74 32b9
000002f0: b9e4 c9b9 2a8c 59b9 c65e 83b9 02de 49ba
00000300: 626c e6b9 e24e 4bb9 1a55 42b9 ca29 3cba
00000310: 127b 49ba d573 42b9 6749 82ba 1643 05ba
00000320: e17d e3b7 5421 ccba 25ac 66ba 9b89 17b9
00000330: a7ac 9fba 75fa 3fba b78b 59b9 9846 0bb9
00000340: 0336 8e3a bd43 11ba 27a3 7c3a 8249 1cbb
00000350: 6ad3 403a 7f17 ce3a 8792 56bb c3a0 09ba
00000360: 047d 6e33 15f7 8034 aef4 3931 0192 5233
00000370: 90fc d133 e20e 0033 97ca f432 df18 dd33
00000380: 9474 2331 248e 33b8 aa5d 69ba f2bd 65ba
00000390: c7eb f235 46a6 d3b9 dc6d 7dba a3a6 82b6
000003a0: 8554 81b9 f222 fdb9 cce4 9ab8 55e7 84ba
000003b0: 0ef7 05b9 9308 2bb8 e96e bab9 2874 02ba
000003c0: 73cf e9b8 2fc4 2bba d8b6 6fb9 72e9 a0ba
000003d0: 6a87 25b9 6998 0bb9 9574 89ba 9a8e e7b8
000003e0: 8dcd 9bb8 603e abba fb5d 3fb9 fd8c 95b9
000003f0: dcf8 c7ba c09d 39ba 033a 84ba ca36 02ba
-0.001502814 -0.00068985485 -0.0017379055 -0.0017530994 -9.298038e-05 -0.00026523552 -0.0022274128 -0.0002814109
-0.0004551008 -0.00017245933 -8.301947e-07 -0.00015662589 -0.00031500822 -0.00027650886 -0.0004024963 -0.00043294154
-0.00036857583 -0.00088408496 -0.0024130563 -0.000146432 -0.00028132595 -0.002038893 -0.00018615961 -0.00012673171
-0.0024266604 -0.00040368488 -0.000889217 -0.000513782 -0.0012853083 -0.0003103459 -0.00042409005 -0.00053820957
-0.00034279714 -0.00017173376 -0.00026291583 -0.0002049092 -1.64131e-17 5.3125847e-15 1.2130513e-14 -1.6609363e-16
2.8280385e-17 7.3804136e-14 2.8982523e-17 -9.655389e-18 6.1461206e-15 -5.5769025e-05 -0.0014044208 -0.0005178916
-0.00044021365 -0.0005260409 -0.0002505095 -0.00026903657 -0.00077966583 -1.6950078e-05 -0.00057339435 -4.0955456e-05
-0.0010510718 -0.00048482453 -0.0001028654 -0.00050469785 -0.0006930875 -0.00028236126 -0.0006246027 0.0014196852
3.4999557e-05 2.4028419e-05 0.0004856928 0.0011089598 4.7534624e-05 -0.00092350895 -0.0005863298 0.00050788635
-0.0020512904 -4.1493422e-05 -0.0013294165 -0.0010325306 -0.00014380894 -0.0009936215 -0.001580697 -4.8871818e-05
-0.0019699344 -3.318423e-05 -0.0007057543 -0.000112503076 -0.0002917554 -0.00048778363 -0.0005103006 -0.0002522834
-0.00095827464 -0.00039237237 -0.00074487785 1.3570152e-05 -0.00033199135 -0.0006099999 -3.9782546e-05 -0.00024700008
-0.0008833853 -0.00012109394 -0.0011247015 -0.00014846282 -0.00011359122 -0.00059220387 -4.7570968e-05 -0.0004928364
-0.0008844912 -2.3342782e-05 -0.00015394072 -0.00085702224 1.6268205e-09 2.0234707e-07 -1.036236e-09 4.091496e-10
1.3303727e-12 1.7588493e-09 -1.7171815e-10 -2.74552e-15 0.00015114108 -0.0028804755 -6.450791e-05 -0.0023921253
-0.0029472215 -0.00019400453 -0.00093555497 -0.0038783248 -0.0008737453 -0.0024446456 -0.0024550648 -0.00013358178
-0.00085838075 -0.0022900116 -0.00022670094 -0.00043226854 -0.0024871824 -0.00025222747 -0.0009948477 -0.0013186291
-0.00021416404 -0.0007007959 -0.0005975391 -0.00023980561 -0.00037758524 -0.00070311205 -6.429634e-05 -0.000727922
-8.1112456e-05 -0.0005085357 -0.00033558012 -0.00015704654 -0.00024538586 -0.00036406762 -0.00016363332 -0.0007310573
-0.0007160548 -0.0019876643 0.00012197267 0.0001876781 -0.0024025906 -0.00053818105 -6.2784784e-05 -0.0021586984
-0.0005607689 -0.0010591949 -0.0017923816 -0.00017341382 -0.00024631302 -0.0009501147 -6.124559e-05 -0.00015883934
-0.0011933106 -3.4759094e-05 -0.0007086395 -0.0010985282 -0.0011559052 -0.0011489497 -0.0003917093 -0.000115473646
-0.00050690555 -0.00053714315 -0.00012526552 -0.00054756517 -0.0016248227 -0.00085544225 -0.001074159 -0.0012215807
-0.00026473068 -0.00033635023 -0.0013993412 -0.0001701894 -0.0003850812 -0.00020746948 -0.0002505688 -0.0007700623
-0.0004394977 -0.00019388975 -0.00018532985 -0.0007177858 -0.00076858804 -0.00018544433 -0.0009940088 -0.0005083544
-2.7119126e-05 -0.0015573897 -0.0008799455 -0.00014451744 -0.0012182192 -0.0007323393 -0.0002074678 -0.00013282371
0.0010849837 -0.0005541405 0.00096373487 -0.0023847525 0.0007355722 0.0015723555 -0.0032741146 -0.00052500906
5.5527394e-08 2.4021634e-07 2.7060127e-09 4.9027225e-08 9.778262e-08 2.981586e-08 2.8497466e-08 1.02956385e-07
2.3785889e-09 -4.2809304e-05 -0.00089022017 -0.0008763961 1.8099025e-06 -0.0004036894 -0.00096675544 -3.893701e-06
-0.0002466777 -0.00048281957 -7.385909e-05 -0.0010139743 -0.00012775903 -4.0777562e-05 -0.0003555932 -0.0004976415
-0.00011148946 -0.0006552366 -0.00022860931 -0.0012276603 -0.00015786072 -0.0001331285 -0.0010487015 -0.000110415
-7.429263e-05 -0.0013064854 -0.0001825019 -0.0002852454 -0.0015256661 -0.00070806965 -0.001008809 -0.00049672707

encoder_lin.0.bias f4 [64]
00000000: 08c8 14b9 2cd0 93b7 4719 6d3a 9db5 863b
00000010: 5f7f dd3a 4472 32b8 3695 4a3b e222 063c
00000020: 49af 033c 7b09 c5ba e584 8e3b ed20 3dba
00000030: 05ce d73b 985f 053c e8de 35b6 609b d5b9
00000040: f04d 2c3c e006 4cb2 1838 033c 8fd5 ba3b
00000050: 3693 2f39 b884 52ba 9984 37bb 379a 6fb9
00000060: 6ba7 8c3b b250 543a c78c e63b a99e 133c
00000070: 10e7 1cb8 aadb e63b a94c 08b3 65ab b6b8
00000080: baba 15b3 4a89 24bb 109d 493a ea99 e03b
00000090: d200 8c3a 595e 9db0 4c5b dcb1 9186 ca3a
000000a0: 55bd 0037 ee13 bd3b 6283 d03b 8767 6137
000000b0: 3ba1 2b3c 6aee 0f3c 37a4 283c c44e 8f3b
000000c0: 3b27 193c adae 9eb7 be2e 63b8 8a47 7b36
000000d0: 8a13 1d3b 79ef 163c 707a 13bb d0c3 9d3b
000000e0: 5bd7 7cb1 47f0 0fb9 727c a73b 918e 7cb9
000000f0: ffaa 01b7 2a34 0f3c cfaa 153a 37a3 6bb6
-0.00014188897 -1.7620703e-05 0.0009044599 0.0041110055 0.0016898921 -4.2544925e-05 0.003091169 0.008187028
0.008037397 -0.0015032733 0.0043493384 -0.0007214684 0.0065858387 0.008140467 -2.710085e-06 -0.0004074229
0.010516629 -1.1875926e-08 0.008008979 0.0057017277 0.00016744141 -0.0008030641 -0.0028002618 -0.00022850266
0.0042924187 0.0008099183 0.007035825 0.0090099955 -3.7408492e-05 0.007045229 -3.173469e-08 -8.710361e-05
-3.4861593e-08 -0.0025106245 0.00076909456 0.0068542855 0.0010681397 -1.1450069e-09 -6.413222e-09 0.0015451481
7.673477e-06 0.005770198 0.0063633183 1.3435149e-05 0.010475452 0.00878487 0.010293058 0.0043734033
0.009347732 -1.8916407e-05 -5.416455e-05 3.7443556e-06 0.0023967945 0.009212368 -0.0022503398 0.0048146024
-3.6793242e-09 -0.00013727053 0.0051112706 -0.00024085703 -7.728812e-06 0.008740464 0.00057093514 -3.5112732e-06

encoder_lin.3.weight f4 [8, 64]
00000000: 63e8 fa39 39d6 b63a 5c33 b73e fd71 09be
00000010: 880a 25bd 3eea 02b5 0251 74be 3191 58be
00000020: a461 5c3c 70a8 ed39 303e 95bd 2b3e 1d3e
00000030: b73a c8bc 8c15 78be 5a29 a1b8 bbac f7bd
00000040: bcf0 70bd a141 e8b3 229f 313e facb a33e
00000050: 36b0 46ba a3db 19be 3e7a df3d 0031 be3a
00000060: b7dd a6bd 5f66 eabd a263 7dbe 3707 0bbb
00000070: 00a6 f738 0855 62be 6e5e 1739 213b 5d3b
00000080: 8dc6 05b4 f1b5 c23b 0903 bd3e 3108 4a3e
00000090: ba94 923e 3aa6 6ab2 5b3b e234 0e60 bc3d
000000a0: 085d f338 3148 cabe df46 5fbe 5493 8eb8
000000b0: c5c6 a1be c87b 643d b7f4 793e cacf 3abe
000000c0: 8949 263d bc88 f2b7 e184 5839 6bbd 57b7
000000d0: cf14 44be 3fbf 873d 1c7d 673e 5bc9 b43d
000000e0: 345e 6ab6 7a1d 313e 02d7 9e3d 1321 0e3a
000000f0: 3c91 02b9 f6a7 1abe d2d0 5aba 7c37 82be
00000100: c393 aa3a 9442 cf39 01cd 923d f569 52be
00000110: 7b1c 27be 181c 7cb7 3b93 3dbe e01e 13be
00000120: c106 423d 0e4a 4bba 60b3 bf3d 67cc 29be
00000130: 6c49 bb3d 3ba0 953e 6885 c2b7 9dd5 92be
00000140: e53d 2d3e 20f5 0032 5a70 34be eb43 153d
00000150: cfcc 53bb 3dcd ee3c 71a9 43be e069 1f3a
00000160: fbc4 ea3e c526 bf3d 2f5c a8bd 5f98 153e
00000170: 73af 9db9 981e ca3d 46cf 58b4 ee56 21ba
00000180: 57c9 1435 cd8a aeba 9565 89be 0961 5e3e
00000190: 2624 be3d 74bd 5eb2 b370 b3b0 d936 6bbd
000001a0: c70f c637 7c65 343d ba96 98be 8a7a 4438
000001b0: c65b b53d dd2e b5bd de37 d83d 1c82 443e
000001c0: 308e 153e 4447 c9b8 a4c7 fe38 346d 22b5
000001d0: 66cd 713e 7f06 dfb9 1a2e d83d 59e2 a23e
000001e0: 4d72 8935 d4f4 a43e 7288 c23e 0ad4 50ba
000001f0: 6d2b 483a 789d 71be 2079 923b 98e0 d23c
00000200: 1b28 e4ba 4c01 1b3b 3af2 5a3d 2883 93bd
00000210: 7038 0f3e b0da a537 43a3 433e ac4c abbe
00000220: 7818 1fbd 0b0a e7ba 0704 4fbe 8370 9dbd
00000230: f0a7 5fbe 9900 fe3c 6cde 46b8 c680 b9bd
00000240: 9e06 04be 96db 5ab3 e52d 0cbe 9327 92be
00000250: daf3 cfba 9f4a ad3e df60 833d 3fff 8b3a
00000260: 4cf0 d3bd aa1c c03e 6ed7 683e 3598 7cbe
00000270: dc0b bcb9 0fca 893c fda0 01b9 c89a 48bb
00000280: 00f8 4831 0ed5 26bc 6254 153e ec2b 7dbe
00000290: d217 093e 3348 12b2 b77f 36b4 cefc 463e
000002a0: de52 f537 d410 e2bd 0f0d 5ebe b0e9 5137
000002b0: d0e3 1ebd 2aa8 a7be 926d c9be a9ec c63d
000002c0: d3b7 6cbe 32df 6cb8 65de be39 8b79 c0b7
000002d0: d802 2d3e 42fb 443d d6c4 3f3e 0cdc 8abd
000002e0: a3c8 23b6 7a1e 5e3e 8876 f3bc e9a9 82ba
000002f0: c056 8a38 32ef 74bd c8dd eeba e434 703e
00000300: 002f 8bbb 7958 05bb 92db 57be 95db 3c3d
00000310: 73b6 08be 3119 dab9 bc30 8ebe 3fb3 b4be
00000320: 563d 6abb d8bf c539 bd4b 99bd e86e 8ebd
00000330: 58d5 9d3c 7827 043e 9844 16b9 51af 4dbe
00000340: 688f 43be 0e49 3fb4 82e8 e63d ed97 f6bb
00000350: 6091 0abb 97f2 93bd 4085 3e3d 66f5 61ba
00000360: 3f9e 60bd 3cc5 51be 27fc b73e 48d4 c63e
00000370: 0e5c 6c3a 3b6b 5fbe 3a66 f638 5d66 a5ba
00000380: 0d18 76b5 d2ae 643b 6d44 a1be aed0 f43d
00000390: e315 a7bd c38f 8432 ae2b fc33 35b0 07be
000003a0: f73b f3b7 fd7f 523e eca3 52be 13f8 86b9
000003b0: 6b65 313e 4ac3 dc3d 2c5b 153e 8bd8 d3bc
000003c0: aa84 13be b255 1139 aa44 d039 c134 c1b6
000003d0: e27f fdbb 044d e23d ae0a b8bd 0861 b0be
000003e0: 6d0a a036 4b66 553d 9400 f43d 0a98 1d3a
000003f0: 361a 67ba c2b3 023d 0235 a73a 1be2 3abe
0.00047856857 0.0013949341 0.35781372 -0.1342239 -0.040293247 -4.876964e-07 -0.23859027 -0.21149136
0.013451014 0.00045329658 -0.07287252 0.15355746 -0.02444206 -0.2422697 -7.6847806e-05 -0.120934926
-0.058823332 -1.081528e-07 0.1734586 0.3199156 -0.0007579358 -0.15025191 0.10911988 0.0014510453
-0.081477575 -0.11445307 -0.24745038 -0.0021214017 0.00011808798 -0.2210275 0.0001443566 0.0033757167
-1.2458823e-07 0.0059420993 0.36916378 0.19729687 0.28629094 -1.3658388e-08 4.2138967e-07 0.091980085
0.000116044714 -0.39508203 -0.21804379 -6.79853e-05 -0.31596962 0.05578211 0.24409758 -0.18243328
0.040597472 -2.891232e-05 0.00020648866 -1.2859101e-05 -0.19148563 0.06628274 0.22606319 0.08827468
-3.492355e-06 0.172964 0.07755853 0.00054217986 -0.0001245187 -0.15103135 -0.00083471567 -0.25432956
0.0013014007 0.0003953172 0.07168008 -0.20548232 -0.16319458 -1.5026912e-05 -0.18513195 -0.14367247
0.047369722 -0.00077548705 0.09360385 -0.1658188 0.091448635 0.2922381 -2.3188724e-05 -0.286786
0.16918142 7.506316e-09 -0.17620984 0.036441725 -0.003231812 0.0291506 -0.19107606 0.0006081145
0.4585341 0.093335666 -0.082207076 0.14608906 -0.00030076093 0.098691165 -2.0191973e-07 -0.0006154616
5.5427284e-07 -0.0013316512 -0.26835313 0.21716703 0.092842385 -1.2965177e-08 -1.3055995e-09 -0.057425354
2.3610786e-05 0.044042096 -0.29802495 4.6844165e-05 0.08855395 -0.08846829 0.10557531 0.19190258
0.14605021 -9.597701e-05 0.0001214885 -6.0508614e-07 0.2361351 -0.00042538714 0.10555668 0.31813315
1.0240561e-06 0.3221804 0.37994725 -0.00079661666 0.00076358655 -0.23595226 0.0044700056 0.02574186
-0.0017406972 0.0023651896 0.05345366 -0.072027504 0.13986373 1.9771367e-05 0.19105248 -0.33456933
-0.038841695 -0.0017626894 -0.2021638 -0.076874755 -0.21841407 0.031006144 -4.7414025e-05 -0.09057765
-0.1289315 -5.0956793e-08 -0.13689382 -0.28545818 -0.001586552 0.33845994 0.06414961 0.0010680928
-0.10348567 0.3752187 0.2273843 -0.24667437 -0.0003586699 0.016819982 -0.00012362371 -0.0030609835
2.9244802e-09 -0.010182632 0.1458297 -0.24723786 0.13387993 -8.514735e-09 -1.6996533e-07 0.19432375
2.9244864e-05 -0.11038366 -0.21684669 1.251178e-05 -0.038791478 -0.32745486 -0.39341408 0.09713108
-0.23116998 -5.647465e-05 0.0003640532 -2.2944781e-05 0.16895616 0.04809118 0.1872743 -0.06780252
-2.4405679e-06 0.21691313 -0.029719606 -0.000996885 6.596511e-05 -0.059798427 -0.0018224055 0.23457676
-0.004247546 -0.0020346923 -0.21079853 0.046107847 -0.13350849 -0.0004159897 -0.27771556 -0.35293004
-0.0035742125 0.00037717703 -0.07485149 -0.069547474 0.01926677 0.12905681 -0.00014330668 -0.20086409
-0.19097674 -1.7814838e-07 0.11274816 -0.007525435 -0.002114378 -0.07224005 0.046513796 -0.0008619636
-0.054838415 -0.20485395 0.35934564 0.38833833 0.0009016403 -0.21818249 0.00011749235 -0.0012619008
-9.167714e-07 0.003489424 -0.31497517 0.11953865 -0.081584714 1.5432198e-08 1.174261e-07 -0.13250811
-2.899578e-05 0.20556636 -0.20570344 -0.000257433 0.17323844 0.10779436 0.1458556 -0.025860092
-0.14406076 0.00013860202 0.0003972401 -5.7579896e-06 -0.007736192 0.11049846 -0.08986412 -0.3444903
4.7695853e-06 0.052099507 0.11914173 0.00060117303 -0.00088158564 0.03190971 0.0012756886 -0.18250315

encoder_lin.3.bias f4 [8]
00000000: 256c e1bc 23f0 be3d 0f8a 6bbc 4310 7bbd
00000010: a38e 45bc bd34 1abd c507 3c3c 1dd2 55bd
-0.027517388 0.09323146 -0.014376177 -0.061294805 -0.012057933 -0.03764795 0.011476462 -0.052202333

decoder_lin.0.weight f4 [64, 8]
00000000: e474 efbc 369c 693e ded7 6bbd a4b0 24be
00000010: 2611 08bd 3fbc b3bd c0bb baba d0be 80bd
00000020: a58f 54bd f261 b0be 4fe8 02bd 9f63 04be
00000030: 65e1 54be c711 97bd 9213 323e 01e8 d83d
00000040: 0328 09be 00eb ec3d afe9 193e 9b21 22bd
00000050: d8d0 8e3e 1399 b33d 2fb6 303e c9a6 86bd
00000060: 27e4 403d 968a e43d ea6c 833d b7b4 dc3c
00000070: b8c8 323e f0fd 1dbb 6bcc 813e c591 68be
00000080: 08fc f9bd a0cd 5bbd f235 af3e 6272 bdbd
00000090: d9cb 33be b043 41bd 01e7 393d 0eac 8ebd
000000a0: 03f8 16be fdff c53d 96cd 623c f06b 5bba
000000b0: 7065 8a3e 6797 28be d11b 43bd e05a 15be
000000c0: 8da6 b73d e568 093e 4419 32be ce2f 463e
000000d0: 1c16 3abd b864 8abe 6207 06be fedb 11be
000000e0: fddd 893d 751f 813e 60de 90bc f3aa 35be
000000f0: b79a dabb ddc6 7f3d 979a d13a 4a62 03be
00000100: 6792 7abe 8d23 ffbb 8c35 21bd e71f a4bd
00000110: 4885 8bbb ef07 683c d39c 9fbe f7bd 373e
00000120: 6bc0 c9bd bdb6 893c 0ad4 73be 95a1 5abe
00000130: 4d3a 9fbc 74b5 e8bd 2aef 6f3d c0d2 043d
00000140: 71be 92bd 117b da3c 5256 b6bd 0ece 1f3b
00000150: 836c 9d3e b9ab 9d3d 309f 26be 96cc 1cbd
00000160: a293 36be ee5f c83e 8d1b f8bd a45f dc3d
00000170: ce43 913d 3b9c 923c 38d3 d8bd 2ee5 343e
00000180: 599d bfbb 0e5c 9d3d aeaf d93d c388 c9bb
00000190: 45f8 bdbb aabc 89be d75c 433e 9615 27be
000001a0: c76f 6ebd 49c7 8f3e b988 903c 4303 86bd
000001b0: 9995 6f3c d1c2 15bd 72da 0e3e 215f 93bd
000001c0: a01a 813e 962a debd 48bf c73c 49d7 b9bd
000001d0: a1a1 483e dcdd 0d3e ffca bbbc efe1 81be
000001e0: 6f2c 41be 97d4 46bd 4951 a1be 9d69 2ebe
000001f0: 497d 12bd e48a 1f3d a903 8d3d bcdc 74bc
00000200: da77 babe 79d0 b73d ba03 bfbc bc87 b93d
00000210: 2dc1 363e fb1f e5bd 4a94 31be 1443 823d
00000220: 26b5 263e 431c e23d 0080 2bbd 1c7a 0bbd
00000230: ebee 503e 8003 33be f2f7 953e f9a7 133e
00000240: bab7 8dbe 7bde 92bd 22be 683e cdea 8fbc
00000250: 59d6 3abe 4270 83bd f7f9 153e 3c3b 7ebd
00000260: 92e2 0f3e c515 813e 9ecb 50bd e6f6 f93d
00000270: 8eba 8abe 7679 3ebd a3cd 8abd a30f b9bc
00000280: f1e8 44be 2aa9 9a3d 6ffc 5b3c d974 28bc
00000290: b398 08be 3566 80be 947d 793d e108 823e
000002a0: eab1 843e fac5 793e 8d3f 393c ebc4 7a3d
000002b0: 23d3 dfbc 8ff1 31be 8b76 59be e9fa 293e
000002c0: 8697 d13d 1b11 bc3d b293 6dbe d4d9 bdbd
000002d0: 2f7e 9f3d ec71 d63d a693 583e 0bfe 463e
000002e0: f9b4 fe3d 77da 853e 2de6 ea39 597d 673c
000002f0: e8dd 00be d9aa b13e 0d9d 1b3d 3548 0dbd
00000300: 7819 4c3e c22a 96bd c2dc 183e 9bbd 3bbe
00000310: 317e 1abe 7194 48be 726b f6bd 6986 3a3e
00000320: 9759 69bc fd51 f0bd e601 2d3e 78a6 21bd
00000330: c948 f1bd a5c2 44be abc0 d93d a333 62be
00000340: 9d39 a8bc 7d37 303e fc5d 98bb 9fd7 ddbc
00000350: b4d8 2b3e c45c d0bc 1022 ef3d 31ed e03e
00000360: c276 85bd 8c94 183e a813 013e 83cb 06bd
00000370: 58ef 27be 4cac f4bd b487 1fbe 86a4 7b3e
00000380: 74c4 ac3e d6c3 25be 6a1c 07be 6be0 a2bd
00000390: 0741 8abe f253 373e d4e1 ae3d 58e5 95bd
000003a0: 2aad 06bb 1289 79be 77ab 3bbd 45eb 9cbe
000003b0: 464a ccbc dd3e 053e 167e 2fbe 47e1 b6bd
000003c0: 3100 babd acbb 7ebd 7480 aa3e 91c7 3bbe
000003d0: 47b4 ef3c ea36 613e b43b 863e 5a74 3e3e
000003e0: 5166 84b9 42f8 c53d 69d6 083e 7a4e 0ebe
000003f0: 2f7a 98bc e460 25be 5e4d 89bd c05d 1ebe
-0.029230542 0.22813496 -0.057578914 -0.16083008 -0.03321948 -0.087761395 -0.0014246628 -0.062863946
-0.051894803 -0.34449726 -0.031959828 -0.12928627 -0.20789106 -0.07376438 0.17390278 0.10591126
-0.1339417 0.1156826 0.1503055 -0.03958283 0.2789371 0.08769431 0.17256998 -0.065747805
0.047092583 0.11159246 0.06417258 0.02694164 0.1745938 -0.0024107657 0.2535127 -0.22711857
-0.12206274 -0.053662896 0.34220845 -0.092503324 -0.1755823 -0.047183692 0.045386318 -0.069664106
-0.14743046 0.096679665 0.013842961 -0.0008370271 0.27030516 -0.16464005 -0.04763395 -0.14585447
0.08967314 0.1341892 -0.1739245 0.19354174 -0.04543124 -0.27029967 -0.13088754 -0.14244077
0.06731794 0.25219312 -0.017684162 -0.17740993 -0.0066712755 0.06244551 0.0015991506 -0.12830463
-0.2446991 -0.0077862204 -0.039357707 -0.080138974 -0.0042578317 0.014162048 -0.31174335 0.1794356
-0.09851154 0.01681077 -0.23811355 -0.21350701 -0.01943698 -0.113627344 0.058577694 0.03242755
-0.0716523 0.02667001 -0.08903183 0.0024384293 0.3074685 0.07698769 -0.16271663 -0.038281046
-0.17829755 0.3913569 -0.1211463 0.107604295 0.07093011 0.017896762 -0.10587162 0.1766555
-0.0058476147 0.07683574 0.10629211 -0.0061503365 -0.0057974183 -0.26901752 0.19078384 -0.16316828
-0.058212068 0.2808173 0.01764332 -0.06543591 0.014623069 -0.036562745 0.13950518 -0.07195879
0.25215626 -0.108479664 0.024383202 -0.090742655 0.19592907 0.13854164 -0.022923945 -0.25367686
-0.18864606 -0.048542585 -0.31507328 -0.17032476 -0.035764012 0.038950816 0.06885464 -0.014945205
-0.36419564 0.0897531 -0.023317207 0.090590924 0.17847128 -0.111877404 -0.17341724 0.063604504
0.1628004 0.11040547 -0.041870117 -0.034052 0.2040364 -0.17481804 0.2929073 0.14419545
-0.27679235 -0.07171341 0.2272878 -0.017568016 -0.1824583 -0.06417896 0.14646135 -0.06206821
0.14051273 0.2521192 -0.050975434 0.12205295 -0.27095455 -0.046502553 -0.06777503 -0.022590464
-0.19229485 0.07551797 0.013426884 -0.010281765 -0.133395 -0.25077978 0.060910776 0.253974
0.25916988 0.24391928 0.011306656 0.06122295 -0.027322358 -0.17377304 -0.21236627 0.16599621
0.10233979 0.0918295 -0.23200873 -0.09270063 0.077877395 0.104709476 0.21150073 0.19432847
0.124368615 0.26143238 0.00044803452 0.014129006 -0.1258465 0.3470066 0.037991572 -0.03449269
0.1993159 -0.07332374 0.14927962 -0.18334047 -0.150872 -0.19587876 -0.12032212 0.18215336
-0.014242551 -0.11734388 0.16895255 -0.039465398 -0.11781461 -0.19214876 0.106324516 -0.2209001
-0.020535285 0.17208667 -0.0046498757 -0.027080355 0.16781884 -0.02543486 0.11676419 0.43930963
-0.06516792 0.14900416 0.12605155 -0.032908928 -0.16399896 -0.119469255 -0.1557911 0.2457448
0.33743632 -0.16187987 -0.13194433 -0.079529606 -0.27002737 0.17903116 0.08539167 -0.073191345
-0.0020549991 -0.24368694 -0.04581782 -0.30648246 -0.02493776 0.13012262 -0.17137942 -0.08929687
-0.09082068 -0.062190697 0.33301127 -0.18337847 0.029260768 0.21993604 0.26217425 0.18599072
-0.00025253234 0.09666492 0.13363041 -0.13897124 -0.01861295 -0.16150242 -0.0670421 -0.1546545

decoder_lin.0.bias f4 [64]
00000000: f97c 273d a6e1 a23c 33a8 f43c 300e 963c
00000010: 23e4 0b3d 28ab 363c bfe6 1b3d 84bb 1c3d
00000020: 013e da3b 2d5e 303d 29de 723b 28a5 b23c
00000030: 7c86 823c 288f 403d 9f48 3c3a a78c f03b
00000040: 3a4b 813c 7578 1f3d 4a2f 76bb acca cd3c
00000050: 3367 ad3c d0d1 133c 5b20 abbc f766 703b
00000060: 4677 ce3c 380d 1dbb 6dbf bf3b b1ff 383c
00000070: 3896 e43c 4a30 533d e647 2e3b 8de5 943c
00000080: 05a2 073d 72a3 ee3c 8a6d babb fcfd 003c
00000090: 3884 2b3c b638 903c 41be 71bc df08 983d
000000a0: a638 383c 38a3 003d 2c3e b63c 1911 06bb
000000b0: 855b f23c 8b8d fa3c 6973 b43c 999c a13a
000000c0: eb63 283c 2271 3e3d 2e71 a93c a445 173d
000000d0: a1b7 113d 2bdf d4bb 4e4e 063a f47a 833b
000000e0: 15a7 053c ed33 163a 620e 7abc 162e 903c
000000f0: 0d2e 503c dd5b 583c 1eb8 223c 9fb2 313d
0.040890668 0.019882988 0.02986536 0.018317312 0.034153115 0.011149205 0.038061853 0.038264766
0.0066602235 0.043058563 0.0037058687 0.021807268 0.015933268 0.047011524 0.0007182452 0.007340986
0.015782941 0.038933236 -0.0037564808 0.025121056 0.021167373 0.009022191 -0.020889452 0.0036682466
0.025203358 -0.0023964178 0.005851677 0.01129143 0.027903661 0.051559724 0.0026593148 0.018175865
0.0331135 0.029130671 -0.0056893276 0.007873055 0.010468535 0.017605167 -0.014754833 0.07423567
0.011243975 0.031405658 0.022246443 -0.0020456968 0.029584656 0.030585071 0.022027688 0.0012329995
0.010277729 0.04649461 0.020683851 0.03693165 0.035575513 -0.0064963303 0.00051233626 0.00401246
0.008157511 0.00057297834 -0.015262218 0.0176001 0.012706292 0.013205496 0.009931592 0.043383237

decoder_lin.3.weight f4 [288, 64]
00000000: e937 123d ed80 87bd ea17 fb3c 9ae4 ec3c
00000010: 466b cbbc f1a7 26bc b4b2 45bb 8c3d b53d
00000020: 65a1 ecba 2003 9fbc a40e 743c 88a6 313d
00000030: 3191 0bbd d2b9 5c3d 6a14 0b3d b4a5 17bc
00000040: c97d 17bc aa8f b53c 71f8 37bd d337 7b3b
00000050: fba9 1abc 9bd7 da3c 53dc 053d 2946 723d
00000060: 1fd5 b9bc 557b 55bd 98ed 953c cdbd c33c
00000070: 4d85 82bc 5eff ccbc e8f5 753c b83f dbbb
00000080: 8012 e2bc dac8 2c3d bebf 8b3c 1ed5 cc3b
00000090: e54d 84bb ddf8 c33c a8bb 07bd c45c e93c
000000a0: c7c5 033d ecf8 2c3c 83ca c0b8 52cd a2bc
000000b0: 819f 813d e535 f8bb 8a23 e1bc 009a c53c
000000c0: 54a7 15bd f3b5 a33c 3e40 c9bb 4b3f 133d
000000d0: 2a3e 083b ef60 a8bc da1e 97bc 439c 2e3d
000000e0: ac92 ee3c d777 ee3b 5dd2 76bc 7874 bebd
000000f0: b330 a43c f605 cc3c c8e5 993d c0b6 48bc
00000100: ff0a b8ad dfad a214 f866 1215 162c 1b21
00000110: 48f1 8e9f 5257 819d 60c1 63ad c1a1 2cb0
00000120: bd5a 0080 6358 2791 7240 590f 0cae d092
00000130: 9718 13ac 94f7 19af 46c0 a692 7769 0000
00000140: 6dc2 fe87 4f3d 1515 0f5f 4709 d265 d1ae
00000150: 9f2a c28e a589 a9af 14c9 8cae 98fe 3121
00000160: 8d11 2621 4c16 a9a8 bd7d 2709 8053 f705
00000170: d956 1ba5 502b d8a5 b9da 9d10 6e47 48a8
00000180: 8b23 2faa dbba 3caa e9a8 12ac eb75 11ad
00000190: e7d0 129c d8be 8fa6 a8d8 96a7 ecae 4faa
000001a0: 6762 521a 54be 7b17 4ece 1210 9152 5b06
000001b0: 3f29 beb0 6fbe 0895 f97f 0380 a143 4aa2
000001c0: 8915 9001 7517 85ac c9c2 0080 e9e3 d4af
000001d0: 33b0 72ae 41c2 b119 19c4 08ab ac7a 10a9
000001e0: 8008 f8ae 5a21 bda8 af3a c6ab 6837 df14
000001f0: 9dda 7597 629a 0080 dfae 39a9 3689 08ab
00000200: 5558 183d 0735 b33c 4ebf e43c 53e0 8a3d
00000210: 51c6 163d 3d11 593d 76be 8c3c 8fd4 1c3d
00000220: a3d5 8fbd e4b1 003d 7ba1 333c 59b4 b4bc
00000230: a4c9 9a3d c5f5 b43c 78b6 b93b 1c96 5dbc
00000240: 2a98 03bd d08e 253d 020c ddba ab05 4ebd
00000250: 050b 7abd b9e3 1abc 9f56 b1bb 5954 a0bd
00000260: 128d 2f3c 7a1c a13d 32d4 d6bd e9be 7cbd
00000270: d72a 18bc 6863 d63c 3b6a 6fbc 0cea 973d
00000280: 12a2 5dbc 8d95 d13c 3ae0 843c 814b e6bc
00000290: 3ef2 51bd 22cd 80bd 08a6 5b3c 804a 65bc
000002a0: c909 cfbc 6097 bebd 91b1 853c 9421 80bd
000002b0: be82 18bd 7744 7fbd 062f 1a3d f059 44bc
000002c0: 2ce0 d03c 1556 883d 05ec 0a3d c947 003d
000002d0: 1a93 da3d 76bd 953d 3a71 bbbc 68da 85bd
000002e0: cfa7 e3bc ef27 073c cf52 913d 9317 683d
000002f0: 942a bf3c 5c4a 4abc 1fa2 c6bc f31d c13c
00000300: 884b 2b3d 07a8 3abd 698c 163d 86f7 a53d
00000310: 251e de3c d2a3 8f3c 3e00 2d3c 78c2 7e3d
00000320: 0672 1ebd df6c 45bd be24 fbba 85ae 2b3d
00000330: 1c05 f73c 83fa 8d3d ef0f e43c b04b 4cbd
00000340: bd71 ecbc 9200 723c 7d0d 2e3d 6217 883d
00000350: 7518 82bc b95c 573d bc66 ccbc 99d1 233d
00000360: 8e9d 35bd 3dc4 dcbb c70a 6bbd 50bd bcbb
00000370: b058 89bd 9cd2 83bd 75f3 41bd eaf6 2c3d
00000380: ef9b 97bd 50eb 993c 9034 733d c8cc f3bc
00000390: 5785 d33c 7fa3 033d 5c2e cfbd 1df7 a33d
000003a0: 3ae2 eb3c c8f1 75bc 12ee 863b fca5 4abc
000003b0: 41e1 a83d 5e9a dabc 7013 843c 09df 863d
000003c0: 86a9 89bc 3bdd d93c 1330 eabc 0239 293d
000003d0: edc9 153d 371d 92bc 73a0 aabb f700 203d
000003e0: 66be 023d 15a8 dcbc 508a f13c a725 36bd
000003f0: 2264 1ebd 9ef1 8bbd 6c7d 9b3c 391c f7bb
0.03569785 -0.066163875 0.030651052 0.0289176 -0.024831425 -0.010171876 -0.003016633 0.0884963
-0.001805347 -0.01941067 0.014896069 0.043371707 -0.034074012 0.05388815 0.033955015 -0.009255815
-0.009246298 0.02216323 -0.044914667 0.0038332834 -0.009439941 0.026714137 0.03268082 0.05914894
-0.022684632 -0.05211957 0.01830177 0.023894215 -0.015932703 -0.025024112 0.015012242 -0.0066909455
-0.027596712 0.042183734 0.017059203 0.0062509915 -0.004037606 0.023922378 -0.033137947 0.028486617
0.032171037 0.0105573945 -9.192994e-05 -0.019873295 0.06329251 -0.007574784 -0.027482767 0.024121284
-0.03653653 0.019984221 -0.0061416915 0.035949033 0.0020789006 -0.020554034 -0.018447328 0.04262949
0.029122673 0.0072774696 -0.015064803 -0.092995584 0.020042753 0.024905186 0.075145304 -0.012250602
-2.0923261e-11 1.64264e-26 2.9565693e-26 5.257439e-19 -6.0538506e-20 -3.4236303e-21 -1.2946394e-11 -6.28031e-10
-3.2551e-41 -1.3201213e-28 1.0711338e-29 -1.3169551e-27 -2.0903607e-12 -1.4003226e-10 -1.0523472e-27 3.7834e-41
-3.8331946e-34 3.0138674e-26 2.399845e-33 -9.5223066e-11 -4.7865735e-30 -3.0838723e-10 -6.4021816e-11 6.0306885e-19
5.6266216e-19 -1.8772439e-14 2.0161016e-33 2.3258441e-35 -1.3473532e-16 -3.7499377e-16 6.2262577e-29 -1.1117719e-14
-1.5555454e-13 -1.6762583e-13 -2.0841612e-12 -8.268479e-12 -4.857735e-22 -9.974347e-16 -4.1868263e-15 -1.8445982e-13
4.350647e-23 8.13427e-25 2.8952354e-29 4.1249982e-35 -1.3836042e-09 -2.7615207e-26 -3.21414e-40 -2.7411907e-18
5.292815e-38 -3.7826916e-12 -6.9876e-41 -3.8724515e-10 -5.5180926e-11 1.837983e-23 -4.8589046e-13 -3.2080824e-14
-1.1279244e-10 -2.0997679e-14 -1.4085034e-12 2.25391e-26 -7.94397e-25 -5.5382e-41 -4.122993e-14 -4.8507324e-13
0.037193615 0.021875871 0.027923252 0.06781068 0.036810223 0.052994955 0.017180663 0.03828865
-0.0702317 0.03141965 0.010963793 -0.022058653 0.07557991 0.022089848 0.005667504 -0.013524558
-0.032127537 0.0404194 -0.001686454 -0.050298374 -0.061045665 -0.009453707 -0.0054119374 -0.07828588
0.010714786 0.078667596 -0.10489692 -0.061705504 -0.009287558 0.026170447 -0.01461273 0.07417688
-0.01352741 0.025584007 0.0162202 -0.028112175 -0.05125641 -0.06289126 0.013406284 -0.013994813
-0.02527322 -0.09306216 0.016320022 -0.062564045 -0.03723406 -0.062321153 0.0376425 -0.011984333
0.025497518 0.06657044 0.033916492 0.03131846 0.10672589 0.073115274 -0.02288114 -0.06535798
-0.027789978 0.008249267 0.070958726 0.056663107 0.023335733 -0.01234683 -0.024247227 0.023573851
0.04182008 -0.0455704 0.036755 0.08103852 0.027113983 0.01753417 0.01055914 0.06219718
-0.03868296 -0.04819953 -0.001916073 0.04191448 0.030153804 0.06932547 0.027839629 -0.04987687
-0.028862828 0.014770644 0.042493332 0.06645085 -0.015880803 0.05257866 -0.024951331 0.03999481
-0.04433971 -0.0067372606 -0.057383325 -0.0057598725 -0.06706369 -0.06436655 -0.04735132 0.042227663
-0.07402789 0.018788964 0.0593763 -0.029760733 0.025820417 0.032138344 -0.10116264 0.080061175
0.028794397 -0.015011258 0.0041177357 -0.012368675 0.08246089 -0.026684936 0.01612255 0.06585509
-0.016804468 0.026594749 -0.028587377 0.041314133 0.036569525 -0.017836196 -0.0052071153 0.03906342
0.03191986 -0.026935617 0.029484898 -0.0444695 -0.038669713 -0.06833194 0.018980704 -0.007541206
