Nicola_Dainese_Ex4_NN/params/gaussian_net_params_2.pth (torch_old, 200799 bytes, 19 tensors)

encoder_cnn.0.weight f4 [8, 1, 3, 3]
00000000: b5cc 873e e759 d83e 5170 cc3e 9df3 be3e
00000010: 7792 ff3e 0b99 da3e 115a af3e 2e4c d83e
00000020: ecc3 a03e 060b 0aab 77f5 3eab aa19 0fab
00000030: ff24 25ab 44a5 2bab 548c bbaa 53b5 35ab
00000040: e91f 01ab 92c3 38aa db06 873e 9dc9 d73e
00000050: 2f83 ca3e 2b20 bf3e 8803 003f c984 d93e
00000060: 692f b03e e502 d73e 8ad1 9d3e 54e1 7a3e
00000070: 886e c93e b06a bf3e d57f b03e 3296 ef3e
00000080: 6182 ce3e ab01 a43e 1914 cb3e 7863 983e
00000090: 6213 b9b7 9d52 ccb7 51c4 eab7 0cf3 8cb7
000000a0: 5c35 08b8 167c e1b7 2fef 28b5 e339 3437
000000b0: dfab 4035 a216 873e cb0a d73e 4922 ca3e
000000c0: 93ba be3e f7f9 fe3e 2e85 d93e cf33 af3e
000000d0: 6189 d73e 2dba a13e 34cb 803e a917 ce3e
000000e0: e318 c23e df1c b53e e387 f33e 090f d03e
000000f0: 0038 a73e 0250 cc3e 0662 973e 1981 7b3c
00000100: fa57 bfbc 33ef 34bd aefb a7bc 1654 81bd
00000110: b3f5 aabd c8aa 22bd b6d5 a2bd a111 c3bd
0.26523367 0.4225609 0.3992944 0.37295237 0.4991643 0.42694888 0.34248403 0.4224562
0.31399477 -4.9042747e-13 -6.784221e-13 -5.083942e-13 -5.867112e-13 -6.0980756e-13 -3.3315245e-13 -6.4555755e-13
-4.587429e-13 -1.6410335e-13 0.26372418 0.42146006 0.3955321 0.3732923 0.5000539 0.4248412
0.3441117 0.41994396 0.30823928 0.24500018 0.3934214 0.37386084 0.34472528 0.46794277
0.40333846 0.32032523 0.3966377 0.2976339 -2.2062744e-05 -2.4357165e-05 -2.798639e-05 -1.6802478e-05
-3.247462e-05 -2.6879872e-05 -6.2932935e-07 1.0742314e-05 7.177568e-07 0.26384455 0.42000422 0.39479282
0.3725172 0.49800083 0.4248442 0.34219214 0.42097 0.31587353 0.25155032 0.40252426
0.37909612 0.3537359 0.4756461 0.4063647 0.32659912 0.3990479 0.29566973 0.0153506035
-0.02335738 -0.04417343 -0.020505752 -0.06314866 -0.08347645 -0.03971365 -0.079509184 -0.09524847

encoder_cnn.0.bias f4 [8]
00000000: 6ef8 163c 41fb 15ab 517f c63b c69f 1a3c
00000010: eedf 00b8 e9eb 073c d2c0 d63b 724b 613f
0.009214504 -5.328412e-13 0.0060576578 0.009437507 -3.072613e-05 0.008295991 0.0065537477 0.88005745

encoder_cnn.3.weight f4 [16, 8, 3, 3]
00000000: 0906 b9b5 a6cc c6b5 e6e3 61b5 0c6c acb5
00000010: 7906 4bb5 d34f 86b5 badb cab5 123c 45b5
00000020: 153d 7db5 91c8 6d89 a247 ae8a e028 360b
00000030: da97 3c0f 7f05 8b8a 3dac 4d0b 0dce b791
00000040: 3bcb 050b 58ef 5e0b 3125 b8b5 3e9d 9db5
00000050: cc28 73b5 b259 97b5 b1b8 57b5 218f 4eb5
00000060: 610f cab5 60ad 20b5 e17f 83b5 1c87 95b5
00000070: c447 9cb5 8548 8bb5 c3b5 a1b5 0b4f 2fb5
00000080: a57c 45b5 36e3 bfb5 79e5 f1b4 0ad9 83b5
00000090: 1764 e1b0 5777 5931 25a1 10af 84a1 9db1
000000a0: 0ab6 e030 ed35 bd2f c8d6 2eb1 68fb 1d31
000000b0: eb80 0231 4307 bfb5 eed3 aeb5 7a1c 6cb5
000000c0: a7d7 b1b5 16cb 2cb5 447d 83b5 1b41 c8b5
000000d0: e369 36b5 c106 86b5 6462 9eb5 4244 a9b5
000000e0: 83a1 67b5 8e52 94b5 ff6a 3cb5 da6a 60b5
000000f0: a09b bbb5 236c 0ab5 f0d2 7fb5 6076 71b5
00000100: 62bb 5db5 fa4c 87b5 4447 6cb5 c029 87b5
00000110: 63aa 86b5 c360 87b5 57ed 85b5 685e 7eb5
00000120: a07b d1bd 16b5 4fbc 645f 9d3d 0e84 923d
00000130: 622a e33e e5ac b83e 93fb c73d 23f8 b73e
00000140: 96de 843e 6946 381a 2559 9d9a f874 3218
00000150: 5ad2 a99b cd4c 0a9b c82e 579a a29b e09b
00000160: cc22 4c9b 0a48 4a9b 3e99 d2bd a782 7dbc
00000170: a96c 993d d854 923d d531 df3e 3569 b53e
00000180: f635 b13d 25ff bb3e 626c 843e e14f cabd
00000190: 0359 86bc 4207 913d 03aa 5c3d dba6 d13e
000001a0: dc2c aa3e ebac b53d 9118 b03e 4163 793e
000001b0: aca3 48b8 1216 0ab8 784c 6cb8 305a 73b8
000001c0: 1d34 5e35 8595 0b37 e36e 54b8 21bd 8636
000001d0: 4ed2 3137 0859 debd 0596 87bc ccee a03d
000001e0: 0b1c 8b3d 9c69 d63e e7e1 b93e 04e9 b03d
000001f0: 1edd bb3e 38b4 833e 931f b4bd 9c64 3dbc
00000200: d002 963d b2db 863d d4de d03e 41c7 b13e
00000210: 0ab7 c23d 2fe1 b43e 9d65 813e 927d 893c
00000220: f684 83bc 1784 92bc b242 f6ba c63d 4ebd
00000230: 42b4 fcbc 65db 953b ce8e f6bc 3053 87bb
00000240: eb75 c6b3 9f6e deb3 232a 48b4 a0d8 77b4
00000250: f19e 8bb3 b297 60b4 8033 97b4 97a1 24b4
00000260: d170 7eb4 a97c 0e91 a6f9 cf90 ec08 1d11
00000270: 1cd9 7b90 0365 e490 1150 b50c 940c 9910
00000280: 7a46 2291 cd9e 7c0e 37c9 94b3 b808 ceb3
00000290: a389 2db4 04a7 36b4 6434 c1b3 9a73 50b4
000002a0: c398 a4b4 8ce8 10b4 0240 76b4 e693 ecb3
000002b0: de4d c1b3 b496 18b4 02ac 6cb4 d712 85b3
000002c0: cb0b 0db4 b26e b6b4 ee94 20b4 1978 67b4
000002d0: 9604 b62f 0f9d caae d1a1 eb2e c4fa 4a2f
000002e0: d9e9 ed2e 8852 84af 95c6 34af 4fc2 a5af
000002f0: c975 042e 021a c2b3 60c2 f8b3 3aea 37b4
00000300: 885b 56b4 181b 81b3 3c2a 4db4 df94 8ab4
00000310: 1eee 20b4 de4e 59b4 fe2d 83b3 885e c2b3
00000320: 695d 53b4 ab61 32b4 8ad1 2db3 8393 45b4
00000330: a9ae 83b4 3718 2cb4 3911 6eb4 c356 88b4
00000340: 9a69 8fb4 3e6d 88b4 33b5 42b4 4f84 97b4
00000350: 1d4c 8cb4 f35c 42b4 4cca 51b4 e9fe 5db4
00000360: b645 553e 0556 683d e702 99bd 0380 3c3e
00000370: 34a2 77bd 7e2a 2fbe 325c 023e b30a debd
00000380: e7a2 41be e681 889c 57d4 141c 802c 111d
00000390: e80a c81b dfe6 a51b f130 2419 3659 251c
000003a0: ffc5 499b d301 da9c 9e67 513e 83ab 753d
000003b0: 4127 8cbd 215a 3c3e 5b2d 76bd 9426 32be
000003c0: 3494 033e 5625 e2bd f24a 3fbe bec0 443e
000003d0: db5f 553d bd5d 8ebd abbc 3f3e b988 52bd
000003e0: f0c4 23be 136a ea3d 5196 dabd fd54 35be
000003f0: 2d71 7838 ad4e 2f38 9a72 a137 4d3a 9138
-1.378533e-06 -1.481171e-06 -8.415067e-07 -1.2846444e-06 -7.563281e-07 -1.000701e-06 -1.5114122e-06 -7.347563e-07
-9.433873e-07 -2.8622143e-33 -1.6782536e-32 3.5082676e-32 9.298361e-30 -1.338728e-32 3.9611142e-32 -2.8999298e-28
2.5767762e-32 4.2935707e-32 -1.3719892e-06 -1.1743175e-06 -9.058392e-07 -1.1276481e-06 -8.03625e-07 -7.694926e-07
-1.5054649e-06 -5.985694e-07 -9.797478e-07 -1.1140687e-06 -1.1643792e-06 -1.0377413e-06 -1.2048334e-06 -6.5307603e-07
-7.35696e-07 -1.4296736e-06 -4.5056711e-07 -9.823427e-07 -1.6399352e-09 3.1645493e-09 -1.3153974e-10 -4.5876636e-09
1.6349884e-09 3.4417216e-10 -2.5442422e-09 2.2989415e-09 1.8990771e-09 -1.4232722e-06 -1.302569e-06 -8.795829e-07
-1.3250291e-06 -6.437052e-07 -9.796718e-07 -1.4920109e-06 -6.795437e-07 -9.985744e-07 -1.1800553e-06 -1.2611347e-06
-8.6289236e-07 -1.1050886e-06 -7.019116e-07 -8.360199e-07 -1.3977879e-06 -5.1566366e-07 -9.5301857e-07 -8.9951754e-07
-8.2601593e-07 -1.0080687e-06 -8.8020556e-07 -1.0070435e-06 -1.0033367e-06 -1.0086445e-06 -9.978347e-07 -9.475975e-07
-0.10228658 -0.012677452 0.0768421 0.07154094 0.44368273 0.36069408 0.09764781 0.359315
0.2595107 3.8107185e-23 -6.50777e-23 2.3065015e-24 -2.809464e-22 -1.1439908e-22 -4.4498748e-23 -3.7158267e-22
-1.6885728e-22 -1.6732325e-22 -0.10283135 -0.0154730445 0.074914284 0.07145089 0.43592706 0.3543183
0.0865287 0.36718097 0.2586394 -0.09878517 -0.016399866 0.070814624 0.053873073 0.40947613
0.3323735 0.08870872 0.34393743 0.24354269 -4.7836147e-05 -3.292232e-05 -5.6338e-05 -5.801971e-05
8.277728e-07 8.319858e-06 -5.064801e-05 4.0155287e-06 1.05989875e-05 -0.10856825 -0.016551027 0.07858047
0.06792458 0.4187745 0.36305162 0.08638194 0.36692137 0.25723433 -0.08795085 -0.011559632
0.07324755 0.06584872 0.40795004 0.3472233 0.09507568 0.3532805 0.25272837 0.01678351
-0.016054612 -0.017885251 -0.0018788187 -0.05035188 -0.030847672 0.004573273 -0.030097391 -0.00412979
-9.2415426e-08 -1.03578024e-07 -1.8641781e-07 -2.3082475e-07 -6.501603e-08 -2.0916812e-07 -2.8163413e-07 -1.5332476e-07
-2.3696636e-07 -1.1240239e-28 -8.203175e-29 1.2387865e-28 -4.9668277e-29 -9.0085776e-29 2.7935654e-31 6.036724e-29
-1.2801264e-28 3.1137858e-30 -6.928388e-08 -9.5942084e-08 -1.6161952e-07 -1.7010831e-07 -8.9967926e-08 -1.9413565e-07
-3.065853e-07 -1.3495645e-07 -2.2933821e-07 -1.1016509e-07 -9.001427e-08 -1.4210929e-07 -2.2041789e-07 -6.196722e-08
-1.3135939e-07 -3.3980683e-07 -1.4955341e-07 -2.1557243e-07 3.3108866e-10 -9.213796e-11 1.0715307e-10 1.8460883e-10
1.0819052e-10 -2.4069302e-10 -1.6441455e-10 -3.015139e-10 3.011794e-11 -9.03856e-08 -1.15837565e-07 -1.7128414e-07
-1.9963602e-07 -6.011959e-08 -1.9107478e-07 -2.581282e-07 -1.4987788e-07 -2.0238392e-07 -6.108529e-08 -9.051024e-08
-1.9684889e-07 -1.6613073e-07 -4.0470276e-08 -1.8400719e-07 -2.4527733e-07 -1.6027558e-07 -2.2171743e-07 -2.5395101e-07
-2.671266e-07 -2.5411458e-07 -1.8133578e-07 -2.822221e-07 -2.6132412e-07 -1.8101473e-07 -1.9538237e-07 -2.0674965e-07
0.20827374 0.05672266 -0.07471257 0.18408208 -0.060457423 -0.17106053 0.12730482 -0.108418845
-0.18909799 -9.033303e-22 4.9243535e-22 1.9213596e-21 3.3094273e-22 2.7446157e-22 8.488485e-24 5.4709223e-22
-1.6690306e-22 -1.4426501e-21 0.20449683 0.05997802 -0.068434246 0.18393756 -0.060101848 -0.17397529
0.12849504 -0.110422775 -0.18680933 0.1921415 0.052093368 -0.06951473 0.18724315 -0.05139992
-0.15993094 0.11446013 -0.10673202 -0.17708202 5.923321e-05 4.1796524e-05 1.9246061e-05 6.924998e-05

encoder_cnn.3.bias f4 [16]
00000000: a651 47b5 4d2b ab3c de41 9bb3 6a81 983e
00000010: 6ba6 84bb 1294 0bb3 27c0 eab9 6372 2bb8
00000020: 50aa 72b9 a4c0 8db7 c786 cfba 556a 6db9
00000030: d58e 063e 8dd8 503c 3d82 e0a3 bc9b efb8
-7.425209e-07 0.02089467 -7.229731e-08 0.29786235 -0.004048159 -3.249813e-08 -0.00044775123 -4.0876108e-05
-0.00023142365 -1.6898215e-05 -0.0015833013 -0.00022641693 0.13140424 0.012746942 -2.4341287e-17 -0.00011425416

encoder_cnn.6.weight f4 [32, 16, 3, 3]
00000000: 21ef 822b 8a4a 47aa d8b4 c1aa b4e5 0a2a
00000010: 9b58 012c e0a2 e92b 39a3 0cab 3ef4 9e2b
00000020: 0ccc cd2b 43c0 6bb4 1e5a 1ab4 7818 90b3
00000030: 9e9e 22b4 00e6 3fb3 e37e 7db3 be64 23b4
00000040: 2503 10b4 8554 44b4 2153 8228 3984 7aaa
00000050: 858b 292b d845 df29 4843 572a 6c9b 7dab
00000060: 64f0 ff29 bb40 212a bfd9 c7aa 1201 4cb4
00000070: 2478 54b4 6012 08b4 5bc8 56b4 08a5 4db4
00000080: 605a 09b4 c835 19b4 593b 4bb4 65a5 b7b3
00000090: b991 222c 9c12 092d 7489 17af 75e5 a5ac
000000a0: ab20 7eab fa75 ea2a 5a8c 1d2d 4aec 43ac
000000b0: 92bf ea2a d05b 01a8 51ce 4da8 9b12 f027
000000c0: b52d e6a7 e039 2528 c695 e426 3d88 a0a8
000000d0: 6b49 b5a8 8645 4fa6 4043 3236 3c08 71af
000000e0: dee7 5c36 1d91 56b5 24e0 abb0 4e51 8d2f
000000f0: 14a8 20b2 11e0 f0ae b982 bc33 0cb9 94ae
00000100: dbb6 6030 0ae1 c0ad 185a 81b0 20a4 8db0
00000110: 9dfb faaf b7bd af2f 65ad 4830 725f 8830
00000120: da15 032e 0346 dc2d 8508 42ad 2f7a 99ad
00000130: 1dc2 3bab 32f7 4a2b 1ede f3ad f581 80ad
00000140: cbf7 d82d 27ec fc36 9cdb 7f2c 9400 812e
00000150: c377 74ac 5587 392b 921b 362d b4ee cdab
00000160: 736a 0fad b3ba 892d 4ca6 742f f641 6baf
00000170: b0b7 682f b173 08b1 4a33 fd2f 5aba 0aae
00000180: 79b1 30b1 b4e4 8d2f 0eff c3ad 5044 5c2c
00000190: 3187 0c2d 5557 f2aa 0601 b32c 78de e8ad
000001a0: 0072 0dae 0eea a4ad a3c5 ffac 73d3 092e
000001b0: c902 f3b3 acb7 02b3 2322 62b0 21f8 35b4
000001c0: 4f31 9bb1 5c4a 7eb1 bbc1 28b4 f288 3533
000001d0: d622 97b2 8b5c a5b4 094f 27b4 6bbb 05b3
000001e0: 7bf1 37b4 f991 fdb3 448d 66b3 f1f2 5fb4
000001f0: ed1a 21b4 09b9 d2b3 983b 0798 3083 4595
00000200: ecb9 5917 4efb 7617 bb04 0617 e771 1295
00000210: f02a a117 0656 5497 ac0c f894 3dfb 6b2e
00000220: 3a84 c92e 4b2b 50ac 235e 64ae 54b1 3b2e
00000230: 93e9 38ae 6099 14ae 7587 962e 9795 fc2d
00000240: 957f d5b4 199a 8bb4 0ec6 95b5 21fb 0136
00000250: 1d11 5135 5279 b1b5 0d44 bb34 80a7 6735
00000260: 134a 37b5 f493 743d 4c1e 913d 3cff 163e
00000270: f9c2 3ebe 7c82 6dbe c392 103e 449e 2cbe
00000280: 8dfe 04be 2415 2a3e e730 43b4 d853 56b4
00000290: b6e0 96b4 b7dd 8db3 acf6 2534 02c5 a7b4
000002a0: 5ccd 9234 4b61 f133 d34e a0b3 30e6 8e3d
000002b0: ecf2 6dba 4be4 7abd 6133 053e b37e cd3d
000002c0: 4f9d 9abd e463 a83d ca03 723d 0344 4bbc
000002d0: 8700 a23b 1941 a43b 28b5 bd3b acb5 38bb
000002e0: 2b30 96ba f972 ca3b 2a42 0ab8 eb2f 15bb
000002f0: a1f8 3c3a 81f4 b532 55f2 bf31 08d2 c830
00000300: acbc 8f32 3a6d 5f32 1f7c f8b0 8bd6 8931
00000310: b4b6 19af 491e f632 d279 65b9 2bf2 4a38
00000320: 0864 e33a 87fe e9bb a927 c7bb ac9b f53a
00000330: e951 2fbb b905 5dbb bd84 00bb 36b6 6f36
00000340: 2ff3 6936 bf00 48b7 26b4 45b7 e63d cdb7
00000350: 3a5e 5bb7 92d6 abb7 4a7f 3136 0e06 3a36
00000360: e8f3 7f3a f45c 603a 7caa 0bba a21d 8039
00000370: c44b 153a 6c4f c1b9 ce20 e139 0b2d 8f39
00000380: a366 92b9 c503 cb37 7a01 0c38 52c5 a437
00000390: 162e 0c38 7a19 6f37 af9a ea37 c345 8fb6
000003a0: c14c 50b8 bd4a 6c38 e52b 21ba 3731 d9b9
000003b0: 3554 5aba 481c 623a 4b10 553a fe2c 83ba
000003c0: 9ba4 323a 53bd cf39 2716 5eba 768f d0b9
000003d0: c01a a6b8 fb17 dcb9 5351 10ba e6b0 5aba
000003e0: ec37 fbb8 b52d a7b9 a4de c7ba 8d00 1eba
000003f0: 32bf 57bc 979c 763d 014f 1e3e b50f 9e3c
9.303427e-13 -1.7700611e-13 -3.4409173e-13 1.2336556e-13 1.8381188e-12 1.6600853e-12 -4.996451e-13 1.1294366e-12
1.462276e-12 -2.1956025e-07 -1.4375152e-07 -6.7099734e-08 -1.514513e-07 -4.4679837e-08 -5.9021556e-08 -1.5217208e-07
-1.3412189e-07 -1.828467e-07 1.446895e-14 -2.2250334e-13 6.0234483e-13 9.9153053e-14 1.9119179e-13 -9.0099347e-13
1.1365976e-13 1.432213e-13 -3.5500593e-13 -1.899937e-07 -1.9787745e-07 -1.2672672e-07 -2.0003192e-07 -1.9152151e-07
-1.2791998e-07 -1.4268801e-07 -1.8927439e-07 -8.551687e-08 2.3102477e-12 7.7916805e-12 -1.3782203e-10 -4.715057e-12
-9.0284263e-13 4.1648613e-13 8.955581e-12 -2.7842333e-12 4.169968e-13 -7.180847e-15 -1.1424524e-14 6.6633554e-15
-6.388738e-15 9.17189e-15 1.5861274e-15 -1.7822652e-14 -2.0126877e-14 -7.1911774e-16 2.6563212e-06 -2.1921748e-10
3.291752e-06 -7.993238e-07 -1.2505592e-09 2.570552e-10 -9.351442e-09 -1.09537386e-10 8.7782105e-08 -6.763132e-11
8.175058e-10 -2.192781e-11 -9.411592e-10 -1.0305747e-09 -4.5653517e-10 3.1967115e-10 7.3005985e-10 9.92243e-10
2.980536e-11 2.5042196e-11 -1.1029515e-11 -1.7448347e-11 -6.670513e-13 7.210787e-13 -2.7724541e-11 -1.4609628e-11
2.4666399e-11 7.537677e-06 3.6359587e-12 5.8663435e-11 -3.4740967e-12 6.5913014e-13 1.0351624e-11 -1.463238e-12
-8.152245e-12 1.5658008e-11 2.2250751e-10 -2.139656e-10 2.1165536e-10 -1.9856368e-09 4.6056875e-10 -3.154308e-11
-2.5712252e-09 2.5810254e-10 -2.22822e-11 3.1301801e-12 7.988097e-12 -4.3048434e-13 5.0875996e-12 -2.6474142e-11
-3.216094e-11 -1.8748583e-11 -7.269478e-12 3.1337998e-11 -1.1316076e-07 -3.0435032e-08 -8.226683e-10 -1.6947207e-07
-4.5166995e-09 -3.7004133e-09 -1.5716698e-07 4.2266898e-08 -1.7594555e-08 -3.080098e-07 -1.558184e-07 -3.113693e-08
-1.7131053e-07 -1.1807783e-07 -5.367953e-08 -2.0856875e-07 -1.5004089e-07 -9.812545e-08 -1.7478428e-24 -3.9887322e-26
7.035115e-25 7.980408e-25 4.3303706e-25 -2.9574318e-26 1.041522e-24 -6.860947e-25 -2.5046599e-26 5.3655958e-11
9.16391e-11 -2.958261e-12 -5.1924808e-11 4.2676376e-11 -4.2044212e-11 -3.378753e-11 6.845272e-11 2.8715514e-11
-3.976717e-07 -2.6002888e-07 -1.1159007e-06 1.9368674e-06 7.788347e-07 -1.3222837e-06 3.4880978e-07 8.629795e-07
-6.8280605e-07 0.05971141 0.07085857 0.14745802 -0.18629064 -0.23194307 0.14118485 -0.16857249
-0.12987728 0.16609627 -1.8178581e-07 -1.9960805e-07 -2.8103176e-07 -6.606154e-08 1.5456561e-07 -3.1249516e-07
2.7344038e-07 1.12401345e-07 -7.4649186e-08 0.069774985 -0.00090770307 -0.061252873 0.13007881 0.100339316
-0.075495355 0.082221776 0.059085645 -0.012406352 0.0049439105 0.005012643 0.005789418 -0.0028184457
-0.0011458447 0.0061782566 -3.2963384e-05 -0.0022764157 0.00072086795 2.118236e-08 5.5863816e-09 1.461161e-09
1.6733189e-08 1.3005144e-08 -1.8079652e-09 4.0116155e-09 -1.3980178e-10 2.8651941e-08 -0.00021884523 4.838609e-05
0.0017348537 -0.0071409377 -0.006077726 0.001873841 -0.0026751703 -0.0033725335 -0.0019610368 3.5719836e-06
3.4861257e-06 -1.1921103e-05 -1.1784059e-05 -2.4466728e-05 -1.3075356e-05 -2.0484706e-05 2.6449147e-06 2.7719684e-06
0.0009763823 0.0008558773 -0.00053278334 0.0002443614 0.0005695189 -0.00036871003 0.00042939786 0.00027308645
-0.0002792376 2.4201241e-05 3.3379976e-05 1.9642208e-05 3.3421522e-05 1.4251442e-05 2.7967004e-05 -4.2698534e-06
-4.9662547e-05 5.633639e-05 -0.00061482034 -0.00041426133 -0.0008328588 0.000862543 0.0008127733 -0.0010007916
0.0006814689 0.00039623174 -0.0008471929 -0.00039779738 -7.9204794e-05 -0.00041979537 -0.00055052823 -0.00083424
-0.00011979029 -0.00031886777 -0.0015248847 -0.0006027304 -0.013168143 0.06020793 0.15459825 0.0192946

encoder_cnn.6.bias f4 [32]
00000000: 86fd a4b3 ae45 093d e783 1e3a 5f1a f93b
00000010: 1426 1db2 c5e7 22b4 e7e7 913b ad7d c73b
00000020: 8cc5 d9bb fb8a 623b 81f5 3e3d 8123 a33b
00000030: f23e ec32 d2ea bc3b 9db9 96b3 5db0 2dba
00000040: d6c4 23bd ec63 c2b5 9f6d a7bc 99da 333b
00000050: 063c ef3c 6978 08bc fb40 beb7 71a9 d8b6
00000060: 757d dbb9 63ab 2d3d e314 ff3b f69c 583d
00000070: 4f77 da3c bdf6 bca5 1a17 bdba 73e3 683d
-7.682961e-08 0.033513717 0.00060468767 0.0076020206 -9.147261e-09 -1.5171743e-07 0.0044526937 0.00608798
-0.006645864 0.0034567702 0.04662085 0.0049785976 2.750264e-08 0.0057652975 -7.018682e-08 -0.00066257064
-0.03998264 -1.4483207e-06 -0.020438014 0.0027443527 0.029203426 -0.008329489 -2.2680024e-05 -6.457027e-06
-0.00041864408 0.042399775 0.0077844723 0.052884065 0.026668219 -3.2779998e-16 -0.001442644 0.056857537

encoder_lin.0.weight f4 [64, 288]
00000000: cf9c e4b2 a35a 94b2 3835 1d34 3818 ac32
00000010: 70da 82af fc26 a3b3 adaf 60b3 e0ba 2632
00000020: 396a 0fb4 76d1 19bc 1e8e cebc 982a 97b9
00000030: a116 e73a a9a4 c93d 8688 65bc 1b66 3abc
00000040: 34ba b03d 19cc d43c 73a9 5ebc 9030 17bc
00000050: e4de a93a 1b93 e53c 6c46 e33c 3c0e c5bc
00000060: 6707 e9bc 90aa d33c a528 f3bb c486 983b
00000070: 466f 313c 3c78 a6bc 57f4 4a3b 19ed 9fbc
00000080: 3170 c13c 190e 163c 717d 813d fec8 e2bc
00000090: 2b82 2d31 0cca d6b2 be9a feb2 89fb aeb2
000000a0: 0146 33b0 9c53 51b2 9482 cab1 e8b8 02b2
000000b0: cf8b f6b0 5a48 4db4 3466 5e32 a063 d433
000000c0: d2f7 9a33 5fd2 11b4 5f2a 6033 70b6 eb32
000000d0: 6dd9 96b4 98a9 a0b4 dd64 f83b 3edc f43b
000000e0: 306d 15ba ee76 393a c979 01bd 9ee7 1d3d
000000f0: 1e23 8a3c 2469 613d 4d5b f9bb fca8 27bb
00000100: f683 75ba faf8 ff3c b14b 813c 160c dfbc
00000110: c9bf 353d e0e4 983b 7c92 ba3d a125 76bb
00000120: 392f 983c 53ca 753b 3d69 ec3a b2a6 38bb
00000130: 1bdd 97bc cd90 a63b 52f5 1abc 2ad1 8e3d
00000140: b1a3 0035 acf2 cabb 08e9 51bc 7257 52bc
00000150: 7831 c339 ed33 183d 3396 463c 4ef8 343c
00000160: a6b7 45bd 2b61 d6bc c222 cd3b f3fd 0cbd
00000170: d2b8 ebbb 1b63 7dbb bf65 963c be0e b6bc
00000180: a607 ed3a 9bd4 e53d 41aa a73c 0bc8 453b
00000190: 120c a53c 4fb9 c93b 6fac 173a 21ce b53a
000001a0: f456 02bc 70e6 32b9 b1ed a63a ac19 2b3d
000001b0: 32ed f4b4 3340 8cb4 5623 56b5 02c9 98b2
000001c0: 3d94 e4b2 c621 a7b4 3991 d1b3 4cba 28b2
000001d0: 830e 6db4 55ed f437 6a84 083c b8f3 9ebc
000001e0: b227 81bb 90e1 103d c4f3 923b 2682 a6bc
000001f0: 57d2 253d 88a2 afbb a1b6 2233 c96f 7d30
00000200: 4db8 ccb3 f3f2 0532 2ba2 00b1 4952 2a33
00000210: 3e47 aeb3 f958 a22f 4111 c232 9f7f ea3a
00000220: e3cf b1bb 387e 0eba d9bf c03b 2c38 02bc
00000230: 6f39 7abc f052 1dbd 9bb9 283c f409 1c3c
00000240: 2239 92bc 6c18 72bc 899d ffbc 55e9 71bc
00000250: 4c05 d53b 4705 fd3b c05d 8a3b f894 4cbe
00000260: 766c a43b 4f1d 9737 be13 22b8 bbf3 f137
00000270: 1e74 8537 52a7 8637 7817 8d36 dc49 e9b5
00000280: 7d70 ff35 a6f4 acb6 791f 06bc 4cfa d5bd
00000290: 005c a6bc bed8 8e3c 8cb6 ebbc 3ef4 4bbb
000002a0: 774c 5abd 6e20 39bd d312 5ebd b39c efba
000002b0: 5d39 e2bb d00d a6bc b475 cd3c e7ca 87bc
000002c0: bd79 b43a d518 1abd 063d 4dbd fd05 8dbd
000002d0: c407 373c be6e 2a3d d4ea 1b3c 3bda e4bc
000002e0: 372d 343b 1671 22bd 0cfd af3b 19d4 8dbb
000002f0: 8215 cdbb 6357 133b 4f88 383c 7ba3 973b
00000300: 0bd0 563d 8058 9cbd 2104 3d3d 5e03 973b
00000310: a5d0 ef3c ce9a a63c 14f3 3a35 7cf2 c1b6
00000320: 0d0d 2437 cea8 2bb7 9743 5734 c5a5 bfb6
00000330: 50f4 c237 0ffe 9bb7 3e0f 6fb6 af4b a337
00000340: 991f 8935 05a7 64b6 3216 f035 81a5 bc34
00000350: 97bc b1b6 a293 3fb5 966a f135 c9aa 6436
00000360: 79f0 3c38 9d77 ef38 d5ce d8b9 9db9 33b7
00000370: da45 e538 dd9f c5b7 9226 74b9 14cd 9a36
00000380: dabd 87b8 ebd8 673c 7856 89bc 8fd3 f4bb
00000390: 858b e8bc d72a 9e3d 18ce 3cbd 453b d83c
000003a0: 8d26 73bc 4cce 9c3b fd9e 933c 2597 d63b
000003b0: ad5e 9c3c 90bc a0bc 12be e5bb 7cf7 36bd
000003c0: df85 65bc a72b eb3b bdbb 89bb f5b6 b13b
000003d0: 4930 39bc 292f ea3c 482f b13b 05ea 88bd
000003e0: be51 0a3c c547 1b3d 2e3d 2b3d affe ee3b
000003f0: 9d07 1ebc 2775 ccba 098c 79bc a09f 62bc
-2.6614002e-08 -1.7270684e-08 1.4641125e-07 2.0034449e-08 -2.3802071e-10 -7.59737e-08 -5.231384e-08 9.704962e-09
-1.3356556e-07 -0.009388318 -0.025214251 -0.000288327 0.0017630645 0.098458596 -0.0140096005 -0.011376883
0.086292654 0.025976228 -0.0135902045 -0.009227887 0.0012960103 0.028024247 0.02774354 -0.024054639
-0.028445913 0.025838166 -0.0074206167 0.004654737 0.010829752 -0.020321004 0.0030968392 -0.019522237
0.023613067 0.009158635 0.06322754 -0.027683731 2.5248805e-09 -2.500476e-08 -2.963986e-08 -2.0370651e-08
-6.52193e-10 -1.2184412e-08 -5.8938188e-09 -7.609039e-09 -1.7938592e-09 -1.9118434e-07 1.2945339e-08 9.890141e-08
7.216262e-08 -1.358071e-07 5.21926e-08 2.7440564e-08 -2.8097875e-07 -2.9925718e-07 0.007580383 0.007472544
-0.0005700169 0.0007074912 -0.031610284 0.038550965 0.016862448 0.05503191 -0.007609761 -0.00255829
-0.0009365672 0.031246651 0.015783163 -0.027227443 0.044372354 0.004665956 0.09109971 -0.003755905
0.018577205 0.0037504628 0.0018036735 -0.002817553 -0.018538048 0.0050831796 -0.009457903 0.06973489
4.792192e-07 -0.0061934795 -0.012811907 -0.012838231 0.00037230155 0.037158895 0.012120771 0.011045529
-0.048270844 -0.02616938 0.006260247 -0.034421872 -0.007193663 -0.0038663808 0.018359063 -0.022223826
0.0018083944 0.11222192 0.020466926 0.003017905 0.020147357 0.0061561237 0.00057858875 0.0013870635
-0.007955302 -0.00017061247 0.0012735632 0.04177253 -4.5621124e-07 -2.6123743e-07 -7.9772633e-07 -1.7786537e-08
-2.6610104e-08 -3.1130747e-07 -9.758737e-08 -9.821246e-09 -2.2077624e-07 2.9197583e-05 0.008332351 -0.019403324
-0.0039414996 0.035371363 0.0044846255 -0.020325731 0.0404838 -0.0053599514 3.7884664e-08 9.219972e-10
-9.5330144e-08 7.796859e-09 -1.8718633e-09 3.9656047e-08 -8.115465e-08 2.9530847e-10 2.2592419e-08 0.0017890817
-0.0054263934 -0.0005435678 0.005882245 -0.007947963 -0.015272482 -0.038409173 0.010298158 0.009523857
-0.017849509 -0.01477633 -0.031203048 -0.014765103 0.0065008756 0.0077215764 0.0042226017 -0.19978702
0.0050178124 1.801425e-05 -3.8642196e-05 2.8842935e-05 1.5908907e-05 1.605196e-05 4.2048596e-06 -1.7381349e-06
1.9031719e-06 -5.1544803e-06 -0.008186215 -0.10448131 -0.02030754 0.017437335 -0.028773569 -0.0031120921
-0.05329558 -0.045196943 -0.05421717 -0.0018280953 -0.006903811 -0.020270258 0.02508054 -0.016576244
0.0013769191 -0.037621338 -0.050107025 -0.06885908 0.011171285 0.04160952 0.009516437 -0.027936092
0.002749277 -0.03965863 0.0053707417 -0.0043282625 -0.0062586674 0.0022482506 0.011262967 0.0046276427
0.0524445 -0.076340675 0.046146516 0.0046085557 0.029274294 0.020337489 6.9644125e-07 -5.780077e-06
9.7782e-06 -1.0231697e-05 2.0048024e-07 -5.7115417e-06 2.3240369e-05 -1.8595745e-05 -3.5622647e-06 1.9466357e-05
1.0216492e-06 -3.4071866e-06 1.7887853e-06 3.513815e-07 -5.296966e-06 -7.136788e-07 1.798692e-06 3.4074058e-06
4.504665e-05 0.00011418688 -0.00041352832 -1.0712448e-05 0.00010932582 -2.3558672e-05 -0.00023284022 4.613432e-06
-6.472664e-05 0.014150838 -0.016764864 -0.007471509 -0.02838684 0.07723015 -0.046094984 0.02639545
-0.014840734 0.0047853347 0.018020147 0.0065487796 0.019088114 -0.019621164 -0.0070111835 -0.044669613
-0.014008968 0.0071768346 -0.0042032884 0.0054234215 -0.011303016 0.02858694 0.0054072477 -0.06685261
0.00844234 0.03791024 0.041806392 0.0072935442 -0.00964537 -0.0015598879 -0.015231141 -0.013832003

encoder_lin.0.bias f4 [64]
00000000: 699d bb3b 4782 2f3c 060d 3bba 53a2 903b
00000010: a070 913c 2ae1 44bb 8a28 0fb5 6c22 fb34
00000020: 9dd8 6438 9f76 983c 35d7 87b6 4c6e f3ba
00000030: b669 5ebc 3694 b73b 1973 da34 5a09 8a3c
00000040: b847 cbbb 7adf ba3b f35b 9abc d691 8839
00000050: 4bae ca9a 14c9 54bb dc2d 313c a6ce a83b
00000060: f35d de3b 3ba5 f3b9 3833 283c c175 56ba
00000070: b0c5 b83c 3f0d 4235 18da 33bc c735 bf3b
00000080: 9ef0 1d3c 53bb e73a a775 ae3b c267 3f3b
00000090: 6c1f f938 96ef bd3b 54f0 2c3c 08d8 efbb
000000a0: 0671 6a3c d7c7 0b39 f95e 30b6 2fc1 933b
000000b0: 3e5d b2ba 8694 a83b 2586 6138 0284 1b99
000000c0: 855e 043c 7fbe 463b fbea 913a f593 dabb
000000d0: 9067 73b7 a526 91b7 99a8 41bc 1b26 04b2
000000e0: 2781 a93c 2305 f6bb 66f0 ac39 b680 d5ba
000000f0: a41f b73b 8811 503c 40a1 a43c 3e7b bdba
0.005725552 0.010712213 -0.00071354245 0.004413882 0.0177539 -0.0030041435 -5.3330643e-07 4.6777438e-07
5.4561173e-05 0.01861125 -4.048367e-06 -0.00185723 -0.013575008 0.005602385 4.068941e-07 0.016850162
-0.006203618 0.00570291 -0.018842673 0.00026048598 -8.382683e-23 -0.0032468485 0.010814156 0.0051515875
0.006786102 -0.00046471678 0.010266118 -0.0008180999 0.022555202 7.228991e-07 -0.010977291 0.005835268
0.009639887 0.0017679728 0.005324084 0.0029206132 0.00011879098 0.005796383 0.010555346 -0.007319454
0.014309173 0.00013330519 -2.6281325e-06 0.0045091133 -0.0013608111 0.0051446585 5.3769112e-05 -8.039971e-24
0.008079176 0.0030325947 0.0011132652 -0.00667047 -1.4508041e-05 -1.7303342e-05 -0.011819982 -7.692075e-09
0.020691467 -0.0075079366 0.00032985507 -0.0016288969 0.0055884887 0.012699492 0.020096421 -0.0014456285

encoder_lin.3.weight f4 [2, 64]
00000000: 3aad dbbd 95b7 bd3d 3bd3 903e 7cf4 803d
00000010: 6e94 d1be f9ed 003e 161e fd36 67e8 c5b6
00000020: 20f4 9eba 8e4e adbe 3c4f aab9 8b4a 8fbb
00000030: 538a 1b3f 7f2d f8bd a084 ba34 3940 833e
00000040: 2e8e 0e3f 80ec aa3e 3b2a b7bd 87d5 693b
00000050: b31e c838 860b 643d 820e 16be aed4 30be
00000060: 6103 60be 7558 c8bd 87f8 0bbe a96d 0b3f
00000070: a609 763d 5069 5b36 f2e5 ecbc 15ce 0bbe
00000080: e7c4 b9bd b643 df3e e4e9 67be 11f4 61be
00000090: af49 9ab9 894a e3be 1c40 08bf bd91 533e
000000a0: 583b b33d 9e01 9f3a 39de 36b7 ce7d fb3d
000000b0: e9a0 743b 9c92 1abe 020f 1239 414d 9339
000000c0: f5c2 afbe eee7 efbd e002 f0be 90c7 213f
000000d0: 09c5 afba 733f b9b7 6d7e b23c 5b88 4034
000000e0: 2db9 74be fd1f ae3d b391 f8bb 186b b03e
000000f0: 330a 913e 2f68 1f3e 8eb9 a2bd 854c 6ebd
00000100: c341 a1be cc79 95bd 8065 803e 5805 c3bc
00000110: 8d0a 4c3e 3ff0 203d 07a2 d336 869e 4937
00000120: a82f 4aba 766c 593e c6f9 8639 b180 eeba
00000130: c483 a2be 5ef2 aabe b563 8c35 b508 56be
00000140: cf62 cc3e fdaf bb3c b9e9 423f dc66 253c
00000150: 1ab2 1b38 3145 eebe 261f d13e 73b9 06be
00000160: 1922 42bd 49dc b539 bf47 b0be d51d 033e
00000170: b241 00be a359 b236 a130 c0be a7f1 b8be
00000180: fb83 54be 58fe 033f 444d 8abd e4d6 55bd
00000190: 865c 843a a27f b4be a8bc 843e e0cb 9bbe
000001a0: dfa9 b3bd 5879 843a 9745 1236 0b8b 58bc
000001b0: 2a50 8839 e87b 233f 5a9d de39 a7b0 6e38
000001c0: 48a9 b5be 2bf7 b6be 4d7d cabd 377c 82be
000001d0: 6c11 b9b8 316b ee38 5c85 463d 5ed9 7d34
000001e0: 0027 fd3d a5f8 323e b0db 62ba 9fc5 70be
000001f0: ef4f 9f3c f333 a0bd 3355 bfbd 546a 0cbf
-0.107264 0.09263531 0.28286156 0.06296632 -0.40933555 0.1259078 7.54349e-06 -5.8981127e-06
-0.0012127198 -0.33848995 -0.0003248396 -0.0043729 0.6075794 -0.12118053 3.4741697e-07 0.25634935
0.556857 0.3338356 -0.08943602 0.003568025 9.542461e-05 0.055675052 -0.14653972 -0.17268631
-0.21876289 -0.09782497 -0.13669024 0.54464203 0.060067795 3.2694843e-06 -0.02891824 -0.13652833
-0.09070759 0.43606347 -0.22647816 -0.2206576 -0.00029428068 -0.44392803 -0.53222823 0.20661063
0.08751553 0.0012131219 -1.0899786e-05 0.12279855 0.0037327355 -0.1509499 0.00013929236 0.00028095584
-0.34328428 -0.11714159 -0.46877193 0.63195133 -0.0013410161 -2.2083264e-05 0.0217888 1.7930999e-07
-0.23898764 0.08502195 -0.007585728 0.34456706 0.28328094 0.15567087 -0.07945548 -0.058178443
-0.31495485 -0.072986215 0.25077438 -0.023806259 0.199259 0.039291617 6.3071525e-06 1.2017443e-05
-0.000771279 0.21232781 0.00025744567 -0.0018196312 -0.31741154 -0.33388036 1.0459831e-06 -0.20901759
0.39919135 0.022911066 0.7613788 0.010095324 3.712075e-05 -0.46537164 0.40844077 -0.13156681
-0.0473958 0.00034687135 -0.34429738 0.12804349 -0.12525061 5.3152485e-06 -0.375371 -0.36121866
-0.20753472 0.5155997 -0.067530185 -0.05220689 0.0010098375 -0.35253626 0.25925183 -0.30428982
-0.08772635 0.0010106964 2.1796202e-06 -0.013216744 0.00025999668 0.6386094 0.00042460376 5.6908142e-05
-0.35480714 -0.3573545 -0.098871805 -0.25485393 -8.8247325e-05 0.0001136869 0.048467025 2.3641539e-07
0.12360954 0.17477663 -0.0008653952 -0.23512886 0.019447295 -0.078224085 -0.09342422 -0.54849744

encoder_lin.3.bias f4 [2]
00000000: 005b 38bd 94c1 cebc
-0.04500866 -0.02523879

decoder_lin.0.weight f4 [64, 2]
00000000: 5b6b 6b3e e0f7 a8be bc2f 97ba b68f 9bb9
00000010: 03b9 19bf 51e3 99bd 614b 943e ba15 26be
00000020: 9f26 8f3e a1f3 a4be 1cc6 8a3d 12b0 b4be
00000030: 4a3a c23e 356b 0bbe 2bdd 8c3e 3b59 df3e
00000040: 4041 2abe cad5 d3be 7a14 833e bab5 8fbe
00000050: f6f2 fe3c 835d 56bb 4e55 8c3e 325f a0be
00000060: f870 ac3e 91c2 083f fecd 003d 5c63 e9b9
00000070: 7e66 853e ee57 9fbe 1a8c 843e 45f0 86be
00000080: 8598 9739 279c d8bb 1cfe 2c3a a040 a7ba
00000090: 46ab 5ebe b04e a2be a9ef 7c3a 84e8 1dba
000000a0: 0531 193c 87be 3cbb 0bdb f23a 25bd 4eb9
000000b0: 7200 c93b bc4a 28ba 7787 7d3d d9eb ddbd
000000c0: b8fd afbe 810d e63e 03c4 d13c 529a 54bb
000000d0: 2173 bcbe ea9e cd3e 291f 5bbe 309c b8be
000000e0: d6c6 1bbf 8528 9dbd 93b0 79be 28c1 b9be
000000f0: 3201 ddbb f6bc 05ba 45ad 82be 51fc c2be
00000100: f5de a73e c388 053f c27c 423e eaf5 09be
00000110: 7b65 fd3c b639 2fbb bd47 093d 39f5 0ebb
00000120: d668 d0b9 66df 9cb9 940a 543e 9dd9 a4be
00000130: 54b9 acbe 8700 e63e efd2 f83c 2563 41bb
00000140: 1997 82bb 0b1d 6cba ca44 4fb9 892e 21b7
00000150: 4224 893b ed19 16bc d4e1 8c3a c766 adba
00000160: ccbf 813c a93c 2a3b f320 55be 9227 9ebe
00000170: 0c89 7b3e bc87 8abe d820 e93c 3a30 31bb
00000180: 9ae7 c7ba 67c3 ba3b e5af a73e 9aa4 033f
00000190: f978 2abe 9dc4 ddbe 1f49 753e 5335 75be
000001a0: 625e f23e aa04 c13d 5dad dd3c 1492 67bb
000001b0: c771 e63c df7f 74bb bfe6 6bbe 15d0 aebe
000001c0: bde7 4f3e bde4 96be 14ce 8c3e 48ec 4bbe
000001d0: 47d4 fa3e 638d ce3d 8194 25bc 1067 74bb
000001e0: 2be6 7c3b 6a2a b9bc 8f55 f93e 43a6 d43d
000001f0: e511 b23a d49f 80bb 5653 a33e 5501 8c3d
0.22990172 -0.33001614 -0.0011534612 -0.00029670977 -0.6004793 -0.0751406 0.2896376 -0.16219226
0.27959153 -0.32217124 0.067760676 -0.3529058 0.37935096 -0.13615115 0.27512488 0.43622765
-0.16626453 -0.41374046 0.2560156 -0.28068334 0.031121712 -0.0032709546 0.27408832 -0.31322628
0.33679938 0.53421885 0.03144645 -0.00044515252 0.26054758 -0.31121773 0.2588814 -0.26355186
0.000289146 -0.0066104117 0.00065991445 -0.0012760349 -0.21745023 -0.3170066 0.0009648749 -0.0006023722
0.009350066 -0.0028800087 0.0018528415 -0.00019716153 0.0061340863 -0.00064198277 0.061896767 -0.10836
-0.3437326 0.44932178 0.025606161 -0.0032440615 -0.36806586 0.40160304 -0.21398605 -0.36056662
-0.60850275 -0.07673744 -0.24383764 -0.3628018 -0.0067445273 -0.0005101705 -0.2552282 -0.38083127
0.3278729 0.52161807 0.18992904 -0.13472715 0.030932179 -0.002673728 0.03351568 -0.0021813645
-0.0003975096 -0.00029921083 0.2070716 -0.32197276 -0.33735144 0.44922277 0.030374018 -0.0029508558
-0.0039852974 -0.0009007013 -0.00019766684 -9.607183e-06 0.0041852305 -0.009161455 0.0010748454 -0.0013229483
0.015838526 0.0025976098 -0.2081335 -0.30889565 0.24563998 -0.27056682 0.028458044 -0.0027036802
-0.0015251518 0.0056995633 0.32751384 0.5142304 -0.1664771 -0.43314067 0.23953675 -0.23946123
0.47337633 0.09424718 0.027060205 -0.0035334872 0.028130425 -0.0037307662 -0.23037241 -0.3414313
0.20303245 -0.29471388 0.27500975 -0.19914353 0.4899008 0.10085561 -0.010106207 -0.0037292875
0.003858934 -0.022603232 0.4869809 0.103832744 0.0013585655 -0.003925303 0.31899518 0.068361916

decoder_lin.0.bias f4 [64]
00000000: 5d7b 203d c277 5abb c550 0d3e 7258 1cbd
00000010: a8b7 353e 45d1 39be 204b f7bb 6070 413d
00000020: ea4b 313e e30b 353d 2e6a 363f 3e28 103e
00000030: 197f 863d 9276 393f 5f3c 143e 8e8a a93c
00000040: 0ee1 48bc 7b9a 45bc 31f8 983b bd44 12bb
00000050: ed0d 893e 07e7 95bb b3f1 6fbc adc4 4fbd
00000060: 16b9 e83d 96f6 163f b21f 133e 80c5 683d
00000070: 5cd2 043e f079 6e3b eafd febb 8ee3 ee3b
00000080: 1eff 843d a207 c2bd 6f20 323f c2d3 3a3f
00000090: 7338 f9b9 7a05 fd37 9c95 e13d c7b0 273f
000000a0: d45b f6bb 654a 99b9 2aae 9dbc 5b20 05bc
000000b0: ed89 cebc 4b70 a8ba ad7e 2d3d 2581 263f
000000c0: 2320 7abc 0726 873d 67d7 423e 86d5 3c3c
000000d0: 46fd fcbc 841a 1f3f 4e61 2b3f 8a4d a43b
000000e0: a5ec 873c 7480 83bd 282f f8bc 9d89 91bc
000000f0: 307f ccbc 66bc 1bbd f8a4 86bc 1e51 b8bd
0.03918015 -0.0033335541 0.13800342 -0.038170286 0.1774584 -0.18146236 -0.0075467974 0.04722631
0.17314115 0.04420079 0.7125577 0.14077851 0.06567211 0.7244655 0.14476155 0.02069595
-0.0122606885 -0.012060757 0.0046682586 -0.0022318803 0.26768437 -0.0045746597 -0.014645028 -0.050724674
0.11363427 0.5897001 0.1436756 0.056828976 0.1297087 0.0036388598 -0.0077817338 0.00729031
0.06493972 -0.09474112 0.6958074 0.72979367 -0.0004753504 3.01625e-05 0.11014864 0.65504116
-0.007518271 -0.00029237862 -0.019248087 -0.00812539 -0.025212253 -0.0012850849 0.042357136 0.6504081
-0.015266451 0.0659905 0.19027482 0.011525517 -0.030882489 0.62149835 0.6694535 0.005014126
0.016592333 -0.06420985 -0.030295923 -0.017765814 -0.024962991 -0.038021468 -0.016436085 -0.08999847

decoder_lin.3.weight f4 [288, 64]
00000000: 3802 623c 533f c2ba 344c 4abb aa8a a63b
00000010: 657c c93c 5c63 a2bc 7aee 583c 6d6f 38bc
00000020: e152 193c 8636 693c f678 ee3c e3ea a03c
00000030: 5afc c5bc 4782 0c3d 94b3 a73c 2729 463c
00000040: d446 f639 fb16 8dba 90a9 443c 1d52 4f38
00000050: 1813 243c cd95 eb38 fc0d a139 065b 823b
00000060: ade0 38bd 4b93 ec3c 7faf 4fbd 3f54 473c
00000070: a37c 9dbb 826a 753c 09ea 17ba 0b01 123c
00000080: 5df5 91bc ff66 9e38 5b93 113d 3b53 083d
00000090: 5562 38b9 7f90 593c d4f8 59bd 5cc0 f03c
000000a0: 7a25 8dbb 5a47 9eb8 c79c a1b8 f55c 15b8
000000b0: 9b32 88ba 6007 2b3c 927b 8b3c 7170 db3c
000000c0: 8743 243b f7de 8bbc 5a23 563c f166 053c
000000d0: ed95 c13b e919 e23c cc25 003d 8c06 4d3c
000000e0: 508c 563c 5fcb 293a 693a c63b 7e71 88bb
000000f0: f5f5 c1ba 02d9 db3b b9ce 0cba c299 33b9
00000100: ab2e e9ba d540 80ba 553e 173d 5c88 58bb
00000110: 3d03 ebba 621b aa3c 3aad 29ba 53f3 3cbc
00000120: f0c3 3e3b 6203 03bb 0416 97bd 4f44 f7ba
00000130: 7b6d 80bc 4264 95bd c197 9dbb 434d 19ba
00000140: 6bf5 fc3a 96c5 deba 8549 c83c 843a 24b9
00000150: 0fc1 e5bc 05a6 0fba 6cc0 173b ec07 633a
00000160: e2b5 083c 12a8 7fbd cfbe 7a3c fb47 743c
00000170: 811d 0e3d 5d72 f43c 2360 493a 766e 183d
00000180: 231b 73bc 80a9 103a b10f 90bd c770 a0bd
00000190: ddf0 02b8 11ae 5eb9 2f60 273c 6ff3 8bbd
000001a0: 6e54 a3bb c207 9536 79fb 4c3b 6a0b 163a
000001b0: d824 6abb 3045 123d bef2 c4bb 55f6 8fbd
000001c0: a8b2 afba 7e63 2ebc ba64 c43a a578 8fb9
000001d0: 0bd1 1cbb 6fb7 80bd 30fe 88bd 7f07 013d
000001e0: b0a5 f0ba 26cf 9bba 0b0e 38bb 27cb 8e3a
000001f0: 197f 323b 8e37 17bb f5cc 6939 4dd3 c0b9
00000200: 0abf 9b3d c1fc 2c3a c0bb 3c3d 5ef2 d93c
00000210: 0241 883d e512 883d d45d 993c 28c6 7abd
00000220: 4a54 bdbc 728c 863d d5bb 3cbd 7caf 7b3d
00000230: 14da a2bd 763b 44bd 8acc 7e3d f37d 603d
00000240: efb9 56ba cc14 cc3a d257 36bc 930b 9bb8
00000250: a94a 82bc baef 243a 98b1 6aba c5ea 093d
00000260: 314e b13c 8926 05bd 2782 863c 3cb6 9dbc
00000270: ff39 333d c58e 1fbc f83d 063a 5977 67bc
00000280: 0c8e 7dbd 3ad6 293d e469 39bd ba8c 40bd
00000290: 80fc 3d37 d4e7 903d 041e 8a3c 4875 29bd
000002a0: 7590 cb3a 5125 1638 247b f0ba 161c b6b9
000002b0: 8436 1e37 e8c9 bebb 35c8 633d 1e1c 28bd
000002c0: 53eb 943b 0e25 89bd b1a3 f5bc 0092 533d
000002d0: 99ab cf3c d449 23bd 1dbb 35bd 6ffa 37bc
000002e0: 887e 853d 732c 483d 527f c53c cd92 46ba
000002f0: 1fbb 113b 9855 bb3c 6eb8 6ab9 2d49 ef3c
00000300: 3473 03bd f914 c4b9 ba24 17bd b79c 0cbd
00000310: ea35 4abd 941a 97bb e164 47bd 5b64 0e3c
00000320: e46e 663c 5eec 23bd 91e1 113d 9891 4ebd
00000330: feb9 d53b e623 fb3c 1cae 3bbd b5b3 12bd
00000340: 8d86 5dba a90f caba 846c 81ba a467 feb9
00000350: a000 273c 48c3 93b9 3b7f 1fbb c03f 9cbb
00000360: 09f6 8bbc b3e6 ca3c 9c5f 81bc aca3 063c
00000370: ab53 0fbd 9093 a239 5f0c 89b9 8c7c a5ba
00000380: b7d1 2b3c c444 43bc 6a7d f63c da06 fd3c
00000390: 2963 36b9 3fb5 c6bc dd53 67bc 7115 f33c
000003a0: fd9d 2d3a 7c36 03b7 4b0e f5b9 1b42 8c39
000003b0: 3170 2cbb 9c4b 5cba 025f 1abd 86e4 e43c
000003c0: 15eb 1d39 9247 563c 6da1 7f3c 2532 0abd
000003d0: 5311 0abd a1fd ec3c 7380 053d 270f 1f3a
000003e0: 58b1 edbc 67ca e5bc 514d 04bd 7646 7cbb
000003f0: d321 a8ba aece 0fbd afe6 b7ba 373c 3fbc
0.013794474 -0.0014819897 -0.0030868175 0.005082448 0.024595449 -0.019822769 0.013240451 -0.011257035
0.009358139 0.014234191 0.029110413 0.019643253 -0.024168182 0.03430393 0.020471372 0.012094772
0.00046973547 -0.0010764295 0.0120033175 4.942912e-05 0.010014318 0.00011233576 0.00030718732 0.003978136
-0.045136143 0.028878829 -0.050704475 0.012166082 -0.0048061176 0.014979007 -0.0005795067 0.0089113815
-0.017817194 7.5532116e-05 0.03554092 0.0332825 -0.00017584239 0.013279079 -0.053215817 0.0293886
-0.004307446 -7.547317e-05 -7.70628e-05 -3.561094e-05 -0.0010391058 0.01043877 0.017026696 0.026787015
0.0025064663 -0.017074091 0.013069952 0.008142219 0.005907765 0.027600246 0.031286046 0.012513768
0.013094977 0.0006477143 0.0060494435 -0.00416392 -0.0014798032 0.006709219 -0.000537138 -0.0001712805
-0.0017790397 -0.0009784946 0.03692468 -0.003304026 -0.0017930042 0.02076501 -0.0006472651 -0.011532622
0.0029108487 -0.001999103 -0.07377246 -0.0018864962 -0.015677204 -0.07294513 -0.0048093502 -0.0005848
0.0019299214 -0.0016996141 0.02444912 -0.00015662058 -0.02804616 -0.0005479756 0.0023155464 0.0008660543
0.0083441455 -0.062416144 0.015304281 0.01490974 0.034696106 0.029839689 0.0007681867 0.03721472
-0.014838013 0.00055184215 -0.07034243 -0.078340106 -3.1218737e-05 -0.00021236415 0.010215803 -0.06833541
-0.00498443 4.441449e-06 0.003127782 0.0005723747 -0.0035727527 0.035710514 -0.0060103824 -0.07029406
-0.0013404684 -0.010643838 0.0014983632 -0.00027364973 -0.002392831 -0.06284987 -0.066891074 0.03150129
-0.0018359926 -0.0011887297 -0.0028084542 0.0010894284 0.00272364 -0.0023073885 0.00022296964 -0.00036778525
0.07604797 0.00065989426 0.04607749 0.026604827 0.06653024 0.06644229 0.018721499 -0.061224133
-0.023111481 0.065697566 -0.046077568 0.06144665 -0.07951751 -0.04790827 0.062206782 0.054807615
-0.00081911584 0.0015570163 -0.011129336 -7.393132e-05 -0.015904741 0.00062918256 -0.0008952855 0.03367116
0.02164373 -0.032507453 0.016419483 -0.019251935 0.04375648 -0.009738629 0.00051209284 -0.014127576
-0.061903045 0.041464068 -0.045267 -0.047009207 1.1324068e-05 0.07075468 0.016860016 -0.041371614
0.0015530722 3.579754e-05 -0.0018347246 -0.0003473467 9.430227e-06 -0.005822409 0.055610854 -0.04104244
0.0045446544 -0.06696521 -0.02998528 0.05165291 0.025350379 -0.03986533 -0.0443679 -0.011229142
0.065182745 0.048870515 0.024108563 -0.00075749756 0.0022236777 0.022867963 -0.00022384684 0.029209698
-0.032092288 -0.0003739966 -0.03690026 -0.034329142 -0.049367823 -0.0046113227 -0.04868019 0.008690919
0.014064524 -0.04002034 0.035615508 -0.050431818 0.006522416 0.030656766 -0.04582034 -0.035815913
-0.00084505306 -0.0015416044 -0.0009874259 -0.00048523874 0.01019302 -0.0002818352 -0.002433731 -0.004768342
-0.017085092 0.02476821 -0.01579266 0.008217733 -0.0349919 0.0003100899 -0.00026139893 -0.0012625619
0.010487012 -0.0119182505 0.030089099 0.030887056 -0.00017393813 -0.024256347 -0.014119116 0.02967331
0.00066229684 -7.820894e-06 -0.0004674069 0.00026752133 -0.0026311988 -0.00084036007 -0.037688263 0.027941
0.00015060262 0.013078587 0.015602452 -0.033739228 -0.033707928 0.028929533 0.0325932 0.00060676265
-0.029015228 -0.028050615 -0.032300297 -0.0038494146 -0.0012827463 -0.035109214 -0.0014030541 -0.011672071

decoder_lin.3.bias f4 [288]
00000000: 07a9 283d b553 d3bd eba7 8ebd 1ee9 313d
00000010: 758d a5b8 1400 e93d af9d b5bd ba3a 3831
00000020: 89e2 c93d e582 859c 78ce 0dbb ce1e ac29
00000030: c5f0 fcb4 38fa f4b2 3bc7 f83b 70e8 a23d
00000040: 4705 8c3e a77e f83d 4e67 2abd 8e4a 043e
00000050: aabc 19bd aa43 90bd 7e86 d9bc a61d 1cbd
00000060: 71eb 9a3b ab84 1e2f 2dce 72bd 9419 e23d
00000070: 3d57 f3ba 3ec8 4d3d 4247 cc3d 34e2 c0bd
00000080: 10ac aeb0 b175 dd3d 227d dbb7 0f10 bfb2
00000090: 0339 e1b6 99df 622c bab0 2617 fa5b 4f3d
000000a0: f430 42bc 4dfe 76b4 f151 0bbd 2cd9 89b6
000000b0: 896c b33c fb97 f3bb b94a d5b3 b554 d7b6
000000c0: 680f 173d cc77 013e 08bb 2bbb b80f 433c
000000d0: a592 a83c 73dc b2a4 31db 06bb 333f 2cbc
000000e0: bae8 433c 1048 3abd b0bb 0e3e 2466 8a3d
000000f0: 2dc2 15bd ab19 19b9 8ac8 263e 83f7 6dbb
00000100: e28b 82bd a602 52bd ea7f 843d b9f4 c53d
00000110: 324e b1bc 5950 9f3d 0601 55bc 8b7f 193d
00000120: 39fc d23c ae6d 2f3a 646d 2ebd a229 e3bc
00000130: 35bc 41be ca2e f6bc 8178 89bd fd5f ee3a
00000140: 3146 6fbb 9e60 2f3c 4e6a 82bd d094 b8bc
00000150: 81b4 593d c4c7 b33c 11e2 0b3e a7eb 1cbc
00000160: 32d9 85bd c944 df3c 6428 953c 18b8 9ebd
00000170: c0fc fa3d deab ceb9 3b2e 4596 43e2 cc3d
00000180: 991b 96bd fd83 302c 6236 f33d ea53 943c
00000190: 0e22 b2aa c592 1c3d 849e 1a37 020b 62bd
000001a0: c80f 59bd 892f 083d 552f 3e98 7c1f bfbb
000001b0: 5c32 c8bc 749a cabb 7eee e93d 47fd 39bd
000001c0: 5ebf 0fba 05b3 1a3e e562 8d3d f447 1bbc
000001d0: f824 173e 5417 a33d 2dac fdbb f340 a1b7
000001e0: a698 da3d 04a7 55bd 68ee a3bd d8c4 dd3c
000001f0: 3e27 03b3 fdc0 303a c5d8 34bc 7565 ac3d
00000200: b6df e33c 57cd 0ebc 4cd6 b73d d780 aa3d
00000210: 2e5d 4fbd 4851 9626 e9f6 303c 933e 89bc
00000220: ad26 bbb7 a68e 61bc 8c5c 263b eb3d 11be
00000230: e6f1 3d3d 8cf7 7bbc e7a0 5d2a 3be7 21bd
00000240: 5219 43ab cfd7 453e 075c 04b7 c70f 34bd
00000250: cce4 0f3e 093a f68e 9e3e 4fbc 8775 8b3c
00000260: 4580 3bbd 6ccb 9e3c 2708 aabd 373d 873c
00000270: 4185 1d3d 8173 a2bd 8471 883d 3fbb 64bd
00000280: b760 2abd 6775 b73c d4a6 953d 455e 1d3e
00000290: 06de de3d 484f 8c3d 37a2 91bd 8c7e 9f3d
000002a0: 7587 ac3d b8c9 7e3d b300 b8b0 db61 1abd
000002b0: fff2 e2b8 3842 203d 9af7 013d d0ee ef3c
000002c0: 29f8 cb3c 62d2 83bb b675 beb6 531f 99bd
000002d0: ac57 3bbd d861 a63d bec0 a5bd f71e f63d
000002e0: 8926 84ba bec1 d2bc 33cb 35bd 7a3c 01be
000002f0: b47b 583c 1b84 923d 0186 8db1 a3ee b33c
00000300: 00b2 6c3d eeb4 bc26 10f7 8ab4 2c99 f23d
00000310: 0672 d4bc 2e9b e7b7 ba60 76af b0eb 1f3d
00000320: fa87 ef3d 0c23 10b1 ddf5 53bd 3063 5e3e
00000330: 85a0 423d 49de 10bc c694 b83d 7129 3eb9
00000340: aaba a194 aebd 873d 6248 722d d5d3 e3bb
00000350: b30d f43d 1762 70bb 961b c5ba 25ee 103e
00000360: d2f1 7eb4 b519 acb8 9b49 163d b37f 99bb
00000370: e70e 0e25 8d93 47b9 5284 873d 3917 b13d
00000380: e010 aa3d b1d9 ca3b 95d0 713d a67b a5bc
00000390: c25c 1cbe 5679 473e 758f 6dbd 43e3 79bb
000003a0: 4b11 573d 8758 79bd d6a0 9b28 8b97 3a0b
000003b0: b197 b83d b819 21b7 6dba de3d 93c4 07bc
000003c0: 80b4 03b9 356c 083e 51c7 ca3d 72d8 5d3d
000003d0: 1cda 5cbd cd95 d43d 514b 1ebd 1884 37b4
000003e0: 621f a39c 09b2 32b9 60c7 a6ad f146 04b7
000003f0: 2eef 5f3d 270b a4b1 9adf 4a3d b8f8 653d
0.041176822 -0.103187 -0.069656216 0.04343521 -7.8941615e-05 0.11376968 -0.088679664 2.6808906e-09
0.09857661 -8.835037e-22 -0.0021637958 7.643678e-14 -4.711384e-07 -2.8519125e-08 0.0075921095 0.0795449
0.27347776 0.12133532 -0.041602425 0.12919065 -0.03753344 -0.07044156 -0.026553389 -0.038114212
0.004727774 1.441715e-10 -0.059278656 0.11040035 -0.0018565428 0.050239794 0.09974529 -0.09418145
-1.2709069e-09 0.108134635 -2.6165104e-05 -2.2242629e-08 -6.7121596e-06 3.2240653e-12 5.3860553e-25 0.050624825
-0.011852492 -2.300305e-07 -0.034013692 -4.1082003e-06 0.02190234 -0.007433889 -9.9321774e-08 -6.4173605e-06
0.036879927 0.12643355 -0.0026204009 0.011905603 0.020577738 -7.756865e-17 -0.0020577426 -0.010513115
0.011957342 -0.04547888 0.13938785 0.06757763 -0.036562134 -0.00014600779 0.16287437 -0.0036310859
-0.06374337 -0.051272057 0.0646971 0.09665818 -0.021643732 0.07778997 -0.013000732 0.03747515
0.025755035 0.0006692064 -0.04258479 -0.027729813 -0.18919452 -0.030051608 -0.067124374 0.0018186566
-0.0036510343 0.010704188 -0.06367932 -0.022531897 0.053150658 0.021945842 0.13660456 -0.009577668
-0.06535567 0.027254479 0.018207736 -0.07749957 0.122552395 -0.00039419433 -1.5928121e-25 0.100040935
-0.073294826 2.5084373e-12 0.11875607 0.01810642 -3.1642782e-13 0.038225908 9.216023e-06 -0.05518628
-0.052993566 0.033248458 -2.4580821e-24 -0.0058326107 -0.024438076 -0.006182963 0.11422442 -0.04540756
-0.0005483533 0.15107353 0.06903628 -0.009477604 0.14760196 0.07963434 -0.007741472 -1.922294e-05
0.10673647 -0.05216123 -0.08004457 0.027071401 -3.0536505e-08 0.00067426247 -0.01103801 0.08417789
0.027816635 -0.008715949 0.08976421 0.083253555 -0.050625972 1.0430372e-15 0.0108010555 -0.01675347
-2.2310147e-05 -0.01376692 0.0025384752 -0.14183776 0.04637327 -0.015378844 1.9684567e-13 -0.03952716
-6.9313056e-13 0.19320606 -7.88924e-06 -0.04396036 0.14052123 -6.0699568e-30 -0.012649206 0.017023815
-0.045776624 0.019384108 -0.08302336 0.016508682 0.03845716 -0.07932187 0.066622764 -0.055842634
-0.04159614 0.022394849 0.073072106 0.15367992 0.10882191 0.06851059 -0.07111018 0.07787809
0.08424274 0.062204093 -1.3387961e-09 -0.03769098 -0.00010821781 0.03912565 0.031730272 0.02928868
0.024898605 -0.0040228823 -5.6761446e-06 -0.07476678 -0.045737907 0.08124131 -0.08093403 0.12017625
-0.0010082285 -0.02572715 -0.04438324 -0.12620726 0.013213087 0.07154103 -4.1188746e-09 0.021964377
0.05778694 1.3094162e-15 -2.5884265e-07 0.118456215 -0.025933277 -2.7609607e-05 -2.2407934e-10 0.03904313
0.11695857 -2.097468e-09 -0.051748145 0.21717525 0.047516365 -0.008842059 0.09012751 -0.0001813525
-1.6330472e-26 0.066279754 1.377218e-11 -0.0069527426 0.119166754 -0.003667956 -0.0015038128 0.14153345
-2.3743567e-07 -8.2063874e-05 0.03669129 -0.0046844124 1.2321586e-16 -0.00019033086 0.06617035 0.086470075
0.08304 0.0061905016 0.05903681 -0.020200562 -0.1526976 0.1947988 -0.05799814 -0.0038129843
0.052506726 -0.060875442 1.7278208e-14 3.5936305e-32 0.09013308 -9.602336e-06 0.10875402 -0.008286613
-0.00012560375 0.13322528 0.09901298 0.054161496 -0.053918943 0.10380135 -0.038646046 -1.7091259e-07
-1.0794547e-21 -0.00017041726 -1.8960555e-11 -7.88433e-06 0.05467146 -4.774296e-09 0.04952965 0.0561454
