Nicola_Dainese_Ex4_NN/params/gaussian_net_params_16.pth (torch_old, 208037 bytes, 19 tensors)

encoder_cnn.0.weight f4 [8, 1, 3, 3]
0.3285103 0.5354041 0.45416397 0.5789604 0.7743742 0.6235368 0.47147003 0.6002549
0.4016457 -8.915329e-06 -9.342946e-06 -9.330474e-06 -9.5248915e-06 -9.924093e-06 -9.79917e-06 -8.480396e-06
-8.943236e-06 -9.033706e-06 0.3261631 0.53412557 0.45470685 0.57703465 0.77380395 0.62478733
0.47077912 0.5978883 0.40042463 -4.1386407e-08 -6.0332155e-08 -6.395942e-08 -6.41094e-08 -9.0576464e-08
-8.488673e-08 -9.514328e-08 -1.2637231e-07 -1.1778016e-07 -8.979832e-12 -1.4014176e-11 -1.726818e-11 -1.2672058e-11
-2.0041718e-11 -2.3348098e-11 -1.6092518e-11 -2.2457878e-11 -2.4602988e-11 -1.945526e-05 -1.7332568e-05 -1.8495615e-05
-1.704771e-05 -1.6293046e-05 -1.8539044e-05 -1.7016997e-05 -1.6687167e-05 -1.9904382e-05 7.253164e-08 -4.8627277e-07
-3.7033e-07 -4.721542e-07 -2.780454e-07 -3.2355078e-07 -4.00573e-07 -1.9390748e-07 -2.0321644e-07 0.33078003
0.53839785 0.45587453 0.58076096 0.77589256 0.62370545 0.47086987 0.59780747 0.3977286
00000000: 8132 a83e 3e10 093f 2e88 e83e c036 143f
00000010: 633d 463f 1ca0 1f3f 8564 f13e 4eaa 193f
00000020: 81a4 cd3e 0c93 15b7 a6bf 1cb7 158a 1cb7
00000030: 19cd 1fb7 a87f 26b7 1d67 24b7 0647 0eb7
00000040: e80a 16b7 798f 17b7 dafe a63e 74bc 083f
00000050: 56cf e83e 8bb8 133f 0418 463f 10f2 1f3f
00000060: f609 f13e 350f 193f 7504 cd3e d6c0 31b3
00000070: f48f 81b3 105a 89b3 84ac 89b3 f082 c2b3
00000080: f94a b6b3 9251 ccb3 f5b0 07b4 54ee fcb3
00000090: 91f9 1dad 3d8a 76ad 7ce4 97ad e0ed 5ead
000000a0: f049 b0ad 3e5f cdad 218d 8dad a58a c5ad
000000b0: 0169 d8ad da33 a3b7 6865 91b7 0827 9bb7
000000c0: ae01 8fb7 0dad 88b7 4b84 9bb7 b9bf 8eb7
000000d0: 6bfb 8bb7 56f8 a6b7 b1c2 9b33 6988 02b5
000000e0: c5d1 c6b4 617c fdb4 4546 95b4 7bb4 adb4
000000f0: 550e d7b4 e234 50b4 b633 5ab4 005c a93e
00000100: 71d4 093f 6368 e93e c0ac 143f e5a0 463f
00000110: 29ab 1f3f db15 f13e e909 193f 15a3 cb3e

encoder_cnn.0.bias f4 [8]
-0.00025784265 -1.9503914e-05 -0.0011492312 -1.5175378e-07 -1.6240771e-11 -0.00012071166 -5.4183596e-07 -6.49133e-05
00000000: 0e2f 87b9 569c a3b7 cda1 96ba c3f1 22b4
00000010: f7da 8ead 9426 fdb8 af72 11b5 1022 88b8

encoder_cnn.3.weight f4 [16, 8, 3, 3]
-0.00028355038 -0.0006580896 -0.0007597952 0.0008641878 0.00036073345 -0.0008589275 0.00086003065 0.00052846584
0.00034989195 1.42137e-40 3.2542e-41 6.3047e-41 -1.2079e-40 -1.19854e-40 1.05323e-40 8.9586e-41
4.5981e-41 6.1339e-41 -0.00017350375 -0.00094539876 -0.00091148744 0.0006942439 2.6520738e-05 -0.00088630227
-0.00018338041 0.0004058551 -0.0010735355 -2.3617e-41 -9.2082e-41 -8.8014e-41 -1.36998e-40 -8.4156e-41
-1.49654e-40 1.10771e-40 -6.3386e-41 -1.2445e-40 5.4421892e-15 -1.4355187e-14 6.1746974e-15 -1.0958413e-14
-1.589022e-14 2.2101917e-15 7.230756e-15 8.877833e-15 -1.812325e-14 -5.875489e-09 -6.2898966e-09 -6.132277e-09
-6.8449104e-09 -7.2610447e-09 -7.613465e-09 -6.7048553e-09 -7.583878e-09 -8.052851e-09 2.81187e-40 4.19169e-40
2.6576e-41 -7.6119e-41 -5.9974e-41 9.9384e-41 1.93815e-40 6.41077e-40 2.816e-40 -0.0013175703
-0.0007394617 -0.0008216028 -8.442021e-05 -0.00035536077 -0.0009540728 -0.00022627557 -0.0007510063 -8.719601e-05
-0.002089635 -0.0022258915 -0.0020318883 -0.001767903 -0.0018991831 -0.0021187745 -0.0018886189 -0.0018212817
-0.0021187281 -9.2558435e-12 -2.1028832e-12 7.3900743e-13 -4.536181e-12 -1.8793968e-12 -2.8596034e-12 -4.1157073e-12
9.087736e-13 -2.6113113e-12 -0.0021110694 -0.0021091937 -0.002659639 -0.0018692085 -0.0018810233 -0.002220928
-0.0018341158 -0.0018389624 -0.0025349692 -6.8887466e-15 9.183603e-16 5.71495e-13 8.808408e-15 -1.8482149e-14
-5.7945395e-14 2.9143297e-14 1.4326144e-14 3.550876e-13 -1.9497e-40 -1.98893e-40 3.35526e-40 -6.80913e-40
-8.947e-41 1.61643e-40 3.42574e-40 -2.06621e-40 -4.3221e-40 -1.104e-40 -1.08511e-40 -8.8355e-41
-3.8023e-41 -8.662e-41 -9.6456e-41 -1.09825e-40 -8.8873e-41 -1.04102e-40 7.206486e-10 1.319413e-09
-1.637673e-09 -2.109058e-10 -2.296157e-10 4.892751e-10 -1.5177138e-09 -1.5837306e-09 -1.5601517e-09 -0.0021293245
-0.002246126 -0.0022256544 -0.0018219246 -0.0018626809 -0.0020189164 -0.0018294331 -0.0018027574 -0.0024489218
0.18214197 0.17056692 0.10011028 0.2257314 0.0051618735 -0.023406515 0.0044366512 -0.32915938
-0.25559637 1.7510747e-06 -2.305679e-06 -2.2774742e-05 -1.0939224e-05 3.0884846e-06 5.476616e-06 -1.3281715e-06
-1.519894e-06 -2.4041724e-06 0.18286552 0.16622676 0.098657265 0.23038954 0.0063558654 -0.02097333
0.0049967063 -0.33035013 -0.2571755 -3.5399804e-08 1.3633413e-08 5.668171e-08 -1.7591219e-07 8.438484e-08
-1.3211588e-08 1.8281685e-08 -7.552394e-09 6.595333e-07 7.4885855e-13 -2.2419514e-14 2.3103908e-12 1.658111e-12
1.6166237e-12 2.7690467e-12 -4.766482e-13 -2.7322155e-13 1.4756566e-12 1.2379683e-05 1.2729866e-05 -3.3901906e-05
8.133329e-06 1.2964362e-05 -3.3704586e-05 6.4189124e-05 -3.0371075e-05 -5.789229e-07 -1.8689035e-07 -5.2775675e-07
-4.998648e-07 -3.909121e-07 -6.185136e-08 -1.18606486e-07 -1.9332465e-07 -2.2517625e-07 -1.6751028e-07 0.18258369
0.16694403 0.10212769 0.23085688 0.0084400335 -0.021736396 0.002854428 -0.32660553 -0.2556714
-0.00093971693 -0.0009035951 -0.0007851434 -0.0011538957 -0.001006383 -0.0007341497 -0.0012616478 -0.0010157862
-0.0008050463 -3.1950925e-10 -3.1603317e-10 -2.5729543e-10 -4.0016665e-10 -3.942756e-10 -2.093469e-10 -4.0660628e-10
-2.7445604e-10 -2.1576267e-10 -0.000917738 -0.00091709755 -0.0007669243 -0.0011472921 -0.001001382 -0.0007424346
-0.0012311031 -0.0010459351 -0.000782949 -1.5857683e-11 1.101179e-11 6.774437e-12 9.318438e-12 2.255635e-11
2.1946897e-11 1.4568314e-11 3.1311696e-11 2.488247e-11 -9.507294e-16 -1.2209913e-15 -1.8853084e-15 5.7306277e-15
00000000: 7da9 94b9 a583 2cba fe2c 47ba a98a 623a
00000010: d320 bd39 a629 61ba ae73 613a be88 0a3a
00000020: b471 b739 388c 0100 b75a 0000 c0af 0000
00000030: b750 0180 1b4e 0180 9925 0100 bbf9 0000
00000040: 2d80 0000 fdaa 0000 8fee 35b9 a3d4 77ba
00000050: e3f0 6eba ebfd 353a da78 de37 bd56 68ba
00000060: ce49 40b9 f3c8 d439 e0b5 8cba d641 0080
00000070: b000 0180 59f5 0080 e57d 0180 98ea 0080
00000080: 2da1 0180 c934 0100 b2b0 0080 ea5a 0180
00000090: 5613 c427 cf4c 81a8 8877 de27 c368 45a8
000000a0: 5a20 8fa8 d742 1f27 fa41 0228 c7ed 1f28
000000b0: 5f3d a3a8 59e1 c9b1 841e d8b1 14b4 d2b1
000000c0: 7830 ebb1 d37c f9b1 60cc 02b2 8860 e6b1
000000d0: 404a 02b2 d058 0ab2 d60f 0300 7990 0400
000000e0: 154a 0000 30d4 0080 2fa7 0080 0b15 0100
000000f0: 471c 0200 10fb 0600 fc10 0300 53b2 acba
00000100: 6fd8 41ba d560 57ba c10a b1b8 b74f bab9
00000110: be1a 7aba 6344 6db9 2edf 44ba 00dd b6b8
00000120: 42f2 08bb 43e0 11bb 6e29 05bb fbb8 e7ba
00000130: 03ee f8ba 23db 0abb 898b f7ba 13b8 eeba
00000140: 5cda 0abb 9dd4 22ad 2dfa 13ac 1903 502b
00000150: 499a 9fac 3440 04ac 093a 49ac ffce 90ac
00000160: 0acc 7f2b 34c1 37ac de59 0abb 663a 0abb
00000170: 574d 2ebb 3b00 f5ba ab8c f6ba fd8c 11bb
00000180: b766 f0ba 5709 f1ba ba21 26bb 7931 f8a7
00000190: 8459 8426 8edc 202b 9dad 1e28 ef78 a6a8
000001a0: 3f7b 82a9 ef3f 0329 d709 8128 84e5 c72a
000001b0: 7f1f 0280 6f2a 0280 4fa7 0300 1c6a 0780
000001c0: 68f9 0080 98c2 0100 f5ba 0300 fa3f 0280
000001d0: d3b4 0480 c033 0180 7c2e 0180 4cf6 0080
000001e0: fe69 0080 76f1 0080 e10c 0180 2632 0180
000001f0: bef7 0080 3222 0180 2317 4630 b856 b530
00000200: 7f14 e1b0 b5e4 67af 1377 7caf ad7d 0630
00000210: cf97 d0b0 91aa d9b0 f56c d6b0 238c 0bbb
00000220: be33 13bb 49dc 11bb a5cd eeba 3325 f4ba
00000230: cc4f 04bb 97c9 efba 804a ecba 177e 20bb
00000240: 6d83 3a3e 18a9 2e3e 9e06 cd3d 2226 673e
00000250: ef24 a93b 05bf bfbc 5461 913b 9487 a8be
00000260: 87dd 82be 7806 eb35 43bb 1ab6 630c bfb7
00000270: 9c87 37b7 c343 4f36 c6c3 b736 a043 b2b5
00000280: 29ff cbb5 5e57 21b6 1941 3b3e 5937 2a3e
00000290: d20c ca3d 3ceb 6b3e dd44 d03b 43d0 abbc
000002a0: 69bb a33b a723 a9be 82ac 83be 7f0a 18b3
000002b0: 6238 6a32 3372 7333 60e2 3cb4 0e37 b533
000002c0: 2ef9 62b2 da09 9d32 c8bf 01b2 c90a 3135
000002d0: f2c8 522b e1ef c9a8 4d94 222c bf5b e92b
000002e0: 0285 e32b b6da 422c 1f2a 06ab 60cf 99aa
000002f0: 22ae cf2b 55b2 4f37 5c92 5537 e531 0eb8
00000300: 6274 0837 8381 5937 065e 0db8 469d 8638
00000310: 63c5 feb7 4767 1bb5 07ac 48b4 2bab 0db5
00000320: 732e 06b5 8dde d1b4 25d3 84b3 9bb4 feb3
00000330: ad94 4fb4 fac7 71b4 e0dc 33b4 38f7 3a3e
00000340: 60f3 2a3e 5328 d13d bf65 6c3e 1148 0a3c
00000350: 8710 b2bc 5b11 3b3b d738 a7be 5de7 82be
00000360: 5657 76ba 3edf 6cba 15d2 4dba 513e 97ba
00000370: 9ce8 83ba f473 40ba e05d a5ba 2124 85ba
00000380: be09 53ba eea6 afaf b7bd adaf 1d73 8daf
00000390: 73fe dbaf 5cc1 d8af ea2d 66af bf88 dfaf
000003a0: 41e2 96af cb3b 6daf 5b94 70ba 6069 70ba
000003b0: 6b0b 49ba bc60 96ba ce40 83ba f19f 42ba
000003c0: f75c a1ba c217 89ba d13e 4dba 547c 8bad
000003d0: b1b8 412d b45a ee2c 84ee 232d 6268 c62d
000003e0: 050c c12d ed24 802d d6b5 092e 57de da2d
000003f0: b903 89a6 a1f6 afa6 cdd9 07a7 b677 ce27

encoder_cnn.3.bias f4 [16]
-6.388999e-05 -0.00033430711 1.0992438 -0.0003132561 -0.0023377656 1.1159178 -2.8451764e-18 -8.670476e-06
-0.0038876203 -8.553373e-05 -0.0044917557 -0.0009977394 -0.0020987382 -0.0016021035 0.60254407 -2.6951945e-08
00000000: adfc 85b8 f145 afb9 05b4 8c3f 863c a4b9
00000010: 3335 19bb 65d6 8e3f ddef 51a2 6977 11b7
00000020: 72c7 7ebb 9260 b3b8 942f 93bb 94c6 82ba
00000030: fc8a 09bb acfd d1ba 5440 1a3f f483 e7b2

encoder_cnn.6.weight f4 [32, 16, 3, 3]
-1.69746e-40 2.87382e-40 3.81967e-40 -4.52821e-40 -2.07095e-40 6.6017e-41 -2.00171e-40 3.92818e-40
7.6986e-41 3.932344e-09 1.0375054e-08 4.5868575e-08 -9.1709024e-10 6.8379906e-09 -9.662576e-08 2.4190279e-09
-1.8434185e-09 1.5966538e-07 -8.713047e-06 -6.6084726e-06 -1.2795192e-05 -8.92443e-06 -7.717326e-06 -9.257545e-06
-7.1100876e-06 -7.0130536e-06 -1.1940286e-05 9.0276835e-09 3.7248064e-08 7.015393e-08 -1.630501e-08 3.767638e-08
-3.0133656e-08 -9.5510195e-09 2.1448246e-08 1.1347246e-08 -2.921692e-06 -3.7429295e-06 -2.4133698e-05 -3.6535262e-06
-7.4342715e-06 -2.8499331e-05 -6.1862494e-07 -5.334326e-06 -2.7032596e-05 -1.1468442e-05 -1.2028601e-05 -1.0268944e-05
-1.1481692e-05 -1.0921323e-05 -9.209621e-06 -1.1642789e-05 -1.2365546e-05 -9.718761e-06 2.38727e-40 -1.48281e-40
-1.30528e-40 3.74005e-40 3.3147983e-36 2.12214e-40 2.12545e-40 4.03856e-40 3.46352e-40 -2.7761696e-10
-6.385696e-11 6.529889e-10 -9.741007e-12 -1.0464504e-10 -4.2601753e-10 -1.1627826e-10 -6.682736e-12 3.3888978e-10
-2.573166e-06 -2.0229877e-06 -1.3799486e-05 -2.729195e-06 -4.210057e-06 -1.9558265e-05 7.937952e-07 -1.7244591e-06
-2.4620826e-05 -1.0017306e-08 1.4879851e-08 -6.8492774e-08 -4.6920103e-08 1.9107462e-08 -0.00019007047 5.888625e-08
4.0984243e-09 1.3463466e-07 -1.6313696e-06 -1.2818176e-06 -8.256354e-06 -1.2963555e-06 -2.0142134e-06 -1.5297774e-05
1.2256681e-06 -1.291011e-06 -1.4187234e-05 1.4663e-41 -1.3113e-40 -3.10333e-40 4.7428e-41 1.169339e-39
-5.38794e-40 -2.99172e-40 -4.63149e-40 5.4051e-41 -0.000116892275 7.020081e-10 2.007713e-09 -3.3872885e-10
-6.0164135e-10 7.35233e-10 6.443238e-08 -5.3816223e-09 -7.227482e-09 2.9153605e-10 2.3756277e-08 5.232342e-08
3.903768e-10 6.287007e-10 8.152331e-09 3.6122392e-09 -2.3956753e-10 4.4187484e-08 -2.7478814e-06 -6.8565887e-06
-2.6722077e-05 -3.141451e-06 -5.629654e-06 -2.8162754e-05 -6.299163e-06 -9.2689825e-06 -2.1999875e-05 9.860083e-15
-6.178229e-13 2.6924825e-13 1.9260905e-15 1.7126278e-15 -7.912888e-14 7.1446952e-06 -8.186645e-15 1.13510845e-13
-4.9402094e-10 -3.3497836e-09 3.684091e-08 4.8703e-40 6.8454007e-09 -5.714739e-10 -2.12583e-40 6.620793e-11
5.506529e-09 4.725854e-09 -1.3819271e-12 4.763039e-10 5.142952e-09 -8.906975e-11 -5.802026e-12 -2.73713e-09
2.1578e-40 -1.0729753e-08 2.689278e-05 9.7815055e-06 1.1651192e-05 1.6220642e-05 8.147048e-05 3.737651e-05
4.4119435e-05 -6.0153325e-06 -1.0590996e-05 -1.5275328e-08 -5.629809e-07 9.749958e-08 6.631514e-08 -4.5589755e-07
-2.1289493e-08 5.091451e-08 -9.5571316e-08 4.4588493e-08 -1.0995021e-05 -1.8581744e-05 -2.517312e-05 -4.622324e-05
-2.5807353e-06 -2.1537366e-05 -9.1965325e-05 2.738858e-06 -4.6625046e-05 2.1128399e-05 3.7309343e-05 6.0946717e-05
1.7506021e-05 3.1269894e-05 5.1616124e-05 2.0807134e-05 7.799972e-05 8.59123e-05 7.95364e-40 -6.0378e-41
-1.86678e-40 -5.61049e-40 3.1683e-41 6.6968e-41 -3.5582e-41 -6.89946e-40 1.39138e-40 -3.999521e-09
-5.872488e-09 1.4445419e-09 1.5488503e-09 1.0358832e-08 7.7349677e-10 -4.0089376e-09 1.7724188e-08 -9.632207e-10
-1.5275416e-05 -1.3146128e-05 -2.2094391e-05 -2.6164056e-05 -2.907253e-05 -3.9619194e-06 -1.36680155e-05 -4.129873e-05
-6.901353e-06 -2.7379838e-06 -6.674802e-07 3.5704025e-07 -1.7011574e-06 -2.8000744e-07 4.0711363e-08 -1.8163375e-07
2.3484301e-06 -3.827265e-07 2.6101422e-06 -7.1919426e-06 -2.1710868e-05 -9.950668e-06 -1.883619e-05 6.019463e-07
6.0896462e-05 -4.306033e-05 6.2937143e-06 -4.7310618e-07 -7.821622e-07 -1.16963676e-07 -1.3027365e-06 3.0216018e-08
1.3049103e-08 4.2452493e-06 7.3665854e-07 1.831434e-07 -1.3243059e-05 5.956834e-10 -3.7598187e-09 -7.042519e-08
00000000: 2fd9 0180 1b21 0300 c528 0400 48ee 0480
00000010: 4c41 0280 07b8 0000 ff2d 0280 0447 0400
00000020: 9bd6 0000 431d 8731 f83d 3232 0801 4533
00000030: 7d16 7cb0 9af3 ea31 9380 cfb3 fd3b 2631
00000040: 865b fdb0 7c70 2b34 402e 12b7 59be ddb6
00000050: eeaa 56b7 23ba 15b7 aa79 01b7 da50 1bb7
00000060: 3093 eeb6 ac51 ebb6 2353 48b7 2c18 1b32
00000070: aefa 1f33 88a7 9633 190f 8cb2 9ed1 2133
00000080: 4e6c 01b3 d415 24b2 313d b832 b7f1 4232
00000090: 4912 44b6 0a2f 7bb6 b972 cab7 1a2f 75b6
000000a0: e873 f9b6 d911 efb7 950f 26b5 83fd b2b6
000000b0: 0fc4 e2b7 9568 40b7 73ce 49b7 c748 2cb7
000000c0: 7ea1 40b7 ba3a 37b7 0583 1ab7 6655 43b7
000000d0: 9e75 4fb7 c30d 23b7 7999 0200 599d 0180
000000e0: dc6b 0180 9312 0400 f5fe 8c04 914f 0200
000000f0: 7d50 0200 c965 0400 7dc5 0300 1d9f 98af
00000100: 466c 8cae 027e 3330 985d 2bad ec1d e6ae
00000110: a334 eaaf d7b2 ffae bc20 ebac 7f4e ba2f
00000120: a8ae 2cb6 aac2 07b6 5784 67b7 3727 37b6
00000130: 1d44 8db6 0e11 a4b7 3115 5535 f773 e7b5
00000140: d288 ceb7 9418 2cb2 47a2 7f32 4d16 93b3
00000150: 3385 49b3 c121 a432 a74d 47b9 1eea 7c33
00000160: 1fd2 8c31 1890 1034 6ff5 dab5 eb0a acb5
00000170: c584 0ab7 70fe adb5 ec2b 07b6 b853 80b7
00000180: a381 a435 cd46 adb5 b505 6eb7 e028 0000
00000190: 896d 0180 1561 0380 3684 0000 a4bb 0c00
000001a0: f0dd 0580 f841 0380 120b 0580 ac96 0000
000001b0: 1024 f5b8 6ef7 4030 10f8 0931 d937 baaf
000001c0: bf60 25b0 6c19 4a30 135e 8a33 40e9 b8b1
000001d0: 9b55 f8b1 0d46 a02f 9b10 cc32 35ba 6033
000001e0: a69c d62f e1d0 2c30 550e 0c32 2f3b 7831
000001f0: 22b4 83af a7c8 3d33 3e68 38b6 a611 e6b6
00000200: 3929 e0b7 b8d1 52b6 5ce6 bcb6 0e3f ecb7
00000210: 665d d3b6 fa81 1bb7 5f8c b8b7 9b9f 3128
00000220: d5e6 2dab c392 972a 19ca 0a27 d0d0 f626
00000230: b22e b2a9 77bc ef36 3c7a 13a8 8c9a ff29
00000240: a2cb 07b0 0432 66b1 023b 1e33 a44d 0500
00000250: c834 eb31 e715 1db0 9850 0280 c097 912e
00000260: f133 bd31 0d61 a231 2c7d c2ab e8ec 0230
00000270: e2b5 b031 d0dd c3ae 0124 ccac 1a18 3cb1
00000280: 8259 0200 f455 38b2 ce97 e137 3f1b 2437
00000290: 7d79 4337 9011 8837 22db aa38 b9c4 1c38
000002a0: e20c 3938 50d7 c9b6 fbaf 31b7 cd36 83b2
000002b0: c11f 17b5 f660 d133 2269 8e33 15c2 f4b4
000002c0: 17e0 b6b2 19ad 5a33 e33c cdb3 9181 3f33
000002d0: 4177 38b7 fedf 9bb7 dd2a d3b7 d3df 41b8
000002e0: b230 2db6 24ab b4b7 82dd c0b8 39cd 3736
000002f0: 438f 43b8 e43c b137 9a7c 1c38 0aa1 7f38
00000300: e5d9 9237 cb27 0338 647e 5838 fb8a ae37
00000310: c893 a338 d12b b438 27a9 0800 4fa8 0080
00000320: 6208 0280 fa1b 0680 5258 0000 aeba 0000
00000330: 3063 0080 4a83 0780 dc83 0100 296c 89b1
00000340: f3c6 c9b1 4d89 c630 53df d430 a0f6 3132
00000350: ff9d 5430 fdbe 89b1 e73f 9832 5162 84b0
00000360: b523 80b7 318e 5cb7 5857 b9b7 e27a dbb7
00000370: c8e0 f3b7 a1f0 84b6 ae4f 65b7 2c38 2db8
00000380: 2c92 e7b6 34be 37b6 e42c 33b5 3daf bf34
00000390: 5353 e4b5 ee53 96b4 9eda 2e33 1b07 43b4
000003a0: b999 1d36 8879 cdb4 e729 2f36 5152 f1b6
000003b0: bc1f b6b7 cbf1 26b7 6902 9eb7 6f95 2135
000003c0: 146b 7f38 ad9b 34b8 982e d336 38ff fdb4
000003d0: c7f5 51b5 762d fbb3 afd9 aeb5 ddc6 0133
000003e0: 902e 6032 6a72 8e36 cabe 4535 13a6 4434
000003f0: 812e 5eb7 7ebd 2330 b72f 81b1 a83c 97b3

encoder_cnn.6.bias f4 [32]
-9.533195e-06 2.3142597e-05 -0.046991833 2.6617727e-10 -5.5960015e-08 -1.7201434e-07 -1.23454165e-05 4.8906132e-09
-1.3655136e-07 -9.115335e-05 0.100328326 7.962019e-06 -0.04385195 0.0026491608 -0.00022180616 0.19211547
-8.0547354e-05 -9.1769186e-07 -0.00011119851 -2.5104073e-05 -2.0011782e-08 -1.3718057e-05 0.121058606 -0.0021198548
1.8480333e-07 4.7328438e-05 0.122069664 -6.657482e-05 -2.9777717e-05 0.11222109 -4.6665403e-07 -2.9776632e-07
00000000: c3f0 1fb7 5922 c237 827a 40bd 1f55 922f
00000010: b058 70b3 f1b2 38b4 291f 4fb7 4a0a a831
00000020: f49e 12b4 9529 bfb8 f078 cd3d 9c94 0537
00000030: 1a9e 33bd 8b9d 2d3b a394 68b9 ebb9 443e
00000040: 88eb a8b8 4e57 76b5 3f33 e9b8 9696 d2b7
00000050: 60e6 abb2 9b26 66b7 93ed f73d 43ed 0abb
00000060: 5a6e 4634 8682 4638 a9ff f93d 169e 8bb8
00000070: 29cb f9b7 2cd4 e53d 7188 fab4 b1dc 9fb4

encoder_lin.0.weight f4 [64, 288]
-5.8247803e-08 -8.3639407e-07 3.0762067e-07 -9.4484096e-07 -4.807018e-07 2.8631482e-07 -9.209799e-06 4.7461606e-07
3.94442e-07 -3.0042478e-05 3.4237985e-06 -5.7734082e-06 -1.503866e-05 -4.52676e-07 -1.841557e-05 -2.5228068e-05
1.457231e-06 4.6440244e-05 -0.083146505 -0.09065221 0.037159994 0.13467713 -0.024378253 -0.010617355
-0.013892862 0.034319323 -0.02571587 -1.5891627e-12 -9.756123e-13 -8.3223185e-13 -3.4075181e-13 -7.7984965e-13
3.185806e-12 1.09839e-12 -1.0145838e-12 2.9308344e-12 -2.7971373e-08 3.260686e-07 1.3639682e-06 9.7734905e-09
-6.5458825e-09 2.254956e-08 6.8676925e-08 -1.561344e-08 1.3115145e-07 -1.3525154e-07 -9.714712e-08 3.7337092e-10
-6.188976e-08 -1.7306778e-09 1.8184467e-08 -3.1711682e-08 1.7934104e-08 1.1419126e-07 -4.7339657e-07 -2.618055e-07
2.2357295e-05 -1.6793128e-06 4.113871e-06 2.9732024e-05 4.6017811e-07 1.3101302e-05 1.8438544e-05 -2.6150648e-09
-3.4937133e-09 -3.605412e-09 -8.427687e-10 2.1478317e-09 -8.500362e-10 5.331063e-10 3.90046e-09 -1.1324912e-09
-1.7945283e-07 -8.0760934e-08 3.5893801e-09 -1.6823772e-07 -4.5712283e-09 1.4276604e-09 -1.7820657e-08 5.562684e-09
-4.2559223e-09 0.00020603355 -1.0480924e-05 -0.00020606785 0.00014195155 2.5760079e-05 -0.00014911554 3.4573535e-05
7.656082e-05 -0.00045471804 -0.005117435 0.19725786 -0.086189225 -0.055872183 0.02197157 0.07676433
0.039620157 -0.016121369 0.06853384 -9.085021e-06 2.0101314e-09 3.4432553e-08 -3.904361e-06 9.3171046e-08
-2.9463981e-06 -2.0313116e-06 2.9961714e-06 4.606933e-06 0.06552296 0.09931585 0.07130383 -0.07197199
0.04431461 -0.07263014 0.15074301 -0.02018376 0.105810516 -0.029805506 0.019188283 0.073166475
0.043458275 -0.045278262 0.0756619 0.007935501 -0.064958036 0.017398402 3.0286712e-05 -1.8146622e-05
0.00011203108 5.692336e-05 -7.790968e-06 -0.00036635733 7.253383e-06 3.6716365e-06 -0.00042384045 0.016119387
-0.16652289 -0.07753896 0.06261114 0.10231388 -0.070464484 -0.04715574 0.0156087065 -0.020697216
-1.0417855e-05 -1.9971578e-06 -1.8564673e-06 1.403486e-05 -4.814406e-07 6.3927095e-05 2.6341033e-06 5.4348266e-07
-0.00012800681 1.1875178e-07 5.1303823e-07 1.6282617e-07 1.1326096e-06 3.2697335e-07 9.558279e-07 -8.2136026e-08
-5.278396e-07 3.9821034e-06 8.396184e-05 -0.00038928146 -1.0431484e-05 0.00015721477 -1.6371036e-05 -7.66367e-06
1.3121686e-05 -1.741743e-06 -0.000121052304 6.0657367e-05 4.157259e-06 -2.4238365e-05 7.715602e-05 -2.1427939e-05
-7.611889e-05 0.000107678046 -4.9821592e-05 -5.488879e-05 -1.7239677e-09 -1.5300726e-08 -5.911567e-07 1.0767323e-09
1.5676688e-08 -7.2188044e-07 -2.381158e-10 -6.754353e-09 -2.5941495e-07 4.8213537e-06 1.8349181e-06 -1.2125441e-05
2.248781e-05 -1.6540622e-07 -1.0336228e-05 -5.8874816e-06 -2.5319532e-06 6.522044e-06 0.074510165 0.0059046196
0.056081373 -0.07026157 0.11437151 -0.07729281 0.043168593 0.053649064 0.059218585 8.695322e-05
0.00016406021 0.0003766485 0.00054555695 0.0007571677 0.0011873945 0.00084066694 0.0010705652 0.00079389656
-1.0013457e-07 -1.13226655e-07 -1.0115599e-08 -6.0680875e-08 -6.0223535e-08 7.260425e-09 -7.4975776e-10 6.469159e-08
-5.168287e-08 8.5962594e-05 1.0263369e-05 -2.957047e-05 -2.6444213e-05 -9.918675e-06 -4.2607815e-05 -6.3992404e-05
3.8016133e-06 -8.250293e-05 0.02855722 -0.1341433 -0.1417345 0.034394577 0.038479898 -0.018990388
-0.027158454 -0.028012585 -0.042959247 -2.8630675e-05 1.9173876e-06 0.000130111 -9.399834e-06 -1.8357156e-06
0.00011267517 6.459712e-06 4.918349e-06 -2.9746692e-05 -8.165898e-06 1.3366856e-05 3.7983868e-05 -2.5995594e-06
00000000: 232c 7ab3 9084 60b5 1027 a534 faa0 7db5
00000010: 9309 01b5 cfb6 9934 c983 1ab7 bcce fe34
00000020: b2c3 d334 bb03 fcb7 69c4 6536 33b9 c1b6
00000030: 8e4e 7cb7 5107 f3b4 237b 9ab7 dda0 d3b7
00000040: 1396 c335 d5c8 4238 b748 aabd dea7 b9bd
00000050: 1435 183d cde8 093e e7b4 c7bc 6af4 2dbc
00000060: e39e 63bc 6b92 0c3d 17aa d2bc 9fa7 dfab
00000070: 234e 89ab a040 6aab 83d3 bfaa 1782 5bab
00000080: 612e 602c ac95 9a2b 3cca 8eab 383d 4e2c
00000090: b345 f0b2 870e af34 9711 b735 44e8 2732
000000a0: 31ea e0b1 02b3 c132 8a7b 9333 511e 86b2
000000b0: a3d2 0c34 a939 11b4 329f d0b3 4943 cd2f
000000c0: 41e8 84b3 d0dc edb0 1134 9c32 5d33 08b3
000000d0: 830d 9a32 4f39 f533 2127 feb4 468e 8cb4
000000e0: ed8b bb37 c064 e1b5 e209 8a36 0969 f937
000000f0: 660e f734 aacd 5b37 79ac 9a37 b5b4 33b1
00000100: 0e16 70b1 14c3 77b1 93a8 67b0 0e99 1331
00000110: fba7 69b0 058a 1230 cf04 8631 fea5 9bb0
00000120: 9eaf 40b4 cb6e adb3 0ba9 7631 d5a4 34b4
00000130: f310 9db1 5637 c430 0a14 99b2 e321 bf31
00000140: 7d3b 92b1 b60a 5839 3ad7 2fb7 eb13 58b9
00000150: d4d8 1439 5917 d837 e65b 1cb9 0d03 1138
00000160: 478f a038 3967 eeb9 28b0 a7bb f7fd 493e
00000170: fa83 b0bd 3bda 64bd b9fd b33c 9e36 9d3d
00000180: bf48 223d f610 84bc 785b 8c3d de6b 18b7
00000190: 9b22 0a31 fee2 1333 3502 83b6 5315 c833
000001a0: bcba 45b6 ab51 08b6 d511 4936 4195 9a36
000001b0: e730 863d 1c66 cb3d be07 923d 0d66 93bd
000001c0: 3d83 353d 1cbf 94bd 605c 1a3e 6a58 a5bc
000001d0: 2fb3 d83d ad2a f4bc bf30 9d3c 4ed8 953d
000001e0: 4e01 323d b375 39bd a0f4 9a3d e703 023c
000001f0: b808 85bd 1887 8e3c 3810 fe37 9339 98b7
00000200: 3af2 ea38 fec0 6e38 f4b5 02b7 a613 c0b9
00000210: 1662 f336 3c66 7636 e736 deb9 ce0c 843c
00000220: fa84 2abe bfcc 9ebd 453a 803d f189 d13d
00000230: af4f 90bd 6126 41bd a9bb 7f3c 358d a9bc
00000240: 59c8 2eb7 e906 06b6 bb2b f9b5 4477 6b37
00000250: 593c 01b5 9910 8638 8dc5 3036 d8e3 1135
00000260: 9139 06b9 7b04 ff33 b8b7 0935 51d5 2e34
00000270: 2b04 9835 e08a af34 ff49 8035 c262 b0b3
00000280: dcb0 0db5 029e 8536 ab14 b038 7918 ccb9
00000290: e202 2fb7 05da 2439 8854 89b7 3693 00b7
000002a0: 3625 5c37 d5c5 e9b5 76dd fdb8 5a6a 7e38
000002b0: 957e 8b36 7e53 cbb7 d3ce a138 26c0 b3b7
000002c0: 05a2 9fb8 36d1 e138 87f7 50b8 6438 66b8
000002d0: b9f0 ecb0 a76e 83b2 fbaf 1eb5 26fc 9330
000002e0: 67a9 8632 3fc7 41b5 d2e7 82af eb13 e8b1
000002f0: b845 8bb4 1dc7 a136 4e47 f635 5f6e 4bb7
00000300: 34a4 bc37 849a 31b4 c369 2db7 158d c5b6
00000310: a0ea 29b6 eed7 da36 c998 983d 8a7b c13b
00000320: 95b5 653d 4ce5 8fbd 9c3b ea3d b14b 9ebd
00000330: 8dd1 303d 1fbf 5b3d 308f 723d a85a b638
00000340: 9407 2c39 e878 c539 b503 0f3a aa7c 463a
00000350: 59a2 9b3a 3460 5c3a 3552 8c3a 7f1d 503a
00000360: 9009 d7b3 0327 f3b3 e0c8 2db2 aa4f 82b3
00000370: 3d54 81b3 6077 f931 8317 4eb0 94ec 8a33
00000380: ebf9 5db3 d146 b438 d630 2c37 1a0e f8b7
00000390: 84d4 ddb7 6268 26b7 cbb5 32b8 a933 86b8
000003a0: 381f 7f36 6c05 adb8 d5f0 e93c dc5c 09be
000003b0: d922 11be 54e1 0c3d 199d 1d3d bb91 9bbc
000003c0: 687b debc a67a e5bc 09f6 2fbd e82b f0b7
000003d0: 78ac 0036 686e 0839 fbb3 1db7 b562 f6b5
000003e0: 054c ec38 81c0 d836 4c08 a536 8988 f9b7
000003f0: 4400 09b7 3642 6037 de50 1f38 1774 2eb6

encoder_lin.0.bias f4 [64]
-0.006228663 0.0042929323 -0.0024100398 -0.00206932 -0.014616932 -0.0015058945 1.0652781e-06 -0.0007593332
4.2522943e-06 -0.00051582797 -5.090832e-08 -0.0032276404 7.2983597e-09 -1.5212432e-09 -0.0076339324 0.01666724
-7.2161654e-08 0.0012082934 -0.01228176 1.8899058e-07 -0.037222553 -0.0050411075 0.00918499 0.014865547
-3.1781951e-06 -2.7790875e-06 0.0063214493 -4.872668e-09 -0.016150732 -1.1447315e-10 0.007303362 -0.013777948
-0.0008531121 -8.5207574e-07 -0.0041207867 -0.037493248 0.011007944 -2.288428e-09 -1.8543242e-05 -6.7323265e-07
-1.40430275e-05 0.00990924 -0.00087556324 -0.03256575 -0.00023971038 0.0130358655 -0.0017781786 -7.6473995e-08
-2.1577318e-06 -4.592459e-06 -0.0004922915 -0.0279819 0.00502262 0.015186182 -0.007977626 -3.478899e-06
0.003116586 0.018553076 -7.01258e-07 -0.00034232068 0.007105789 -0.04255425 -0.011327833 0.0027558324
00000000: d019 ccbb baab 8c3b c2f1 1dbb 6e9d 07bb
00000010: db7b 6fbc 6f61 c5ba adfa 8e35 fd0d 47ba
00000020: eeae 8e36 a138 07ba 4aa6 5ab3 d286 53bb
00000030: 0dc5 fa31 fd13 d1b0 1126 fabb bc89 883c
00000040: 4af7 9ab3 995f 9e3a 6f39 49bc 56ed 4a34
00000050: ad76 18bd e02f a5bb a47c 163c a08e 733c
00000060: fa48 55b6 5c80 3ab6 2924 cf3b 716c a7b1
00000070: 8a4e 84bc a8ba fbae 0a51 ef3b e7bc 61bc
00000080: 62a3 5fba 33ba 64b5 aa07 87bb 8592 19bd
00000090: aa5a 343c 7342 1db1 4f8d 9bb7 32b8 34b5
000000a0: 589a 6bb7 5d5a 223c 0e86 65ba aa63 05bd
000000b0: c45a 7bb9 6294 553c c611 e9ba 063a a4b3
000000c0: 8dcd 10b6 ec18 9ab6 200d 01ba 4c3a e5bc
000000d0: ca94 a43b 77cf 783c 97b4 02bc 0877 69b6
000000e0: a33f 4c3b 9ffc 973c 153e 3cb5 8179 b3b9
000000f0: aed7 e83b 5e4d 2ebd 6098 39bc 329b 343b

encoder_lin.3.weight f4 [16, 64]
0.018567853 -0.08097062 -0.1861853 -0.025071684 -0.13999309 -0.04617848 -5.367967e-06 -0.16500422
-0.0010962622 -0.0010611245 2.320128e-07 -0.046542533 2.142984e-08 1.1808277e-08 0.065025814 -0.16184546
-3.747522e-08 -0.017028362 0.02295355 2.2239296e-07 -0.004921627 -0.102106534 0.013563969 -0.017698456
0.0004209893 1.9880138e-06 -0.0854616 6.562531e-09 -0.12564144 -1.2019405e-11 -0.08882152 0.11349103
-0.012885929 3.5193232e-06 -0.0015506267 -0.06183268 -0.05252522 -8.020344e-09 -2.4588224e-05 -7.68492e-07
-3.0948126e-05 0.05984066 -0.01258004 0.01704317 -0.07325785 -0.15180084 0.039879512 -3.281381e-07
-7.126889e-05 6.780591e-08 -0.00041464384 0.03575595 0.0895107 -0.049657073 -0.009753196 0.00013523488
-0.027780356 -0.06436231 1.3486322e-06 -0.031620137 -0.110341534 -0.016305847 -0.030060371 -0.044591453
-0.046941027 0.09955283 0.17197846 0.020665828 0.14320475 0.036188256 5.498318e-06 0.1401537
0.0009840276 0.00083260826 -2.3523033e-07 0.005171926 -1.9269025e-08 -9.006961e-09 -0.08726278 0.11942007
-6.9166197e-07 0.016235335 -0.028629664 -1.8280906e-07 -0.0026682778 0.08032489 -0.013695144 -0.006260504
-0.00049384474 -2.758051e-06 0.0745305 -3.2807073e-09 0.09937591 2.1301724e-10 0.0694511 -0.14690122
0.011818915 -3.020233e-06 -0.0039130305 0.03855247 0.025751742 8.049018e-09 -0.00015374232 1.3061715e-06
2.9572564e-05 -0.08562674 -0.0022368152 -0.047487598 0.031252023 0.15035138 -0.068732 3.2567687e-07
8.140923e-05 1.3535092e-06 0.000760526 -0.057115138 -0.10313187 0.029419221 -0.012267578 -0.00015521253
-0.0034596545 0.062804274 -2.0977468e-07 -0.0017142851 0.09052605 -0.012842743 0.027402146 0.031366568
0.026386505 -0.067069255 -0.1889895 -0.035239514 -0.1349682 -0.03964081 -5.05325e-06 -0.1764005
-0.0009588266 -0.0018169002 2.329007e-07 -0.0655679 7.52119e-08 1.4064711e-08 0.052181937 -0.16463163
-3.1578767e-07 -0.020388056 0.028775776 2.854439e-07 -0.017073248 -0.118294716 0.0062754503 -0.019770702
0.00034702843 4.364601e-06 -0.08261594 9.614711e-09 -0.13785562 1.0705142e-10 -0.10041087 0.09404574
-0.023499751 3.867834e-06 -0.008007884 -0.06487124 -0.06472322 -6.3895675e-09 -7.343939e-05 -4.610387e-07
-2.8108261e-05 0.050138954 -0.020942952 0.01179283 -0.09872903 -0.14838287 0.034799162 -2.1565484e-07
-8.942265e-05 9.583133e-07 -0.00034091756 0.016516637 0.085159965 -0.068076715 -0.002740063 0.00011530537
-0.037883904 -0.052614175 7.469001e-06 -0.035035823 -0.11118471 -0.031775218 -0.028581303 -0.035333533
0.08065096 -0.097089835 -0.1507115 -0.06582602 -0.118014105 0.024887834 2.2405661e-06 -0.09019036
-4.6104797e-05 0.0025855284 4.0336633e-07 0.08234568 1.9943094e-07 7.800572e-09 0.09094944 0.059374526
3.4180257e-06 -0.026902692 0.040315147 -9.868366e-08 0.01842252 -0.014852314 -0.057865947 0.03548894
0.0005638491 3.2270094e-05 -0.058212947 -6.100311e-09 0.024149612 1.7982385e-10 -0.06628314 0.19845675
-0.07951016 1.1311678e-06 -0.038055886 0.03695247 -0.0009875494 -4.5375064e-09 -7.1863e-05 -3.211087e-06
-5.384384e-05 0.110229716 0.025440753 0.1651736 0.095674686 -0.15194444 0.041343898 -1.00406226e-07
9.149408e-05 -2.4556489e-06 -0.00079716684 0.038890354 0.07959305 -0.034345355 0.12290633 0.00010310525
0.050872922 -0.05762872 5.213181e-06 0.116061695 -0.049852148 0.090577915 -0.008793483 0.031501032
00000000: 9c1b 983c edd3 a5bd 5ca7 3ebe 2263 cdbc
00000010: 595a 0fbe a525 3dbd 7c1e b4b6 def6 28be
00000020: 75b0 8fba 6e15 8bba 311f 7934 62a3 3ebd
00000030: b714 b832 5add 4a32 412c 853d d1ba 25be
00000040: 71f4 20b3 107f 8bbc 1509 bc3c e9ca 6e34
00000050: 9a45 a1bb 3b1d d1bd 693b 5e3c 5afc 90bc
00000060: 3ab8 dc39 d169 0536 7e06 afbd a27c e131
00000070: 26a8 00be 9672 53ad 0fe8 b5bd fc6d e83d
00000080: 811f 53bc 832d 6c36 663e cbba 4444 7dbd
00000090: af24 57bd d9c9 09b2 cf42 ceb7 5e4a 4eb5
000000a0: 4cce 01b8 7b1b 753d 831c 4ebc 1e9e 8b3c
000000b0: 3608 96bd ae71 1bbe b358 233d f52a b0b4
000000c0: 3276 95b8 b19c 9133 8e64 d9b9 d574 123d
000000d0: 6351 b73d 3765 4bbd decb 1fbc d6cd 0d39
000000e0: a193 e3bc 63d0 83bd a602 b535 1e84 01bd
000000f0: befa e1bd d793 85bc 2b41 f6bc 87a5 36bd
00000100: 3c45 40bd 5be2 cb3d 1f1b 303e 624b a93c
00000110: 44a4 123e 233a 143d 317e b836 7484 0f3e
00000120: 7dfa 803a 6543 5a3a 9f93 7cb4 4379 a93b
00000130: 0985 a5b2 09bd 1ab2 d4b6 b2bd 8292 f43d
00000140: a6aa 39b5 f7ff 843c c288 eabc 2c4a 44b4
00000150: 46de 2ebb 6081 a43d 9961 60bc ea24 cdbb
00000160: 5c75 01ba f516 39b6 72a3 983d d072 61b1
00000170: 9985 cb3d 0637 6a2f 613c 8e3d 466d 16be
00000180: 1fa4 413c 35af 4ab6 e138 80bb 32e9 1d3d
00000190: 51f5 d23c f547 0a32 e435 21b9 b64f af35
000001a0: 9912 f837 125d afbd 8897 12bb 5b82 42bd
000001b0: 1f02 003d b6f5 193e 5dc3 8cbd b0d8 ae34
000001c0: 3fba aa38 39aa b535 095e 473a 90f1 69bd
000001d0: cd36 d3bd 9400 f13c f4fd 48bc 8cc0 22b9
000001e0: 5fbb 62bb 879f 803d 6d3e 61b4 ddb1 e0ba
000001f0: b965 b93d 5e6a 52bc 777a e03c 3b7a 003d
00000200: 8328 d83c 9b5b 89bd 7786 41be 4f57 10bd
00000210: 1b35 0abe 675e 22bd 168f a9b6 55a2 34be
00000220: c459 7bba 0e25 eeba 4213 7a34 7748 86bd
00000230: 2e84 a133 41a1 7132 babc 553d 3295 28be
00000240: 8789 a9b4 da04 a7bc 2dbb eb3c 1c3f 9934
00000250: 32dd 8bbc 8044 f2bd 4ba2 cd3b 2bf6 a1bc
00000260: 5ef1 b539 a373 9236 8c32 a9bd f22d 2532
00000270: 062a 0dbe 9868 eb2e 37a4 cdbd 0e9b c03d
00000280: 8d82 c0bc 71c8 8136 8033 03bc 36db 84bd
00000290: 9c8d 84bd 3b8b dbb1 7903 9ab8 ad84 f7b4
000002a0: 08ca ebb7 815e 4d3d 8e90 abbc b736 413c
000002b0: 7232 cabd aef1 17be 9189 0e3d c08e 67b4
000002c0: 6b88 bbb8 659f 8035 2ebd b2b9 e64d 873c
000002d0: 5968 ae3d ce6b 8bbd a192 33bb 19d0 f138
000002e0: 272c 1bbd f681 57bd 3b9e fa36 b981 0fbd
000002f0: cfb4 e3bd bb26 02bd 5623 eabc e5b9 10bd
00000300: 552c a53d 09d7 c6bd 1e54 1abe cbcf 86bd
00000310: 61b1 f1bd 92e1 cb3c a25c 1636 b9b5 b8bd
00000320: a660 41b8 f871 293b 3f8e d834 daa4 a83d
00000330: 2923 5634 4703 0632 b343 ba3d b432 733d
00000340: 3c61 6536 0963 dcbc 7f21 253d eaeb d3b3
00000350: d3ea 963c 1f57 73bc d804 6dbd da5c 113d
00000360: 46cf 133a c059 0738 b370 6ebd e79a d1b1
00000370: 68d5 c53c eab7 452f 74bf 87bd 3f38 4b3e
00000380: 39d6 a2bd a1d2 9735 7de0 1bbd 795b 173d
00000390: a970 81ba 54e8 9bb1 28b5 96b8 0e7e 57b6
000003a0: 62d6 61b8 1ec0 e13d 2069 d03c 4523 293e
000003b0: 17f1 c33d 5397 1bbe 3858 293d e89e d7b3
000003c0: 83e0 bf38 bacb 24b6 f6f8 50ba 7e4b 1f3d
000003d0: ae01 a33d b7ad 0cbd 50b6 fb3d 363a d838
000003e0: 2060 503d 180c 6cbd e2ec ae36 c1b1 ed3d
000003f0: c431 4cbd ea80 b93d 8a12 10bc 3a07 013d

encoder_lin.3.bias f4 [16]
-0.026317794 0.024470406 -0.025460085 -0.028961996 0.02447585 0.03250253 -0.017517693 0.029131472
-0.0055946987 -0.016630711 -0.023282899 -0.022882389 -0.016242178 0.049144223 -0.042504203 0.008626455
00000000: 6a98 d7bc 2976 c83c ab91 d0bc b541 edbc
00000010: 9481 c83c 5f21 053d 4481 8fbc 20a5 ee3c
00000020: bc53 b7bb 213d 88bc c7bb bebc d973 bbbc
00000030: 510e 85bc 744b 493d e318 2ebd fa55 0d3c

decoder_lin.0.weight f4 [64, 16]
-0.04133062 0.027173242 -0.042723835 0.039875157 -0.18869597 -0.25345874 0.13032128 -0.1504817
0.05786426 0.009982888 -0.03147453 -0.021013597 -0.18575951 -0.09395803 -0.10395659 -0.007345918
-0.047495957 0.038841788 -0.048684143 -0.015631743 0.069661014 0.020469932 0.28420317 -0.13507822
0.034778047 0.14803632 -0.0412941 -0.036423165 -0.053675834 0.07892262 -0.15525737 -0.061378337
-0.043615263 0.03274399 -0.05204293 -0.03173956 0.26390886 -0.00961906 0.12071911 -0.0018450822
0.11929265 0.11886173 -0.04770055 -0.040455036 -0.069586955 0.09662947 0.13819769 -0.07968949
-0.015800994 -0.005548384 -0.037193723 0.04051336 -0.017224152 -0.07223796 -0.01642842 0.15984793
0.14332286 0.03018374 -0.031085996 -0.010256982 -0.001440762 -0.3281309 -0.15917759 -0.21814516
-0.08090917 0.055355407 -0.09029565 -0.00019064885 0.20339769 -0.0915207 -0.17659612 0.08551531
0.040785022 -0.05357529 -0.0776688 -0.06095056 -0.13394958 0.10147027 0.2431565 0.019638108
-0.107396014 0.10561806 -0.10206443 -0.09742517 -0.095709786 -0.048053194 0.057384722 -0.02728959
0.00065030874 -0.029084485 -0.09824901 -0.099774025 -0.027534898 0.19391157 0.07636857 0.05095862
-0.058730073 0.060843598 -0.06895588 -0.07255566 -0.060398214 -0.09777953 -0.06766458 0.25745448
0.1225405 -0.104422614 -0.07201337 -0.069513634 -0.06172594 -0.20969261 -0.089671575 -0.123291016
-0.0030601304 -0.024734156 -0.014414978 0.044093963 -0.08908203 -0.15867141 -0.12983003 0.17254303
-0.117379226 0.115654334 -0.0018433551 0.017021006 -0.33598423 0.23210806 0.18004201 -0.09516609
-0.12980992 0.09952369 -0.13872375 0.09077982 0.05248596 0.13707915 -0.00079752447 -0.12828156
0.16653441 -0.09223514 -0.121573366 -0.09709166 -0.0015383636 -0.3055856 0.07048211 -0.02616439
0.018448975 -0.040480357 0.007098885 0.07179106 0.16427168 0.03530095 0.22636442 -0.10920903
0.07845647 0.054926276 0.01878179 0.033477936 0.16192824 -0.07852263 0.16080257 -0.005671908
0.024955487 -0.06575118 0.0068652323 0.14571898 0.17837547 -0.29818943 -0.042488154 -0.13931169
0.002694129 0.08220252 0.027363244 0.05540528 -0.08723696 -0.08493337 0.11306024 -0.042250495
-0.11151628 0.10702077 -0.112969324 -0.108403146 -0.009897027 -0.031927526 -0.07319553 0.15454255
0.014746713 -0.10130125 -0.11018895 -0.10765538 0.048424974 0.07032185 0.06562876 -0.024268195
-0.006503531 -0.020193825 -0.008770517 0.10323032 -0.2226446 -0.19276232 -0.024380619 0.0016297397
-0.02110474 -0.1889085 0.0089232195 0.027155994 -0.06022501 -0.10367138 0.06337064 0.10366551
-0.017679736 0.006814822 -0.030478569 -0.029476615 -0.04506435 -0.023548251 -0.021388404 0.16321668
-0.010972741 -0.006145173 -0.027169928 -0.018014299 0.25995484 -0.0077027227 0.18249345 -0.13649654
0.0021595326 -0.03581424 -0.00897716 0.098971985 0.0046974164 -0.053637635 -0.17488904 0.0015334645
-0.09728094 -0.07984876 0.008596135 0.031229297 0.2548807 -0.11886549 0.21960457 0.029002765
-0.04396713 0.038447097 -0.04151804 -0.06901975 -0.117229305 0.11766451 -0.12639958 0.20422861
-0.15771288 -0.13482574 -0.03696558 -0.0353637 0.14989835 0.077403255 -0.07091414 0.08212599
00000000: 4c4a 29bd 6b9a de3c 30ff 2ebd 2254 233d
00000010: 8439 41be 58c5 81be f172 053e e017 1abe
00000020: 1303 6d3d 448f 233c 70eb 00bd b524 acbc
00000030: be37 3ebe 116d c0bd 31e7 d4bd 07b6 f0bb
00000040: 1f8b 42bd 9118 1f3d 0669 47bd 240e 80bc
00000050: 6faa 8e3d 8fb0 a73c 1483 913e f251 0abe
00000060: 6d73 0e3d d596 173e 0124 29bd 7530 15bd
00000070: 31db 5bbd 2fa2 a13d cafb 1ebe da67 7bbd
00000080: eba5 32bd 901e 063d f82a 55bd 5701 02bd
00000090: 101f 873e 4399 1dbc 953b f73d afd6 f1ba
000000a0: b44f f43d c76d f33d a761 43bd 2eb4 25bd
000000b0: 9b83 8ebd ace5 c53d b283 0d3e 3e34 a3bd
000000c0: 1671 81bc 38cf b5bb 7258 18bd 56f1 253d
000000d0: aa19 8dbc 7ff1 93bd e594 86bc 2daf 233e
000000e0: 3ac3 123e e443 f73c 0fa8 febc e70c 28bc
000000f0: f3d7 bcba c600 a8be 73ff 22be 7261 5fbe
00000100: b5b3 a5bd 5abc 623d edec b8bd e9e8 47b9
00000110: 7c47 503e 346f bbbd 9dd5 34be a722 af3d
00000120: 320e 273d c371 5bbd d210 9fbd 4ba7 79bd
00000130: 142a 09be a5cf cf3d 04fe 783e 19e0 a03c
00000140: 71f2 dbbd 484e d83d 2807 d1bd d986 c7bd
00000150: 7e03 c4bd 6dd3 44bd 3e0c 6b3d 6b8e dfbc
00000160: 7b79 2a3a 9642 eebc c736 c9bd 5356 ccbd
00000170: de90 e1bc c190 463e 2067 9c3d fcb9 503d
00000180: f28e 70bd 2337 793d be38 8dbd 1098 94bd
00000190: 1e64 77bd a240 c8bd ba93 8abd 13d1 833e
000001a0: 83f6 fa3d 86db d5bd bf7b 93bd 2a5d 8ebd
000001b0: 57d4 7cbd a9b9 56be bba5 b7bd 0080 fcbd
000001c0: 788c 48bb 499f cabc cd2c 6cbc df9b 343d
000001d0: a470 b6bd c27a 22be 2af2 04be 1faf 303e
000001e0: 8564 f0bd 2edc ec3d bc9c f1ba a36f 8b3c
000001f0: 2006 acbe bcad 6d3e ef5c 383e 70e6 c2bd
00000200: e4ec 04be 14d3 cb3d 990d 0ebe c5ea b93d
00000210: 85fb 563d 7a5e 0c3e f610 51ba 3e5c 03be
00000220: ff87 2a3e c7e5 bcbd 75fb f8bd fed7 c6bd
00000230: eba2 c9ba b775 9cbe ed58 903d b456 d6bc
00000240: 4e22 973c bbce 25bd c39d e83b 3107 933d
00000250: d636 283e bb97 103d 13cc 673e fca8 dfbd
00000260: c9ad a03d 60fa 603d 45dc 993c 2920 093d
00000270: 84d0 253e 79d0 a0bd 6ea9 243e 6adb b9bb
00000280: 736f cc3c 8ea8 86bd bef5 e03b 5b37 153e
00000290: 0fa8 363e 49ac 98be 0f08 2ebd b9a7 0ebe
000002a0: fc8f 303b cb59 a83d e228 e03c a6f0 623d
000002b0: 4ba9 b2bd 8cf1 adbd 218c e73d db0e 2dbd
000002c0: a662 e4bd b52d db3d 765c e7bd 7802 debd
000002d0: 2427 22bc 70c6 02bd 8ae7 95bd 6740 1e3e
000002e0: 339c 713c 0877 cfbd bfaa e1bd 6d7a dcbd
000002f0: 4459 463d e704 903d 5f68 863d 18ce c6bc
00000300: 921b d5bb 856d a5bc 37b2 0fbc 6b6a d33d
00000310: f2fc 63be 7c63 45be ddb9 c7bc fd9c d53a
00000320: d9e3 acbc 3b71 41be b232 123c 3f76 de3c
00000330: 80ae 76bd a951 d4bd 77c8 813d 954e d43d
00000340: 18d5 90bc df4e df3b 31ae f9bc f178 f1bc
00000350: 6595 38bd 43e8 c0bc bc36 afbc 4622 273e
00000360: 03c7 33bc 735d c9bb 7893 debc b992 93bc
00000370: cd18 853e 1f67 fcbb 90df 3a3e c0c5 0bbe
00000380: f286 0d3b f4b1 12bd f014 13bc d3b1 ca3d
00000390: c9ec 993b 23b3 5bbd 1d16 33be 88fe c83a
000003a0: 3b3b c7bd bf87 a3bd ced6 0c3c 95d4 ff3c
000003b0: b97f 823e c06f f3bd 05e0 603e 3597 ed3c
000003c0: e116 34bd b47a 1d3d d20e 2abd 3a5a 8dbd
000003d0: eb15 f0bd 17fa f03d e46e 01be 4e21 513e
000003e0: 7c7f 21be c20f 0abe 3869 17bd 87d9 10bd
000003f0: f47e 193e 9985 9e3d 6f3b 91bd ac31 a83d

decoder_lin.0.bias f4 [64]
-0.02211872 0.0008046423 -0.00034690963 -0.009160466 0.009000563 0.041432388 0.0062746215 0.0024754426
-0.0052210335 -0.033596106 -0.0026598498 0.026084226 -0.008022087 0.0010506132 -0.011037541 0.021111693
-0.00976513 -0.020655008 -0.01075515 0.0376971 0.013442968 0.0013512184 0.014545656 0.02757438
-0.00371836 0.00862197 0.009167111 -0.0007392329 0.02285578 -0.00048177593 0.017582892 0.0034633207
0.0074183596 0.012748471 -0.0041557103 0.022692036 -0.00044319427 0.038716085 -0.045667894 -0.005261445
-0.0035096947 0.018880282 0.022492962 0.03326587 0.008344807 -0.023680808 0.004568356 -0.008764831
0.0165472 -0.034766857 -0.0067728907 -0.0014456718 0.01812258 0.019503646 0.006217286 0.00051799783
-0.0051370733 0.015706718 0.0016113034 0.018858716 -0.009828974 0.005250077 0.013987188 -0.019582808
00000000: 5132 b5bc a1ee 523a 6ce1 b5b9 c715 16bc
00000010: 1977 133c 02b5 293d 579b cd3b 093b 223b
00000020: 3415 abbb 129c 09bd e050 2ebb 96ae d53c
00000030: 126f 03bc bbb4 893a cdd6 34bc 6ef2 ac3c
00000040: ecfd 1fbc b134 a9bc 5e36 30bc 4668 1a3d
00000050: e53f 5c3c 5e1b b13a e750 6e3c abe3 e13c
00000060: bbaf 73bb 2a43 0d3c a631 163c 15c9 41ba
00000070: 0b3c bb3c df96 fcb9 ff09 903c e1f8 623b
00000080: b615 f33b f7de 503c a02c 88bb a6e4 b93c
00000090: 875c e8b9 c294 1e3d 420e 3bbd 3368 acbb
000000a0: e802 66bb d2aa 9a3c 2943 b83c cb41 083d
000000b0: a8b8 083c 41fe c1bc 26b2 953b 5e9a 0fbc
000000c0: fe8d 873c b167 0ebd 20ef ddbb b27c bdba
000000d0: ce75 943c 1cc6 9f3c 60ba cb3b 3fca 073a
000000e0: e554 a8bb 60ab 803c 5f32 d33a 987d 9a3c
000000f0: b409 21bc d708 ac3b 852a 653c 206c a0bc

decoder_lin.3.weight f4 [288, 64]
-1.354657e-05 5.0494466e-13 -0.00017278746 -6.952913e-12 -0.0004671289 -0.00017815949 -3.7655573e-11 -0.00031920322
-7.3611074e-05 -0.00014773318 -0.0002549749 -0.00015737633 -0.00012634725 -4.8381688e-05 -0.000660762 -2.3614933e-18
2.789547e-17 -2.4777479e-05 -1.9142509e-12 -0.00026558625 3.0023496e-18 -9.405731e-10 -7.082003e-05 1.9766979e-13
-0.000113435286 -0.00021047564 -3.9008377e-05 -7.0801736e-13 7.6971324e-16 1.9695274e-18 7.071322e-14 -2.6546874e-11
-1.1588776e-08 -0.00017682476 -4.5696055e-15 -0.00022361132 -2.0993834e-20 2.5833704e-17 -0.00012733805 -8.197699e-05
-1.8393378e-10 -7.531842e-19 -0.00033357056 -1.3938991e-19 -1.3082893e-14 -6.37552e-05 -0.00011321655 2.7576956e-13
9.58876e-15 -0.00022471417 -7.0203154e-05 -2.8195223e-07 -1.1738063e-16 -0.00021212018 -2.1119e-09 -2.0201822e-10
-8.797817e-05 1.0939185e-18 -0.00026412227 -2.5928499e-05 1.224451e-13 -3.296781e-05 -1.4872407e-10 -1.6717046e-11
-3.0405474e-08 -3.6663914e-06 -1.2825855e-06 -2.9597328e-05 -3.595271e-06 -1.7951642e-07 -1.782054e-05 -1.4340585e-08
-6.528004e-07 -1.9345292e-07 -1.5329942e-06 -2.1601592e-07 -7.922043e-06 -1.7010157e-07 1.9317833e-19 -2.3582711e-12
3.5063197e-14 -3.605835e-07 -3.0903569e-10 -1.0126015e-05 -1.1398709e-21 -2.1091043e-06 -1.7582842e-09 -7.835187e-07
-1.3070509e-06 -8.517339e-06 -7.6265076e-07 -6.5890725e-07 -2.6425465e-07 1.1939056e-14 -7.772614e-09 -2.413171e-07
-1.696664e-13 -1.0001989e-07 -6.40263e-06 -1.3783674e-06 -2.9985711e-24 -1.8627291e-10 -3.9268124e-07 -1.318426e-06
-5.611363e-07 -3.2071124e-16 -4.0873798e-09 -1.0253105e-24 -2.1890939e-07 -2.3141338e-05 -7.567775e-08 -1.4495353e-07
-4.5873558e-06 -9.3387223e-07 -1.3968243e-08 -4.961907e-16 -1.7125877e-10 -5.7517036e-07 -2.068894e-21 -1.1167454e-06
9.435987e-22 -2.0350703e-09 -1.9605454e-07 -5.039708e-10 -7.967893e-06 -4.4001453e-07 -1.9969038e-06 1.8350965e-14
3.1100487e-21 -5.4151544e-11 -1.363382e-09 -5.2476008e-08 -7.2838566e-09 -1.180444e-10 -2.6666294e-08 3.267197e-14
-1.6809508e-12 -1.1060171e-11 -4.052872e-17 -1.6945244e-10 -1.1671548e-13 -7.51152e-09 3.4187993e-21 -8.4488026e-14
-2.8388172e-16 1.748799e-17 -5.16083e-13 -1.3763451e-10 2.160383e-21 -4.1985864e-09 -4.292098e-12 -1.87464e-11
2.248493e-14 -4.6742866e-21 -1.4563761e-10 -6.703622e-11 -2.1706128e-09 -6.856384e-19 -1.879282e-10 -2.5898142e-08
1.1824324e-17 -2.7582847e-10 -1.596417e-08 -5.674447e-10 1.1719511e-24 6.533835e-15 -1.3531806e-10 -8.582219e-13
-1.4176175e-07 1.6165817e-17 -1.7765829e-10 6.569928e-27 -5.5977774e-09 -3.1211396e-09 -6.674907e-12 -1.4858328e-09
-8.723631e-09 1.6944108e-14 -2.6340402e-11 -4.348229e-16 -3.0152675e-10 -7.2387834e-12 1.1156392e-19 -3.4235683e-08
1.1295776e-22 -2.0519976e-10 9.53433e-18 -2.0317277e-12 -3.7610516e-08 -8.9075164e-11 -2.2000383e-07 -1.2400416e-13
-8.923678e-09 -7.513068e-09 7.3921175e-15 -1.9661344e-11 8.894442e-24 4.5960425e-18 -2.0597218e-12 5.802375e-24
-2.758076e-19 -1.6956431e-11 -3.527691e-15 4.483894e-25 -6.5654865e-13 -1.1957571e-11 -7.408648e-25 -8.3588135e-24
1.4566926e-23 -1.2756858e-10 3.1666244e-18 -1.9307288e-12 3.334757e-22 -3.661794e-07 9.661744e-22 -1.8309648e-22
-1.3703127e-08 -2.1874464e-17 1.4720894e-23 -6.981727e-24 -3.0779812e-19 -3.771967e-24 -3.122668e-19 -3.5577693e-07
6.6989136e-16 -1.2012206e-23 -7.6333693e-13 4.1833266e-18 -1.0934651e-24 -8.1350305e-25 -1.4840203e-10 -1.6630599e-09
-4.6239842e-07 -3.5570693e-24 -8.555247e-24 1.3338749e-27 -3.6056007e-14 -2.465302e-10 5.026598e-24 -2.162191e-07
-3.3589082e-13 -3.6842502e-09 -1.3401694e-13 2.6827597e-18 -5.2053034e-23 3.970945e-18 -2.4714561e-21 -9.595223e-08
-1.6496908e-24 3.1667846e-23 -2.2297157e-24 -5.1729203e-24 -4.290145e-12 1.5585438e-23 -3.1566657e-07 -9.888322e-10
00000000: 1346 63b7 1921 0e2b 482e 35b9 46a2 f4ac
00000010: fbe8 f4b9 53d0 3ab9 689c 25ae bb5a a7b9
00000020: a55f 9ab8 d3e8 1ab9 27ae 85b9 6305 25b9
00000030: 157c 04b9 71ed 4ab8 fd36 2dba 593f 2ea2
00000040: 28a5 0024 3bd9 cfb7 14b4 06ac 623e 8bb9
00000050: c888 5d22 7945 81b0 3785 94b8 708e 5e2a
00000060: 1be4 edb8 20b3 5cb9 ed9c 23b8 074a 47ab
00000070: d0da 5d26 5253 1122 653b 9f29 3f82 e9ad
00000080: fa17 47b2 096a 39b9 2ca3 a4a7 3579 6ab9
00000090: fa47 c69e 1c46 ee23 0c86 05b9 10eb abb8
000000a0: c23c 4aaf fd4c 5ea1 15e3 aeb9 0490 24a0
000000b0: 32ae 6ba8 50b4 85b8 ac6e edb8 953e 9b2a
000000c0: 5abc 2c28 40a1 6bb9 083a 93b8 385f 97b4
000000d0: a654 07a5 946c 5eb9 f020 11b1 131f 5eaf
000000e0: ec80 b8b8 136f a121 e479 8ab9 0781 d9b7
000000f0: 66dc 092a eb46 0ab8 1b86 23af 710b 93ad
00000100: 2c97 02b3 200c 76b6 4d25 acb5 c747 f8b7
00000110: 4946 71b6 19c1 40b4 517d 95b7 8f5e 76b2
00000120: 1a3c 2fb5 efb7 4fb4 48c1 cdb5 01f2 67b4
00000130: eae8 04b7 2aa5 36b4 9110 6420 d6f2 25ac
00000140: 1de9 1d29 3896 c1b4 e8e4 a9af e7e2 29b7
00000150: 9f40 ac9c 238a 0db6 20a8 f1b0 ff52 52b5
00000160: ed6d afb5 b1e5 0eb7 f6b8 4cb5 c3df 30b5
00000170: e2de 8db4 2d13 5728 5188 05b2 5f8e 81b4
00000180: 0307 3faa 84ca d6b3 2cd6 d6b6 5800 b9b5
00000190: d200 6898 2acf 4caf b3d1 d2b4 c6f4 b0b5
000001a0: fea0 16b5 a0e0 b8a5 f970 8cb1 bca8 9e97
000001b0: 5b0d 6bb4 a51f c2b7 4884 a2b3 86a4 1bb4
000001c0: 16ed 99b6 36af 7ab5 fbf8 6fb2 6904 0fa6
000001d0: 0f4d 3caf 6865 1ab5 3b52 1c9d 14e3 95b5
000001e0: b597 8e1c 56d9 0bb1 1083 52b4 cb87 0ab0
000001f0: d7ad 05b7 233b ecb4 8c02 06b6 724a a528
00000200: 17fd 6a1d 3829 6eae bd61 bbb0 fb61 61b3
00000210: 7b45 fab1 8bca 01af cd0f e5b2 3824 1329
00000220: a392 ecab 9592 42ad dee7 3aa4 9f50 3aaf
00000230: f268 03aa 040c 01b2 9928 811d 0840 bea9
00000240: 8ca5 a3a5 594c a123 b343 11ab ac54 17af
00000250: e23b 231d 2843 90b1 c803 97ac 24e5 a4ad
00000260: b886 ca28 ed96 b09d 5821 20af 096a 93ae
00000270: d329 15b1 5f5d 4aa1 16a1 4eaf 9e76 deb2
00000280: cb1e 5a23 68a3 97af 9521 89b2 5ffa 1bb0
00000290: c459 b517 fe67 eb27 a6c8 14af 6891 71ab
000002a0: 2c37 18b4 751a 9523 5d56 43af 7e21 0214
000002b0: 9256 c0b1 ab7b 56b1 38da eaac 1836 ccb0
000002c0: efde 15b2 749e 9828 50b1 e7ad 89a8 faa5
000002d0: 1ec4 a5af 2ab1 feac 20b6 0320 880a 13b3
000002e0: bc8e 081b 999e 61af 9ae0 2f23 5af8 0eac
000002f0: 3389 21b3 dce0 c3ae 313a 6cb4 c49d 0baa
00000300: c04e 19b2 d312 01b2 202a 0528 69f1 acad
00000310: 250b 2c19 6590 a922 a6f0 10ac f077 e018
00000320: dece a2a0 7d26 95ad 6a32 7ea7 11c5 0a17
00000330: 51cd 38ab 1d5c 52ad 5b49 6597 d7ae 2199
00000340: f6e1 8c19 5d43 0caf d8a7 6922 ebdc 07ac
00000350: dd92 c91b 5097 c4b4 1001 921c 9e59 5d9b
00000360: fd6a 6bb2 9ec1 c9a3 2b5f 8e19 d60b 0799
00000370: 23b1 b5a0 c0eb 9198 6d54 b8a0 9c01 bfb4
00000380: 4215 4126 9059 6899 39dc 56ab 6756 9a22
00000390: 9e34 a997 5ac4 7b97 752b 23af b891 e4b0
000003a0: 8e3f f8b4 829b 8998 887b 2599 655c d312
000003b0: bf61 22a9 0b88 87af 0475 c218 db29 68b4
000003c0: f816 bdaa 042e 7db1 c1e3 16aa e6f3 4522
000003d0: 89b6 7b9a 8480 9222 eabc 3a9d 4c0e ceb3
000003e0: fc46 ff97 e522 191a 1284 2c98 1f1e c898
000003f0: 31f2 96ac adbb 9619 e278 a9b4 71e7 87b0
