Nicola_Dainese_Ex4_NN/params/gaussian_net_params_1.pth (torch_old, 200295 bytes, 18 tensors)

encoder_cnn.0.weight f4 [8, 1, 3, 3]
000000 8b 72 89 3e 35 55 9d 3e 52 68 81 3e 47 6c 99 3e
       0.26845202 0.3072907 0.25274903 0.29965422
000010 03 a8 b2 3e 10 6b 97 3e 99 9a 90 3e ff 50 a7 3e
       0.34893808 0.2957387 0.2824295 0.32678983
000020 a6 f1 8b 3e 5a 19 8b 3e 32 53 9f 3e 74 2c 83 3e
       0.273328 0.2716778 0.3111816 0.25619853
000030 25 e7 9b 3e 2a 5b b6 3e 4d 75 98 3e 58 dc 95 3e
       0.30449787 0.35616428 0.29776993 0.2926967
000040 a7 c6 ab 3e a3 5e 8d 3e d8 99 84 3e 8a 8f 96 3e
       0.33549997 0.27611265 0.25898623 0.29406387
000050 ef ea 7d 3e 36 40 96 3e fb 1e ad 3e d8 91 91 3e
       0.24796651 0.29345864 0.338127 0.28431582
000060 8b a3 8d 3e 2b c0 a3 3e 13 41 87 3e 1b f8 f8 bc
       0.27663836 0.3198255 0.26416835 -0.030391743
000070 22 90 63 bd 1f a3 a4 bd a8 92 fa bc 03 8d 79 bd
       -0.055557378 -0.080389254 -0.03058751 -0.060925495
000080 cb 5a b0 bd 5f 08 ed bc 9a c4 64 bd 73 0f c3 bd
       -0.086110674 -0.028934656 -0.055851556 -0.09524431
000090 33 38 e8 bc 05 15 70 bd 67 ff b8 bd 4e a5 e0 bc
       -0.02834711 -0.058613796 -0.09033089 -0.027422573
0000a0 88 6c 89 bd 8c 42 c5 bd 1f ec ef bc 52 8a 80 bd
       -0.06710154 -0.096318334 -0.029287396 -0.062763825
0000b0 be f7 d6 bd f5 ba 8e 3e fa f9 a3 3e 3f 50 88 3e
       -0.10496472 0.27877012 0.32026654 0.26623723
0000c0 3e ce a0 3e 3c 19 bb 3e f4 ed 9d 3e fc 77 99 3e
       0.3140735 0.3654269 0.30845606 0.29974353
0000d0 f6 32 b0 3e 9f d3 90 3e a0 58 3a bb c8 e9 06 bb
       0.3441388 0.28286454 -0.0028434172 -0.0020586122
0000e0 c8 53 50 ba f9 37 11 bb 75 fa d9 ba 6a 81 38 ba
       -0.00079470547 -0.0022158606 -0.0016630428 -0.0007038327
0000f0 03 1b 21 bb 7d 35 eb ba cf 8f 4c ba 1a d3 8d 3e
       -0.002458275 -0.0017945018 -0.00078034116 0.2770012
000100 1d ea a4 3e bd b6 8a 3e 63 e0 a0 3e 4d 17 bd 3e
       0.32209864 0.27092543 0.31421193 0.3693184
000110 6f 63 a3 3e 07 8f 97 3e 8f 48 b3 3e 8e b9 99 3e
       0.319118 0.2960131 0.35016295 0.3002438

encoder_cnn.0.bias f4 [8]
000000 dc a4 27 3b 0f 86 8f 3a 40 e8 0d b9 4d 19 d4 3e
       0.0025580442 0.0010949987 -0.00013533328 0.41425553
000010 ae 11 ec 3e 12 b4 12 3b f8 e8 a3 bb d9 f7 7e 3a
       0.4610724 0.0022385162 -0.0050021373 0.0009726263

encoder_cnn.3.weight f4 [16, 8, 3, 3]
000000 4f f1 3f 3d df eb 7a 3d c4 ad 48 bc a3 c1 79 3e
       0.04686099 0.0612601 -0.01224846 0.24390273
000010 4c a9 50 3e a4 bf 8b 3d fa 18 fa 3d cc 85 d6 3d
       0.20377082 0.06823662 0.12211795 0.104747385
000020 96 c3 19 bc d2 69 53 3d 3b 9c 73 3d a0 81 9a bc
       -0.00938501 0.05161459 0.059475165 -0.018860638
000030 32 2d 7f 3e 2b 4b 57 3e 65 f5 99 3d b0 11 f4 3d
       0.24919584 0.21024768 0.075175084 0.11917436
000040 90 f8 dc 3d 1d 21 b3 bc ac 29 3d 3d e3 39 3f 3d
       0.10789597 -0.021866376 0.04618232 0.046686064
000050 92 fc 5c bb e8 21 6d 3e dc 56 60 3e 89 bf 79 3d
       -0.003371988 0.23157465 0.21908134 0.060973678
000060 bd b2 c9 3d 17 6a eb 3d b9 45 77 bc 0a dc 98 bb
       0.09848545 0.114948444 -0.015092307 -0.0046649026
000070 2b 42 6a bb de 37 01 3c ab 0a 27 bd e3 64 e5 bc
       -0.0035745006 0.007886855 -0.04078166 -0.028002208
000080 d8 75 d0 bb f4 41 8d bc f9 15 2d bc f9 1c 11 3c
       -0.0063617043 -0.017243363 -0.010564321 0.008857005
000090 f3 1e 0c bc 41 9c 23 bc 3f 96 3a 3c 4f 69 2c bd
       -0.008552301 -0.009985984 0.0113883605 -0.042092618
0000a0 bc de 12 bd 66 38 2f bb 25 1f 87 bc dc 0d 62 bc
       -0.035856947 -0.0026736497 -0.016494343 -0.01379725
0000b0 92 3c 5a 3c 12 27 5e 3d 41 64 4b 3d ef 39 72 bc
       0.013320105 0.05423648 0.049656156 -0.01478432
0000c0 a4 7d 82 3e b8 c7 59 3e 10 7f 82 3d a0 ff f3 3d
       0.2548648 0.21267593 0.063718915 0.11913991
0000d0 79 28 f8 3d e7 eb a9 bc 81 bc 1a ba 95 10 1f 3a
       0.121170945 -0.02074237 -0.0005902723 0.00060678396
0000e0 55 ff 91 3a c0 aa 3b ba 9e 41 27 3a 5f e7 8e b9
       0.0011138717 -0.00071589276 0.0006380322 -0.00027256735
0000f0 87 6b 21 ba d8 78 cf 39 af 95 b7 3a ec 65 46 3d
       -0.00061576854 0.00039572152 0.0014006401 0.048437044
000100 82 8f 46 3d ea f8 46 bc fa ef 82 3e 22 1e 60 3e
       0.048476703 -0.012144307 0.25573713 0.21886495
000110 74 d7 75 3d dd ed f6 3d ba 38 f5 3d 42 a1 8d bc
       0.060019925 0.120570876 0.1197371 -0.017288808
000120 80 f0 bf 3d 35 11 ee bc dd d3 ce bd 9d 81 7d 3d
       0.093720436 -0.02906094 -0.100990035 0.061891187
000130 b4 49 51 bd dc b6 c5 bd 14 a2 ad 3d 30 99 82 ba
       -0.05109568 -0.09654018 0.084781796 -0.0009963866
000140 e2 14 02 be 15 d5 b9 3d 4d 74 07 bd f4 50 d2 bd
       -0.12703279 0.09073845 -0.033069897 -0.10269347
000150 fa 31 74 3d e7 fa 37 bd 7e 1a d5 bd 0a c0 c0 3d
       0.059617974 -0.044917013 -0.104054436 0.094116285
000160 05 16 34 3b 44 f7 f6 bd 9b 18 c8 3d 69 22 c7 bc
       0.0027478945 -0.12058881 0.09770318 -0.0243084
000170 c9 5f b5 bd 1e 7d 89 3d 51 cd 2b bd 30 69 bc bd
       -0.0885616 0.06713317 -0.04194385 -0.091997504
000180 27 27 bc 3d 05 8f 40 b9 13 02 fc bd 8f 9f 95 3d
       0.09187155 -0.00018363826 -0.12305083 0.07305824
000190 5e 6d d9 3d 57 6a d7 3d c2 6a ae 3d 60 a9 de 3d
       0.10616563 0.105183296 0.08516456 0.108721495
0001a0 4e 09 e2 3d 14 27 9c 3d cb 4e cf 3d cd b1 e4 3d
       0.11036931 0.07624641 0.101224504 0.11166725
0001b0 67 4b a6 3d f3 ab f3 3d a6 da f3 3d 20 b9 c1 3d
       0.081198506 0.11898031 0.11906938 0.09459138
0001c0 77 f2 f4 3d 93 9b f6 3d e8 49 ac 3d 3d aa e8 3d
       0.11960309 0.12041392 0.08412534 0.113605954
0001d0 d3 4d fa 3d 44 9f c1 3d 8e 5a 15 bd fc c1 d6 bd
       0.12221875 0.09454206 -0.036463313 -0.10486218
0001e0 da 07 8c 3d ef ee 68 bd 51 ee d6 bd 66 5c b6 3d
       0.06837435 -0.05686849 -0.10494674 0.08904342
0001f0 a6 a0 9f 3b bc dc 09 be 02 ee e6 b9 0a 1f 86 b9
       0.0048714457 -0.1346311 -0.00044046348 -0.00025581598
000200 72 4d c2 b9 71 f7 40 ba db ba 6b ba aa c0 e3 39
       -0.00037060265 -0.00073610904 -0.0008992382 0.0004344036
000210 11 a8 71 ba d2 dd 5c ba 83 a8 2d 3a 69 a1 bd 3d
       -0.0009218464 -0.0008425388 0.00066245365 0.09259302
000220 fe 25 1d bd d6 94 ce bd d8 22 a0 3d eb 70 47 bd
       -0.03836631 -0.10086982 0.07819146 -0.04869167
000230 63 24 d0 bd 5f 3b cb 3d e5 85 02 bb 31 e7 03 be
       -0.1016319 0.099234335 -0.0019916233 -0.12881161
000240 b9 38 10 36 1c 46 a2 b7 72 f5 fe b7 dd ee 99 36
       2.149069e-06 -1.9344552e-05 -3.0393454e-05 4.5875627e-06
000250 a2 82 6e b8 1f 14 15 b7 48 2f 35 b8 c9 8c 88 38
       -5.6865283e-05 -8.885777e-06 -4.3197797e-05 6.5112086e-05
000260 40 f3 02 38 ec 1a dc 34 74 6f fb b6 62 7d a3 b7
       3.122096e-05 4.0997782e-07 -7.4933578e-06 -1.94895e-05
000270 eb c9 46 37 96 99 57 b8 76 bb bc 35 d6 50 5b b8
       1.1848732e-05 -5.1403033e-05 1.406165e-06 -5.2288953e-05
000280 6b e4 e0 b6 1e 63 4c 37 00 34 88 35 fe 8b 0f b8
       -6.7023116e-06 1.2182425e-05 1.0147924e-06 -3.4224235e-05
000290 6d 53 24 38 2f d0 0b b6 43 43 7e b8 54 3e 24 b7
       3.9178343e-05 -2.0833793e-06 -6.062096e-05 -9.789674e-06
0002a0 51 3e 6a b8 d9 cf 0e 38 bb 90 ea 36 4d b0 78 b7
       -5.5847984e-05 3.404901e-05 6.9905923e-06 -1.4823e-05
0002b0 d6 9b a6 b8 26 85 6f b8 f3 cb ab b8 64 04 27 b6
       -7.9445235e-05 -5.7106045e-05 -8.191904e-05 -2.4887495e-06
0002c0 c7 80 a8 b8 c3 9c 49 b8 a8 30 4e b7 1e fc bc b8
       -8.034851e-05 -4.806813e-05 -1.22898855e-05 -9.011499e-05
0002d0 2b 3e d2 b8 12 78 16 b7 92 6b 90 b8 1b d0 31 b8
       -0.0001002516 -8.968653e-06 -6.8864916e-05 -4.2393902e-05
0002e0 41 70 83 b8 73 32 97 b8 59 73 07 b8 29 34 e0 b8
       -6.267476e-05 -7.209638e-05 -3.2293934e-05 -0.00010690868
0002f0 ab b2 72 b8 38 9b 76 37 16 0e bf b7 96 ff 47 b8
       -5.7863694e-05 1.4698882e-05 -2.2775534e-05 -4.768333e-05
000300 5c b0 06 37 10 70 67 b8 64 77 f2 b5 70 cc 1a b8
       8.028084e-06 -5.5179058e-05 -1.8065152e-06 -3.690686e-05
000310 59 cc 1e 38 b6 fd ea 36 7a 7b 2a 36 56 58 a3 36
       3.786045e-05 7.0032793e-06 2.5403847e-06 4.868062e-06
000320 54 1c 01 36 2e 54 98 37 cc c8 a5 36 34 33 b2 37
       1.9238987e-06 1.8159011e-05 4.940759e-06 2.1243097e-05
000330 a1 8b 08 37 0d 58 d4 b4 f5 05 9e b6 c2 fe 52 37
       8.138742e-06 -3.9552143e-07 -4.7094604e-06 1.2576291e-05
000340 fc 03 9e b7 f4 ca f3 b6 63 db 54 37 a5 bc 61 b8
       -1.8836923e-05 -7.265591e-06 1.2687265e-05 -5.381987e-05
000350 57 8a 70 b7 ae bd 02 b8 4c 69 b9 b7 f6 cc bf b7
       -1.43373245e-05 -3.117107e-05 -2.2102751e-05 -2.2864417e-05
000360 ae 54 73 b8 48 22 0a 39 ef a9 fe 37 c9 40 f4 b8
       -5.801458e-05 0.00013173476 3.0358291e-05 -0.00011646894
000370 e5 bd 58 b8 21 2f 7b 39 03 35 35 39 03 53 ef 38
       -5.1675266e-05 0.00023954782 0.00017281254 0.0001141187
000380 35 7b 1f 3a 51 48 bd b8 74 16 4d 39 82 ad a0 37
       0.0006083728 -9.025692e-05 0.00019558688 1.9154282e-05
000390 19 92 1e b9 a7 cc 44 b8 91 c3 d1 38 8e 28 33 39
       -0.0001512248 -4.692064e-05 0.00010002324 0.00017085878
0003a0 a7 30 93 38 8c 2d 06 3a 0d 89 d9 b8 d8 67 11 39
       7.0185684e-05 0.00051184813 -0.00010372894 0.00013866962
0003b0 36 58 ba 38 83 55 32 b9 71 fa f3 b8 71 15 03 39
       8.885602e-05 -0.00017007258 -0.00011633791 0.00012501121
0003c0 37 9a a2 39 6f fc 04 39 71 94 34 3a 25 ef 9c 39
       0.00031013947 0.0001268254 0.00068885746 0.00029932815
0003d0 1e 79 1a 39 7e 0d 83 38 eb b7 9c 39 88 2f e9 38
       0.00014731704 6.24908e-05 0.00029891668 0.00011119159
0003e0 0d f1 ac 38 0e e8 98 39 32 18 af 38 e3 7b f3 37
       8.246498e-05 0.00029164593 8.349157e-05 2.9025547e-05
0003f0 c0 c6 70 39 18 91 a1 38 ae 0c a3 38 f6 64 8a 39
       0.00022962224 7.704104e-05 7.7748075e-05 0.00026396633

encoder_cnn.3.bias f4 [16]
000000 ce 4e 48 3c c7 8a 90 3e e2 d5 ad b9 1c d2 42 39
       0.01222582 0.2823088 -0.00033156486 0.00018579554
000010 4a a9 de 3c 03 15 9e b8 84 1d 43 3c 7e 29 f4 3d
       0.027180333 -7.537941e-05 0.011908893 0.119219765
000020 97 d5 86 3e 9d 40 18 3e 83 c6 85 3e af 1a 82 39
       0.2633483 0.14868398 0.26128015 0.00024815413
000030 a2 fb 4d b5 6d 5c 6e 3d cc f5 1c 3d df 4d fe b5
       -7.6734625e-07 0.058193613 0.038320348 -1.8947138e-06

encoder_cnn.6.weight f4 [32, 16, 3, 3]
000000 c3 7e 0d bb 35 d4 03 ba bf 09 1a bd 3f c6 1d 3e
       -0.0021590448 -0.0005028875 -0.03760695 0.15407656
000010 b0 b7 dc 3d 84 64 6c 3d 65 3d 11 bd 1f 7d 19 be
       0.10777223 0.057713047 -0.03545894 -0.14989136
000020 cf 0a 3f bc 03 c1 12 bc 70 57 0f 3c f4 84 a2 bd
       -0.011660292 -0.00895715 0.008748874 -0.07935515
000030 94 42 7d 3b 50 60 7f 3c b3 b2 12 be 45 33 87 3d
       0.003864442 0.0155869275 -0.14325981 0.06601576
000040 68 2e 51 bc d7 13 43 3a ae 3a ff 37 52 c8 3e b7
       -0.012767412 0.0007441616 3.0425694e-05 -1.1371523e-05
000050 f2 f4 a8 37 68 41 b2 b8 74 69 03 b8 38 a9 2f 38
       2.0141222e-05 -8.499884e-05 -3.1331045e-05 4.188085e-05
000060 98 2c d1 38 dd 9a 08 b8 32 92 ce b8 4f 22 d1 3a
       9.974203e-05 -3.2569154e-05 -9.8500765e-05 0.0015955659
000070 7d 96 b1 39 50 42 8c 38 a0 e7 70 b9 8a 85 04 39
       0.00033872193 6.688072e-05 -0.0002297447 0.00012638248
000080 90 00 c1 38 30 d0 bb 39 85 cc 26 39 e4 41 f4 38
       9.203062e-05 0.0003582253 0.00015907183 0.000116471
000090 6b 0d 12 3d 51 cd ed bc 3e 29 fa 3d 79 83 15 3e
       0.035657328 -0.029028567 0.122148976 0.14600934
0000a0 54 99 9e bc a2 20 e5 3d 70 a6 84 bd 0d 74 ef bd
       -0.019360222 0.11187865 -0.06477058 -0.11692057
0000b0 7c a0 bb 3d 56 e4 30 38 37 c0 a6 37 26 a5 35 b8
       0.09161469 4.2174324e-05 1.9878249e-05 -4.330757e-05
0000c0 d5 f0 24 38 5b c2 e1 b7 c1 ac 86 b8 83 1a 67 b7
       3.932494e-05 -2.6912594e-05 -6.421796e-05 -1.3774846e-05
0000d0 7c b3 b9 38 94 2f 37 b8 26 c4 5c 3a 17 8e fe 3c
       8.854919e-05 -4.367491e-05 0.00084215624 0.031073613
0000e0 de 3f 6e bb d1 4f 82 3d fa 5a af 3d 27 2a c5 bc
       -0.0036353986 0.0636288 0.08562274 -0.024067951
0000f0 de bf 6a 3d 2c e0 b1 bd f5 a4 55 bb 5b d5 ef ba
       0.057311885 -0.086853355 -0.0032599543 -0.0018297838
000100 95 e3 84 3b 3f 50 8b bb 56 15 c8 bb 90 92 30 3c
       0.00405545 -0.0042515094 -0.006106059 0.010777131
000110 94 cf 53 bd fc 7e 49 3c 21 73 cd bb af 3c a1 3a
       -0.051711634 0.012298342 -0.006269828 0.001230141
000120 dd 01 5f bc 77 3a 82 3b d2 5e 8b bd 9e 95 10 bb
       -0.013611284 0.0039742547 -0.06805195 -0.0022061835
000130 70 6e 37 3c 05 00 0c be 24 fe 63 3d cb 46 80 bc
       0.011195764 -0.13671882 0.05566229 -0.015658757
000140 3c e1 35 3b 4d d2 d8 39 80 18 57 3b da 24 04 be
       0.0027752658 0.00041355417 0.0032821 -0.12904683
000150 78 5f 9b 3c ad 26 bf 3c e7 ab f4 bd bd 88 64 3d
       0.018966421 0.023333872 -0.1194685 0.055794466
000160 fb 45 11 bd 30 ce 81 ba bd d7 c8 ba 78 e6 1a 3c
       -0.03546713 -0.0009903368 -0.0015323084 0.009454362
000170 e0 0e ec bc 6d 58 9d bc 3a e2 84 3c b6 9d d9 bd
       -0.028815687 -0.019207204 0.016221154 -0.10625784
000180 6c 15 3b 3d 62 98 3b bb a8 05 9a 3b 75 56 ab 35
       0.045674726 -0.0028624763 0.0047003813 1.2765655e-06
000190 52 0c 50 37 4c c6 9e 36 33 2b 71 b5 e1 c5 99 b3
       1.2400635e-05 4.7318517e-06 -8.984236e-07 -7.160612e-08
0001a0 76 ec 81 33 90 cb f8 36 8f f3 65 36 e4 8d 4e b6
       6.0500426e-08 7.4146737e-06 3.426543e-06 -3.0778983e-06
0001b0 c2 59 ed b3 db 5b cb 33 69 80 07 b2 aa 98 cf 30
       -1.10524994e-07 9.4696325e-08 -7.887231e-09 1.5104622e-09
0001c0 e7 c0 52 33 95 d5 90 34 4e bf 8e 33 0e 81 90 34
       4.906988e-08 2.6977492e-07 6.6471884e-08 2.691599e-07
0001d0 43 a1 ae 34 86 a0 61 bb 74 89 65 3b 5a 80 79 3b
       3.252736e-07 -0.0034427955 0.0035024555 0.0038070888
0001e0 c1 ae 89 bb 54 b0 39 3a 9b e7 2c ba 1f 02 a4 3b
       -0.0042017405 0.0007083465 -0.0006595791 0.0050051357
0001f0 da 0b 05 3c e3 c9 aa 37 c8 18 e3 3a 7c d4 ad bc
       0.008120501 2.035959e-05 0.0017326111 -0.021219485
000200 66 82 f1 bd 3e 4a d4 3d 2e 9c 13 3e aa 67 10 3d
       -0.1179245 0.10365723 0.14415047 0.03525511
000210 13 0a 24 bd 74 02 a0 bd bd 0f 44 bd 6e 70 a5 b2
       -0.04004867 -0.07812968 -0.04786657 -1.9259655e-08
000220 05 cb ca b4 83 68 7f b3 fb 52 3c 36 eb 15 62 b5
       -3.7773148e-07 -5.9466867e-08 2.8062484e-06 -8.4223456e-07
000230 df 67 9b 34 bf 87 1c 36 b0 c1 76 35 1f a4 81 34
       2.8946576e-07 2.3324826e-06 9.1923994e-07 2.4147536e-07
000240 12 0d 02 3d e4 be 24 bd 9f 32 1a bd 22 c7 a9 3b
       0.031750746 -0.04022111 -0.037645932 0.005181209
000250 99 12 3f bd 07 3a 92 bc df 21 de bc f9 3e 71 bd
       -0.046648595 -0.017849935 -0.02711576 -0.058897946
000260 6a 1d 1d bd 3f 79 65 3d f4 0b 7a 3a 60 43 27 3c
       -0.03835813 0.056023832 0.00095385243 0.010208935
000270 52 8d 5b 3d c5 4d c3 bb 31 6a 71 3c 76 0c 6a 3d
       0.05360157 -0.0059601986 0.014734791 0.05714079
000280 fc 7a b7 bb 9d 62 a7 3b 69 d2 ae 37 d7 00 11 38
       -0.0055993777 0.005108191 2.0840396e-05 3.4571476e-05
000290 71 71 2f b9 66 f0 18 38 5d 03 a7 38 05 e5 25 b9
       -0.00016731561 3.6463513e-05 7.963807e-05 -0.00015820943
0002a0 ab 8d d0 b7 a8 ba dc b8 36 69 0e b8 81 b8 cb b9
       -2.4861502e-05 -0.00010525185 -3.3953424e-05 -0.00038856643
0002b0 80 7d 21 b9 39 42 9a 38 fc 5a e1 38 24 b0 63 b9
       -0.00015400909 7.355627e-05 0.00010745783 -0.00021714024
0002c0 f1 49 d4 38 18 12 57 b9 ff 52 e9 b8 79 5b 39 39
       0.000101227204 -0.00020510738 -0.00011125765 0.00017677051
0002d0 4d fe 26 bd e3 09 23 bd 64 38 cb bc 4f 76 9a bd
       -0.040769864 -0.03980435 -0.024807163 -0.07542097
0002e0 ba 43 87 bc 71 f5 03 bd 36 22 f2 bd 71 b2 5d bd
       -0.016511787 -0.032216493 -0.118229315 -0.054125253
0002f0 80 13 28 bd 3b 50 bd 36 f0 f3 2a 38 ba b8 95 37
       -0.04103422 5.641979e-06 4.0758343e-05 1.7848204e-05
000300 f5 af 6e b8 9a f2 8a b4 d5 d8 2a 38 4f 38 8c 38
       -5.6907495e-05 -2.588102e-07 4.07331e-05 6.6862085e-05
000310 63 e4 6f 38 76 cf ef 35 fc af 3b 3d c2 c9 33 bd
       5.7194742e-05 1.7867267e-06 0.04582213 -0.043893583
000320 85 5e ea bc 51 b5 ef 3c cd 98 0e bd b3 ab 43 bc
       -0.028609524 0.029261263 -0.03481369 -0.011942792
000330 44 e4 cd bc b0 50 84 bd 10 50 de bc 7b ec 46 3c
       -0.02513326 -0.064607024 -0.027137786 0.012141342
000340 81 f0 d7 3a 55 89 43 3b e5 78 7f 3c ad 24 94 39
       0.0016474874 0.0029836495 0.015592788 0.00028256085
000350 6b d4 a4 3b fe 99 92 3c 79 d2 9a 3a 2c e6 de 3a
       0.005030205 0.017895695 0.0011811993 0.0017005852
000360 3f 2c 60 3d 5c a0 42 3b f2 ab 41 3c a6 a6 55 3d
       0.054729696 0.0029697632 0.01182078 0.05216088
000370 6e 04 5d bb da 43 3b 3c 0f 9c 4b 3d 77 b1 01 3b
       -0.0033724564 0.011429751 0.049709376 0.0019789615
000380 bd 04 1d 3c 18 70 78 3d f9 97 06 bc c4 6e 37 3b
       0.009583649 0.060653776 -0.008214944 0.0027989605
000390 17 da 43 3d ab 86 c8 bc a3 91 65 3b c7 50 55 3d
       0.04781541 -0.024478277 0.0035029433 0.05207899
0003a0 22 ab 47 bc 21 53 11 ba 73 fb 2c 3d 57 cc 8d 3b
       -0.012186797 -0.0005543698 0.04223199 0.0043273377
0003b0 b1 b6 62 3c 9a 3c 1b 3d 95 a3 31 3b c1 d3 41 3c
       0.013837502 0.03789959 0.002710556 0.011830271
0003c0 aa a0 26 3d 2a 85 a6 3a b4 8a 15 3c b8 f7 4e b6
       0.040680565 0.0012704481 0.009127308 -3.0840583e-06
0003d0 7f 5a a0 b4 66 8f d5 35 37 62 96 b5 6a 9f 25 36
       -2.9868167e-07 1.5911471e-06 -1.1204455e-06 2.4679707e-06
0003e0 d8 94 75 35 08 b5 65 35 a4 c2 5b 36 41 88 f6 35
       9.148621e-07 8.5572583e-07 3.2746839e-06 1.8368083e-06
0003f0 2e 80 4b 34 a7 24 bf b2 c8 86 f9 33 0a 97 a0 34
       1.895248e-07 -2.2251994e-08 1.16194826e-07 2.9912218e-07

encoder_cnn.6.bias f4 [32]
000000 d3 66 ea 3b 77 a6 46 3c b4 00 c6 3c ec ac 90 3d
       0.007153371 0.012124649 0.024170257 0.07064232
000010 2e 4b 1a bd 72 17 be 3c 9f ac b0 3c eb f4 a6 b4
       -0.037669353 0.023204539 0.021566687 -3.109811e-07
000020 92 e2 cc 3c 45 3b 3c b1 31 85 77 3d 98 14 b7 b2
       0.02501038 -2.7391291e-09 0.060429756 -2.1313369e-08
000030 e9 03 61 b4 e5 31 30 3d d1 cc 4b 37 22 b9 cd b6
       -2.095618e-07 0.043016333 1.214743e-05 -6.1310284e-06
000040 c9 aa 23 3d d5 e4 6f 3c 87 d8 04 3d ac 04 56 3c
       0.039957795 0.01464196 0.03243306 0.013062637
000050 11 5a b4 b6 84 c2 e1 b4 ea c8 bd b5 be 9f a9 3d
       -5.374903e-06 -4.2051045e-07 -1.4140071e-06 0.082824215
000060 24 f2 02 b3 23 aa 21 bc 40 5e be 3a cc f0 b1 3b
       -3.048821e-08 -0.009867224 0.0014523938 0.0054303166
000070 ae 1d 21 3d 40 26 89 3d 6b 8d 8f 3b 08 0d 40 b9
       0.039334945 0.06696749 0.004380872 -0.00018315401

encoder_lin.0.weight f4 [64, 288]
000000 81 e6 d0 38 fc 3b d7 b5 98 bc 83 b8 3e 02 63 39
       9.9611476e-05 -1.6036206e-06 -6.281695e-05 0.00021649242
000010 6f 99 c0 b8 95 19 c5 38 7a be 18 b9 b3 7b 1c 38
       -9.183853e-05 9.398457e-05 -0.00014566808 3.7308502e-05
000020 e4 03 52 38 93 8f 56 b7 47 13 04 b6 99 a0 e0 b6
       5.0071525e-05 -1.27888225e-05 -1.9680754e-06 -6.6944162e-06
000030 ef de 21 38 57 c7 43 b6 3c 3b 2d 37 17 24 04 b9
       3.8593014e-05 -2.9173295e-06 1.0325395e-05 -0.00012601945
000040 36 a6 80 b5 ed 87 8d b8 a6 0d 68 38 d1 90 1f b9
       -9.585117e-07 -6.748722e-05 5.532582e-05 -0.0001521737
000050 02 ad 2a b8 61 1f 33 36 25 34 a8 b9 03 a3 0f 39
       -4.0692285e-05 2.6691343e-06 -0.00032082308 0.0001369827
000060 5e f8 9d 38 46 9e 40 36 f7 b6 80 b8 bc d0 14 b9
       7.5326054e-05 2.8702357e-06 -6.1375955e-05 -0.0001419214
000070 d5 bc 2c 37 d1 9d 1b b9 67 41 04 37 b8 7f 8b 36
       1.0295965e-05 -0.00014840743 7.883041e-06 4.1573912e-06
000080 d2 8c b5 b6 89 83 74 b9 4d a3 1b b9 5e b4 ad 38
       -5.410614e-06 -0.00023318654 -0.00014842786 8.282879e-05
000090 52 2c 2e 37 11 ac 08 b8 25 ca c5 38 c9 37 2a b8
       1.0381527e-05 -3.2585176e-05 9.4313444e-05 -4.0583112e-05
0000a0 10 8e ff 38 42 1e 92 38 24 36 46 37 99 1d 9a b9
       0.00012185809 6.9674585e-05 1.1814325e-05 -0.0002939522
0000b0 5f d0 4c b7 05 83 23 38 7d e4 fd 38 0f c1 2b b9
       -1.2207863e-05 3.898425e-05 0.00012106539 -0.00016379751
0000c0 23 72 95 38 fe 1c 49 38 6e d4 05 b9 36 f1 03 39
       7.126133e-05 4.7949135e-05 -0.00012763005 0.00012582992
0000d0 a0 82 02 38 e5 6f aa b7 e4 75 b4 b7 74 00 50 b7
       3.111607e-05 -2.0317684e-05 -2.151257e-05 -1.2397872e-05
0000e0 39 c7 d1 38 8a e2 3d b6 76 d5 b6 b6 ef d2 52 b9
       0.00010003005 -2.8295058e-06 -5.448873e-06 -0.0002010574
0000f0 a1 68 72 38 c5 4e 84 b8 e0 16 a5 b8 d2 e0 24 31
       5.779474e-05 -6.3089225e-05 -7.872074e-05 2.3992937e-09
000100 2d 4f 16 ac e5 24 dd 2c 30 92 64 2e ed 02 f6 ad
       -2.1360233e-12 6.285294e-12 5.197104e-11 -2.7968261e-11
000110 99 11 ca ac 49 3c 19 ad 55 a9 4b b3 ab 7d a4 b1
       -5.743139e-12 -8.710429e-12 -4.7418627e-08 -4.787315e-09
000120 e7 6b d2 37 47 fa 3d b8 32 ac 19 b8 99 4b 02 b8
       2.5084197e-05 -4.52942e-05 -3.6638412e-05 -3.106482e-05
000130 f1 e0 8d 36 b2 10 0d 37 84 0d 8c b8 b0 b8 37 37
       4.228314e-06 8.408142e-06 -6.678238e-05 1.0950651e-05
000140 bc e8 8d b8 77 bd 2e af 29 9c 8e 2c fe 6f 31 b0
       -6.766754e-05 -1.5892519e-10 4.05322e-12 -6.4551375e-10
000150 18 af 2f ae 31 6c aa 2d 9e 81 e0 2c b1 46 16 af
       -3.9945908e-11 1.9374809e-11 6.3808533e-12 -1.3667535e-10
000160 bf d1 a0 aa 48 37 a6 ae 50 fc 63 b9 52 f8 8a 38
       -2.856725e-13 -7.558626e-11 -0.000217424 6.626606e-05
000170 08 de 40 b9 5a 05 43 b8 68 b4 36 37 a2 7d f8 b6
       -0.0001839326 -4.6496607e-05 1.0890049e-05 -7.4056015e-06
000180 a8 c0 2c 39 df 74 9e b8 51 92 33 b8 44 e7 2a b9
       0.00016474968 -7.555796e-05 -4.2813193e-05 -0.00016298617
000190 30 8b 4c 2c 48 8d b1 38 07 3a 99 2b c6 23 a1 0e
       2.9067408e-12 8.4663334e-05 1.088741e-12 3.9724013e-30
0001a0 a9 c8 33 2f 96 8f 07 af 91 02 54 0d 12 86 5b 2e
       1.6351244e-10 -1.232919e-10 6.5330633e-31 4.9913913e-11
0001b0 2a 69 14 b0 9a dc c4 af ee b4 65 ae 90 89 2d b0
       -5.3991533e-10 -3.580894e-10 -5.222927e-11 -6.313252e-10
0001c0 f2 61 80 30 bd 5b c0 2e c9 ca 81 2d 79 64 66 2d
       9.341063e-10 8.747445e-11 1.4755657e-11 1.3096296e-11
0001d0 55 ca 28 ae 8f 11 eb b5 92 78 20 38 04 23 e2 b8
       -3.8378484e-11 -1.7513975e-06 3.8259263e-05 -0.00010783042
0001e0 af a7 e9 36 82 be fb b7 9f 89 c2 b8 67 53 18 39
       6.963462e-06 -3.0010244e-05 -9.276275e-05 0.0001452692
0001f0 3f b6 35 b8 47 74 b6 b7 53 c7 b8 33 29 eb 4a 39
       -4.3323493e-05 -2.1750237e-05 8.6044246e-08 0.00019351825
000200 32 d2 85 32 bd 3d 14 32 2f 4e 39 b0 7a 04 10 b2
       1.5578824e-08 8.6287715e-09 -6.7413714e-10 -8.382921e-09
000210 60 16 be b3 af d3 05 2a 1d 0c 0d 33 80 d2 97 b2
       -8.8516344e-08 1.1886215e-13 3.2840138e-08 -1.7674438e-08
000220 51 09 0e b1 7c a5 02 b4 3b 27 c1 b0 90 c4 9e b9
       -2.0669015e-09 -1.2167396e-07 -1.4053748e-09 -0.0003028256
000230 c0 71 9d b8 3c c6 20 b2 b3 04 5b 37 e4 4e 8b b4
       -7.507531e-05 -9.358299e-09 1.3054511e-05 -2.5948168e-07
000240 3d 46 05 38 bc f2 81 37 8f d7 ba b8 a3 67 64 38
       3.1775086e-05 1.549103e-05 -8.909322e-05 5.4455955e-05
000250 97 17 7f b8 17 07 8a b8 32 51 6a b9 3c 3d d0 b8
       -6.0818707e-05 -6.5816734e-05 -0.00022346227 -9.929619e-05
000260 90 34 20 b9 33 a5 72 b7 b8 8c c5 37 35 9d 0a 39
       -0.0001527837 -1.44627875e-05 2.3549757e-05 0.0001321927
000270 7a 84 eb b6 7b 6c 0f 36 bc 87 64 37 1b d0 01 b8
       -7.018968e-06 2.1371804e-06 1.3621462e-05 -3.094981e-05
000280 ec fd d7 b6 47 79 35 b8 33 8b 11 b9 40 8c c9 b7
       -6.4370597e-06 -4.326671e-05 -0.00013880133 -2.4026376e-05
000290 09 21 df 38 6b a3 6b b6 64 0d 9a b6 19 74 24 b7
       0.00010639622 -3.511285e-06 -4.5911165e-06 -9.802193e-06
0002a0 4d ed 51 b9 8e b3 87 b7 88 30 98 b7 60 5a 85 b6
       -0.00020020195 -1.6176866e-05 -1.8142411e-05 -3.97423e-06
0002b0 c7 fd 46 b4 04 58 12 b6 66 63 02 b9 0a 81 99 b8
       -1.853251e-07 -2.1806927e-06 -0.00012434795 -7.319644e-05
0002c0 b2 72 52 37 a4 55 95 b9 91 e1 8f 39 d5 2a 23 b9
       1.254368e-05 -0.00028483302 0.00027443146 -0.00015560848
0002d0 fe 53 40 b1 58 52 c8 b2 09 f1 86 b0 fe d9 47 b3
       -2.7987421e-09 -2.332051e-08 -9.81829e-10 -4.653156e-08
0002e0 25 7e 55 2f e6 a0 a2 b2 c7 f5 f9 b1 13 4d f3 b1
       1.9417053e-10 -1.893245e-08 -7.2747954e-09 -7.080993e-09
0002f0 99 fb 34 32 fb ca d4 ad 3b 28 c6 2c 5d 82 79 30
       1.0534586e-08 -2.4191751e-11 5.631965e-12 9.077093e-10
000300 b1 3c 30 ab b5 ed 06 a9 2a ae 54 ae cd 55 3f ac
       -6.2611987e-13 -2.9960155e-14 -4.8357908e-11 -2.7190362e-12
000310 33 2f fd 28 fe 7a 53 2e 92 cf a7 30 ee 46 2b 2d
       2.8109112e-14 4.8085085e-11 1.2209844e-09 9.735974e-12
000320 a3 6f 1b ae 21 d8 7d b9 d1 92 7d 2c 36 50 c4 2d
       -3.5342073e-11 -0.00024208474 3.6034962e-12 2.2318241e-11
000330 30 e1 a9 2e ea e3 3e b5 ca df 89 2e 5a 8b 51 b9
       7.7252316e-11 -7.1112174e-07 6.2697916e-11 -0.00019983706
000340 c7 f1 d2 b7 b0 79 98 38 9d d7 7b b9 68 d3 3e b9
       -2.5146537e-05 7.270591e-05 -0.00024017548 -0.00018198567
000350 0a 54 1e b9 f9 9a 94 b9 a9 81 0b b9 f7 22 1a b9
       -0.00015099361 -0.00028344223 -0.00013304375 -0.0001469961
000360 9b 3a 1a 30 08 1f 0c 30 e5 9d b0 ad 11 29 ee 30
       5.6108157e-10 5.09758e-10 -2.0079003e-11 1.7328451e-09
000370 16 12 7f a8 03 f9 98 28 4b 18 37 30 3e 06 06 ac
       -1.4159265e-14 1.6983382e-14 6.6609535e-10 -1.904601e-12
000380 58 53 8e ab 72 24 4f b8 20 f9 fc b7 84 31 fc b7
       -1.0112839e-12 -4.938659e-05 -3.0156749e-05 -3.0063798e-05
000390 67 63 85 b9 74 b9 da b8 57 96 5a b7 d1 7f d8 b8
       -0.00025441797 -0.000104295934 -1.3028816e-05 -0.0001032349
0003a0 55 17 0b 39 e1 95 1c b8 41 52 28 b8 20 18 ee b8
       0.00013264765 -3.7332884e-05 -4.0130926e-05 -0.00011353218
0003b0 c3 bd 70 b7 f5 b1 c9 37 6e ee 42 38 c4 00 96 b8
       -1.4349297e-05 2.4043935e-05 4.647526e-05 -7.1527e-05
0003c0 03 56 28 38 ef f7 02 38 b1 ec c0 b7 5f 76 0c b8
       4.0134426e-05 3.122532e-05 -2.2998402e-05 -3.3488843e-05
0003d0 f7 11 87 b8 0a 5f 5f b8 85 7a 93 38 3b 53 c5 b7
       -6.440648e-05 -5.3255855e-05 7.032327e-05 -2.3522987e-05
0003e0 cf 72 5d 38 03 2f 2c 38 3f 13 03 39 1d b1 36 b9
       5.279743e-05 4.105178e-05 0.00012500303 -0.00017422852
0003f0 5b 43 b5 b8 70 f8 32 39 12 89 e1 b8 96 55 71 b8
       -8.6432985e-05 0.00017067953 -0.000107543674 -5.7538586e-05

encoder_lin.0.bias f4 [64]
000000 d9 8f 47 b9 9a 47 58 3c fe 30 db b8 d9 07 a2 3c
       -0.00019031706 0.013200665 -0.00010451859 0.019779133
000010 7f 59 9c 3d 89 48 d9 bc 3b d9 17 36 8c cb a9 b1
       0.076342575 -0.026523845 2.2627198e-06 -4.941688e-09
000020 15 8b a5 3d 1e cb 1a b6 16 05 d6 bb e1 1c 9d 3b
       0.080831684 -2.3066018e-06 -0.006531368 0.0047947024
000030 0c 09 d0 b9 e3 6f 19 b6 b2 23 73 b7 39 d8 8d 3d
       -0.00039679592 -2.2863903e-06 -1.449224e-05 0.06926007
000040 78 66 20 bc d4 24 b0 b5 27 8a 85 3d 8d b1 87 3d
       -0.009790055 -1.312374e-06 0.06520491 0.06625662
000050 d2 c4 32 b6 c6 6d 50 3c 6f 11 96 3d 3b a9 dd b9
       -2.6638631e-06 0.0127214845 0.07327544 -0.0004227849
000060 1a 6d a6 35 07 a1 39 b6 c4 00 05 3d 48 7e 9d 3c
       1.2399717e-06 -2.7660878e-06 0.032471433 0.019225255
000070 ad 5f 01 b6 72 d0 42 3d 6a 03 d8 b2 92 aa 9b 3d
       -1.9278189e-06 0.04756207 -2.5147262e-08 0.07600893
000080 de 0a 50 af 8b 1d ba b9 94 e3 74 3d ea 91 ab ba
       -1.892135e-10 -0.00035498696 0.059787348 -0.001308975
000090 6e b3 a2 b9 3b f7 bf ba 30 18 c4 bb 39 1a 3d 3c
       -0.00031032733 -0.0014645824 -0.0059843287 0.0115418965
0000a0 92 27 d6 3b 73 4e 78 3a ac 8a 2e 3d 92 0b 84 b6
       0.006535479 0.0009472139 0.042612717 -3.9352535e-06
0000b0 36 9d 1d ba d3 cd 78 39 cb e1 89 3c 69 b7 76 bb
       -0.0006012501 0.00023727799 0.0168313 -0.0037645942
0000c0 60 6b d8 bc db 58 86 b8 3b 78 10 3d 4f c0 e1 b8
       -0.026418388 -6.4061685e-05 0.03527091 -0.00010764656
0000d0 dc 0f 91 3c 9a 67 c1 35 4c 14 c2 ae 1f 0c 14 38
       0.017707758 1.4409773e-06 -8.825704e-11 3.529724e-05
0000e0 6f 9d 9a 33 de fe 15 3d 90 31 1d b9 9b e0 71 3a
       7.199821e-08 0.036620013 -0.0001499115 0.0009226889
0000f0 ba 0f 81 3c c6 43 11 bb be 22 a0 b7 d9 f0 21 3d
       0.01575457 -0.002216564 -1.9089664e-05 0.03953633

encoder_lin.3.weight f4 [1, 64]
000000 3b ed e1 b9 83 cb 98 3c aa 3e 2f bb 0a e0 ea 3c
       -0.00043092095 0.01865173 -0.0026740232 0.028671283
000010 00 fd 4d 3e 5e e4 58 bf 89 df 69 37 8d 29 d5 33
       0.20116043 -0.8472346 1.3939928e-05 9.9261435e-08
000020 a2 ef 78 3e 34 16 88 36 78 c9 36 3f 56 b9 9f 3b
       0.24310163 4.0557006e-06 0.71401167 0.0048743887
000030 4e 85 ea b9 8f 16 d3 b8 2e 80 20 3b b3 15 a1 3e
       -0.00044731278 -0.00010065466 0.0024490464 0.31461868
000040 89 18 99 be 7c ca 43 37 95 d3 d7 3e 50 77 c2 3e
       -0.2990153 1.167005e-05 0.42153612 0.37981653
000050 e5 82 7f 37 75 a8 93 3c 2c b0 13 3e 63 1f be bb
       1.5229661e-05 0.018024663 0.14422673 -0.0058020814
000060 70 a3 69 b6 d6 60 10 b8 84 a6 51 3d 8a fc fa 3c
       -3.4814839e-06 -3.442246e-05 0.051184192 0.030637998
000070 9c bd 94 37 a9 a4 9b 3d a3 0f 00 b3 1b 5c 90 3e
       1.7731269e-05 0.07599766 -2.9816544e-08 0.2819527
000080 70 9b 5d 2f bb e5 84 3a bc 71 f6 3e f0 8c 86 bb
       2.0155055e-10 0.0010139266 0.48133647 -0.0041061565
000090 71 cc f0 3a cb b9 4d 3c 9c 67 f9 3a 9a 43 83 3c
       0.0018371475 0.0125565035 0.001902807 0.016023446
0000a0 64 8e fa 3b a9 dc 82 bc b8 54 03 3f 27 15 d6 38
       0.007646369 -0.01597436 0.51301146 0.00010208255
0000b0 2c 6c f4 3a 75 46 bd b9 f7 ef bb 3c 0d 2c 8b 3b
       0.001864796 -0.00036101384 0.022941573 0.0042471946
0000c0 4c 45 52 bf ee ba 6e b9 94 94 51 3d 44 c6 81 ba
       -0.8213699 -0.00022767085 0.051167086 -0.0009901007
0000d0 8f 58 4b 3f 9b 47 7c b9 d3 80 b1 b0 6c d9 f6 3a
       0.79432005 -0.00024059268 -1.2915059e-09 0.0018833107
0000e0 d2 34 c2 b4 2f 7a 47 3f 05 40 9b b9 5d 4e 48 3f
       -3.6173748e-07 0.7792081 -0.00029611602 0.7824457
0000f0 98 db bd 3c f0 39 23 3c f8 50 72 39 d5 20 75 3d
       0.023176 0.009962544 0.00023109082 0.059845764

decoder_lin.0.weight f4 [64, 1]
000000 6e 88 df ba aa 4f d2 3e 26 8a 71 ba b0 24 d7 3e
       -0.0017054209 0.41076404 -0.0009214006 0.42020178
000010 af d9 45 ba 67 4c bb 3e fa 9f a3 bc 40 36 d7 3e
       -0.0007547391 0.36581728 -0.019973744 0.42033577
000020 a7 26 f0 be ac bb 78 bb a2 ae b4 3e b9 1b c7 3e
       -0.4690449 -0.0037953658 0.35289484 0.38888338
000030 a0 ba f5 ba de 0e d7 be 0e 54 e7 be e6 e8 df b3
       -0.0018747635 -0.4200353 -0.45181316 -1.0426611e-07
000040 a2 3c 8d be e3 43 a9 bc da 5f f8 bb 7d 4d bd 3e
       -0.27585322 -0.020662254 -0.007579786 0.3697318
000050 44 50 d4 3e 49 bd 89 be 95 80 a1 bc d5 4c a1 bc
       0.41467488 -0.26902226 -0.019714633 -0.019689957
000060 5a 29 a6 3e 98 9d bf 3e b6 17 81 b9 09 0b 83 ba
       0.32453424 0.37424922 -0.00024622463 -0.0009997796
000070 8f e4 c3 be d8 1d 98 ba 8b d9 94 3e da e4 d5 bb
       -0.38260314 -0.0011605574 0.29072222 -0.0065275254
000080 4f 10 d8 3e 33 b5 06 be a1 d4 2e ba 04 7a ce 3e
       0.42199942 -0.1315506 -0.00066692574 0.40327466
000090 d7 1d 69 bb ef a3 81 ba dd a8 c3 3e 0d cb 9a 3e
       -0.0035570764 -0.0009890775 0.3821477 0.3023304
0000a0 c5 4a bc bb cc 72 64 3b 5d ee d0 3e 29 92 c8 3e
       -0.005746218 0.0034858463 0.40806857 0.3917401
0000b0 05 1f be 3e 92 65 1e 3b e0 98 d1 3e 9f f8 f9 ba
       0.3713304 0.0024169427 0.40936947 -0.0019071287
0000c0 57 a8 e4 be 76 f8 1b 3b 2e 18 07 b9 ae 05 d7 3e
       -0.44659683 0.0023799217 -0.00012883611 0.4199652
0000d0 cc 08 a8 bc 6d 1d d4 3e 8b dd b0 3e 7e 3f b8 be
       -0.020512007 0.414287 0.34544024 -0.3598594
0000e0 ee c2 d9 3e 1e 54 53 ba 5f 67 d8 3e 93 24 5b bb
       0.42531532 -0.00080615457 0.42266366 -0.0033438548
0000f0 00 f9 91 be ac 06 a9 3e 0e d0 0b b7 df 56 2f bc
       -0.28510284 0.33012903 -8.333487e-06 -0.010701864

decoder_lin.0.bias f4 [64]
000000 42 1e 94 ba 77 c8 e0 3d 0a 1f f8 ba 7b af c8 3d
       -0.0011300521 0.10975736 -0.0018930149 0.09799095
000010 ad ba d2 b8 3f 86 bc bd 10 5e 75 3f ca 04 d0 3d
       -0.000100483514 -0.09205293 0.95846653 0.101571634
000020 c7 bf aa 3c 67 f6 3c bc 7f 46 b9 bd 93 07 13 bd
       0.0208434 -0.011533356 -0.09046649 -0.035895895
000030 3d 61 3d bb 9f e1 5f bc 6e d8 0b bc 87 ef 55 b5
       -0.002889707 -0.013664632 -0.008535488 -7.969724e-07
000040 df 6e 05 bd 76 98 74 3f 38 0b 6e bb 62 21 aa bd
       -0.032576438 0.95545137 -0.0036322605 -0.083071485
000050 d6 68 cc 3d d3 7a 18 bd ce 1d 6e 3f e4 a7 6d 3f
       0.09980933 -0.03722651 0.9301423 0.92834306
000060 11 f4 b6 bd 8e be 44 3d a1 6e ae b8 75 74 7d ba
       -0.08933271 0.04803329 -8.317573e-05 -0.00096685375
000070 f4 40 2a bc c7 c4 0b ba 28 fb c9 bd c8 02 41 bb
       -0.010391463 -0.00053317513 -0.098623574 -0.002945112
000080 67 27 d8 3d 6a 5e d3 bc e3 73 56 ba da dd bc 3d
       0.105543904 -0.025801856 -0.00081807206 0.09222002
000090 90 3d 31 bb c2 59 09 ba 75 80 a5 bd d5 bf d2 bd
       -0.002704475 -0.000523951 -0.08081142 -0.10290495
0000a0 53 8c ad ba d5 d6 26 bc 66 3b d5 3d 2c f6 c5 3d
       -0.0013240672 -0.010183056 0.1041172 0.09666094
0000b0 bf fd af bd b4 22 51 bb 09 59 cc 3d bd 0f 8d b9
       -0.0859332 -0.0031911554 0.099779196 -0.00026905342
0000c0 f8 87 98 bc f7 4a 72 bb 40 20 ab b8 8a 6a bd 3d
       -0.018619522 -0.0036970952 -8.1599224e-05 0.09248836
0000d0 e0 d5 74 3f b8 df d6 3d 88 6e c1 bd f2 2b 00 bd
       0.9563885 0.1049189 -0.0944491 -0.03129191
0000e0 96 bf ce 3d aa 3d 3c ba 54 d0 c4 3d c0 06 48 bb
       0.10095136 -0.00071808195 0.09610048 -0.0030521601
0000f0 36 c3 2a bd 76 cf bb bd 0a 01 1a b6 a1 ac 20 bc
       -0.041690074 -0.091704294 -2.2948393e-06 -0.009806783

decoder_lin.3.weight f4 [288, 64]
000000 b1 b3 27 34 9f 17 ae b7 cc 64 94 33 12 46 8e b7
       1.5618458e-07 -2.0753416e-05 6.910122e-08 -1.6960348e-05
000010 cb f6 96 b4 a0 f0 eb 36 27 22 6d b9 93 ac ba b7
       -2.8119243e-07 7.031558e-06 -0.00022614804 -2.2253289e-05
000020 b5 70 40 b7 83 e4 12 36 34 f1 f0 36 02 08 26 37
       -1.1470333e-05 2.1888707e-06 7.180637e-06 9.8962355e-06
000030 53 81 0d 34 38 10 17 b6 55 75 5b 36 2a 94 a2 2d
       1.3178696e-07 -2.2510194e-06 3.270184e-06 1.8483066e-11
000040 8e 14 b1 37 5b d6 6d b9 7e 30 5c 36 07 f7 44 37
       2.1109616e-05 -0.00022681935 3.281078e-06 1.1740026e-05
000050 82 4a 99 b7 fc 9b ae 37 65 8a 67 b9 cc 35 63 b9
       -1.8273717e-05 2.0815052e-05 -0.00022081433 -0.00021668448
000060 9d 00 81 36 41 cd ea b6 0b c6 11 32 dd 9a 0e b4
       3.844571e-06 -6.997638e-06 8.485141e-09 -1.328112e-07
000070 09 70 d4 36 99 1c 61 35 39 f5 32 36 11 45 a3 34
       6.331135e-06 8.3860647e-07 2.6666805e-06 3.0411368e-07
000080 0e 85 84 b7 3d 54 44 b7 74 8f 36 b0 73 5e 8f b6
       -1.5797585e-05 -1.1702124e-05 -6.6415073e-10 -4.2727274e-06
000090 30 88 f5 b4 2a b3 b6 33 6d 4d e4 36 50 f8 a2 36
       -4.5733896e-07 8.507625e-08 6.803943e-06 4.8568836e-06
0000a0 92 00 09 33 1b 37 12 36 82 29 af b7 27 0c a8 b7
       3.1898317e-08 2.178777e-06 -2.0880954e-05 -2.003282e-05
0000b0 58 cd 06 37 2e 4c 22 b6 e4 dd 8c b7 fe 7c e0 34
       8.034833e-06 -2.4184224e-06 -1.6792626e-05 4.1814195e-07
0000c0 99 dc a9 36 8a 9e b3 b4 6a 9c 79 b2 f7 4c 3e b7
       5.0622734e-06 -3.34567e-07 -1.4529272e-08 -1.1342802e-05
0000d0 cb f3 6d b9 01 17 88 b7 da b1 e2 36 53 79 6c 36
       -0.00022692901 -1.6223175e-05 6.7560295e-06 3.523736e-06
0000e0 ad 01 38 b7 85 5a 0e b5 ce d8 d7 b7 18 e7 b5 36
       -1.0967645e-05 -5.3030845e-07 -2.5730955e-05 5.421123e-06
0000f0 5c eb bb 37 f8 60 e7 36 5f c6 50 2e 58 22 cd b6
       2.2401735e-05 6.895625e-06 4.7469913e-11 -6.1134742e-06
000100 94 19 b6 ba fc 83 87 3b c4 32 b5 b9 89 38 38 3a
       -0.0013893121 0.004135607 -0.00034560834 0.00070274674
000110 b7 b1 d6 37 b0 70 44 3c 8a 94 10 3d e7 f3 7e 3b
       2.5593543e-05 0.011989757 0.035297908 0.0038902701
000120 9f f7 ea bc 23 bd 1a 3a c9 03 1e 3c 5e ef 19 3c
       -0.028682528 0.00059028174 0.009644457 0.0093954485
000130 23 5b 8d bb 79 c4 ed bc 17 d0 fe bc df 13 b3 b3
       -0.004313843 -0.02902435 -0.031105084 -8.3389516e-08
000140 cb 5f 93 bc 01 35 1a 3d d1 64 51 39 ec 6d 09 3c
       -0.017990014 0.037648205 0.0001996935 0.008388024
000150 78 9a 8f 3b d6 d1 c5 bc ec 9d 21 3d 21 37 27 3d
       0.004382428 -0.02414791 0.039457247 0.04082406
000160 e9 cb 45 3b 1c a9 3f 3b 0c 5e b4 b6 37 20 40 b8
       0.0030181354 0.0029245084 -5.3753665e-06 -4.580637e-05
000170 7d f9 c4 bc e1 2b 9c 37 03 bb 21 3c 75 4b 2c b7
       -0.024044747 1.8617082e-05 0.009871247 -1.0269568e-05
000180 84 ea fc 3b aa de 02 bc 3c 5d 33 b9 79 28 85 3b
       0.007718386 -0.007987658 -0.00017105503 0.0040636626
000190 ed 35 96 39 3b 96 c9 b8 4d 41 06 3c 3a 79 20 3c
       0.00028650407 -9.6124095e-05 0.00819428 0.009794528
0001a0 64 40 84 ba c6 ad 02 39 52 4c 9b 3b f4 c0 d9 3a
       -0.0010089991 0.00012462502 0.0047393227 0.0016613291
0001b0 7c 96 72 3b b6 ba c2 39 a5 9e bb 3b 7e cf b5 39
       0.0037015965 0.00037141674 0.005725699 0.00034677604
0001c0 e0 fc 02 bd b7 da 9e 38 c3 83 29 37 91 48 d3 3b
       -0.03197944 7.574766e-05 1.0103863e-05 0.0064478596
0001d0 89 0b 1c 3d b6 34 2a 3c 85 af 53 3c c0 29 e1 bc
       0.03809694 0.010388544 0.012920265 -0.027485728
0001e0 c3 68 e2 3b 6c 7f 9a b8 5d f7 a3 3b 37 28 be b9
       0.006909461 -7.3670264e-05 0.0050038532 -0.00036269586
0001f0 62 5c b1 bc 13 cd 1b 3c 74 1c 2e 35 40 91 1d bb
       -0.021650497 0.009509343 6.4861456e-07 -0.0024042875
000200 10 d1 b6 38 46 d1 2f 3b 05 3e 1e 3b 04 d3 db 39
       8.717377e-05 0.0026827618 0.0024145853 0.00041928154
000210 d3 3c 13 39 78 66 3b bd 8e c0 cf 3d 25 11 26 3b
       0.00014041671 -0.04575202 0.10144149 0.0025339809
000220 0e ad b3 3c 24 8d 8c 3a 0f bf 20 bd 9d 95 ff bc
       0.021933105 0.0010723216 -0.039244708 -0.03119927
000230 6a 54 67 bb bf 32 a4 3c 61 3a ad 3c 7e 87 82 b4
       -0.0035298117 0.020043729 0.021146001 -2.431297e-07
000240 d7 cc 55 3c 31 c8 c0 3d c1 f6 9d 3b c6 b7 38 bd
       0.013049326 0.094131835 0.004820675 -0.045097135
000250 6f 9d 83 3b d6 9c 89 3c e4 10 c5 3d 77 d4 bc 3d
       0.0040165703 0.016798418 0.09622362 0.09220212
000260 2d 98 28 bd af ee f3 bb ef 2e fe 37 74 1f 12 3a
       -0.04116075 -0.007444225 3.0301015e-05 0.0005574145
000270 f7 d9 79 3c f6 a1 31 3a b6 40 1d bd 1a 9e 6e 39
       0.015249721 0.0006776148 -0.03839179 0.00022756346
000280 4f 34 6f 3a a3 5a fe 3b 6f 35 59 39 46 58 c3 bb
       0.0009124921 0.0077622696 0.00020714638 -0.0059614507
000290 4d 58 9e 3b 38 17 83 3a 24 08 26 bd 38 6c 1e bd
       0.0048323036 0.0010001427 -0.040535107 -0.038677424
0002a0 b5 a6 a3 3a 9c e4 87 3b 1a 4e 36 bb f0 90 30 3b
       0.0012485596 0.0041471254 -0.0027817548 0.0026941858
0002b0 e3 46 27 bd 15 60 e5 3a ce e0 68 3b 84 10 c7 39
       -0.040839087 0.0017499948 0.0035534385 0.00037968543
0002c0 36 80 d8 3c fe ad 82 3a 8d 31 da 38 70 09 19 bc
       0.026428323 0.0009970067 0.000104042796 -0.009340629
0002d0 3f 99 ce 3d 21 a7 7a ba 34 1e 2c bd e9 cd a2 3c
       0.10087823 -0.00095616473 -0.04202099 0.019873576
0002e0 5e 8b c0 bb 38 87 10 3a 6d f9 08 bb e0 9b 3e 3b
       -0.005875989 0.0005513313 -0.0020900622 0.0029084608
0002f0 db 00 8c 3c e6 6a 21 bd 73 80 e4 36 10 68 d3 ba
       0.017090252 -0.039408587 6.809883e-06 -0.0016129036
000300 eb d3 6e ae 6b e4 a5 b3 f9 a6 d4 ac dd 56 0c 32
       -5.4303156e-11 -7.72496e-08 -6.04394e-12 8.168823e-09
000310 17 19 b3 ae 12 f6 7e 31 e2 6a 2d b6 ac d0 c5 b3
       -8.1444344e-11 3.710174e-09 -2.5841223e-06 -9.2114846e-08
000320 5d f7 91 30 93 ae 0e ad 06 c9 bb b0 37 31 91 b1
       1.0620443e-09 -8.110529e-12 -1.3663175e-09 -4.2256505e-09
000330 99 92 07 a8 ce 51 d6 2f 00 7c 49 b0 7e 51 68 2b
       -7.525794e-15 3.89845e-10 -7.329959e-10 8.253605e-13
000340 96 12 e0 ae 1b fc ab b6 d5 94 d2 2a b4 2c e7 2f
       -1.0189642e-10 -5.125546e-06 3.7406767e-13 4.205042e-10
000350 dc 1c 08 b1 d6 11 69 2f b8 64 87 b6 c6 c6 f0 b5
       -1.980701e-09 2.1197563e-10 -4.0350387e-06 -1.7939244e-06
000360 5a 3e d4 b0 c8 9e 2f b1 7a ab 23 2f 98 a1 49 ae
       -1.5442752e-09 -2.5556108e-09 1.4885684e-10 -4.5845633e-11
000370 cf fd c8 2f 03 e0 4f ae b7 78 80 b0 4a e3 22 2d
       3.656013e-10 -4.7265313e-11 -9.347535e-10 9.259102e-12
000380 52 a5 ae b4 5f 24 a9 ae 14 bf 87 2f c1 c0 73 b3
       -3.2530312e-07 -7.691691e-11 2.4692126e-10 -5.6753155e-08
000390 19 f4 e1 ad d3 41 8b ae 54 4c 9c 30 97 4b 0c b1
       -2.568794e-11 -6.332681e-11 1.1372188e-09 -2.041565e-09
0003a0 76 aa c4 2d 50 f3 bc ab 75 ba 0e b4 a0 3c 17 b3
       2.235832e-11 -1.3425736e-12 -1.3292613e-07 -3.5212565e-08
0003b0 7f a0 12 b0 6b f4 3e ab 85 2e 2b b3 b5 c2 5d ad
       -5.334257e-10 -6.784076e-13 -3.985635e-08 -1.2605629e-11
0003c0 ba d0 e7 af 5a b8 09 2e 02 c7 2e 2e 54 fc fd 31
       -4.2166964e-10 3.131393e-11 3.9739774e-11 7.3919555e-09
0003d0 9f c6 b3 b6 db 70 15 b3 55 38 23 b1 05 d7 06 2f
       -5.3577382e-06 -3.4794407e-08 -2.3751643e-09 1.2263619e-10
0003e0 8b 32 51 b4 84 98 7c ae a5 4d 18 b3 e7 a1 01 ae
       -1.9483029e-07 -5.7433627e-11 -3.5460875e-08 -2.9475002e-11
0003f0 cb e0 89 2f 4e e9 1e b1 f9 2a 27 ab 52 8b 70 ac
       2.507988e-10 -2.3124644e-09 -5.9389955e-13 -3.418339e-12

decoder_lin.3.bias f4 [288]
000000 28 b0 77 b9 70 28 91 3d 25 2e 07 3e e5 a2 01 b7
       -0.00023621379 0.07087791 0.13201196 -7.726926e-06
000010 09 f8 0f 3d 29 0e b0 bc 67 1a 94 b7 5c b5 7a be
       0.035148654 -0.021491127 -1.765527e-05 -0.24483246
000020 db bb ae 3c 59 2a ee ba ea 91 3d 3e 1c 00 84 3d
       0.02132981 -0.001817058 0.18512693 0.06445333
000030 df 9f 12 bd 15 c9 52 3e 61 d6 1e 3c 53 6c b6 b8
       -0.035796996 0.20584519 0.009694667 -8.698613e-05
000040 a4 dd a3 3d 1f f6 6e bb f3 6b 6d bb 76 5b 95 b4
       0.08001259 -0.0036462618 -0.0036227673 -2.781996e-07
000050 68 17 80 39 99 b0 ce b9 33 e7 69 3e 42 6f 6f 37
       0.00024431502 -0.00039422957 0.22842102 1.4271414e-05
000060 d9 72 12 3e 74 10 b6 3d 0b 73 b4 3d e4 5b b4 3b
       0.14301623 0.08889857 0.08811005 0.0055041183
000070 57 ee 28 3d 50 63 ed b8 15 64 33 bc 18 4e f4 3d
       0.041242924 -0.00011319539 -0.010949154 0.11928958
000080 cc 8c c6 bc 05 80 06 bc 7c 50 4a bc 60 3d 93 bd
       -0.024237059 -0.008209233 -0.0123482905 -0.07189441
000090 30 21 20 bc 73 7e 77 ad 48 1a 5f b9 f2 40 04 bb
       -0.0097735375 -1.4068402e-11 -0.00021276728 -0.0020180312
0000a0 61 b5 00 be c6 ae cb 3b 45 dc 22 3b f8 40 02 3c
       -0.1256919 0.006215903 0.002485053 0.00795006
0000b0 e0 32 e7 ba 8c 83 9f b2 d5 25 3e ba 34 8c 6a b3
       -0.0017639063 -1.8569857e-08 -0.0007253562 -5.4609885e-08
0000c0 3a a7 17 3c 16 be 5a b8 0a e7 d6 bd fb 13 82 3d
       0.0092561785 -5.215228e-05 -0.10493286 0.06351467
0000d0 1b 34 67 b3 4a 4e 03 3e df 2b 8a 3d a1 16 c8 3d
       -5.383127e-08 0.12822834 0.06746649 0.09769941
0000e0 37 d8 95 3d 9f ff a6 3c 2f e2 80 bc 1d 1a 8b 3d
       0.0731663 0.020385562 -0.015732853 0.0679209
0000f0 71 ee 14 ba a1 3d 6c 3e 74 9e d7 bd 6d d4 09 3b
       -0.00056812825 0.23070385 -0.105282694 0.0021031157
000100 f9 85 13 bc 23 50 cd b9 eb a2 2d ba d5 68 2e bb
       -0.00900411 -0.00039160353 -0.0006623703 -0.0026612778
000110 a4 89 f9 b9 59 1c 20 b9 cf 4a 15 bb 81 36 e4 3a
       -0.0004759553 -0.0001526935 -0.0022780185 0.0017411263
000120 ad cf d2 ba 62 d1 dd b7 0e d3 d7 ba 22 8a 79 bb
       -0.0016083621 -2.6442754e-05 -0.0016466097 -0.0038076718
000130 cb 34 38 3e 44 83 81 3c bd f9 93 b0 ad f0 68 3e
       0.17988889 0.015809663 -1.0766638e-09 0.2274806
000140 c4 85 c6 3d 23 87 95 ba 1b 06 97 b9 2f 54 09 bc
       0.096934825 -0.0011408072 -0.00028805513 -0.008381887
000150 5a db e9 3c d2 1a 67 3d 47 33 4e bc 5e fe 8c bd
       0.028546978 0.056422062 -0.012585468 -0.06884454
000160 97 9c 0b 3c 8f c2 fa 3c 68 9a 1f bc 44 b2 07 3e
       0.008521221 0.03061035 -0.009741403 0.13251597
000170 6a ea cd 3d 43 cd d8 b9 24 2a d5 b7 e7 b2 1a bc
       0.100544766 -0.00041351662 -2.5411202e-05 -0.009442068
000180 e0 49 b3 b9 da 71 4c b6 5d f3 da bd ec 18 f0 3c
       -0.00034196582 -3.046464e-06 -0.10690949 0.029308759
000190 ad 24 b6 b7 5e f2 15 ba 52 2e e3 3c 59 78 80 b6
       -2.171317e-05 -0.00057200145 0.027732048 -3.8287076e-06
0001a0 b2 59 13 b7 af f2 0b 3e 3d 9a 26 3c fc ac 80 3d
       -8.782767e-06 0.13666795 0.010168609 0.06282994
0001b0 b3 3a 4e 3d 9e b3 0c bc 8a fd fa b9 2b 4e 86 3d
       0.05034895 -0.008587746 -0.00047872617 0.06557878
0001c0 25 00 15 b8 7c 20 db ba 3d e1 3f 3d 22 03 37 b8
       -3.5524503e-05 -0.0016718055 0.046845663 -4.3633518e-05
0001d0 dc bb ce b7 55 d8 14 b8 d9 5d 18 3e f9 57 28 b9
       -2.4644592e-05 -3.5487425e-05 0.1487955 -0.00016054501
0001e0 45 da 85 bd 82 87 87 be 7c a9 e7 3c dc 72 65 3d
       -0.06535772 -0.26470572 0.028279059 0.05601774
0001f0 f7 4a ae bb 4b 85 83 bd df 7e e2 ba 26 36 6e 3a
       -0.005318995 -0.06421908 -0.0017280242 0.0009087048
000200 2d f6 b6 bb 7f a1 5c bb 57 47 dd ba 6d 3b 83 bb
       -0.0055835457 -0.0033665595 -0.0016882223 -0.004004887
000210 e5 12 72 ba 2f d7 2f bc ac 4d 4d bb 49 b9 90 3c
       -0.0009234383 -0.010732456 -0.0031326814 0.017666476
000220 f6 c1 a4 3d 7c 73 c5 3d 2e 99 4b 3a bd af dd b9
       0.080448076 0.096411675 0.0007766661 -0.0004228334
000230 65 a4 bc 3d 9a 60 45 3c ae ef 8a 3d 84 45 e7 bd
       0.09211043 0.012046957 0.067839965 -0.11292556
000240 b5 75 1a b9 81 aa 60 bc e0 69 51 3d a4 73 c3 b5
       -0.00014730434 -0.013712526 0.05112636 -1.4562288e-06
000250 10 0c 98 bb 37 02 06 3e c6 16 23 ba 0a a6 76 ba
       -0.00464011 0.13086782 -0.000622135 -0.0009408897
000260 d0 ba 00 3e 62 6d 2e 3d d1 b6 59 3d be ff 6c 3e
       0.12571263 0.042584784 0.053152863 0.23144433
000270 00 4a 3c b5 bb 02 89 af d0 03 46 b8 51 64 4d b8
       -7.014314e-07 -2.4922095e-10 -4.721043e-05 -4.8969236e-05
000280 d3 96 39 bb 53 d6 62 ba 70 2d 08 3d cf 6e e8 bd
       -0.0028318658 -0.00086531526 0.033246458 -0.1134926
000290 07 92 fc b2 69 77 00 3d 57 65 4c 3e 25 28 12 3d
       -2.9403067e-08 0.03136388 0.19960533 0.035682816
0002a0 66 95 ce bd f6 19 cb bd db 84 a1 3a 38 95 22 3d
       -0.10087089 -0.09917061 0.0012322919 0.039693087
0002b0 d5 0d 46 bd 25 91 05 bd 1a e6 7d 3d fd ed ef bc
       -0.048353035 -0.032609124 0.06198702 -0.029288286
0002c0 7c 99 2e bb 84 8b fd bc 4e 14 58 3d 8b c1 3f bb
       -0.0026641777 -0.030950315 0.05275374 -0.0029259648
0002d0 cc 47 70 3d 4c 47 d7 3d 6a 41 83 bd 39 30 1d bc
       0.05866222 0.10511646 -0.06408961 -0.009594017
0002e0 27 da 21 b1 4f dd 18 bd a5 b9 8c 3d 7e 39 16 be
       -2.3552589e-09 -0.03732043 0.068713464 -0.14670369
0002f0 f6 d2 da b9 cd 5d c0 3d 7d 0e 94 b8 f5 0d be 3c
       -0.00041737378 0.09392891 -7.0598886e-05 0.023200015
000300 92 d0 c9 3d 9f 1b 86 2f f3 a9 90 b7 a4 39 05 3e
       0.09854235 2.4394084e-10 -1.7245276e-05 0.1301027
000310 42 b0 10 ae 74 ae fc bb 3a 2a 6a b8 f2 e3 a2 af
       -3.2898358e-11 -0.007711226 -5.5829274e-05 -2.9629593e-10
000320 ab 21 8a 3d 08 40 96 ba b6 3c 1e 3c 80 7d d1 3d
       0.06744703 -0.0011463175 0.009658029 0.10229015
000330 6e 8e 20 bb ec 3b 27 b9 ff 95 df 3d 6f 65 2e bc
       -0.0024498957 -0.00015948684 0.10917281 -0.010644301
000340 4f c4 a9 3d 2b 1f a0 3d a3 b8 f8 bb e1 48 05 b9
       0.08289396 0.07818445 -0.00759037 -0.00012711018
000350 17 d1 1f 3d 8d 87 38 b9 d0 67 f5 3d 21 f6 68 3d
       0.039017763 -0.00017598104 0.11982691 0.05687535
000360 cd 76 47 bc ae ba 6b b4 19 78 8d 3d ab af 06 b7
       -0.01217432 -2.1953994e-07 0.069076724 -8.027923e-06
000370 74 92 04 3c 2d 3f c7 3d fa f4 9b b7 03 35 53 ba
       0.008091558 0.09728847 -1.8591516e-05 -0.00080569106
000380 d5 aa b4 3d 9e 97 59 b4 62 5c 41 b7 03 57 b9 3d
       0.08821646 -2.0264858e-07 -1.1525206e-05 0.09049799
000390 c3 43 c3 bb 1e a9 f1 b0 3d 17 a9 3e 4e d6 9a bb
       -0.0059590056 -1.7583124e-09 0.33025542 -0.004725254
0003a0 bd 6d 00 be 17 90 83 3e b5 c7 64 3d de da 74 ba
       -0.12541862 0.2569587 0.055854518 -0.0009340475
0003b0 3f 8b 04 3d 74 75 a4 3d 08 7b 3d bd b3 6b 23 bc
       0.032359358 0.08030215 -0.04625991 -0.009974408
0003c0 72 78 d0 bc f2 ea 6e bb 9c 2b ee bd ed cb 96 39
       -0.025448058 -0.0036455956 -0.116294116 0.00028762166
0003d0 77 f0 6b b7 4d 85 6a b8 b1 25 d4 b5 2e 87 5b 3d
       -1.4063079e-05 -5.5914094e-05 -1.58062e-06 0.053595714
0003e0 ee 5d 00 b5 f9 63 7d bb 10 1a 4b b2 52 a1 b0 ba
       -4.78204e-07 -0.0038664325 -1.1822081e-08 -0.0013475812
0003f0 13 43 fb b9 60 43 b0 b1 02 59 06 ba 2d c9 11 3d
       -0.00047924425 -5.129934e-09 -0.00051249575 0.035592247
