Nicola_Dainese_Ex4_NN/params/net_params_16.pth (torch_old, 208013 bytes, 19 tensors)

encoder_cnn.0.weight f4 [8, 1, 3, 3]
0	0x3d40ae23	0.04704107
1	0x3d2eb817	0.04265603
2	0x3cd4e666	0.025988769
3	0x3d9a84a4	0.075448304
4	0x3d797340	0.060900927
5	0x3cc442ca	0.023957629
6	0x3dc1d07b	0.094635926
7	0x3da1c1de	0.07898305
8	0x3d140fe0	0.036147952
9	0x3e963831	0.29339746
10	0x3eff408f	0.49853942
11	0x3ed07e88	0.40721536
12	0x3f0abcdd	0.5419443
13	0x3f3b97bd	0.7327841
14	0x3f12765d	0.5721186
15	0x3edb5624	0.42839158
16	0x3f0f4a4a	0.5597273
17	0x3ebb257b	0.36552033
18	0x3e8b0b20	0.27156925
19	0x3ee99e60	0.45628643
20	0x3ebeaf5c	0.37243164
21	0x3efdb11e	0.49549192
22	0x3f2ae021	0.66748244
23	0x3f053820	0.52038765
24	0x3ec847f6	0.39117402
25	0x3f02439c	0.50884414
26	0x3ea99ab6	0.33125848
27	0x3e98d820	0.2985239
28	0x3f010266	0.50394285
29	0x3ed25c99	0.4108627
30	0x3f0c3461	0.54767424
31	0x3f3cfd93	0.73824424
32	0x3f136855	0.57581073
33	0x3edd240f	0.43191573
34	0x3f0ff1c7	0.562283
35	0x3ebc012c	0.36719644
36	0xbd0468af	-0.032326397
37	0xbdc91f08	-0.09820372
38	0xbdb9a1eb	-0.090640865
39	0xbd98d72c	-0.07462916
40	0xbe17d83b	-0.14828579
41	0xbe14255e	-0.1446738
42	0xbca6a3b9	-0.02034174
43	0xbd9f8040	-0.077881336
44	0xbd8fe2f5	-0.070257105
45	0xbd0bb0a7	-0.034104016
46	0xbdd1f8ef	-0.102525584
47	0xbdc28f1f	-0.094999544
48	0xbd9fe807	-0.078079276
49	0xbe1e78cf	-0.15475772
50	0xbe1b8118	-0.15185964
51	0xbcbd5d5b	-0.023115804
52	0xbda9e51d	-0.08295653
53	0xbd9b6e23	-0.07589366
54	0xbcc176d2	-0.023616228
55	0xbda581e4	-0.08081415
56	0xbd95cc0e	-0.07314311
57	0xbd7aacb4	-0.06119986
58	0xbdff5040	-0.12466478
59	0xbdf5d37e	-0.120032296
60	0xbc6b266e	-0.014352424
61	0xbd83b338	-0.06430668
62	0xbd66b9c9	-0.056329522
63	0x3e96eaea	0.294761
64	0x3f008055	0.5019582
65	0x3ed1ae1c	0.40953147
66	0x3f0bff00	0.54685974
67	0x3f3d2047	0.73877376
68	0x3f13a396	0.5767149
69	0x3ede2cea	0.43393642
70	0x3f10b4c6	0.5652584
71	0x3ebcd9f0	0.36885023

encoder_cnn.0.bias f4 [8]
0	0x3f2362f1	0.6382285
1	0xba06714f	-0.00051285786
2	0x389f117b	7.584967e-05
3	0xbae1dfed	-0.0017232873
4	0x3f3f6d36	0.7477602
5	0x3f4a5d48	0.79048586
6	0x3f1c48f8	0.6104884
7	0xb9d11afd	-0.00039883694

encoder_cnn.3.weight f4 [16, 8, 3, 3]
0	0x3db59592	0.08866419
1	0x3db77bae	0.08959137
2	0x3da7931d	0.081823565
3	0x3dd6afa9	0.10482723
4	0x3dc2f333	0.09519043
5	0x3daa7569	0.083231755
6	0x3dd8f748	0.1059404
7	0x3dbbfa3c	0.09178588
8	0x3da42659	0.08015127
9	0xbc9423cf	-0.018083481
10	0xbbd41862	-0.006472633
11	0xbd476d32	-0.04868812
12	0x3d702143	0.05862547
13	0xbb8de4a8	-0.0043302365
14	0xbd9881f7	-0.07446664
15	0x3dca8698	0.09888953
16	0xbbc3fd45	-0.00598112
17	0xbda2dc9a	-0.07952233
18	0xbc9406f2	-0.018069718
19	0xbbac1f62	-0.0052527646
20	0xbd33daf7	-0.043909993
21	0x3d510070	0.051025808
22	0xbb66717c	-0.0035162857
23	0xbd8dd3cf	-0.06925165
24	0x3db4624e	0.08807813
25	0xbba2b016	-0.0049648387
26	0xbd946a40	-0.07246828
27	0xbc8ebcf3	-0.017424082
28	0xbb9c9117	-0.0047780382
29	0xbd46656d	-0.04843657
30	0x3d70293c	0.058633074
31	0xbb3b98c8	-0.0028625
32	0xbd9d7660	-0.07688594
33	0x3dce65e3	0.10078027
34	0xbb6454dc	-0.003484062
35	0xbda36ab1	-0.07979334
36	0x3de6d286	0.11270623
37	0x3de210ee	0.11038385
38	0x3dec2fb8	0.11532539
39	0x3dd91618	0.10599917
40	0x3def4168	0.11682397
41	0x3e0232db	0.12714712
42	0x3dc1e226	0.094669625
43	0x3dea6efd	0.114469506
44	0x3df9912e	0.12185894
45	0x3df3ce49	0.1190458
46	0x3def2a1b	0.11677953
47	0x3dfa0d1c	0.12209532
48	0x3de4ac62	0.11165692
49	0x3dfe5990	0.124194264
50	0x3e085d47	0.13316832
51	0x3dcbce25	0.09951428
52	0x3df7846d	0.12085805
53	0x3e034637	0.12819754
54	0x3dbe670a	0.09296997
55	0x3db81458	0.08988255
56	0x3dc36054	0.095398575
57	0x3db2663c	0.08710906
58	0x3dc475a3	0.0959275
59	0x3dd4e02a	0.103943184
60	0x3d9ffd1e	0.0781195
61	0x3dc0dd9a	0.09417267
62	0x3dcf9948	0.10136658
63	0xbc8a8ee1	-0.016913833
64	0xbbb6f064	-0.005582856
65	0xbd4769ce	-0.048684888
66	0x3d6f25f4	0.058385804
67	0xbb3fc21c	-0.0029259985
68	0xbd9f4d36	-0.07778399
69	0x3dcdbc0d	0.100456335
70	0xbb68c9a8	-0.0035520587
71	0xbda35b60	-0.07976413
72	0x3c2f0bc4	0.0106839575
73	0x3c39c7a7	0.011339105
74	0x3c8cb849	0.017177718
75	0x3ca64b09	0.020299451
76	0x3d394554	0.045232132
77	0x3d39f78d	0.0454021
78	0x3ce5c4eb	0.028048
79	0x3d4c3d67	0.049863245
80	0x3d237464	0.03990592
81	0xbd01f26b	-0.03172533
82	0xbb879399	-0.004137468
83	0x3cadf587	0.02123524
84	0x3d86e63b	0.06586882
85	0x3e9184ea	0.28421718
86	0x3e85674d	0.26055375
87	0x3e12580f	0.14291404
88	0x3eaab79f	0.33343217
89	0x3e5f3645	0.21798046
90	0xbced1cc7	-0.028944386
91	0xbbb0ce34	-0.005395675
92	0x3c91b305	0.017785558
93	0x3d7f66b7	0.062353816
94	0x3e84b81c	0.25921714
95	0x3e75cd06	0.24003991
96	0x3e0502fc	0.1298942
97	0x3e9b3edc	0.30321395
98	0x3e4dec41	0.20109655
99	0xbd0a7a79	-0.033808205
100	0xbc0063ce	-0.007836295
101	0x3ca85c0c	0.020551704
102	0x3d8dad7c	0.06917855
103	0x3e9224ce	0.28543705
104	0x3e860dd0	0.26182413
105	0x3e120528	0.1425978
106	0x3eab85d7	0.3350055
107	0x3e62a6fb	0.2213401
108	0x3cb8ab50	0.022542626
109	0x3c6722bf	0.014107405
110	0x3c3d8932	0.011568354
111	0xba48e6ff	-0.00076638156
112	0xbd0bbfa3	-0.034118306
113	0xbce0347b	-0.027368775
114	0xbc3a33df	-0.011364906
115	0xbd341a93	-0.043970656
116	0xbc9d4b55	-0.01920096
117	0x3cb9f697	0.022700591
118	0x3c7a31ad	0.015270633
119	0x3c3f930b	0.011692773
120	0x3a45384d	0.0007523343
121	0xbd143bda	-0.03618989
122	0xbce81ec0	-0.028334975
123	0xbc2e299d	-0.010630039
124	0xbd36bc19	-0.044612978
125	0xbca3387e	-0.019924399
126	0x3c8f1476	0.017465811
127	0x3c414015	0.0117950635
128	0x3c16d06a	0.009204963
129	0xba645533	-0.00087102054
130	0xbcfa0374	-0.030519225
131	0xbcc87c5f	-0.024473367
132	0xbc3d7d35	-0.011565496
133	0xbd1d2abc	-0.038370833
134	0xbc9c8260	-0.019105136
135	0xbd03bf96	-0.032165132
136	0xbb42f183	-0.0029746003
137	0x3cabbeb2	0.020964954
138	0x3d8c5a01	0.068531044
139	0x3e919351	0.28432706
140	0x3e86ab1d	0.26302424
141	0x3e12b191	0.14325549
142	0x3eac0fd7	0.33605835
143	0x3e5fbc73	0.21849231
144	0x3c792e06	0.015208727
145	0x3ccfcc57	0.025365992
146	0x3ccb5654	0.024821438
147	0x3d0af63d	0.033926237
148	0x3d64b37d	0.055835236
149	0x3d28ccc1	0.041210894
150	0x3cfb8849	0.030704634
151	0x3d22b04f	0.039718922
152	0x3ca37b77	0.019956334
153	0xbca9e3b9	-0.02073847
154	0x3dbf78a8	0.09349185
155	0x3d7d4e69	0.061842356
156	0x3e3cc51b	0.18434565
157	0x3ec38f12	0.3819509
158	0x3e6b14b9	0.22957124
159	0x3e20e60b	0.15712754
160	0x3e76ea73	0.24112873
161	0x3d441640	0.04787278
162	0xbc99dcaf	-0.018781988
163	0x3dabda70	0.08391273
164	0x3d6534d3	0.05595858
165	0x3e2f22d5	0.17103131
166	0x3eb3c9b4	0.35114825
167	0x3e57bd4f	0.21068309
168	0x3e138b15	0.14408524
169	0x3e6175ea	0.22017637
170	0x3d356c35	0.044292647
171	0xbcbb0cc3	-0.022833234
172	0x3dbb18fd	0.091356255
173	0x3d7ba112	0.061432905
174	0x3e40764f	0.18795131
175	0x3ec4f289	0.3846629
176	0x3e6b74d1	0.2299378
177	0x3e221bf8	0.15830982
178	0x3e78ee1f	0.24309586
179	0x3d507b41	0.050898794
180	0x3cb5b9e6	0.02218337
181	0xb950612c	-0.00019872625
182	0x3be9d38b	0.0071358136
183	0xbc9ca7d2	-0.019122992
184	0xbd47dadb	-0.0487927
185	0xbcb143a7	-0.021638704
186	0xbc4e341f	-0.012585669
187	0xbcd94afb	-0.026525011
188	0x3bd70b72	0.0065626437
189	0x3cbb1b6e	0.022840228
190	0xb99490ac	-0.0002833655
191	0x3bebcd35	0.0071960934
192	0xbc99e609	-0.018786447
193	0xbd52bef8	-0.051451653
194	0xbcb2eade	-0.021840509
195	0xbc4213f1	-0.011845575
196	0xbcd95a61	-0.026532354
197	0x3bef0725	0.007294553
198	0x3c8b729c	0.017022423
199	0xba8cc9ff	-0.0010741352
200	0x3ba269f8	0.00495648
201	0xbc961492	-0.018320356
202	0xbd338128	-0.043824345
203	0xbca5c506	-0.02023555
204	0xbc56e099	-0.013115072
205	0xbcc3da6f	-0.023907868
206	0x3b81e44f	0.003963984
207	0xbca6fe85	-0.020385036
208	0x3dc2291b	0.094804965
209	0x3d77f93e	0.06054043
210	0x3e4102cb	0.18848722
211	0x3ec4096d	0.3828844
212	0x3e6cd910	0.23129678
213	0x3e2140c7	0.15747367
214	0x3e78a8b1	0.242831
215	0x3d454a38	0.048166484
216	0x3d891f68	0.066954434
217	0x3d803c06	0.062614486
218	0x3d7b30f7	0.061325993
219	0x3da15d1e	0.07879089
220	0x3d8b0fea	0.06790145
221	0x3d901477	0.07035153
222	0x3db2b18e	0.08725272
223	0x3da6bbf2	0.081413165
224	0x3da9c9aa	0.082904175
225	0xbd2ad9ac	-0.041711494
226	0xbdb0efc6	-0.08639483
227	0xbd9cbe83	-0.07653525
228	0xbc8170f3	-0.015800929
229	0xbdcc7ddc	-0.09984943
230	0xbd52aa82	-0.05143214
231	0x3d9fb0b7	0.077973776
232	0x3d202d53	0.039105725
233	0x3da04d3e	0.07827233
234	0xbd2285e1	-0.039678458
235	0xbda4989e	-0.08036922
236	0xbd91c683	-0.07117941
237	0xbc7d7865	-0.015470599
238	0xbdbe0144	-0.09277585
239	0xbd442eec	-0.04789631
240	0x3d92bee6	0.07165317
241	0x3d12e0fb	0.03585909
242	0x3d923567	0.07139092
243	0xbd2ac6d9	-0.041693542
244	0xbdb35f16	-0.087583706
245	0xbd9d5243	-0.07681706
246	0xbc8e8cfb	-0.01740121
247	0xbdcf3c81	-0.10118962
248	0xbd53b73e	-0.051688425
249	0x3da1773a	0.07884069
250	0x3d2a6c1c	0.041607007
251	0x3da1444f	0.07874357
252	0x3dbfaf55	0.09359614
253	0x3dcd017f	0.10010051
254	0x3dc3cc49	0.09560449
255	0x3dcdc785	0.10047821

encoder_cnn.3.bias f4 [16]
0	0x3e3a3543	0.1818438
1	0x3c84b67f	0.016200302
2	0x3c7c3d8d	0.015395534
3	0x3e0df9e8	0.13864863
4	0x3c87143a	0.016489137
5	0x3e1224ba	0.14271823
6	0x3e045460	0.12922812
7	0x3c86768d	0.016413951
8	0x3defa197	0.11700743
9	0x3e2da2a4	0.16956574
10	0x3e11179e	0.14169165
11	0x3e1f4c4d	0.1555645
12	0x3c756956	0.014978727
13	0x3e1136f8	0.14181125
14	0x3dae103d	0.08499191
15	0x3e11c153	0.14233904

encoder_cnn.6.weight f4 [32, 16, 3, 3]
0	0xb592a9bd	-1.0927248e-06
1	0xb5be4b03	-1.4177934e-06
2	0xb5ae58a4	-1.2989808e-06
3	0xb5c73033	-1.4840683e-06
4	0xb5eded54	-1.7726948e-06
5	0xb5c4a101	-1.4649996e-06
6	0xb5c44f86	-1.4626282e-06
7	0xb5db11ed	-1.6321989e-06
8	0xb4f10f28	-4.4900776e-07
9	0xb6022ef1	-1.9398833e-06
10	0x34a7e18b	3.1270278e-07
11	0xb4c63ded	-3.692543e-07
12	0xb84cfbcd	-4.8871898e-05
13	0xb4455143	-1.8376618e-07
14	0xb512c9df	-5.4683e-07
15	0xb51749fa	-5.6359534e-07
16	0xb5206628	-5.97533e-07
17	0xb6f5ba99	-7.323292e-06
18	0xb6a21d20	-4.831367e-06
19	0xb400643d	-1.1957395e-07
20	0xb558184a	-8.0501616e-07
21	0xb865e365	-5.4809632e-05
22	0xb572ca45	-9.0446366e-07
23	0xb56c8598	-8.8111256e-07
24	0xb71d30f5	-9.369328e-06
25	0xb5c8d8b6	-1.4964232e-06
26	0xb6a51598	-4.919897e-06
27	0xb57579cc	-9.144685e-07
28	0xb5c3dc3e	-1.4592731e-06
29	0xb5afc0b7	-1.3094603e-06
30	0xb5cbc67e	-1.5182447e-06
31	0xb607bcc2	-2.022644e-06
32	0xb629cc06	-2.530172e-06
33	0xb5dd9b47	-1.6510975e-06
34	0xb61d713c	-2.3460734e-06
35	0xb603a060	-1.9613872e-06
36	0xb68edd33	-4.2576808e-06
37	0xb62f1df3	-2.6094465e-06
38	0xb5265dc0	-6.1976243e-07
39	0xb715c276	-8.9263685e-06
40	0xb677bc90	-3.6915626e-06
41	0xb590507e	-1.0752262e-06
42	0xb856aa2d	-5.1180064e-05
43	0xb68228be	-3.879045e-06
44	0xb37171de	-5.6215747e-08
45	0xb57b7339	-9.367246e-07
46	0xb5c46e37	-1.4635215e-06
47	0xb5bbf39f	-1.4003489e-06
48	0xb5c97b9e	-1.5011644e-06
49	0xb60de7eb	-2.1145631e-06
50	0xb63a1d6e	-2.773329e-06
51	0xb5de2fe7	-1.655423e-06
52	0xb61acbd1	-2.3066425e-06
53	0xb62ddee3	-2.5908746e-06
54	0xb583f679	-9.831994e-07
55	0xb58a4509	-1.0301893e-06
56	0xb59bd266	-1.1609634e-06
57	0xb5b557c6	-1.3511096e-06
58	0xb5d58a8e	-1.5910061e-06
59	0xb5c97e6c	-1.5012461e-06
60	0xb5c0379c	-1.4321299e-06
61	0xb5cf54cf	-1.5447384e-06
62	0xb4deffba	-4.1536788e-07
63	0xb583ac02	-9.810321e-07
64	0x34a4a3fe	3.06667e-07
65	0xb4886de4	-2.541193e-07
66	0xb843a2d7	-4.664328e-05
67	0xb43c7bb0	-1.7553862e-07
68	0xb5252a70	-6.1529045e-07
69	0x32e6d7d1	2.6873666e-08
70	0xb5040465	-4.9180227e-07
71	0xb70342e8	-7.823786e-06
72	0xb593a840	-1.1001321e-06
73	0xb5acc990	-1.2873661e-06
74	0xb5a38bb4	-1.2185105e-06
75	0xb5a30b15	-1.2147672e-06
76	0xb607b2bd	-2.0220607e-06
77	0xb61516a4	-2.2215909e-06
78	0xb6107423	-2.1525273e-06
79	0xb608db60	-2.0393272e-06
80	0xb59f3b90	-1.1863758e-06
81	0xb5a3d3e5	-1.2206116e-06
82	0xb5b93ca3	-1.3801222e-06
83	0xb5b965fa	-1.3813253e-06
84	0xb5d0cba3	-1.5556474e-06
85	0xb605ee81	-1.9957372e-06
86	0xb5e5d065	-1.712248e-06
87	0xb5da9a21	-1.6287123e-06
88	0xb5f27dd1	-1.8067022e-06
89	0xb514bd79	-5.5410015e-07
90	0xb5793f6c	-9.285202e-07
91	0xb59adb18	-1.1537659e-06
92	0xb5a172c0	-1.2028831e-06
93	0xb5b88d79	-1.3750242e-06
94	0xb5c6784b	-1.478716e-06
95	0xb59be11e	-1.1613918e-06
96	0xb5a82cca	-1.2530011e-06
97	0xb5a947aa	-1.2612338e-06
98	0xb4712796	-2.2459275e-07
99	0xb58971ea	-1.0240449e-06
100	0xb5abeb16	-1.2808912e-06
101	0xb5959487	-1.1144592e-06
102	0xb5ad9bd6	-1.2934859e-06
103	0xb5f0d72a	-1.7944014e-06
104	0xb6144ea8	-2.2099503e-06
105	0xb5cf1149	-1.5427732e-06
106	0xb61da8c1	-2.349305e-06
107	0xb60ff825	-2.14531e-06
108	0xb680b90d	-3.83624e-06
109	0xb49de9b5	-2.9413573e-07
110	0xb550fd1f	-7.785438e-07
111	0xb84d6f3e	-4.897941e-05
112	0xb57ca919	-9.4123385e-07
113	0xb5585c6b	-8.0600756e-07
114	0xb711bb6f	-8.686314e-06
115	0xb5d0b356	-1.5549401e-06
116	0xb69b7dca	-4.6340037e-06
117	0xb5903a68	-1.0745835e-06
118	0xb5a4558b	-1.2243848e-06
119	0xb5aca4aa	-1.2862922e-06
120	0xb5ca6761	-1.508026e-06
121	0xb5f924b7	-1.8562631e-06
122	0xb5d3f40d	-1.5791753e-06
123	0xb5bf70fd	-1.4263493e-06
124	0xb5d97983	-1.6203124e-06
125	0xb4fa099d	-4.6573123e-07
126	0xb4dbc053	-4.0931863e-07
127	0xb504baba	-4.9445555e-07
128	0xb4ebaa5a	-4.3896108e-07
129	0xb50561d1	-4.96887e-07
130	0xb56a3a4a	-8.7256615e-07
131	0xb4801e14	-2.3863743e-07
132	0xb56d711a	-8.8453965e-07
133	0xb56a2b56	-8.7234855e-07
134	0x32f4fe27	2.8520914e-08
135	0xb578cf40	-9.268879e-07
136	0xb5c97b2d	-1.5011516e-06
137	0xb5bbb0d1	-1.3984046e-06
138	0xb5c45471	-1.4627714e-06
139	0xb6194026	-2.2836116e-06
140	0xb6310a43	-2.6381028e-06
141	0xb6020c20	-1.9378567e-06
142	0xb61b1919	-2.3111409e-06
143	0xb604adbe	-1.9770664e-06
144	0xbad4f46d	-0.0016247161
145	0xbab71a74	-0.0013969676
146	0x37a60e76	1.9795476e-05
147	0xba83c795	-0.0010053987
148	0xbac004c4	-0.0014649858
149	0x3954e3a0	0.00020302692
150	0xbaac0888	-0.0013125101
151	0xbaa648cc	-0.001268649
152	0xb9cc60fa	-0.00038982165
153	0xbb75f0f9	-0.0037527664
154	0xb9e93b51	-0.00044485417
155	0xbbb45b1c	-0.005504025
156	0xbbaecb72	-0.005334311
157	0x394753a8	0.00019009283
158	0xbb970884	-0.0046091694
159	0xbb733842	-0.003711239
160	0xb997a8dd	-0.00028926777
161	0xbb944903	-0.0045253052
162	0xbb8d189e	-0.004305913
163	0xbad48f7a	-0.0016217076
164	0xbbb209f5	-0.005433316
165	0xbbb69ad6	-0.005572657
166	0xba61b97b	-0.00086107076
167	0xbb9fe2f9	-0.004879352
168	0xbb977f00	-0.004623294
169	0xba7e888d	-0.00097096787
170	0xbba02076	-0.004886682
171	0xbb02a2ee	-0.001993354
172	0xbb0531ba	-0.0020323829
173	0xba166940	-0.00057377294
174	0xba86a424	-0.0010272306
175	0xbab4e890	-0.0013802219
176	0x39ad6755	0.0003307412
177	0xbb0a1cde	-0.0021074335
178	0xbacc8573	-0.0015603736
179	0x39f1fccb	0.00046155447
180	0xbb996695	-0.004681418
181	0xbb34dd8f	-0.002759788
182	0xbb88da5d	-0.0041764216
183	0xbb9c20c9	-0.0047646505
184	0xbb239886	-0.0024962737
185	0xbbaebbbc	-0.0053324383
186	0xbbbf6faa	-0.005842169
187	0xbb1cafcc	-0.0023908494
188	0xbb93c711	-0.0045098145
189	0xbb073b9f	-0.0020634902
190	0xbb38c304	-0.002819241
191	0xbab56619	-0.0013839632
192	0xbab5aea3	-0.001386125
193	0xbb1252b3	-0.0022327125
194	0xb99d2686	-0.00029974076
195	0xbb10669c	-0.0022033816
196	0xbb236900	-0.002493441
197	0xb771bb67	-1.4408352e-05
198	0xbab5cbf6	-0.0013869989
199	0xba524b9b	-0.00080221304
200	0x3a41f9f2	0.00073996105
201	0xb9da4350	-0.00041630352
202	0xba6f3897	-0.0009125559
203	0x3a7f42bd	0.0009737423
204	0xba82bd50	-0.0009974632
205	0xba37a34c	-0.0007005229
206	0x3a17f4ca	0.0005796669
207	0xbb6c0e21	-0.0036019164
208	0xb99f6d06	-0.00030408072
209	0xbbb39d74	-0.0054814164
210	0xbbb10ad2	-0.005402901
211	0x39975ae9	0.00028868698
212	0xbb92dc3d	-0.004481821
213	0xbb5ff061	-0.0034170377
214	0xb994d6f9	-0.00028388927
215	0xbb901deb	-0.0043980977
216	0xbb24be8e	-0.0025137994
217	0xba890dfa	-0.0010456436
218	0x39979987	0.0002891535
219	0xba05b193	-0.0005100008
220	0xba265f42	-0.0006346592
221	0x3a671dc0	0.0008816384
222	0xbb04375e	-0.0020174603
223	0xba2fb913	-0.00067032984
224	0x3a763034	0.0009391338
225	0xbae0b897	-0.0017144856
226	0xbac5b43a	-0.0015083619
227	0xb79cb7a9	-1.8682173e-05
228	0xba92759f	-0.001117397
229	0xbaa8ec8b	-0.0012887878
230	0x3957a856	0.00020566708
231	0xbac67213	-0.0015140198
232	0xba9910fb	-0.0011678034
233	0xb9a54d04	-0.00031528634
234	0xba648236	-0.00087169127
235	0xba7d57a2	-0.00096642424
236	0x3a0b81a6	0.00053217483
237	0xba023ebc	-0.00049684546
238	0xba90c2f0	-0.0011044424
239	0x3a21f12d	0.00061776006
240	0xb9fea699	-0.0004857078
241	0xba90504f	-0.0011010262
242	0xb98bd505	-0.00026670858
243	0xbad46884	-0.0016205464
244	0xbaf533da	-0.001870747
245	0xba8aff45	-0.0010604641
246	0xba1845eb	-0.00058087584
247	0xbab43ba8	-0.0013750689
248	0xb8fe24ac	-0.000121184945
249	0xbafa6c94	-0.0019105845
250	0xbacecece	-0.0015778185
251	0xb84696bf	-4.7347272e-05
252	0xbb8c0778	-0.0042733513
253	0xbae182df	-0.001720514
254	0xbbb11111	-0.005403646
255	0xbbb5b6a4	-0.005545454

encoder_cnn.6.bias f4 [32]
0	0xb58529b1	-9.921406e-07
1	0xba1ee360	-0.0006061103
2	0xbbc65089	-0.006052081
3	0xb51f2508	-5.9286003e-07
4	0xbc6d7553	-0.014493304
5	0xb330686c	-4.1073164e-08
6	0xbaf15250	-0.0018411372
7	0xbbe3da7b	-0.006953535
8	0x3c8caf71	0.0171735
9	0x3d544207	0.05182078
10	0x3c889da7	0.016676737
11	0x3c2abea3	0.010421428
12	0x3cda12ac	0.026620232
13	0xbb68815c	-0.0035477495
14	0x3cdd6e34	0.027030088
15	0x3c7cdd93	0.015433687
16	0x3c0d2453	0.008614617
17	0xb808f27a	-3.265075e-05
18	0xb29cf923	-1.8274084e-08
19	0x3c96671a	0.01835971
20	0x3cde941c	0.027170233
21	0xb2a31e6e	-1.8989535e-08
22	0x3c70a81e	0.01468852
23	0xba574100	-0.0008211285
24	0x3b590f70	0.0033120774
25	0xb258bb37	-1.26154225e-08
26	0x3c97e222	0.018540446
27	0x3d171a27	0.036890175
28	0x3ccb3c62	0.024809066
29	0x3c7a7f74	0.015289176
30	0x2f7792f6	2.251673e-10
31	0x3cb9ce6d	0.02268144

encoder_lin.0.weight f4 [64, 288]
0	0x34396c1f	1.7268802e-07
1	0x351576ce	5.567971e-07
2	0x334148ac	4.500241e-08
3	0xb41b4a4b	-1.4462528e-07
4	0x31ce9e25	6.013368e-09
5	0x337e1bec	5.916438e-08
6	0xb4620d5f	-2.1052755e-07
7	0x33ccd9d2	9.5391115e-08
8	0xb16b5783	-3.4246745e-09
9	0x3aa10e4f	0.001228759
10	0xba1a941f	-0.00058967056
11	0xb9ab3072	-0.00032651756
12	0x3b641fc5	0.0034808975
13	0x3897f4f4	7.245867e-05
14	0x3962cfa8	0.00021630398
15	0xba0a720e	-0.00052812777
16	0x3a12c48f	0.00055987475
17	0x3a161871	0.0005725688
18	0xbc5aa3f0	-0.01334475
19	0x39ab8737	0.00032716405
20	0x3d6723c4	0.056430593
21	0x3cce4bf9	0.025182711
22	0xbc9bfb03	-0.01904059
23	0xbcc374b5	-0.023859361
24	0xbd71ba85	-0.05901577
25	0x3db226e2	0.086988226
26	0x3ca1ee1c	0.01976686
27	0x3432eb8a	1.666323e-07
28	0xb32bc37f	-3.9991843e-08
29	0x34e50670	4.2659258e-07
30	0xb2ba8f04	-2.1718286e-08
31	0x33f410bd	1.136518e-07
32	0x36061e51	1.9985202e-06
33	0x331d385d	3.6605673e-08
34	0x360f486b	2.1350813e-06
35	0x36bd3150	5.6383797e-06
36	0xba529523	-0.00080330874
37	0x3c882d45	0.016623149
38	0x3c1bf29a	0.00951829
39	0xbca01fd0	-0.01954642
40	0xbc1626ef	-0.009164556
41	0xbc8da963	-0.017292684
42	0xbc46d0c6	-0.012134736
43	0x3d69a5a0	0.057042718
44	0xbd5b5ed3	-0.05355723
45	0x2f9bca27	2.8337974e-10
46	0xb05f1969	-8.116304e-10
47	0xb0ddffae	-1.6152535e-09
48	0xb3488ab5	-4.6692282e-08
49	0x32ebf3a0	2.7468388e-08
50	0xb14b270f	-2.956259e-09
51	0xb28c8d79	-1.636248e-08
52	0xb419b9d6	-1.4316842e-07
53	0xb2026e38	-7.592057e-09
54	0xbc09ec4a	-0.008418152
55	0xbd09ea63	-0.033670794
56	0xbc9b8dfb	-0.0189886
57	0x3d11e0eb	0.03561489
58	0x3d21a881	0.03946734
59	0x3c9f6fe7	0.019462539
60	0xbd245277	-0.040117707
61	0xbcc77523	-0.024347847
62	0xbc149efa	-0.009071106
63	0xbbb3bed1	-0.0054853936
64	0x3d1b0b1f	0.037852403
65	0x3c6b03b8	0.014344148
66	0xbb120377	-0.0022279897
67	0x3b9ea455	0.0048413672
68	0xbce2346f	-0.027612893
69	0x3c350bda	0.011050189
70	0x3d18eb9a	0.037334062
71	0xbd1cf30b	-0.03831772
72	0xbbfe6611	-0.007763632
73	0x3b5caa46	0.0033670827
74	0x3cad9b08	0.021192089
75	0xbbce1ddc	-0.0062901806
76	0xbc206cb0	-0.009791538
77	0x3c0d3ac3	0.008619967
78	0x3bef5652	0.0073039914
79	0x3d38c523	0.04510988
80	0x3d38d548	0.045125276
81	0x3c14bfa1	0.009078891
82	0xba08f3eb	-0.0005224335
83	0x3c97db3a	0.018537153
84	0x3b8bbf9e	0.004264786
85	0xbcb692ed	-0.022286857
86	0xbd3ad00e	-0.045608573
87	0x3ad3113f	0.0016103162
88	0x3d5b89d9	0.05359826
89	0x3c5e2e2e	0.013560815
90	0x3c79504d	0.015216899
91	0xbce17c89	-0.027525203
92	0xbc9f4bd6	-0.019445341
93	0xbc941b27	-0.018079353
94	0x3c6327af	0.013864442
95	0x3cbf0f64	0.023322769
96	0x3d44b56e	0.048024587
97	0xba87449a	-0.0010320127
98	0xbbad1c4e	-0.005282915
99	0x38030f37	3.1247004e-05
100	0x3ce5dacf	0.028058438
101	0x3c841e74	0.016127802
102	0xbbf45dcd	-0.007457471
103	0xbc230ade	-0.009951321
104	0xbc84196f	-0.016125409
105	0x3cccdf5c	0.02500885
106	0xbd1035ac	-0.035207435
107	0x3d1465b3	0.0362298
108	0x3b25badd	0.002528838
109	0x3ce393e3	0.027780479
110	0x3d3a9940	0.045556307
111	0xbb7809b2	-0.0037847576
112	0xbc02ca8d	-0.007982862
113	0xbc9f0e90	-0.019416124
114	0x3ca48d2b	0.020086845
115	0x3da7bd6e	0.08190428
116	0x3d51567a	0.05110786
117	0xbb1d12e8	-0.0023967568
118	0xbcfe0e12	-0.031012569
119	0x3c05bfe8	0.00816343
120	0xbbeb5567	-0.0071818116
121	0xbc70229d	-0.01465669
122	0xbcd5ea26	-0.026112627
123	0xbd5e1689	-0.05422071
124	0x3d21c2f0	0.039492548
125	0xbdab2f89	-0.08358676
126	0xbb39ab03	-0.002833069
127	0x3cd08b95	0.025457183
128	0x3cc5f8fe	0.02416658
129	0xbd39a653	-0.045324635
130	0xbcb2ba64	-0.021817394
131	0x3c04bb80	0.008101344
132	0x3d2680ba	0.040650107
133	0xbc4e15de	-0.012578456
134	0x3d3380ae	0.04382389
135	0xbbc22b1b	-0.0059255487
136	0xbc4d7bb8	-0.012541704
137	0x3b3be09d	0.0028667815
138	0xbc76dd33	-0.015067386
139	0xbbdb90cb	-0.0067006103
140	0x3ccf77b1	0.025325628
141	0x3c9f07e5	0.019412944
142	0x3ad14cf5	0.001596837
143	0x3d799339	0.060931418
144	0x3c374a6b	0.011187176
145	0x3b04c112	0.002025668
146	0xbba23930	-0.004950665
147	0xbb279dcd	-0.0025576234
148	0xbc9dbba9	-0.019254522
149	0x3d1e8e4d	0.038709927
150	0x3c8e0c17	0.01733975
151	0xbd70b0c0	-0.058762312
152	0xbc6715fb	-0.014104362
153	0xb7452e0a	-1.1752834e-05
154	0xb59cb950	-1.1676839e-06
155	0x36c099df	5.739959e-06
156	0xb745fb2d	-1.1800596e-05
157	0xb78f8264	-1.7107646e-05
158	0xb71ca3ef	-9.336493e-06
159	0xb78c63cd	-1.6735774e-05
160	0x37bf09fc	2.2773624e-05
161	0xb780b033	-1.5340838e-05
162	0x32c3b0fe	2.2781474e-08
163	0x30f32701	1.7691663e-09
164	0x31084391	1.9829012e-09
165	0x3197bd04	4.416167e-09
166	0xb065d126	-8.360693e-10
167	0xb0978028	-1.102312e-09
168	0x3258da62	1.2622509e-08
169	0xb00fa731	-5.226069e-10
170	0x3148aced	2.9202127e-09
171	0xbc14f240	-0.00909096
172	0x3c38ab98	0.01127138
173	0x3d311b84	0.04323913
174	0xbc03841c	-0.008027103
175	0x3b7fd665	0.0039037701
176	0xbbd280f3	-0.0064240634
177	0x3c91e04f	0.017807154
178	0x3d673a65	0.056452174
179	0x3d988240	0.07446718
180	0x3c7e963a	0.0155387465
181	0xba3ac9c9	-0.0007125405
182	0xbd251142	-0.04029966
183	0xbc81d3dc	-0.015848093
184	0xbce5159a	-0.027964402
185	0x3d81a631	0.063305266
186	0x3a61cf29	0.0008613938
187	0xbded58ee	-0.115892276
188	0x3b9f51a1	0.004862026
189	0xa1ee4504	-1.6145776e-18
190	0x20d31fc6	3.5765816e-19
191	0x20c5580f	3.343137e-19
192	0xa268df53	-3.156009e-18
193	0x209baa14	2.637057e-19
194	0x20b5e7ce	3.0815988e-19
195	0x22adb5fd	4.708443e-18
196	0xa03a07de	-1.5757416e-19
197	0x1fb7861a	7.772537e-20
198	0x3c373be0	0.011183709
199	0x3c6256c4	0.013814632
200	0x3cdab746	0.02669872
201	0xbb6705ed	-0.0035251335
202	0xbca4856a	-0.020083148
203	0x3c1e07b5	0.009645392
204	0x3c9c0760	0.019046485
205	0xbcb34379	-0.02188276
206	0x3d655a31	0.055994216
207	0xba9e4c12	-0.0012077114
208	0xbc9dcb16	-0.019261878
209	0xbc907b17	-0.017636819
210	0x39fb244c	0.00047901494
211	0x3d1f2abb	0.03885911
212	0x3c3b4469	0.0114298845
213	0xbd008efd	-0.031386364
214	0xbd88ac42	-0.066734806
215	0xbd2a04a1	-0.04150832
216	0xbc31d3c9	-0.010853716
217	0x3d20a3e7	0.03921881
218	0x3d0f9632	0.035055347
219	0xbbc74dfe	-0.0060822954
220	0xbcf6f3ec	-0.030145608
221	0x3c71fa00	0.014769077
222	0x3cf58c1f	0.029974042
223	0x3d9690ca	0.07351835
224	0x3c31b68a	0.010846743
225	0xb11623e1	-2.1848268e-09
226	0xb457f786	-2.0113484e-07
227	0xb3f44cbd	-1.1376094e-07
228	0xb21eb9e6	-9.239079e-09
229	0xb425bef8	-1.5436297e-07
230	0xb28eb222	-1.6611981e-08
231	0xb1c3e401	-5.701168e-09
232	0xb3ff8dcf	-1.1900158e-07
233	0x32862711	1.5617418e-08
234	0xbb8dfa9e	-0.0043328544
235	0x3cd2f83c	0.025753133
236	0x3c3bfe3d	0.011474189
237	0xbd1e3ffb	-0.038635235
238	0xbacc6099	-0.0015592753
239	0xbcd45c42	-0.025922898
240	0x3cff079e	0.031131562
241	0xbc3280ee	-0.010894997
242	0x3d8b3043	0.067963146
243	0x3b9fbec3	0.0048750355
244	0xbd1b0c23	-0.03785337
245	0xbd0c8054	-0.03430207
246	0xbcc2d0d1	-0.023781212
247	0x3bb6c48e	0.0055776304
248	0x3d41b7eb	0.04729454
249	0xbc578d04	-0.013156179
250	0xbda45191	-0.0802337
251	0x3b48b163	0.003062331
252	0x3ac05778	0.0014674505
253	0x3cd6324c	0.02614703
254	0x3ccca5cc	0.024981402
255	0x3c5fa7f2	0.013650881

encoder_lin.0.bias f4 [64]
0	0xbb295313	-0.002583687
1	0x3c32da57	0.010916314
2	0xb9193503	-0.00014610965
3	0x3c0f2cc2	0.008738698
4	0x3bd0f1ca	0.0063764798
5	0x3b5ba94d	0.003351766
6	0x3c02c538	0.007981591
7	0xbb8692e4	-0.004106866
8	0x3739a1ca	1.1064529e-05
9	0x3c1bb8fb	0.009504552
10	0x3b3161d3	0.0027066364
11	0xac18e5ae	-2.1727997e-12
12	0xbaec1074	-0.0018010275
13	0xba46f84c	-0.00075900997
14	0xbc2fcb33	-0.010729599
15	0x3b13ade1	0.002253406
16	0x3c734c23	0.014849695
17	0xb05f2a16	-8.1186735e-10
18	0x3a39d56d	0.0007088993
19	0x3bcbe273	0.006222063
20	0x3abfd238	0.0014634794
21	0xb081c98d	-9.44327e-10
22	0x3b8d95d4	0.0043208394
23	0x39b73d14	0.00034949987
24	0x3a94effa	0.0011363022
25	0x3a4601d5	0.00075533736
26	0x3b5c1eb2	0.0033587632
27	0xbbb5e8f1	-0.0055514504
28	0xb9ecf3d7	-0.00045195103
29	0xb8198e78	-3.6610727e-05
30	0x3bad8a67	0.00529604
31	0xb8f59972	-0.00011711092
32	0x3b4ddb53	0.0031411245
33	0x3c0c6a02	0.008570196
34	0x3b6534e2	0.0034974148
35	0x3a19ec01	0.0005871654
36	0xb93d7bf5	-0.00018070622
37	0xbb76c1f6	-0.003765223
38	0x3bac7582	0.0052630315
39	0xbaa2acc6	-0.001241111
40	0x3bda4cfa	0.0066620084
41	0x3be8fc38	0.007110145
42	0xba685ced	-0.00088639447
43	0x3c5b318d	0.013378513
44	0xb0a47389	-1.1965408e-09
45	0x3bd4b95f	0.0064918245
46	0xba08286d	-0.0005194012
47	0x3c03fc06	0.008055693
48	0x3bf8bc67	0.0075908187
49	0x3c3a2a40	0.011362612
50	0x3bc291ac	0.0059377756
51	0xb3aa1885	-7.920702e-08
52	0xbad0f9a1	-0.0015943536
53	0x3a115c3e	0.0005545056
54	0x3b3ea69a	0.0029091001
55	0x3b9bae5f	0.0047510113
56	0x3c121baa	0.008917728
57	0x34bf5b66	3.5643023e-07
58	0x3c0584ff	0.0081493845
59	0x3b83533f	0.0040077264
60	0x3aef59a2	0.0018260966
61	0x3c620dfd	0.01379728
62	0x3b6addd2	0.0035837782
63	0xba92e79b	-0.001120794

encoder_lin.3.weight f4 [16, 64]
0	0x3cec95cd	0.028880024
1	0xbe626f82	-0.2211285
2	0xbe03c75f	-0.12869023
3	0xbdfca1b1	-0.12335528
4	0x3e417257	0.18891273
5	0x3e171374	0.14753515
6	0x3ccd2cf0	0.025045842
7	0x3d92c795	0.071669735
8	0x392f8ec5	0.00016742486
9	0xbb092e6a	-0.0020932206
10	0xbe85b356	-0.26113385
11	0x2c8726db	3.8412446e-12
12	0x3dd23b26	0.10265188
13	0x3dc99707	0.09843259
14	0xbafb250d	-0.0019160822
15	0x3e05353a	0.13008586
16	0xbdf29a38	-0.11845821
17	0x308b3e2e	1.0131254e-09
18	0x3d3761bb	0.044770937
19	0xbdea9a0d	-0.11455164
20	0x3e4e3dcb	0.2014076
21	0xb104b3c6	-1.9310717e-09
22	0x3d45286d	0.048134256
23	0xbea5bc53	-0.32370242
24	0x3c3b6304	0.011437181
25	0xbd6c878c	-0.057746455
26	0xbe80e540	-0.25174904
27	0x3db045d4	0.08607069
28	0xbb07c18d	-0.002071473
29	0x3e4f2729	0.20229782
30	0xbe423954	-0.18967181
31	0xbacf376b	-0.0015809363
32	0xbb5e2adb	-0.0033900056
33	0xbcc70f03	-0.02429915
34	0xbe9ec4ed	-0.31009617
35	0xbc924ead	-0.017859781
36	0x3af31989	0.0018547039
37	0x3e277886	0.1635457
38	0x3d6db428	0.05803314
39	0xbc3b5c12	-0.0114355255
40	0x3e237f49	0.15966524
41	0xbdeeb0b3	-0.116547965
42	0xbb422112	-0.0029621762
43	0xbcbc1a03	-0.022961622
44	0xb1517d11	-3.0484595e-09
45	0x3e18e63f	0.14931582
46	0xbc85f9a9	-0.016354399
47	0xbe3df848	-0.18551743
48	0xbe3851c1	-0.17999937
49	0xbe19e841	-0.15030004
50	0xbe21957d	-0.15779682
51	0x35643794	8.5017496e-07
52	0x3dd16269	0.102238484
53	0x3bce9070	0.0063038394
54	0x3d885bdf	0.06658148
55	0x3d37bcb5	0.0448577
56	0xbdfebe7f	-0.12438678
57	0x37c1be40	2.3095985e-05
58	0x3cb6ba4b	0.022305628
59	0x3dadc202	0.0848427
60	0xbd0f74ea	-0.035023607
61	0xbd341f1c	-0.04397498
62	0xbdf04118	-0.11731166
63	0xbdb6459f	-0.08899998
64	0x3dd0dd21	0.10198427
65	0xbd1e61cf	-0.038667496
66	0x3b8bddb5	0.004268373
67	0x3cf22afd	0.029561514
68	0x3e0559e8	0.13022578
69	0x3b8e399f	0.004340365
70	0xbd2e0390	-0.042483866
71	0xbd574814	-0.052558973
72	0xb88a4a20	-6.59416e-05
73	0x3d5a472a	0.053290524
74	0xbebadd18	-0.36496806
75	0xab701af7	-8.530255e-13
76	0x3dd5e67e	0.104443535
77	0xbd3ebdf6	-0.04656788
78	0xbdcbd26c	-0.09952244
79	0xbd876d53	-0.06612649
80	0x3e43455e	0.1906943
81	0xafb5e0cb	-3.3083433e-10
82	0x3dfd0f15	0.12356392
83	0xbdb3fcb2	-0.08788432
84	0x3e49368f	0.19649719
85	0xb7a99143	-2.0214013e-05
86	0xbc33639c	-0.010949042
87	0xbc55d0d1	-0.013050274
88	0xbe619a88	-0.22031605
89	0x3c0b3dae	0.008498592
90	0xbcf0507d	-0.029335255
91	0xbe1beaad	-0.1522624
92	0x3b01a73c	0.0019783517
93	0x3cf10222	0.029419962
94	0x3e25b276	0.16181359
95	0x3ab54be0	0.0013831817
96	0x3e4272d2	0.18989113
97	0x3ea817f6	0.3283078
98	0xbdad3f87	-0.084593825
99	0x3e8f7bd4	0.2802416
100	0xba1d9a7b	-0.0006012094
101	0xbe069988	-0.13144505
102	0x3e8270d6	0.25476712
103	0xbb8c76e7	-0.004286635
104	0xbd8686db	-0.065686904
105	0xbe1225ef	-0.14272283
106	0xbe023c14	-0.1271823
107	0x3d5a8ae8	0.053355128
108	0xb03e8ea2	-6.932429e-10
109	0x3e050ba7	0.12992726
110	0xbd53e8f4	-0.051735833
111	0xbdd9ad3c	-0.10628745
112	0xbd2945c1	-0.041326288
113	0x3e0924fa	0.13393012
114	0x3e2835da	0.16426793
115	0xb492e4ab	-2.7360997e-07
116	0xbdfddc89	-0.12395579
117	0x3a8fbd04	0.0010966365
118	0xbe5ffd76	-0.21874031
119	0xbdf3a455	-0.11896578
120	0xbdbc2f8c	-0.09188756
121	0xb658d9d5	-3.2313303e-06
122	0x3b84e373	0.0040554344
123	0xbe69940c	-0.22810382
124	0x3dc503a8	0.09619838
125	0x3a85c9f7	0.0010207285
126	0x3d517197	0.05113372
127	0xbe6926c5	-0.22768696
128	0xbd364f92	-0.044509478
129	0x3e5d56fb	0.21615212
130	0xbd9b1d0b	-0.07573899
131	0x3cc1d010	0.023658782
132	0x3da73d0a	0.08165939
133	0x3d09706c	0.03355448
134	0x3dbc0c49	0.09182031
135	0xbd2520fd	-0.040314663
136	0x3980fd75	0.00024602903
137	0xbe42d6d7	-0.19027267
138	0x3e070585	0.131857
139	0xac1193f9	-2.068788e-12
140	0xbdfc7a71	-0.12328041
141	0x3d8be0e0	0.06830001
142	0xbe2d11a8	-0.16901267
143	0xbdb2f0ae	-0.08737312
144	0x3e711222	0.23542073
145	0x30adb816	1.2639727e-09
146	0xbd8878e6	-0.066636845
147	0x3eae47f2	0.34039265
148	0x3dc9507d	0.09829805
149	0x3980938d	0.00024523996
150	0x3bfd4b9e	0.0077299615
151	0x3d96399b	0.07335206
152	0x3e8c053d	0.27347746
153	0xbe4e2e6c	-0.20134896
154	0xbd52deba	-0.05148194
155	0xbe1f239f	-0.15540932
156	0x3a4d44d1	0.0007830384
157	0x3d5b02b0	0.05346936
158	0x3e398600	0.18117523
159	0xb74bbc08	-1.2143522e-05
160	0x3e201b57	0.1563543
161	0xbe190461	-0.14943077
162	0xbd97d0d1	-0.074128754
163	0xbe114c76	-0.14189324
164	0xbac513d7	-0.001503582
165	0x3de8a71b	0.11359998
166	0xbd8e202d	-0.06939731
167	0xbc1d7c53	-0.009612161
168	0xbe04079a	-0.12893525
169	0x3d863287	0.06552606
170	0x3e8f05c2	0.2793408
171	0x3deda8f4	0.11604491
172	0xb17dd425	-3.6936936e-09
173	0x3d9e52cf	0.07730638
174	0x3d9b7178	0.07590002
175	0xbce2fb05	-0.027707586
176	0xbe139eaf	-0.14416002
177	0x3c662a6c	0.0140482
178	0xbe596aae	-0.21232101
179	0xb4a62fa0	-3.095456e-07
180	0xbda72644	-0.081615955
181	0x390ab1b2	0.00013226902
182	0xbd859e42	-0.06524326
183	0x3e0d16e4	0.13778263
184	0xbe1be1c2	-0.15222839
185	0xb885abe4	-6.373951e-05
186	0x3ca5b390	0.020227224
187	0x3dbc1168	0.091830075
188	0xbc8b5b40	-0.017011285
189	0xbe2d895f	-0.16946934
190	0xbd254b19	-0.04035482
191	0xbdecd659	-0.11564321
192	0x3e06f162	0.13178018
193	0xbd5959b2	-0.053064056
194	0x3c156b3f	0.009119808
195	0x3d517ad4	0.05114253
196	0x3bebaa59	0.007191938
197	0xbb1ea8cb	-0.0024209495
198	0x3d6e49af	0.05817574
199	0x3d16310d	0.036667872
200	0x3a080420	0.0005188603
201	0xbc669e53	-0.014075833
202	0xbdc4f6b6	-0.09617369
203	0x2d3de231	1.0793631e-11
204	0x3d63556a	0.05550138
205	0xbe45853e	-0.19289109
206	0x3e3534d7	0.17695938
207	0xbcddd68e	-0.027079847
208	0xbe01ae55	-0.12664159
209	0x2fb37ca3	3.264847e-10
210	0x3d5147a4	0.051093712
211	0xbd1f9165	-0.03895702
212	0x3d5fd71c	0.054648504
213	0x387d5be7	6.040549e-05
214	0xbcd9a2b2	-0.026566837
215	0xbd12accd	-0.035809327
216	0x3e5074a2	0.20356992
217	0xbe078a7d	-0.13236423
218	0x3de1bf32	0.11022796
219	0xbdaeb6d7	-0.08530968
220	0xba3e3f23	-0.0007257333
221	0x3c4ca461	0.012490363
222	0x3e0e4431	0.138932
223	0xbaca9926	-0.0015457019
224	0xbc948a26	-0.01813228
225	0x3cdd46b9	0.027011262
226	0xbd94dd4f	-0.07268774
227	0x3d8feb03	0.07027247
228	0xba7364fb	-0.00092847616
229	0x3e463e5a	0.19359723
230	0x3e1ac6ba	0.1511487
231	0xbabb4d58	-0.0014290018
232	0x3d57db46	0.05269935
233	0x3d434111	0.047669474
234	0x3df7d1e8	0.12100583
235	0xbc5470c1	-0.012966336
236	0xb24f8848	-1.2079973e-08
237	0xbd448385	-0.04797699
238	0x3d4780b1	0.048706714
239	0x3dadc3b4	0.08484593
240	0xbdcb6dc6	-0.09933047
241	0x3d43bdad	0.04778831
242	0xbe30ab2c	-0.17252797
243	0x32972f64	1.7600264e-08
244	0x3e1f5f37	0.15563665
245	0xb8d2e1cb	-0.000100556375
246	0xbe160199	-0.14649047
247	0xbe120787	-0.14260684
248	0x3d04b1cd	0.032396127
249	0xb7470dcf	-1.1864539e-05
250	0xbe9e8b83	-0.30965814
251	0xbc630e0a	-0.013858328
252	0xbe1c290b	-0.15250032
253	0xbda61639	-0.081097074
254	0x3d681c29	0.05666748
255	0x3de8853c	0.113535374

encoder_lin.3.bias f4 [16]
0	0x3c059f4b	0.008155654
1	0xbcbd0045	-0.023071418
2	0xbc8cbb2d	-0.017179096
3	0x3c278ac3	0.010225954
4	0x3cd94a53	0.026524698
5	0xbc1f7399	-0.0097321505
6	0x3bcf5793	0.0063275783
7	0xbc69435b	-0.01423725
8	0xbc62cce3	-0.013842794
9	0xb9e6ba33	-0.00044007748
10	0xbd0f9f71	-0.035064165
11	0x3c989a25	0.01862819
12	0xbc3dc2bc	-0.011582073
13	0x3cafea4e	0.02147403
14	0x3c03fc94	0.008055825
15	0x3b9fa060	0.004871413

decoder_lin.0.weight f4 [64, 16]
0	0x3db00d42	0.08596279
1	0xbe4d44b6	-0.20045742
2	0x3c37d392	0.011219876
3	0xbdcf3271	-0.10117043
4	0xbc885253	-0.016640818
5	0x3e17164c	0.147546
6	0xbd8ac209	-0.067752905
7	0xbdad15d4	-0.08451429
8	0xbdb482ec	-0.08814034
9	0x3e6a8c03	0.22904973
10	0xbda2910d	-0.079378225
11	0x3d91be52	0.07116379
12	0x3cc88512	0.024477515
13	0xbcbfa19f	-0.023392497
14	0x3e04cbb0	0.12968326
15	0xbd05c357	-0.032656994
16	0x3dcb00af	0.0991224
17	0x3e1c8a58	0.15287149
18	0x3c044373	0.008072722
19	0x3d6b972e	0.057517223
20	0x3e2fa074	0.17151052
21	0x3e1b099a	0.15140381
22	0xbd5a7526	-0.053334378
23	0xbbb9449b	-0.0056539304
24	0xbd0b469c	-0.034002885
25	0xbd92d0a0	-0.07168698
26	0xbded7346	-0.11594252
27	0x3d2b51df	0.041826125
28	0xbd2931d3	-0.04130728
29	0xbe1a54cb	-0.15071408
30	0x3e32bf1e	0.17455718
31	0xbd2ae36d	-0.041720796
32	0xbdab78b2	-0.0837263
33	0xbd6e77c8	-0.0582197
34	0x3d43c457	0.047794666
35	0xbd9e42b1	-0.07727564
36	0xbe42408a	-0.18969932
37	0xbd297676	-0.04137274
38	0x3d0c3c2a	0.034237064
39	0xbd97a261	-0.07404018
40	0xbdf0096f	-0.11720549
41	0x3d2fd192	0.04292447
42	0x3befb01a	0.007314694
43	0x3cacafc4	0.021079905
44	0x3cbccbb0	0.023046345
45	0x3ebe1b3c	0.37130153
46	0xbdbbf2a4	-0.091771394
47	0x3d81fdb4	0.06347218
48	0xbdce22c0	-0.10065222
49	0x3e08fcde	0.13377711
50	0x3c992fb7	0.01869951
51	0x3dd1e121	0.10248018
52	0xbcc063ee	-0.02348515
53	0x3db776a8	0.08958179
54	0xbd4c5cae	-0.049893074
55	0xbdaf3fda	-0.085571006
56	0xbe35967a	-0.17733184
57	0xbe7619a1	-0.24033214
58	0xbb78f7fc	-0.0037989607
59	0x3b8e6130	0.0043450817
60	0xbe728e36	-0.23687062
61	0x3cf3f626	0.029780459
62	0x37b186d8	2.1162836e-05
63	0xbd9f1815	-0.07768265
64	0xbdec9f11	-0.11553777
65	0x3d998098	0.074952304
66	0x3e319729	0.1734282
67	0xbcda334a	-0.026635785
68	0xbbaeb134	-0.005331183
69	0xbe09e273	-0.1346529
70	0x3cc1ac29	0.023641663
71	0xbd66d5b1	-0.056356136
72	0xbe3a249e	-0.18178031
73	0xbe3d083f	-0.18460177
74	0xbd85b78b	-0.06529149
75	0x3d3f0b3c	0.046641573
76	0x3e1236cc	0.14278716
77	0x3d3312bd	0.043719042
78	0x3e4d5d7d	0.20055194
79	0x3d98d24e	0.074619874
80	0xbdd20b78	-0.10256094
81	0x3eb29544	0.34879506
82	0xbe0585eb	-0.13039367
83	0x3dbb4fbf	0.0914607
84	0x3db3da67	0.08781891
85	0xbdc608f7	-0.09669679
86	0x3d9f6195	0.07782284
87	0x3d1c4742	0.038153894
88	0xbcfacff9	-0.030616747
89	0xbe731b9e	-0.23741004
90	0xbb8f41a9	-0.004371841
91	0xbd198f4d	-0.037490178
92	0x3d873678	0.06602186
93	0x3de886b5	0.11353818
94	0xbd038ce3	-0.032116782
95	0xbd364413	-0.044498514
96	0x3d4b89f2	0.0496921
97	0xbd2a34c6	-0.041554235
98	0x3d80e684	0.06293967
99	0xbd946616	-0.07246034
100	0x3e1c6205	0.15271766
101	0x3e23018c	0.15918559
102	0x3dc2d35e	0.09512971
103	0x3bfa248a	0.0076337503
104	0xbeb1c02d	-0.3471693
105	0xbd3266dc	-0.043555126
106	0xbe0d33c3	-0.13789277
107	0x3c8ce121	0.017197194
108	0x3d519300	0.05116558
109	0x3d3b86da	0.0457829
110	0x3d489d70	0.04897827
111	0x3e86bf69	0.2631791
112	0x3e012bc5	0.12614353
113	0xbcd40dc7	-0.025885476
114	0xbe7d7ab7	-0.24753843
115	0xbd9d03e4	-0.07666758
116	0x3de95858	0.11393803
117	0x3b5fcc55	0.003414889
118	0x3dc9a231	0.09845389
119	0xbe149ee0	-0.14513731
120	0xbdf55e67	-0.119808964
121	0x3d224932	0.039620586
122	0xbdc889a5	-0.097918786
123	0x3dff698d	0.12471304
124	0x3d4c9041	0.04994226
125	0xbd84e846	-0.06489615
126	0x3d945a0f	0.0724374
127	0xbd5ed58a	-0.054402865
128	0x3d65d05d	0.056106914
129	0x3daf1c59	0.08550329
130	0x3ca6bb5c	0.020353012
131	0x3e0b46c2	0.1360121
132	0xbc2f7999	-0.0107101435
133	0x3e104017	0.14086948
134	0x3dbefc8b	0.093255125
135	0xbc0ae798	-0.008478068
136	0x3e6f070f	0.23342536
137	0xbda7a4bb	-0.08185717
138	0xbd642adf	-0.055704948
139	0x3cf6576f	0.030070988
140	0x3d84d55d	0.06486008
141	0x3cc90e7a	0.024543036
142	0xbde6d532	-0.112711325
143	0xbdad4097	-0.08459585
144	0x3e2d449b	0.16920702
145	0xbe46f1fd	-0.19428249
146	0xbc493e6d	-0.01228295
147	0x3dc08115	0.093996204
148	0xbc8d0540	-0.017214417
149	0xbe77cc74	-0.24199086
150	0xbd43f287	-0.047838714
151	0x3c288e09	0.01028777
152	0xbdbed7fb	-0.09318539
153	0xbd9d76d1	-0.07688678
154	0xbe2a8cd4	-0.16655284
155	0x3d94d5a3	0.072673105
156	0xbdcfce9b	-0.10146829
157	0x3dbecff5	0.093170084
158	0xbd3ab87f	-0.045586105
159	0x3e4ce139	0.2000779
160	0xbd2280f4	-0.03967376
161	0xbc9e5060	-0.019325435
162	0xbd52a244	-0.05142428
163	0xbb841d54	-0.0040318165
164	0xbdc739f2	-0.09727849
165	0xbe0362b7	-0.12830625
166	0x3b2328b2	0.0024896082
167	0xbd464913	-0.048409533
168	0x3e229c3a	0.15879908
169	0xbcb9929a	-0.022652913
170	0xbd68686a	-0.056740202
171	0x3d884aa4	0.066548616
172	0x3d86d599	0.06583709
173	0xbe581685	-0.2110234
174	0xbdfa9e62	-0.122372404
175	0xbe583c37	-0.2111672
176	0x3ca81fce	0.020522978
177	0x3d5c85d2	0.05383856
178	0xbe88a484	-0.26688015
179	0x3ce706ee	0.028201547
180	0xbdb49a4f	-0.088184945
181	0xbe8799f9	-0.2648466
182	0x3d6f0625	0.05835547
183	0xbda8c9f4	-0.082416445
184	0x3e3de3ee	0.1854398
185	0x3d2894eb	0.041157644
186	0x3d5973ab	0.053088825
187	0x3d45ce48	0.04829243
188	0x3d0994f1	0.033589307
189	0x3e66cb5a	0.2253851
190	0xbdd886d5	-0.10572592
191	0xbd40e0ff	-0.047089573
192	0xbe51500f	-0.20440696
193	0x3d9a5cb6	0.075372145
194	0x3d8dcd02	0.06923868
195	0xbdcdd056	-0.100495026
196	0xbd26f566	-0.040761374
197	0xbe044584	-0.12917143
198	0xbe0dfeb4	-0.13866693
199	0x3d74b849	0.05974606
200	0xbdda947e	-0.10672854
201	0x3d38c19b	0.04510651
202	0x3d0c7dec	0.034299776
203	0xbd5c186b	-0.053734224
204	0xbda2d8ea	-0.07951529
205	0xbd8318a7	-0.064011864
206	0x3dc2ed8f	0.09517967
207	0x3e248ce1	0.16069366
208	0xbe1fd06f	-0.15606855
209	0x3d6b4f97	0.05744895
210	0x3e0e9fb3	0.13928108
211	0x3debaf34	0.11508027
212	0xbd863db2	-0.06554736
213	0x3d6f0860	0.058357596
214	0x3cf52664	0.029925533
215	0xbcbb6786	-0.022876512
216	0x3e74828b	0.23877923
217	0xbd79cc46	-0.060985826
218	0xbc036ddb	-0.008021797
219	0x3ca7fba1	0.020505728
220	0xbb16fc44	-0.0023038546
221	0x3e481adc	0.19541496
222	0x3de10fd5	0.10989348
223	0x3e3e3fad	0.18578978
224	0xbe64bbcf	-0.22337268
225	0xbb821e0c	-0.003970867
226	0xbd96d008	-0.073638976
227	0x3ca1d927	0.019756867
228	0xbe3a9a76	-0.18222985
229	0xbe07f713	-0.13277845
230	0xbe13b337	-0.14423834
231	0xbc111d4a	-0.008857081
232	0x3e0c4220	0.136971
233	0x3d6c5bc5	0.057704706
234	0x3d9cea0e	0.0766183
235	0xbcbe7ebe	-0.023253795
236	0xbe3efc6c	-0.18650979
237	0x3d0b2801	0.033973698
238	0xbd71306b	-0.058884066
239	0x3e24d714	0.16097671
240	0xbdcc54fd	-0.09977148
241	0xbb941e6c	-0.004520228
242	0xbdc2c4ec	-0.09510216
243	0xbe01a429	-0.12660278
244	0x3c910935	0.017704586
245	0x3d114989	0.03547052
246	0x3df758a2	0.12077452
247	0xbe3654af	-0.17805742
248	0xbbc35ee5	-0.00596224
249	0x3da759a2	0.08171393
250	0xbdb2824e	-0.0871626
251	0x3e0b5def	0.13610052
252	0x3d412f9b	0.04716454
253	0x3d68e3cb	0.056857865
254	0xbd278d00	-0.040905952
255	0xbd9d4af3	-0.07680311

decoder_lin.0.bias f4 [64]
0	0x3c0f1383	0.008732679
1	0x3ba2490e	0.0049525565
2	0x3cbbfde9	0.022948222
3	0xbaee8830	-0.0018198546
4	0xbc29fe98	-0.010375641
5	0x3c909c01	0.017652513
6	0x3c358e7e	0.011081336
7	0x3c87e438	0.016588315
8	0x3c86a09d	0.016434008
9	0x3d3d3141	0.04618955
10	0xbbbf5ff5	-0.0058402964
11	0xbb69b97a	-0.003566353
12	0xbbaa564b	-0.005198275
13	0xbbc8bd0c	-0.006126052
14	0x3c0e7894	0.00869574
15	0x3c5c7959	0.013456666
16	0x3b488966	0.0030599474
17	0x3aeb0c94	0.0017932826
18	0x3b65e22c	0.0035077436
19	0x3c8a5cd1	0.016889961
20	0x3c897824	0.01678092
21	0x3c7898fc	0.015173193
22	0x3c793c43	0.015212121
23	0xbc507392	-0.012722867
24	0xbab1e08c	-0.0013570949
25	0x3c8c71e4	0.017144151
26	0x3c98930a	0.018624801
27	0x3c9c4dd4	0.01908008
28	0x3c593ef5	0.013259639
29	0x3b51a4c1	0.003198907
30	0x3c0ebe8e	0.008712424
31	0x3cbd5675	0.023112515
32	0x3b6cf4c3	0.0036156632
33	0xba99ba4e	-0.0011728497
34	0xbc3fc96e	-0.011705739
35	0x3c609f4b	0.013709853
36	0x3b833f5a	0.004005355
37	0xbbd5abe3	-0.0065207346
38	0x3c5968b7	0.013269595
39	0x3c7a2a49	0.015268871
40	0x3c85a972	0.01631615
41	0xbc82101d	-0.015876824
42	0x3b32f641	0.0027307423
43	0x3c135541	0.008992494
44	0x3cd750fd	0.026283735
45	0x3c5b45a4	0.013383303
46	0x3c5f89b4	0.013643671
47	0x3c8414a5	0.016123125
48	0x3b6697b5	0.003518564
49	0x3acfde1c	0.001585904
50	0x3c28866e	0.010285957
51	0x3b6f5a30	0.0036522262
52	0x3c81ed61	0.015860261
53	0x3ce40da8	0.027838543
54	0xbc4293cb	-0.011876057
55	0x3c937707	0.018001093
56	0x3bb1eb21	0.005429641
57	0x3c44b013	0.01200487
58	0x3c377bc9	0.011198946
59	0xb9fd3825	-0.0004829775
60	0x3b7b3fc5	0.003833757
61	0xbbc0aefb	-0.0058802343
62	0x3cb0a6da	0.021563936
63	0x3caa7707	0.02080871

decoder_lin.3.weight f4 [288, 64]
0	0x3c4c89f0	0.012484059
1	0xbacd506d	-0.0015664228
2	0x3d55a011	0.052154604
3	0x3d0ca760	0.03433931
4	0xbc1fc887	-0.009752399
5	0x3ca450bd	0.02005803
6	0x3ce7adf4	0.02828119
7	0xbb061929	-0.0020461774
8	0x3b34724c	0.0027533947
9	0xbd53ea41	-0.051737074
10	0x3c6b4562	0.014359804
11	0x3bc8427d	0.0061114416
12	0xbc4cdf21	-0.01250437
13	0xbc79d16c	-0.015247684
14	0xbac9a1eb	-0.0015383338
15	0x3d51fa2f	0.051263984
16	0x3bab380f	0.0052251886
17	0xbbd13032	-0.006383919
18	0xbc2f6a88	-0.010706551
19	0xbc13695d	-0.0089972885
20	0xbcbfff00	-0.023437023
21	0x3d15df07	0.03658965
22	0xbcc7f49f	-0.024408637
23	0xbb6b3007	-0.003588678
24	0xbacd69e3	-0.0015671815
25	0x3c65a18f	0.014015569
26	0x3b834911	0.004006513
27	0x3badeff7	0.005308147
28	0xbcfe9cf3	-0.031080699
29	0xbc4961c8	-0.012291379
30	0x3d26d928	0.04073444
31	0x3c95e51c	0.018297724
32	0x3c5c6a53	0.013453084
33	0x3cb427f0	0.0219917
34	0xbd07a728	-0.033118397
35	0x3c1e67c3	0.009668293
36	0x3bf8cbd0	0.0075926557
37	0xbc39cdaa	-0.011340538
38	0xbc0b6666	-0.0085083
39	0xbc0863d3	-0.008324581
40	0xbd356aa3	-0.04429115
41	0x3c3beb7d	0.011469719
42	0x3bb9ded4	0.005672315
43	0x3b0da496	0.0021612993
44	0x3d0e4c96	0.034741007
45	0x3d180aa5	0.037119526
46	0xbc851c99	-0.016248988
47	0x3c6ca645	0.014443939
48	0x3c78aada	0.015177453
49	0x3d087b19	0.03332052
50	0xbc2bfe06	-0.010497576
51	0xbb6d3a1a	-0.0036197961
52	0xbc0ff3db	-0.008786167
53	0xbce78d41	-0.028265597
54	0x3a599a57	0.00083008915
55	0x3c894ac9	0.016759293
56	0x3acb61f2	0.0015516861
57	0xbc2c6314	-0.010521669
58	0x3b8fb546	0.004385623
59	0x3d004885	0.03131916
60	0xb99c7bf5	-0.00029846994
61	0x3d1c09a5	0.038095135
62	0xbcfc981a	-0.030834246
63	0xbcf52ef5	-0.029929617
64	0x3cc82ec8	0.02443637
65	0xbbb87752	-0.0056294585
66	0xbbca60da	-0.0061760964
67	0x3c80120f	0.015633611
68	0x3d4d8186	0.05017235
69	0xbcd4df75	-0.025985459
70	0x3d1a5d90	0.037686884
71	0x3ca7bb05	0.02047492
72	0xbc87c9e1	-0.016575756
73	0x3dc0d4b1	0.09415568
74	0x3b89365f	0.0041873897
75	0xbc532d60	-0.012889236
76	0x3cb2cb9e	0.021825608
77	0x3b69bf8a	0.0035667145
78	0x3c8668e0	0.01640743
79	0x3b5aa1b3	0.003336054
80	0x3c17fee4	0.009277079
81	0x3d2351c4	0.0398729
82	0x3c767b21	0.015044005
83	0xbc97406c	-0.018463336
84	0x3caf730b	0.021417161
85	0xbc912867	-0.01771946
86	0x3cd826ff	0.026385782
87	0x3d0b589c	0.03402005
88	0x3be9b023	0.007131593
89	0xbb1d15fb	-0.00239694
90	0x3cbeb3ae	0.023279037
91	0xbd075b43	-0.03304602
92	0x3cdaf63b	0.02672874
93	0x3c450edf	0.012027471
94	0xbc94ef42	-0.018180493
95	0x3c79ef1f	0.015254765
96	0xba3e4e16	-0.00072595605
97	0x3c97c005	0.01852418
98	0x3da0355f	0.0782268
99	0x3c895518	0.016764209
100	0x3d329a4a	0.043604173
101	0x3d09780d	0.033561755
102	0xbae290e0	-0.0017285608
103	0x3c5b76f0	0.013395056
104	0x3d2701db	0.040773254
105	0xb9469ca0	-0.00018941099
106	0x3d89d61e	0.06730293
107	0x3ad9a99a	0.0016606331
108	0xbc956ad6	-0.01823942
109	0xbcc8d9a0	-0.024517834
110	0xbbb012ea	-0.0053733485
111	0x3c8158c1	0.015789391
112	0x3a7cdb0a	0.00096456765
113	0xbbe70bbc	-0.0070509594
114	0x3c494406	0.012284284
115	0x3d45e18a	0.048310794
116	0x3c2c37fc	0.010511395
117	0x3d4b0408	0.04956439
118	0x3cfb0f63	0.030646985
119	0x3d2d2342	0.042269953
120	0xb917877f	-0.00014450958
121	0xbca38468	-0.019960597
122	0x3c998631	0.018740745
123	0xbcceca96	-0.025243085
124	0x3cce8ce7	0.025213672
125	0xbc21f3ad	-0.009884757
126	0x3d403bf4	0.046932176
127	0xbce6bda7	-0.028166605
128	0xbcab10cd	-0.020882035
129	0x3db56663	0.08857419
130	0x3cc6002c	0.024170004
131	0x3da00d56	0.07815044
132	0x3c5eb247	0.013592309
133	0x3dc1d4f2	0.09464444
134	0x3c514eb1	0.012775109
135	0xbc850513	-0.016237771
136	0x3d220b1d	0.03956138
137	0x3b03979e	0.0020079385
138	0xbcdd9267	-0.02704735
139	0x3c500dd6	0.012698611
140	0x3cd72222	0.026261393
141	0x3cf76923	0.0302015
142	0x3c84ea34	0.016224958
143	0xbd29ea04	-0.04148294
144	0x3b2ef5f7	0.00266969
145	0x3d0151ac	0.03157203
146	0x3d439583	0.047750007
147	0x3d543099	0.05180416
148	0x3b448ba7	0.0029990466
149	0xbbccca5a	-0.006249708
150	0xbacb0b93	-0.001549112
151	0x3cf19676	0.02949069
152	0xbd76da7d	-0.06026696
153	0x3bf27e36	0.0074002994
154	0x3dba835c	0.09107086
155	0x3d3c70d9	0.046006057
156	0x3cb40b75	0.02197812
157	0xbcafa0ce	-0.021438982
158	0x3d59a91a	0.053139783
159	0x3d3ed48b	0.046589416
160	0x3c99438b	0.018708965
161	0xba7d5d34	-0.00096650724
162	0x3d1ac7f8	0.03778836
163	0x3ce8aed0	0.02840367
164	0x3c8bdf76	0.017074328
165	0x3cfd4fa4	0.030921765
166	0x3cd4b535	0.025965312
167	0x3ca8937a	0.020578135
168	0xbbb2d2dc	-0.0054572653
169	0x3cb02afd	0.021504873
170	0xbdce753e	-0.10080956
171	0x3cd5bf1e	0.026092108
172	0x3d93a00e	0.072082624
173	0xbbee19d5	-0.007266263
174	0x3db5d264	0.088780195
175	0x3c7d74a8	0.015469708
176	0x3d1d93ed	0.03847115
177	0x3b9ecf3c	0.0048464816
178	0x3cad890a	0.02118351
179	0xbceb0c3e	-0.028692361
180	0x3cbec1de	0.023285802
181	0x3b953e2d	0.004554531
182	0x3c4617d7	0.012090645
183	0xbc93f171	-0.018059464
184	0x3cf987ed	0.030460322
185	0x3da49eeb	0.08038124
186	0x3d1aaacb	0.037760537
187	0x3d2d80f6	0.042359315
188	0x3d89b9d8	0.067249
189	0xbc60255f	-0.013680785
190	0xbd205c5f	-0.039150592
191	0x3d5d1863	0.053978335
192	0xbd2d1c51	-0.042263333
193	0xbbebe993	-0.007199475
194	0xbc93aaec	-0.018025838
195	0x3cd6a335	0.02620087
196	0xbaae4b13	-0.001329752
197	0x3d77d5b4	0.060506538
198	0xbcc99419	-0.024606751
199	0xbd17cb88	-0.037059337
200	0x3cb6c661	0.022311391
201	0xbcd9c3a4	-0.026582547
202	0x3d075d85	0.03304817
203	0xbc8a0d18	-0.016851947
204	0x3d118235	0.035524566
205	0x3ca20ca7	0.019781424
206	0x3d237bd0	0.039913
207	0xbd08780b	-0.033317607
208	0xbcce6b04	-0.025197513
209	0xbc626aad	-0.013819379
210	0x3d35f992	0.044427462
211	0x3c85254e	0.01625314
212	0x3c181d07	0.009284264
213	0xbcadf675	-0.021235684
214	0xbce9cf24	-0.028541155
215	0x3cd39569	0.02582808
216	0xbc0de7a1	-0.008661182
217	0xbb4b1f9d	-0.0030994185
218	0x3ca35b4a	0.019940991
219	0xbc355316	-0.0110671725
220	0xbd0a535a	-0.033770896
221	0xbc9901db	-0.018677643
222	0x3d320b5c	0.043467864
223	0xbd41c8ec	-0.047310755
224	0xbc060f78	-0.008182399
225	0x3d09c877	0.033638444
226	0x3c3721fa	0.011177534
227	0x3d12e3c8	0.03586176
228	0x3d50925e	0.050920837
229	0x3ce13890	0.027492791
230	0xbcb365a6	-0.021899056
231	0xbc90a558	-0.017656967
232	0xbcb72d2f	-0.022360412
233	0x3c568381	0.013092876
234	0xbc86d37b	-0.016458264
235	0x3c56eade	0.01311752
236	0xbbb3c896	-0.005486558
237	0xbb85b66b	-0.004080584
238	0x3c76f393	0.015072721
239	0xbd06d6db	-0.032919746
240	0xbcd04268	-0.02542229
241	0x3cd48804	0.025943764
242	0xbc3902fd	-0.011292216
243	0xbcca9362	-0.02472848
244	0xbc62f5ee	-0.0138525795
245	0xbd372a9d	-0.044718374
246	0x3d868dac	0.065699905
247	0xbc2f66a0	-0.01070562
248	0xbccb3ab2	-0.024808262
249	0xbba6da3a	-0.0050919326
250	0x3c5dd3cc	0.013539266
251	0x3cf012ab	0.029305777
252	0x3d3071ac	0.043077156
253	0x3cb0688c	0.021534227
254	0xbd80f5f2	-0.0629691
255	0xbc666b18	-0.014063619
