Nicola_Dainese_Ex4_NN/params/net_params_1.pth (torch_old, 200219 bytes, 18 tensors)

encoder_cnn.0.weight f4 [8, 1, 3, 3]
6.506748e-16 -1.7965601e-14 2.9430308e-15 1.8346873e-15 -4.570946e-15 -3.4354547e-15 -8.099796e-17 3.0815912e-15
2.3725094e-16 -0.04424762 -0.06767247 -0.0882314 -0.03292494 -0.05786024 -0.084767 -0.033525713
-0.05389487 -0.095886774 -0.05126819 -0.08013431 -0.10168326 -0.035775006 -0.06828427 -0.098777965
-0.038196143 -0.06433798 -0.11016952 0.24051411 0.28559196 0.24919789 0.2855544 0.3384771
0.29811546 0.28502166 0.31678936 0.26584855 -0.05143901 -0.082253225 -0.10302284 -0.036519986
-0.06934441 -0.09798643 -0.037209168 -0.063586466 -0.10719568 0.3729076 0.44679877 0.37825045
0.45682615 0.5349206 0.45954964 0.45773265 0.49653617 0.42241386 7.4294106e-11 2.8382631e-11
5.2765733e-11 2.2344805e-11 4.571186e-12 5.7986456e-11 9.085201e-12 2.8648191e-11 7.126951e-11 0.34374794
0.41456088 0.3583523 0.43185285 0.50931966 0.43914863 0.438102 0.47600603 0.40263
00000000: 538b 3b26 dbd1 a1a8 5611 5427 0234 0427
00000010: 89af a4a7 f48c 77a7 c2c4 baa4 530d 5e27
00000020: 0fc4 8825 fe3c 35bd dd97 8abd aab2 b4bd
00000030: 4ddc 06bd dcfe 6cbd 529a adbd 4252 09bd
00000040: dec0 5cbd 4960 c4bd 98fe 51bd 751d a4bd
00000050: 503f d0bd d088 12bd a0d8 8bbd 1a4c cabd
00000060: 8f73 1cbd a1c3 83bd 8fa0 e1bd 5549 763e
00000070: 1c39 923e bb2d 7f3e 3034 923e df4c ad3e
00000080: 97a2 983e 5cee 913e 3732 a23e 4d1d 883e
00000090: b6b1 52bd 6174 a8bd a4fd d2bd fb95 15bd
000000a0: 7104 8ebd 1cad c8bd a468 18bd 9f39 82bd
000000b0: 6989 dbbd bfed be3e cfc2 e43e 0baa c13e
000000c0: 1ee5 e93e 8ef0 083f 174a eb3e ef5b ea3e
000000d0: fd39 fe3e a146 d83e dd5f a32e 01a8 f92d
000000e0: ef10 682e 078c c42d 95d5 a02c f206 7f2e
000000f0: 1cd4 1f2d fefd fb2d 2bb9 9c2e bbff af3e
00000100: 5341 d43e f479 b73e d11b dd3e c662 023f
00000110: 17d8 e03e e84e e03e 10b7 f33e 8525 ce3e

encoder_cnn.0.bias f4 [8]
-1.426264e-09 0.39189073 0.45059457 0.001130092 0.45611644 6.631107e-05 -3.4634358e-08 0.00087636407
00000000: 3406 c4b0 e7a5 c83e 55b4 e63e 981f 943a
00000010: 1888 e93e 7c10 8b38 e1c0 14b3 ccbb 653a

encoder_cnn.3.weight f4 [16, 8, 3, 3]
2.9395265e-22 4.1833122e-22 1.1588291e-21 -8.085587e-22 -2.6643318e-21 3.725161e-21 -1.6243316e-21 4.47644e-22
2.6341331e-23 3.78092e-11 -6.6101395e-11 -4.343691e-10 2.0802385e-10 -3.649547e-10 -4.45964e-10 1.4532786e-10
-6.826159e-10 -6.025654e-10 3.234506e-11 4.364453e-11 1.8359358e-10 -7.5578536e-11 -3.3940564e-10 -4.2692944e-10
-1.9750213e-10 -9.835458e-10 -6.2212435e-10 -3.4296582e-10 -1.3619104e-09 -1.78072e-09 -1.2145535e-09 -1.1588216e-10
7.478616e-10 -3.0755087e-10 1.7364761e-09 1.5142034e-09 1.4166682e-10 1.0553815e-11 -7.178422e-11 7.885495e-11
-4.378007e-10 -4.733786e-10 -7.5236914e-11 -8.5558177e-10 -6.760217e-10 -2.4317022e-09 -4.429857e-09 -2.8398666e-09
-3.4025092e-09 -3.7156296e-09 2.0601956e-09 -3.0863019e-09 1.1915522e-09 2.6451368e-09 3.7042233e-17 -2.906433e-17
-2.7383923e-17 -2.9748452e-17 3.8360878e-17 3.1531625e-17 -2.298136e-17 3.7437397e-17 2.6404838e-17 -2.2979385e-09
-4.418964e-09 -3.0555822e-09 -2.9240628e-09 -3.942429e-09 1.4655525e-09 -3.2240384e-09 1.3812626e-10 2.4050357e-09
-1.14654016e-17 2.1560691e-17 1.073144e-17 2.123346e-17 -3.0505524e-17 -3.3599322e-18 4.810513e-18 -1.5637985e-17
-2.0334493e-17 0.004005314 0.009517169 0.015718607 -0.026056672 -0.013663007 0.011947731 -0.0455406
-0.022061935 0.009994722 0.007854227 0.00857599 0.019468151 -0.02648806 -0.017183078 0.013496041
-0.050647113 -0.022453662 0.01141422 -0.018815475 -0.0068779932 -0.03469236 0.13153331 0.12575355
-0.009139582 0.23431379 0.17604387 0.020426791 0.01018368 0.008896803 0.019568434 -0.026317863
-0.017281944 0.0141438395 -0.054837953 -0.024501657 0.014710255 -0.041637175 -0.020736208 -0.05251126
0.20276266 0.196271 -0.03796491 0.36585608 0.3053381 0.029974569 -1.9080692e-11 -9.2957005e-12
8.58575e-13 -2.6568707e-11 1.17337745e-11 -1.885256e-11 -1.5952791e-11 -2.3809581e-11 -4.1539203e-11 -0.049958717
-0.015226721 -0.042640954 0.20320283 0.17796578 -0.0064640716 0.33634132 0.27052358 0.04171003
1.2240925e-22 1.7429063e-22 -6.069165e-22 -8.834128e-24 -3.3280416e-22 3.0901949e-22 -3.8558322e-22 -1.4977977e-23
-2.2789439e-23 -1.6439064e-10 -1.577318e-10 -1.5271207e-10 -1.9618536e-10 -2.0820604e-10 -1.8661327e-10 -2.1306971e-10
-2.2262159e-10 -1.9886555e-10 -1.4999994e-10 -1.3983435e-10 -1.3481331e-10 -1.6763098e-10 -1.8179984e-10 -1.763796e-10
-1.7155367e-10 -1.7415018e-10 -1.6568757e-10 -6.400197e-11 -2.6191459e-11 6.038964e-12 -5.596166e-11 2.270529e-11
1.0212872e-10 -6.400449e-11 3.2073625e-12 -3.6896403e-11 -1.4065825e-10 -1.6683625e-10 -1.3821828e-10 -1.6549166e-10
-1.9447453e-10 -1.6743142e-10 -1.8510489e-10 -2.0912039e-10 -1.6474383e-10 -5.4847214e-11 2.7361096e-11 1.0775874e-10
-5.3940852e-11 -5.0078292e-12 -6.1463573e-12 -8.737982e-11 -4.1976478e-11 -1.5522868e-11 1.8079866e-19 2.5602644e-19
-1.413453e-19 6.151487e-20 4.188788e-20 9.594958e-20 2.990891e-20 3.8099144e-20 -3.096746e-20 -5.950886e-11
3.0779906e-11 9.6755874e-11 -5.976908e-11 1.1413211e-12 -6.3644767e-12 -7.8501476e-11 -3.8060558e-11 -2.9293117e-11
4.5518002e-17 5.0190054e-17 -1.9135503e-17 1.0657384e-17 1.294999e-17 -2.78415e-17 1.35694116e-17 1.493388e-17
2.0711643e-17 -0.031016538 -0.018532783 -0.001802811 -0.04290628 -0.021919353 -0.009237252 0.0002648221
0.017878247 0.023635881 -0.03282312 -0.019508826 -0.0023382537 -0.046973128 -0.025884949 -0.0106259715
0.0016830534 0.021961771 0.02397317 0.16777702 0.14836754 0.03045062 0.22500233 0.14747266
0.04083246 0.035285685 -0.02780732 -0.07154689 -0.03585797 -0.020705009 -0.0024594576 -0.050346844
00000000: f8ae b11b 9fdd fc1b 081e af1c 335f 749c
00000010: ac4f 499d 8cbb 8c1d 4976 f59c c74a 071c
00000020: fac1 fe19 6049 262e c75b 91ae 04cc eeaf
00000030: 82b9 642f cfa2 c8af da2b f5af 28ca 1f2f
00000040: d3a2 3bb0 c5a1 25b0 4d41 0e2e 5ff3 3f2e
00000050: 00dd 492f ef32 a6ae 1997 baaf fab4 eaaf
00000060: e827 59af 712d 87b0 1c02 2bb0 268c bcaf
00000070: f62d bbb0 84bd f4b0 4ded a6b0 dbd3 feae
00000080: 1592 4d30 f013 a9af d2a8 ee30 4c1c d030
00000090: aac3 1b2f 28aa 392d ecda 9dae 6467 ad2e
000000a0: f9ae f0af 0f1f 02b0 9e72 a5ae 372e 6bb0
000000b0: ccd2 39b0 f51a 27b1 6f35 98b1 7627 43b1
000000c0: 93d1 69b1 0c56 7fb1 5893 0d31 cc16 54b1
000000d0: 04c4 a330 bdc5 3531 c0d3 2a24 1b09 06a4
000000e0: 7692 fca3 c630 09a4 88e8 3024 f969 1124
000000f0: 34f7 d3a3 47a6 2c24 a98a f323 c3e9 1db1
00000100: 9ed5 97b1 5ffa 51b1 a8f0 48b1 f975 87b1
00000110: 8b6c c930 e28d 5db1 16df 172f d645 2531
00000120: d47f 53a3 bedc c623 cbf5 4523 17d8 c323
00000130: 91ae 0ca4 53eb 77a2 037a b122 263c 90a3
00000140: 778d bba3 023f 833b e6ed 1b3c 4fc4 803c
00000150: cd74 d5bc ceda 5fbc 6ac0 433c c888 3abd
00000160: 3bbb b4bc e7c0 233c 04af 003c 4f82 0c3c
00000170: ac7b 9f3c 7dfd d8bc 87c3 8cbc 801e 5d3c
00000180: 5973 4fbd bef0 b7bc b502 3b3c e922 9abc
00000190: ca60 e1bb 9319 0ebd abb0 063e 8ac5 003e
000001a0: 2fbe 15bc f4ef 6f3e d844 343e 1656 a73c
000001b0: 73d9 263c e5c3 113c fb4d a03c 8f98 d7bc
000001c0: dd92 8dbc 90bb 673c c39d 60bd b3b7 c8bc
000001d0: 4803 713c be8b 2abd fbde a9bc 0c16 57bd
000001e0: 04a1 4f3e 44fb 483e 1881 1bbd 7d51 bb3e
000001f0: 4755 9c3e 3a8d f53c e6d5 a7ad 1d88 23ad
00000200: d9aa 712b 69b3 e9ad 396c 4e2d 31d4 a5ad
00000210: 7e52 8cad 696e d1ad fcb0 36ae 83a1 4cbd
00000220: 7f79 79bc 48a8 2ebd 6714 503e a93c 363e
00000230: 90d0 d3bb ee34 ac3e 1182 8a3e 23d8 2a3d
00000240: d4fb 131b 56b4 521b e46d 379c 7ce0 2a99
00000250: f32a c99b 73ca ba1b 1d12 e99b addb 9099
00000260: eb67 dc99 dabf 34af 8e6d 2daf a0e8 27af
00000270: 45b5 57af caec 64af f72e 4daf cb45 6aaf
00000280: 68c6 74af ada7 5aaf 3bed 24af dfbf 19af
00000290: 933a 14af ed4f 38af 1be4 47af 72ee 41af
000002a0: 11a0 3caf eb7a 3faf e82c 36af e8bd 8cae
000002b0: ec61 e6ad 277a d42c 3a1f 76ae c5b7 c72d
000002c0: 5c95 e02e 53bf 8cae b5b2 612c a845 22ae
000002d0: c7a7 1aaf 3b70 37af fdf8 17af c3f5 35af
000002e0: b7d3 55af c117 38af 6586 4baf 28ee 65af
000002f0: 4423 35af 7938 71ae b6ab f02d c7f6 ec2e
00000300: 003c 6dae 8432 b0ac 7741 d8ac 7726 c0ae
00000310: 509d 38ae 648a 88ad 0b73 5520 9f21 9720
00000320: ffde 26a0 753f 911f 57cf 451f f68d e21f
00000330: a73d 0d1f 0aeb 331f 5d3d 129f 83dc 82ae
00000340: 185f 072e b7c4 d42e 006f 83ae 6da0 a02b
00000350: 1cee dfac 67a0 acae 6164 27ae 1ed5 00ae
00000360: 2cea 5124 f575 6724 6e7e b0a3 1398 4423
00000370: 99e2 6e23 7165 00a4 bc4f 7a23 a1bd 8923
00000380: fc07 bf23 6516 febc 10d2 97bc 4d4c ecba
00000390: 7fbe 2fbd 3790 b3bc d857 17bc d2d7 8a39
000003a0: 6775 923c 09a0 c13c 8971 06bd f9d0 9fbc
000003b0: 633d 19bb e566 40bd ac0c d4bc 8e18 2ebc
000003c0: e799 dc3a 2ce9 b33c 6263 c43c bdcd 2b3e
000003d0: a9ed 173e 9473 f93c 0367 663e 1303 173e
000003e0: f03f 273d b987 103d 2dcc e3bc 2d87 92bd
000003f0: cfdf 12bd 8d9d a9bc da2e 21bb 7e38 4ebd

encoder_cnn.3.bias f4 [16]
-2.8824262e-08 0.025732031 -3.133215e-10 0.0149940755 0.15030065 0.17195703 0.017093547 0.12935983
0.06488281 0.11359596 0.14839584 0.023997802 -0.00030328182 0.030188918 -3.6499184e-09 0.14266427
00000000: 3999 f7b2 fbcb d23c 1540 acaf b6a9 753c
00000010: 6ae8 193e 8115 303e c407 8c3c e776 043e
00000020: 47e1 843d 00a5 e83d 14f5 173e 0a97 c43c
00000030: cc01 9fb9 c04e f73c 0bd2 7ab1 9516 123e

encoder_cnn.6.weight f4 [32, 16, 3, 3]
1.5189688e-10 1.1824355e-09 4.3632872e-10 -7.716888e-10 6.558013e-11 -1.9728277e-10 -6.856608e-10 -6.133425e-10
-8.264552e-11 -0.040452417 -0.05627069 0.026151141 0.0042220396 0.056015115 -0.025717007 0.02454779
-0.026056873 -0.050255302 4.9846446e-11 3.0233736e-11 -5.571281e-12 -4.5989085e-14 -1.495995e-11 2.7020962e-11
5.6116847e-12 -4.038713e-11 -5.874787e-11 -0.057647724 -0.005483135 0.091826096 -0.043109138 0.0023513937
0.030224016 0.026130201 0.01951717 -0.07187029 0.006437304 -0.0060451073 0.046998058 -0.0064977147
-0.019873103 0.019330898 -0.013429629 0.020321824 -0.05530923 0.011075634 -0.005174428 0.041062273
-0.002988315 -0.01547796 0.027342467 -0.0056683957 0.022659281 -0.053566 -0.06735908 0.04443336
0.038459968 -0.066478975 0.05422288 -0.032404564 0.029152662 -0.04963216 0.010199952 0.008097235
-0.0062940517 0.054130882 -0.005548479 -0.015158416 0.026364964 -0.009792795 0.011073336 -0.06126878
0.00016556235 -0.0012636356 0.014678392 -0.00080584845 -0.0032828834 0.0075089997 -0.007414565 0.0077100443
-0.015924169 0.0029067665 -0.0035093883 0.035635937 -0.002322575 -0.007648024 0.018495835 -0.009866973
0.012754302 -0.041263238 0.007209584 -0.0053543937 0.042697564 -0.0018347511 -0.012574151 0.027521636
-0.012302515 0.01683314 -0.061018288 -0.07719574 0.040476233 0.0071607963 -0.050885987 0.06627638
-0.048973624 0.028900864 -0.08421198 0.055790253 -2.9210229e-05 1.6189599e-05 1.1942919e-05 -2.073889e-05
-7.813998e-06 -5.1669856e-05 -2.8651266e-05 -0.00010860303 -0.00011027675 -0.006471102 -0.0028337014 0.03345122
-2.272014e-05 -0.010133978 0.016470065 -0.00058068795 0.004379126 -0.027234979 -6.086227e-10 -3.0261578e-09
-4.3814605e-09 -9.981567e-11 -6.0028964e-09 -4.4853445e-09 -4.6642747e-09 5.7768573e-10 1.7217995e-09 0.007513014
-0.0052826824 0.056082588 -0.005320793 -0.019241946 0.031016558 -0.011041849 0.020138085 -0.06602848
1.1269926e-16 1.1469709e-18 2.2220257e-17 -4.2111917e-17 -9.185249e-19 1.0773643e-17 7.37999e-18 -2.7791281e-18
-2.5588948e-17 3.2620942e-08 -9.744085e-09 2.1842311e-08 2.293295e-08 2.9949607e-09 1.5132308e-08 -7.948064e-08
-1.838002e-08 2.2087079e-08 2.469896e-16 3.4989372e-16 1.7557078e-16 1.914041e-16 2.9292113e-17 -7.167442e-17
1.2506437e-16 -3.011247e-17 -6.7624e-17 -2.906776e-07 -6.5765e-08 -1.2402657e-07 -1.476893e-07 -3.062796e-08
1.3468375e-08 -1.5068208e-07 -2.345978e-08 7.690163e-09 2.3028892e-07 8.598193e-08 6.016532e-08 9.16276e-08
-8.3012885e-08 -4.5790998e-08 2.5089105e-07 -8.076156e-08 -9.943595e-09 3.7479303e-08 -1.8501833e-09 -1.16897905e-08
-5.840514e-08 -1.5807673e-07 -1.5886937e-07 1.6544393e-09 -1.2069924e-07 -8.9877815e-08 -2.3515925e-07 -2.6534703e-08
-2.730053e-07 -1.27298e-07 -8.7974446e-09 -2.7177371e-08 -1.0522062e-07 -3.0949263e-08 -1.1753128e-07 3.126202e-07
1.0663591e-07 6.353496e-08 1.14337254e-07 -7.565285e-08 -4.812728e-08 3.770951e-07 -1.095607e-07 -1.7850398e-08
3.3276862e-08 3.2127332e-08 1.3556878e-08 2.3094751e-08 4.491098e-09 5.028159e-09 2.3872197e-08 4.0361354e-09
5.9121206e-09 1.7305793e-07 1.2856616e-07 9.462642e-08 1.164107e-07 3.4762664e-09 1.3600874e-08 1.8119101e-07
5.799796e-08 4.8595226e-08 2.1481388e-07 7.395125e-08 5.0387168e-08 6.100864e-08 -1.07801455e-07 -8.690037e-08
1.43033e-07 -1.1227408e-07 -3.1516944e-08 -1.7778399e-07 -1.31848985e-08 -3.0975198e-07 -1.1474188e-07 -3.7236076e-09
-4.031113e-08 -9.6946e-08 -3.9306656e-08 -1.483671e-07 4.5212287e-10 1.0152105e-09 1.1351944e-09 7.576454e-10
00000000: 2c03 272f 4083 a230 cfdf ef2f c61e 54b0
00000010: 5536 902e 2aea 58af 1779 3cb0 2498 28b0
00000020: 4bbd b5ae 6fb1 25bd 187c 66bd eb3a d63c
00000030: 0959 8a3b 1b70 653d 79ac d2bc 7218 c93c
00000040: 3975 d5bc 81d8 4dbd 1c3a 5b2e 29f8 042e
00000050: a305 c4ac ce1d 4fa9 d096 83ad ccad ed2d
00000060: 9071 c52c de9f 31ae 1c30 81ae 0520 6cbd
00000070: dfab b3bb 520f bc3d 3593 30bd d719 1a3b
00000080: 5b98 f73c 010f d63c 79e2 9f3c bb30 93bd
00000090: 05f0 d23b 0916 c6bb 0981 403d c8ea d4bb
000000a0: ebcc a2bc d55b 9e3c f207 5cbc f479 a63c
000000b0: ee8b 62bd 9376 353c 408e a9bb ea30 283d
000000c0: 9bd7 43bb 4597 7dbc 4ffd df3c f3bd b9bb
000000d0: f59f b93c 0668 5bbd 8ff3 89bd c1ff 353d
000000e0: 3388 1d3d 2126 88bd d018 5e3d a6ba 04bd
000000f0: 90d1 ee3c 184b 4bbd b31d 273c 44aa 043c
00000100: 553e cebb 58b8 5d3d 04d0 b5bb 015b 78bc
00000110: 56fb d73c f671 20bc f06c 353c f9f4 7abd
00000120: ce9a 2d39 93a0 a5ba a37d 703c 933f 53ba
00000130: a525 57bb 0e0e f63b e1f5 f2bb 8aa4 fc3b
00000140: 6773 82bc 737f 3e3b c4fd 65bb fdf6 113d
00000150: 5836 18bb 469c fabb 9484 973c 16a9 21bc
00000160: 6bf7 503c a403 29bd 603e ec3b e973 afbb
00000170: a4e3 2e3d 087c f0ba d003 4ebc 0e75 e13c
00000180: 7d90 49bc a7e5 893c 50ee 79bd cd18 9ebd
00000190: 68ca 253d 1da5 ea3b d36d 50bd e9bb 873d
000001a0: 9198 48bd 81c1 ec3c 5577 acbd 5284 643d
000001b0: 7d08 f5b7 e6ce 8737 725e 4837 6df8 adb7
000001c0: de18 03b7 16b8 58b8 2058 f0b7 cfc1 e3b8
000001d0: 6144 e7b8 8a0b d4bb 9fb5 39bb 2504 093d
000001e0: 2197 beb7 fc08 26bc 3bec 863c 4f39 18ba
000001f0: c57e 8f3b e41b dfbc 044c 27b0 bbf4 4fb1
00000200: bc8b 96b1 3a7f dbae 0942 ceb1 821d 9ab1
00000210: 6543 a0b1 05cb 1e30 6fa4 ec30 bb2f f63b
00000220: 5a1a adbb dbb6 653d 0c5a aebb 49a1 9dbc
00000230: 7016 fe3c dfe8 34bc a0f8 a43c f139 87bd
00000240: f3ee 0125 5643 a921 19f2 cc23 fa34 42a4
00000250: e48c 87a1 17bd 4623 0423 0823 3f10 4da2
00000260: 3204 eca3 1b1b 0c33 f066 27b2 c09f bb32
00000270: 17fe c432 e8cf 4d31 4cfc 8132 f2ae aab3
00000280: 17e2 9db2 00ba bd32 3b61 8e25 33b3 c925
00000290: 596b 4a25 85ac 5c25 0616 0724 1c45 a5a4
000002a0: 7d30 1025 88de 0aa4 2aee 9ba4 6d0e 9cb4
000002b0: b13a 8db3 2a2c 05b4 8794 1eb4 cc8b 03b3
000002c0: 8a62 6732 2dcb 21b4 9a84 c9b2 b21d 0432
000002d0: 5645 7734 11a5 b833 3c34 8133 cec4 c433
000002e0: d144 b2b3 bcab 44b3 34b2 8634 236f adb3
000002f0: 65d4 2ab2 eef8 2033 8a49 feb0 3ed4 48b2
00000300: 21d9 7ab3 cdbb 29b4 ae95 2ab4 6862 e330
00000310: 8e99 01b4 da02 c1b3 1580 7cb4 6eee e3b2
00000320: 9091 92b4 68af 08b4 9223 17b2 ac73 e9b2
00000330: a6f5 e1b3 13ed 04b3 8165 fcb3 31d6 a734
00000340: b6ff e433 b770 8833 9289 f533 9876 a2b3
00000350: 81b4 4eb3 8e73 ca34 a247 ebb3 7155 99b2
00000360: 4cec 0e33 60fc 0933 c8e7 6832 e561 c632
00000370: 1e50 9a31 27c4 ac31 840f cd32 39ae 8a31
00000380: 9023 cb31 cdd1 3934 ff0b 0a34 6d35 cb33
00000390: 76fd f933 20e3 6e31 47a9 6932 688d 4234
000003a0: 6e19 7933 04b7 5033 97a7 6634 21cf 9e33
000003b0: 4769 5833 db03 8333 7a80 e7b3 fc9d bab3
000003c0: 9d94 1934 541b f1b3 3f5d 07b3 e4e4 3eb4
000003d0: cc83 62b2 fd4b a6b4 0468 f6b3 66e2 7fb1
000003e0: 8e22 2db3 a130 d0b3 20d2 28b3 d74e 1fb4
000003f0: a38e f82f 8b87 8b30 1a05 9c30 8e42 5030

encoder_cnn.6.bias f4 [32]
0.0077739167 -2.581665e-07 -4.7800594e-16 0.058082193 0.10501083 -3.3461275e-11 -0.0037783869 0.01731195
5.231508e-16 0.033784743 0.0020589558 -3.195823e-05 -0.008031079 0.016690768 0.034948844 -5.5465037e-08
0.057237793 0.0252217 -0.01624327 -0.015395745 -0.0032648025 0.0328018 -3.049617e-06 0.026324041
-3.9561815e-10 0.011233737 0.004665297 0.05483658 -0.0017978373 0.01612444 -0.0232641 -1.333418e-05
00000000: 57bc fe3b 229a 8ab4 9dc6 09a6 98e7 6d3d
00000010: eb0f d73d 0c2a 13ae d09e 77bb cad1 8d3c
00000020: b7c9 1626 df61 0a3d 8cef 063b e30a 06b8
00000030: c994 03bc 14bb 883c 8526 0f3d 7438 6eb3
00000040: 2d72 6a3d bd9d ce3c 9b10 85bc 6f3e 7cbc
00000050: 4cf6 55bb 2e5b 063d 05a8 4cb6 84a5 d73c
00000060: 4e7e d9af b50d 383c 59df 983b 529c 603d
00000070: 69a5 ebba 6717 843c 5b94 bebc deb5 5fb7

encoder_lin.0.weight f4 [64, 288]
1.6379767e-05 2.2739678e-05 8.2353135e-06 -1.2802132e-05 -2.828364e-05 1.842321e-05 -8.418859e-06 5.6882778e-05
1.4798243e-05 -6.5140883e-13 -1.3621554e-12 5.4313732e-12 -1.3088609e-12 1.9071828e-13 -3.2645785e-13 1.065202e-12
5.295647e-13 -2.6632502e-13 1.7791067e-19 -2.7990144e-20 -1.1128796e-20 -2.3802345e-20 3.2668246e-31 4.9960795e-22
-1.1826191e-19 4.714809e-21 -2.4642108e-21 -8.948878e-06 -1.7534086e-06 -3.1012478e-05 -1.9406294e-05 1.4061262e-06
-0.00011227889 -2.0624117e-05 -1.9715317e-06 -0.00010230159 -5.947108e-05 -3.0851934e-05 -5.425221e-05 -3.4003537e-05
1.9036652e-06 -6.7692854e-05 -3.647926e-05 4.2172607e-05 -3.8567996e-05 2.4823008e-15 3.00388e-40 -2.2954993e-16
-9.954896e-16 3.40209e-40 6.7585214e-18 -2.7387794e-06 -2.8760315e-35 -1.3631193e-15 -2.5070643e-09 4.6364054e-08
2.0618354e-06 1.2246893e-06 1.2221119e-07 -2.2690547e-06 1.3767307e-06 1.3879117e-06 -7.665302e-07 -9.30294e-06
1.9371746e-06 -1.4459869e-05 3.792404e-05 -9.0428744e-05 -5.3329783e-05 -2.025339e-06 -1.0998165e-05 -0.00014504774
1.0451669e-17 3.2159135e-25 -1.5180927e-18 2.2572783e-18 1.278779e-25 3.6861944e-24 2.2079194e-18 -4.5480312e-24
-3.3024576e-19 -1.65689e-05 -3.5171977e-06 -6.722174e-06 -1.3267382e-05 1.4953264e-07 -8.602973e-06 -1.303479e-05
3.9963365e-06 -1.4824426e-06 9.601472e-06 -1.316396e-06 -3.479339e-05 1.7556213e-05 1.6227304e-07 -4.7930913e-05
-8.805333e-06 -7.179205e-06 -4.6280486e-05 1.8614196e-08 2.174565e-08 1.9708322e-07 -2.3178954e-08 2.4838107e-08
1.0869405e-08 -6.2579972e-09 -2.0717945e-08 -2.842317e-09 4.398966e-06 -6.1739447e-06 6.822846e-06 3.5599092e-05
3.78257e-05 5.921644e-06 -7.6274085e-07 -5.4817305e-05 -2.9380672e-05 -6.6344866e-05 -9.6315074e-05 3.478046e-06
-5.0733415e-05 -4.57846e-05 1.8038693e-06 -4.0360184e-05 -0.000110972105 1.6928425e-07 -1.5535788e-05 -8.133179e-06
-6.554649e-05 -1.3940817e-05 -1.3275829e-05 -6.0090442e-06 -2.3334702e-05 -1.1155398e-05 -8.3104965e-08 5.7224308e-12
4.6337126e-13 -2.0729397e-12 -1.8825674e-11 2.8747526e-13 7.644665e-12 -7.2412996e-12 1.8968967e-12 1.1163132e-11
-2.100889e-05 1.8102639e-05 -4.6255227e-06 -4.5927914e-06 -2.2457185e-05 5.698003e-06 -3.850945e-05 1.09691855e-05
4.4842936e-06 -2.6763707e-06 -3.698658e-05 -6.1515195e-05 1.1825276e-05 1.978606e-06 -6.652703e-05 1.655029e-05
4.0894893e-06 -9.76581e-06 2.190945e-06 -3.6867077e-05 2.5078592e-07 -3.239038e-05 0.00045891627 -6.0496997e-05
-3.711968e-05 -0.00043521854 -0.00080922793 2.5706282e-08 -4.0465676e-07 1.1615572e-05 1.8406827e-05 -9.0061053e-07
-1.3537805e-05 -6.6155285e-06 7.063573e-06 -2.9958172e-05 -4.1100197e-08 -1.2333199e-07 9.5058894e-08 -5.191435e-09
1.8030306e-07 -1.0167416e-08 -1.9614582e-07 4.4341736e-08 1.119095e-07 -3.255034e-05 -4.8667625e-06 -9.150386e-06
-3.7521145e-06 -2.9343387e-06 -2.4884284e-06 -1.6804364e-05 -1.1231521e-06 -6.7639576e-06 -2.370342e-10 -1.5348273e-10
1.5106151e-10 1.1199115e-10 -1.5126286e-09 -2.035575e-10 -1.0024077e-09 -2.585851e-09 -5.704298e-11 -5.850228e-06
-5.4641635e-07 -3.1400796e-05 -1.4223153e-05 9.819489e-07 -2.1522666e-05 -1.4782553e-05 3.159506e-06 -2.0236472e-05
5.57252e-14 -1.8301896e-15 -2.9599455e-16 -7.902154e-15 -9.923565e-20 -5.356535e-37 -1.13000836e-13 3.8138438e-15
-1.0059689e-14 -3.3130193e-05 -2.8784982e-08 -2.361771e-07 -0.00013132575 5.243984e-05 1.3157841e-05 -0.00013486427
-0.0003295611 -1.1323149e-05 -5.01952e-07 3.7113753e-07 -7.2244137e-07 5.0143844e-06 9.730888e-08 -4.7544413e-06
3.2014045e-06 2.011462e-06 4.1672943e-06 -1.4865557e-05 -3.0863274e-07 -1.1976551e-05 -9.577048e-05 -1.5805508e-05
3.8660964e-06 -1.7009728e-05 4.96586e-06 -3.0548887e-05 1.7562073e-08 -4.1310524e-09 -7.905232e-09 1.2360276e-07
00000000: 4867 8937 16c1 be37 672a 0a37 bdc8 56b7
00000010: a842 edb7 8b8b 9a37 b93e 0db7 6b95 6e38
00000020: f845 7837 f45a 37ab d2b4 bfab 7619 bf2c
00000030: af34 b8ab cdba 562a 89c7 b7aa f2e9 952b
00000040: 280f 152b 7bed 95aa 330a 5220 022e 049f
00000050: 8e37 529e 8ace e09e 6f07 d40c 4bff 161c
00000060: 789e 0ba0 d61e b21d c530 3a9d 2323 16b7
00000070: a956 ebb5 6513 02b8 b3ca a2b7 21ba bc35
00000080: 4577 ebb8 f401 adb7 a84e 04b6 bf8a d6b8
00000090: 9670 79b8 0367 01b8 de8c 63b8 059f 0eb8
000000a0: 7081 ff35 53f6 8db8 4f01 19b8 7ee2 3038
000000b0: 12c4 21b8 5ede 3227 5c45 0300 9753 84a5
000000c0: 1577 8fa6 5db4 0300 6e58 f922 dfcb 37b6
000000d0: 83ea 1886 3a72 c4a6 be48 2cb1 d121 4733
000000e0: 105e 0a36 0160 a435 2839 0334 1046 18b6
000000f0: 1bc8 b835 4848 ba35 8ec3 4db5 d313 1cb7
00000100: 6800 0236 aa98 72b7 a110 1f38 90a4 bdb8
00000110: 6bae 5fb8 0feb 07b6 c284 38b7 f517 18b9
00000120: 9dcc 4023 2f0e c716 ec07 e0a1 c88e 2622
00000130: 204e 1e16 4d9a 8e18 6bea 2222 85f1 af98
00000140: 54f1 c2a0 71fd 8ab7 ff08 6cb6 098f e1b6
00000150: f996 5eb7 388f 2034 7d55 10b7 ffaf 5ab7
00000160: 4518 8636 57f8 c6b5 0216 2137 06af b0b5
00000170: 1eef 11b8 ae45 9337 463d 2e34 6d09 49b8
00000180: 9eba 13b7 e7e4 f0b6 4b1d 42b8 0de5 9f32
00000190: 31cb ba32 d39d 5334 0f1b c7b2 935b d532
000001a0: 26bc 3a32 ed05 d7b1 3ef7 b1b2 9252 43b1
000001b0: d59a 9336 c829 cfb6 cdef e436 3c50 1538
000001c0: 09a7 1e38 89b2 c636 27bf 4cb5 a2eb 65b8
000001d0: 8376 f6b7 a122 8bb8 c3fc c9b8 6068 6936
000001e0: 97ca 54b8 d708 40b8 7a1c f235 6b48 29b8
000001f0: b2b9 e8b8 80c4 3534 da52 82b7 bd73 08b7
00000200: 0176 89b8 5ae3 69b7 40bb 5eb7 4ca1 c9b6
00000210: e4be c3b7 1228 3bb7 7077 b2b3 1357 c92c
00000220: 6b6d 022b c3de 11ac a697 a5ad 8dd5 a12a
00000230: 837c 062d d4c7 feac 747b 052c 4762 442d
00000240: 3f3c b0b7 1fdb 9737 f034 9bb6 c71b 9ab6
00000250: 7062 bcb7 7931 bf36 3585 21b8 4b08 3837
00000260: ca77 9636 b39b 33b6 0a22 1bb8 b801 81b8
00000270: 2c65 4637 31c8 0436 6d84 8bb8 7ad5 8a37
00000280: 7238 8936 d6d7 23b7 2608 1336 b9a1 1ab8
00000290: c1a3 8634 e8da 07b8 b39a f039 28be 7db8
000002a0: f4b0 1bb8 0b2e e4b9 5e22 54ba b6d0 dc32
000002b0: 9a3f d9b4 80e0 4237 5c68 9a37 7cc1 71b5
000002c0: 6e20 63b7 f5fa ddb6 a103 ed36 af4e fbb7
000002d0: 2586 30b3 3d6d 04b4 2e23 cc33 5860 b2b1
000002e0: 5499 4134 c5ac 2eb2 279c 52b4 4172 3e33
000002f0: e652 f033 a986 08b8 2c4d a3b6 9c84 19b7
00000300: d6cc 7bb6 8eeb 44b6 e0fe 26b6 19f7 8cb7
00000310: 36bf 96b5 f4f5 e2b6 994f 82af 8cc1 28af
00000320: 0918 262f 6a45 f62e e3e4 cfb0 58d0 5faf
00000330: 16c5 89b0 c6b2 31b1 b0e0 7aae 134d c4b6
00000340: 72ad 12b5 59b4 03b8 fa9f 6eb7 82cb 8335
00000350: 938b b4b7 9502 78b7 e607 5436 7ec1 a9b7
00000360: c8f6 7a29 0ae1 03a7 16a1 aaa5 415a 0ea8
00000370: 4550 ea9f 0046 3683 8c74 fea9 8068 8927
00000380: 2138 35a8 46f5 0ab8 d842 f7b2 de97 7db4
00000390: 7db4 09b9 d9f2 5b38 7fc0 5c37 5a6a 0db9
000003a0: f1c8 acb9 8ef8 3db7 e1bd 06b5 c140 c734
000003b0: cbed 41b5 3c41 a836 1ff8 d033 5788 9fb6
000003c0: b6d7 5636 a7fc 0636 c9d4 8b36 1567 79b7
000003d0: 29b2 a5b4 e5ee 48b7 63d8 c8b8 1296 84b7
000003e0: 84b9 8136 1db0 8eb7 6aa0 a636 9e21 00b8
000003f0: 68db 9632 1ff1 8db1 94cf 07b2 abb7 0434

encoder_lin.0.bias f4 [64]
-3.9978484e-05 -4.8209063e-08 0.0016203435 3.999674e-06 3.3175542e-26 0.054433793 3.837471e-06 -2.705652e-11
0.001405388 -1.9614959e-06 1.1850722e-05 -0.0001346095 0.014260873 -7.038612e-05 0.00028235646 -0.0001510708
0.041531425 4.1565903e-11 -6.064989e-05 0.07220674 -0.0011951464 -0.00047868062 -0.00015359216 -3.462574e-09
1.3593134e-07 2.2100545e-11 0.00031611946 -1.5628017e-05 0.00024381673 1.5627155e-07 -7.32104e-05 -0.0015479372
0.09235503 0.09968539 1.9375746e-07 -4.998974e-07 -0.004388946 0.01843331 5.60334e-09 0.006480385
1.6809829e-12 0.052035075 -0.0020548531 0.08330463 -0.00014397653 -1.0857861e-11 -2.9319085e-06 -0.00041974618
0.08079461 -8.011198e-21 0.09301544 -1.862896e-14 0.0052699572 -4.9877937e-21 0.005678349 0.030649373
-0.005340418 -0.00012201092 -2.6885891e-05 2.5690729e-11 7.0782647e-16 -2.4770362e-14 0.023076035 0.04472578
00000000: 92ae 27b8 6d0e 4fb3 b561 d43a f034 8636
00000010: ff46 2415 f8f5 5e3d a0c3 8036 defd edad
00000020: ff34 b83a 3ea2 03b6 77d2 4637 f625 0db9
00000030: 70a6 693c 439c 93b8 3e09 9439 c268 1eb9
00000040: db1c 2a3d 0ccf 362e 5362 7eb8 21e1 933d
00000050: 75a6 9cba 6df7 fab9 950d 21b9 3ff2 6db1
00000060: 86f4 1134 0166 c22d d6bc a539 e918 83b7
00000070: 0ea9 7f39 99cb 2734 8988 99b8 27e4 caba
00000080: a224 bd3d db27 cc3d a50b 5034 b030 06b5
00000090: 26d1 8fbb 7401 973c 8087 c031 6959 d43b
000000a0: cb93 ec2b bb22 553d b7aa 06bb 9e9b aa3d
000000b0: 68f8 16b9 7503 3fad cec1 44b6 6111 dcb9
000000c0: a577 a53d c753 179e e17e be3d 75cb a7a8
000000d0: 9baf ac3b fb6e bc9d 7211 ba3b 6514 fb3c
000000e0: acfe aebb 1de0 ffb8 0389 e1b7 61fa e12d
000000f0: 6004 4c26 911c dfa8 f409 bd3c 6132 373d

encoder_lin.3.weight f4 [1, 64]
0.00018771786 -8.33877e-07 -0.005492171 -2.9630139e-05 8.616228e-09 0.073540896 -2.6070607e-05 -6.3866284e-10
0.006384967 1.2005134e-05 -0.005341619 0.0007162478 0.8312581 0.0068377405 0.0005722072 -0.0009824227
0.05441995 6.3451433e-10 0.0019675326 0.39867744 0.00798267 0.00042654682 0.0010231589 7.756199e-08
-7.931142e-07 5.552692e-10 -0.008465156 2.0606556e-05 0.0009828898 -0.00499527 0.00012737051 -0.00029248852
0.31276277 0.2416163 0.005242533 -6.611341e-06 0.015891256 0.8275555 5.0790252e-08 -0.8601384
1.6369346e-12 0.4883448 -0.0038159955 0.39414436 0.0024621116 -9.114958e-11 2.521306e-05 -0.005902271
0.12805328 1.5808345e-08 0.169121 -6.9176777e-13 -0.9959021 8.602302e-18 0.84938204 0.042630948
-0.17789349 -0.00031839646 -0.00018674407 -6.53197e-10 -9.326927e-06 -2.9548916e-13 0.68014413 0.06908689
00000000: 21d6 4439 97d7 5fb5 abf7 b3bb 3d8e f8b7
00000010: 9206 1432 9c9c 963d 34b2 dab7 e78d 2fb0
00000020: fc38 d13b a869 4937 bf08 afbb 94c2 3b3a
00000030: 55cd 543f 200f e03b 2d00 163a a3c4 80ba
00000040: 74e7 5e3d fa69 2e30 b8f1 003b 731f cc3e
00000050: bfc9 023c 25a2 df39 841b 863a 2890 a633
00000060: 65e6 54b5 99a1 1830 70b1 0abc 3edc ac37
00000070: 4fd4 803a 5daf a3bb c38e 0539 2559 99b9
00000080: 7122 a03e 436a 773e 8ec9 ab3b fdd6 ddb6
00000090: 612e 823c adda 533f 7924 5a33 0832 5cbf
000000a0: c960 e62b 5408 fa3e c815 7abb 4acd c93e
000000b0: 615b 213b a770 c8ae a280 d337 d667 c1bb
000000c0: 6620 033e ebca 8732 0e2e 2d3e 1fb7 42ab
000000d0: 71f3 7ebf 39af 1e23 1a71 593f ca9d 2e3d
000000e0: b629 36be 73ee a6b9 bbd0 43b9 a78c 33b0
000000f0: d97a 1cb7 7a58 a6aa ed1d 2e3f 6d7d 8d3d

decoder_lin.0.weight f4 [64, 1]
-0.010880282 0.38006246 -0.011533369 0.43614805 0.000100770274 -0.011193329 -0.6545356 0.388708
0.4218677 0.40069884 -0.000106744825 -0.6781218 -0.010281957 -0.01073627 -0.003590212 0.38039783
-0.0010486348 -3.1732945e-17 -0.008312071 -0.009096509 -0.010803793 0.43757695 0.4352088 1.01208325e-05
-4.0401606e-08 0.4051527 2.6229395e-06 0.42456767 -0.011933016 -0.010542851 -0.0025315257 0.41389143
-0.012394915 0.041210324 -0.67256975 0.3988295 -3.9750887e-09 -4.3459568e-05 -3.2558717e-06 0.41646492
0.3943956 0.4101213 0.39835927 -0.00416811 0.4161195 0.44525522 0.3213052 -2.4145706e-16
0.42849204 -0.0014915096 -0.01171187 0.34263447 0.45034072 -0.0095758345 -0.009361097 -0.0089373365
-0.008924184 0.00090213557 -0.00028977566 0.4038236 -0.012272077 -0.0010492458 -2.970366e-18 -1.7429302e-05
00000000: 3643 32bc 8c97 c23e 75f6 3cbc cc4e df3e
00000010: a154 d338 3964 37bc a58f 27bf bc04 c73e
00000020: 0bff d73e 6628 cd3e 31dc dfb8 6499 2dbf
00000030: a775 28bc 2ee7 2fbc c349 6bbb 81c3 c23e
00000040: 5872 89ba a657 12a4 5a2f 08bc 8609 15bc
00000050: 6402 31bc 160a e03e b0d3 de3e a5cc 2937
00000060: 0986 2db3 2d70 cf3e c205 3036 ef60 d93e
00000070: b282 43bc ecbb 2cbc f4e7 25bb 94e9 d33e
00000080: 0b14 4bbc 28cc 283d 882d 2cbf 6133 cc3e
00000090: 4095 88b1 5b48 36b8 737f 5ab6 e43a d53e
000000a0: 38ee c93e 6bfb d13e bff5 cb3e a494 88bb
000000b0: 9d0d d53e 7ef8 e33e 1d82 a43e c630 8ba5
000000c0: 4f63 db3e c27e c3ba 25e3 3fbc c96d af3e
000000d0: 0f93 e63e f6e3 1cbc 495f 19bc e86d 12bc
000000e0: be36 12bc 4b7d 6c3a 08ed 97b9 f8c1 ce3e
000000f0: d210 49bc d986 89ba a12c 5ba2 2435 92b7

decoder_lin.0.bias f4 [64]
0.55838925 -0.21205667 -0.01228237 0.09514192 0.005290122 0.59532243 -0.063273475 0.08621044
0.08925519 -0.21957637 -0.012071131 -0.065581165 0.53981394 -0.012625613 -0.0074508903 0.08212498
-0.0123625975 -3.0186762e-17 0.50649256 0.50703126 0.57658464 0.09502384 0.09477658 0.00012487316
-2.2501771e-07 0.0866173 1.9585425e-05 0.09343676 0.602166 -0.0135989105 -0.0026939965 0.088246785
0.61519796 -0.025125781 -0.06970875 -0.21925847 -7.0428863e-09 -3.2231455e-05 -7.3290003e-06 0.08957899
-0.21317329 0.08658803 -0.21525002 0.28230423 0.09169886 0.09456118 0.06755501 -2.8815891e-16
0.090462014 -0.010491866 0.5953432 0.07310849 0.099163 0.47304487 0.5148081 0.47473764
0.4760599 -0.019000243 -0.0005789732 0.08522279 0.62010586 -0.0012856782 -3.5461965e-18 -1.4019111e-05
00000000: 99f2 0e3f 6225 59be fe3b 49bc c4d9 c23d
00000010: c258 ad3b 0d67 183f 8695 81bd 198f b03d
00000020: 6dcb b63d a1d8 60be fec5 45bc 6b4f 86bd
00000030: 3f31 0a3f a9db 4ebc 9926 f4bb 2431 a83d
00000040: 7e8c 4abc 3d36 0ba4 7fa9 013f cdcc 013f
00000050: 0d9b 133f dc9b c23d 391a c23d 62f0 0239
00000060: 669c 71b4 6964 b13d 614b a437 c65b bf3d
00000070: 8d27 1a3f f7cd 5ebc c38d 30bb bbba b43d
00000080: 9d7d 1d3f 95d4 cdbc 76c3 8ebd 4b85 60be
00000090: e2fd f1b1 4330 07b8 a2eb f5b6 3175 b73d
000000a0: 194a 5abe 1155 b13d 806a 5cbe 2e8a 903e
000000b0: 9dcc bb3d 4ba9 c13d 485a 8a3d c01c a6a5
000000c0: 2644 b93d 13e6 2bbc 6968 183f e7b9 953d
000000d0: f915 cb3d f032 f23e 77ca 033f d010 f33e
000000e0: 20be f33e 66a6 9bbc 3cc6 17ba 4989 ae3d
000000f0: 42bf 1e3f 3484 a8ba e1d4 82a2 a033 6bb7

decoder_lin.3.weight f4 [288, 64]
-0.006701053 0.018824307 -6.185642e-05 0.026481925 0.00039328486 -0.0037978615 3.5623016e-10 0.021482397
0.031670198 0.019063257 0.00075732963 1.8837348e-15 -0.0046925256 -0.0008477475 -0.00022954811 0.02648194
7.463876e-05 -6.8572895e-19 -0.005430749 -0.0074829054 -0.0048521236 0.030047115 0.029394858 1.1588134e-05
-1.1913788e-09 0.02860981 2.2894233e-06 0.031751186 -0.011548337 -0.00089341647 -0.00017028987 0.03129012
-0.0038465308 0.0020027491 2.9922508e-16 0.01781849 2.2145051e-10 -6.582071e-06 -2.500754e-07 0.03017286
0.019933991 0.02378129 0.020777447 -0.0036400352 0.025303226 0.032263227 0.019825839 -5.3796163e-18
0.028070396 0.0015113116 -0.0049331863 0.020334855 0.02991673 -0.0062142625 -0.009596913 -0.005276309
-0.0044959486 0.0015923047 -0.00012070091 0.027448582 -0.0037452984 6.190902e-05 -1.5290209e-19 -1.850197e-06
-0.0015106876 -0.009162346 0.00031214632 0.016947318 0.0001613767 -1.901083e-05 -0.00050981774 0.012741871
0.01066396 -0.003924029 -5.4424607e-05 -0.0006542101 -0.00012963382 -0.0005337632 -0.00043842572 0.009002495
-0.00018789407 7.607428e-19 0.001149923 -0.0021412605 0.0007195218 0.009653069 0.009980094 9.364416e-06
-5.973803e-08 0.009877223 1.834619e-06 0.018630635 -0.0014287457 -3.796125e-05 -0.00054126227 0.008359662
-0.004001831 -0.0013676629 -0.001709093 -0.004945725 -1.5955012e-09 2.25493e-06 -1.6342573e-06 0.011863476
-0.006274154 0.011301002 -0.0074386555 0.0031013195 0.016853398 0.012024519 0.01068601 2.1215932e-17
0.0118009085 0.0014502525 0.00021514384 0.013393715 0.009606884 -0.0010180802 -9.297524e-05 0.001692174
0.00022791044 -0.0003556658 -7.119257e-06 0.015592706 -0.002737354 -3.29005e-05 4.5139453e-19 2.817088e-06
2.8406485e-13 -1.1407745e-07 1.0994891e-14 -1.5633233e-05 3.8567003e-14 -3.9692894e-13 -2.054713e-14 -6.1933583e-06
-5.796082e-06 -2.1895814e-07 9.077235e-17 -2.979801e-13 9.8081055e-14 1.9266054e-14 -1.5760836e-13 -2.2810545e-06
2.012099e-14 3.1648625e-26 -2.1693774e-13 -2.699906e-13 -4.3118878e-13 -1.0940804e-05 -8.158252e-06 3.3919682e-14
5.7068546e-22 -5.8525306e-06 -1.462302e-16 -1.047248e-05 -1.259539e-13 3.2829045e-17 7.936611e-15 -5.94625e-06
-4.6359227e-13 -8.810859e-13 -1.734017e-13 -4.673855e-08 -2.2992645e-24 1.4982844e-14 -5.881161e-17 -4.7123845e-06
-3.2233487e-07 -6.851251e-06 -4.7278397e-07 -1.4357179e-13 -5.295384e-06 -2.081036e-05 -3.2428468e-07 -3.956026e-30
-1.6618711e-05 -1.9417487e-14 -3.2232276e-13 -1.0595703e-06 -2.2169053e-05 1.4371227e-13 -1.2962493e-13 2.2272165e-13
-2.0729447e-13 -2.0036647e-14 3.6302557e-15 -8.175979e-06 6.8180892e-15 6.942488e-14 -4.2498153e-28 -1.3968708e-13
-0.01800316 0.060185786 3.271101e-05 0.058590617 0.00037496453 -0.021260226 1.30185e-40 0.05844024
0.057884343 0.05675014 0.00032356352 -3.44477e-40 -0.019318338 -0.0012902371 0.000219766 0.05482468
-2.478722e-05 -1.5357615e-18 -0.017418416 -0.01806711 -0.02180334 0.06169543 0.05772952 1.8001421e-05
2.7212868e-08 0.058278184 2.625858e-06 0.05917582 -0.022478009 -0.00094844785 -0.00056948286 0.062898755
-0.02130867 0.0064860634 4.40179e-40 0.060109425 7.9243634e-10 2.8894763e-05 1.8571391e-06 0.062143754
0.05900735 0.05890818 0.06476951 -0.0051500113 0.06067063 0.058369137 0.045704003 -1.7404206e-17
0.06122254 -0.0008917329 -0.021098038 0.04871492 0.06014522 -0.01601666 -0.019189239 -0.015831634
-0.0150603205 -0.002086887 0.00017874644 0.056533054 -0.019966878 6.380606e-05 -3.032799e-19 5.009057e-06
00000000: 8294 dbbb 6f35 9a3c eab8 81b8 9ff0 d83c
00000010: cd31 ce39 8be5 78bb f0d6 c32f dafb af3c
00000020: 9cb8 013d 8c2a 9c3c 8887 463a c6bc 0727
00000030: c2c3 99bb 5f3b 5eba dab2 70b9 a7f0 d83c
00000040: 6187 9c38 3764 4aa1 6df4 b1bb 2933 f5bb
00000050: 90fe 9ebb 5e25 f63c 7ccd f03c a86a 4237
00000060: eabd a3b0 1f5f ea3c fea3 1936 880d 023d
00000070: 3c35 3dbc 2a34 6aba d78f 32b9 122a 003d
00000080: 1416 7cbb 8e40 033b d47d ac25 15f8 913c
00000090: c77c 732f 8fdb dcb6 1a42 86b4 132d f73c
000000a0: 9c4c a33c fbd0 c23c 7735 aa3c a88d 6ebb
000000b0: b648 cf3c 7226 043d cc69 a23c 0a79 c6a2
000000c0: e3f3 e53c 3417 c63a 91a6 a1bb 4895 a63c
000000d0: ee13 f53c 03a1 cbbb 5f3c 1dbc e3e4 acbb
000000e0: c052 93bb e1b4 d03a cf20 fdb8 d9db e03c
000000f0: ae73 75bb 27d5 8138 d283 34a0 4954 f8b5
00000100: 4402 c6ba aa1d 16bc 92a7 a339 1ad5 8a3c
00000110: 3a37 2939 7279 9fb7 4aa5 05ba 48c3 503c
00000120: e4b7 2e3c 2495 80bb fa45 64b8 4c7f 2bba
00000130: 50ee 07b9 3eec 0bba 81dc e5b9 337f 133c
00000140: 6e05 45b9 1a88 6021 03b9 963a 6454 0cbb
00000150: 4a9e 3c3a e827 1e3c 8c83 233c dc1b 1d37
00000160: 5449 80b3 13d4 213c 073d f635 469f 983c
00000170: c044 bbba 9538 1fb8 7fe3 0dba f7f6 083c
00000180: cb21 83bb 2743 b3ba a503 e0ba c00f a2bb
00000190: b548 dbb0 6753 1736 a758 dbb5 065f 423c
000001a0: 6b97 cdbb d727 393c f7bf f3bb 823f 4b3b
000001b0: 2310 8a3c 7d02 453c 6014 2f3c b4ae c323
000001c0: 9958 413c 6616 be3a 3c98 6139 5071 5b3c
000001d0: 3166 1d3c 1a71 85ba b4fb c2b8 f0cb dd3a
000001e0: 3efb 6e39 a878 bab9 f4e1 eeb6 8d78 7f3c
000001f0: 2e65 33bb a5fe 09b8 683a 0521 340d 3d36
00000200: 0fea 9f2a befa f4b3 fc10 4628 1d24 83b7
00000210: bab0 2d29 7d73 dfaa 7512 b9a8 8bd0 cfb6
00000220: f77b c2b6 c11a 6bb4 8a4e d124 75bf a7aa
00000230: e1db dc29 7f88 ad28 8473 31aa 3814 19b6
00000240: d83b b528 66b7 1c15 0c40 74aa bffd 97aa
00000250: dabc f2aa 658e 37b7 6ddf 08b7 bbc2 1829
00000260: a67a 2c1c db60 c4b6 8a97 28a5 f6b2 2fb7
00000270: bdcf 0daa b265 1724 28f9 0e28 e685 c7b6
00000280: 587d 02ab ee00 78ab a33b 43aa 94bd 48b3
00000290: a0e5 3198 16f4 8628 3f9c 87a4 131f 9eb6
000002a0: 5e0d adb4 cce3 e5b6 efd2 fdb4 c0a5 21aa
000002b0: 01af b1b6 e891 aeb7 5919 aeb4 b979 a08e
000002c0: 6968 8bb7 ade5 aea8 9b73 b5aa 8f36 8eb5
000002d0: aef7 b9b7 3ece 212a d8f1 11aa 25c3 7a2a
000002e0: 9064 69aa 5d79 b4a8 33cb 8227 902b 09b7
000002f0: c6a5 f527 b854 9c29 99ae 0692 0f46 1daa
00000300: 5d7b 93bc 5f85 763d 2e33 0938 b7fc 6f3d
00000310: e396 c439 ed29 aebc e76a 0100 085f 6f3d
00000320: 2218 6d3d d672 683d f6a3 a939 43c0 0380
00000330: 7e41 9ebc 2c1d a9ba fd70 6639 d88f 603d
00000340: 26ee cfb7 6ea3 e2a1 11b1 8ebc 7a01 94bc
00000350: eb9c b2bc 59b4 7c3d ca75 6c3d c201 9737
00000360: bbc1 e932 1bb5 6e3d e637 3036 5862 723d
00000370: cd23 b8bc 42a1 78ba 5949 15ba 10d1 803d
00000380: 858f aebc 0b89 d43b 0acb 0400 4d35 763d
00000390: c0d2 5930 0863 f237 d042 f935 738a 7e3d
000003a0: b1b1 713d b449 713d e0a5 843d 6dc1 a8bb
000003b0: c481 783d 7a14 6f3d 1f34 3b3d 8586 a0a3
000003c0: 7cc4 7a3d 2fc3 69ba cbd5 acbc 4c89 473d
000003d0: d65a 763d 5f35 83bc c032 9dbc 58b1 81bc
000003e0: 90bf 76bc 27c4 08bb e26d 3b39 348f 673d
000003f0: 9491 a3bc 9ecf 8538 5d06 b3a0 7913 a836

decoder_lin.3.bias f4 [288]
-0.007755311 0.007842801 -3.8853408e-08 -0.030132612 0.010058605 -0.040819217 0.055291694 0.028403956
-0.008784 -0.024753261 -5.0818317e-06 0.034566227 -0.0052785613 0.07552867 -0.0002643699 -0.0010495216
-0.0001936572 -0.00030701899 0.046250522 0.10148495 0.08788546 0.021024406 -0.009474966 0.023658087
0.019227212 -0.042596843 -1.25479355e-05 -0.01172781 -0.032278676 0.045884147 -0.0014062994 -0.10310475
0.047015898 -0.00015174324 0.12526971 0.046446998 -0.0051601063 -0.037233014 0.068827815 0.008727245
0.10293267 -0.00023210308 -7.898821e-10 0.16689081 -0.034197908 -0.00025926894 -2.9977982e-05 -0.00010944097
-0.00018125972 -1.2836429e-09 -0.0011145215 0.0011894979 -0.00068969897 -0.00010920491 -0.0018145519 -0.07959705
-0.0016098281 -0.038662154 0.12595089 -0.03896706 -0.0047591873 -2.5689081e-14 -0.04391919 0.00064283516
-8.789942e-05 -0.08484844 0.021032339 0.22212568 0.00066842826 -0.045173768 -0.20059763 -0.036143698
0.044074647 0.020732636 -0.0015167152 -0.015250816 -0.16909765 0.025382506 0.04167254 -0.015934104
-0.07077753 -0.006874988 -0.00036130278 0.0054379655 -7.2562933e-09 -0.0020090705 5.42125e-07 0.01323036
-1.115694e-11 0.0318353 -0.0011337671 0.15526026 -6.280317e-05 -0.033109132 -0.022821423 -0.036289055
0.04454334 0.20670164 -0.072969206 -4.179244e-05 -0.000385469 -0.0002698921 -0.00042532242 -0.00033819475
-0.0011228428 -0.00011581516 0.0016212863 0.0011516683 -1.7165826e-06 -0.00581956 -9.268415e-05 0.020654162
0.06732665 0.06395339 0.012212106 0.012779308 -0.0014990267 -0.004501014 -4.7136993e-07 0.07656478
-1.4424918e-09 -4.9165942e-09 0.2665066 -0.010585198 0.064773925 0.15530252 0.02981487 -6.949854e-05
0.041562043 0.032714427 -0.092894986 -0.05394682 -0.017171312 -1.3819378e-08 -0.090769105 -8.102512e-15
0.031685095 0.102922305 -5.1073562e-11 -0.0009465821 0.10788473 -0.001169623 -0.21514963 -0.0151114445
0.027272569 0.03804895 0.048267476 -0.0040192436 -0.0007795115 0.07958114 -3.5768277e-08 0.00032618447
-7.121449e-05 0.094117984 -1.146517e-13 -5.7294925e-05 0.11397433 -1.0546433e-05 -5.7772667e-07 0.13112158
-1.2613617e-07 -0.098760694 0.05728084 0.04839665 -0.0030712718 0.019375317 -8.954566e-07 2.269177e-13
0.015622079 -0.037069995 -0.015146117 -0.0046445713 0.089979626 -0.014243695 -0.027477236 0.1262579
-3.1807453e-08 0.0400618 0.19723475 0.11567948 0.0382159 -0.036050014 0.032327145 0.060608853
0.029950405 -0.11677588 0.009711859 -2.5993244e-12 -0.08676599 -0.0014309073 0.14335093 -7.145194e-08
-0.0064863055 0.055424627 -2.0556067e-11 -9.414038e-08 0.17435978 0.052705754 -0.0025473093 -6.380668e-05
0.0590626 -0.022419652 -2.0572142e-09 -0.018856902 0.024353316 0.22205476 -3.489108e-05 -0.00010308936
-0.029994799 0.0925918 -1.1449643e-05 -0.113380425 0.078308836 -1.704939e-05 -0.0015887594 0.07713694
-0.00023147723 0.16671102 -0.00014425028 -0.035909757 0.23293309 0.057867657 0.0421697 -0.1762029
-5.8911236e-14 -5.8916692e-05 0.0070787612 0.056920726 -1.0571137e-13 0.00066426734 0.0028907256 0.03484273
0.07930632 0.15394504 -1.2796145e-11 -8.467929e-12 -0.0021582283 -0.018960105 -2.841216e-09 -0.0021839472
0.10430199 0.23239464 0.13851973 0.050394576 -0.00058804115 0.035641488 0.08410611 -0.0003846827
-0.11448638 0.091962285 0.03881779 0.04923206 0.01460206 0.004989103 -1.9563108e-06 0.04597581
00000000: 4420 febb 177f 003c c6df 26b3 abd8 f6bc
00000010: d9cc 243c 0d32 27bd 8b79 623d 6aaf e83c
00000020: c4ea 0fbc 5ac7 cabc 9a84 aab6 5195 0d3d
00000030: c8f7 acbb c6ae 9a3d 219b 8ab9 1a90 89ba
00000040: 7510 4bb9 64f7 a0b9 3071 3d3d 57d7 cf3d
00000050: 4bfd b33d 603b ac3c e33c 1bbc 9bce c13c
00000060: 6382 9d3c 077a 2ebd f984 52b7 0026 40bc
00000070: a536 04bd 04f1 3b3d 9453 b8ba 9528 d3bd
00000080: be93 403d 441d 1fb9 b446 003e 353f 3e3d
00000090: 1c16 a9bb a581 18bd 99f5 8c3d b8fc 0e3c
000000a0: 5dce d23d b260 73b9 031f 59b0 6de5 2a3e
000000b0: 1b13 0cbd 7dee 87b9 3a79 fbb7 ac83 e5b8
000000c0: 8910 3eb9 2b6c b0b0 2315 92ba ede8 9b3a
000000d0: eacc 34ba f104 e5b8 42d6 edba c703 a3bd
000000e0: de00 d3ba 355c 1ebd 45f9 003e ed9b 1fbd
000000f0: f5f2 9bbb fd62 e7a8 9ce4 33bd f083 283a
00000100: a456 b8b8 05c5 adbd 034c ac3c ea74 633e
00000110: 7639 2f3a 2108 39bd 7769 4dbe 6a0b 14bd
00000120: 9e87 343d 7dd7 a93c 84cc c6ba 8fde 79bc
00000130: ef27 2dbe f9ee cf3c d3b0 2a3d 3d88 82bc
00000140: cff3 90bd 9447 e1bb 3d6d bdb9 f630 b23b
00000150: 0853 f9b1 9caa 03bb 8c86 1135 27c4 583c
00000160: 6446 44ad bb65 023d e99a 94ba 8cfc 1e3e
00000170: 32b5 83b8 719d 07bd fef3 babc d5a3 14bd
00000180: 1473 363d 98a9 533e e170 95bd 4a4a 2fb8
00000190: c618 cab9 4e80 8db9 cffd deb9 bb4f b1b9
000001a0: 5a2c 93ba cae1 f2b8 5781 d43a 93f3 963a
000001b0: 5465 e6b5 02b2 bebb 6d5f c2b8 eb32 a93c
000001c0: 8ee2 893d fff9 823d 4915 483c 4d60 513c
000001d0: fd7a c4ba 3e7d 93bb 9710 fdb4 ffcd 9c3d
000001e0: 2b41 c6b0 d2ee a8b1 8e73 883e 8a6d 2dbc
000001f0: 31a8 843d a007 1f3e 503e f43c bfbf 91b8
00000200: f63c 2a3d 90ff 053d ba3f bebd 57f7 5cbd
00000210: daaa 8cbc 446a 6db2 27e5 b9bd 3ef6 11a8
00000220: 3bc8 013d eec8 d23d b89f 60ae 0d24 78ba
00000230: abf2 dc3d 094e 99ba 2f50 5cbe fe95 77bc
00000240: b96a df3c 37d9 1b3d 1eb4 453d dcb3 83bb
00000250: 2258 4cba 70fb a23d a39f 19b3 bd03 ab39
00000260: fd58 95b8 eec0 c03d 1a16 01aa f54f 70b8
00000270: 606b e93d 96f0 30b7 1315 1bb5 bc44 063e
00000280: 0c70 07b4 0c43 cabd 509f 6a3d 913b 463d
00000290: 6447 49bb fcb8 9e3c 4f5f 70b5 937c 7f2a
000002a0: c0f3 7f3c b5d6 17bd 6b27 78bc 7d31 98bb
000002b0: 3d47 b83d 635e 69bc f117 e1bc c049 013e
000002c0: aa9c 08b3 d817 243d e8f7 493e 5de9 ec3d
000002d0: 4788 1c3d 2ea9 13bd 7869 043d fd40 783d
000002e0: 8d5a f53c 3128 efbd 7d1e 1f3c 44e9 36ac
000002f0: 5eb2 b1bd 488d bbba 96ca 123e 1f71 99b3
00000300: 138b d4bb ef04 633d 26d0 b4ad 392a cab3
00000310: 5f8b 323e fde1 573d c2f0 26bb f3cf 85b8
00000320: a0eb 713d 6ba9 b7bc e55e 0db1 ca79 9abc
00000330: 9b80 c73c 5362 633e 0358 12b8 ae31 d8b8
00000340: a7b7 f5bc c5a0 bd3d d817 40b7 ff33 e8bd
00000350: 6260 a03d 4905 8fb7 eb3d d0ba f9f9 9d3d
00000360: b2b8 72b9 4bb6 2a3e e441 17b9 1c16 13bd
00000370: 0386 6e3e a306 6d3d 23ba 2c3d 886e 34be
00000380: 04a8 84a9 511d 77b8 f4f4 e73b b525 693d
00000390: 750a eea9 3a22 2e3a 5472 3d3b 40b7 0e3d
000003a0: 5a6b a23d c5a3 1d3e b71c 61ad 29f8 14ad
000003b0: 1071 0dbb 3952 9bbc 333f 43b1 8e20 0fbb
000003c0: 489c d53d dcf8 6d3e 1ed8 0d3e 8b6a 4e3d
000003d0: c626 1aba cffc 113d d33f ac3d 3daf c9b9
000003e0: d677 eabd b956 bc3d 67ff 1e3d 8ea7 493d
000003f0: 7b3d 6f3c a17b a33b 2a49 03b6 2251 3c3d

decoder_conv.0.weight f4 [32, 16, 3, 3]
-0.012397915 -0.06062361 -0.015239807 0.016475866 -0.00062826136 0.09454474 0.016905105 -0.037409667
0.021707114 -0.006159802 -0.09463696 -0.004434304 0.009781964 -0.04473208 -0.041220237 0.0119668245
-0.058936737 -0.09896667 -0.014744613 -0.058262225 -0.026714196 -0.05284929 -0.13812555 -0.08613644
-0.032405514 -0.03750345 -0.06668084 -0.00032258924 -0.031135976 0.034122102 -0.0010658894 0.046655204
0.013978522 0.0043362547 -0.0119929295 -0.034632225 0.055551037 -0.00036626033 0.024171537 0.011686846
0.0011096303 0.025040237 -0.02509833 -0.0028027683 0.016355792 -0.009008105 -0.044365212 -0.039279804
0.0069129486 0.041070778 -0.054256402 -0.017511692 -0.033425223 -0.06424603 0.016289301 -0.03684297
-0.046317413 0.014611831 0.03367323 -0.08180316 0.0021843319 -0.0160135 -0.1452641 -0.12160152
-0.03435898 0.01362085 -0.09174284 -0.08339025 0.0032384086 -0.020555418 0.01769719 0.01919349
-0.03420649 -0.010956191 0.040675785 -0.014005292 -0.0633607 -0.06503973 -0.014090062 -0.10215354
0.0067986404 0.0103244595 -0.089689516 -0.016141333 0.01111901 -0.032309532 -0.08993141 -0.0031239719
-0.030644914 -0.18429318 -0.025647638 0.0013145398 -0.04378249 -0.060332242 -0.0014080846 -0.17806512
-0.03166156 -0.021726765 -0.078585066 0.009158038 -0.036298644 -0.045258436 0.0064390996 -0.0028224143
-0.08716114 0.010847508 -0.010257259 -0.11612038 0.010221079 -0.03423107 -0.033648618 -0.008534197
-0.012372958 -0.019442437 0.007857147 -0.0094352495 -0.09210105 0.027507257 -0.031028623 -0.035470296
-0.08301614 -0.2638257 -0.14698784 0.038334914 0.06831256 0.007828719 0.009541695 -0.052285813
0.024178023 -0.03011375 -0.0349814 -0.056603454 -0.0035353345 0.026243864 0.09511964 -0.057266377
-0.009177189 -0.023879712 0.0060646515 0.018421706 -0.085959114 0.063536294 0.07912886 0.109445475
-0.013172807 0.039377533 0.02129855 -0.027956992 0.0025216152 -0.01828775 -0.04294426 -0.012100175
-0.05868572 -0.014510946 -0.028743438 -0.005662151 -0.048666716 0.0033639045 -0.019823704 -0.008895158
-0.04790549 -0.03469071 -0.031627707 -0.13383375 -0.013347049 -0.021420697 0.007922454 0.026190815
0.011759142 -0.019628156 -0.08841643 0.00036924746 -0.0058000595 0.007246976 -0.004772174 0.118130624
0.08182674 -0.040917773 -0.007541903 -0.050557174 -0.015050352 -0.003043255 -0.03086544 0.0034400779
0.0054521402 0.06492164 -0.06251558 -0.017207107 0.055959236 -0.0006666038 -0.10244653 0.0249766
-0.03080928 0.076822355 0.01882796 -0.03627571 0.0152649265 -0.04752311 0.0020465776 -0.03986386
0.03227683 -0.051425982 0.032811485 0.10678687 -0.07515724 0.038381886 0.007317387 -0.037064396
0.10547753 0.031320184 0.11234507 -0.034634184 -0.092447266 0.04402308 0.016623493 0.03765942
-0.02124994 0.05240397 -0.016013857 -0.020566529 0.052443027 -0.13751146 0.060449455 -0.04260315
-0.010478134 0.027935587 -0.024462655 0.046327908 -0.0468776 0.02247798 0.024357019 -0.08176989
0.06137265 -0.13701686 -0.016493892 -0.09529296 -0.006034085 -0.045222316 -0.013269473 0.012388502
-0.040147908 -0.08702596 -0.0567762 0.005492398 -0.03110451 0.0027041088 -0.046450485 -0.06032212
0.110027395 -0.072047874 0.03527258 0.033621863 -0.0006365131 -0.035134815 -0.0030253448 -0.011136898
00000000: a020 4bbc 7650 78bd 62b0 79bc 65f8 863c
00000010: e8b1 24ba aca0 c13d 937c 8a3c e13a 19bd
00000020: 1ed3 b13c 2ad8 c9bb 06d1 c1bd a34d 91bb
00000030: 8844 203c fc38 37bd 8dd6 28bd 8010 443c
00000040: a667 71bd 0aaf cabd 6493 71bc 5fa4 6ebd
00000050: bbd7 dabc 7f78 58bd c970 0dbe 4d68 b0bd
00000060: a5bb 04bd 389d 19bd f78f 88bd 3221 a9b9
00000070: e010 ffbc 9ec3 0b3d 50b5 8bba 8719 3f3d
00000080: 2c06 653c 2417 8e3b fe7d 44bc 85da 0dbd
00000090: 7c89 633d a106 c0b9 6303 c63c 2f7a 3f3c
000000a0: 0471 913a 2f21 cd3c 039b cdbc a6ae 37bb
000000b0: 95fc 853c bb96 13bc 4cb8 35bd dce3 20bd
000000c0: 0486 e23b d539 283d f63b 5ebd ae74 8fbc
000000d0: e3e8 08bd 6c93 83bd 2471 853c a7e8 16bd
000000e0: 54b7 3dbd 7666 6f3c f1ec 093d 6a88 a7bd
000000f0: 0227 0f3b be2e 83bc 1dc0 14be 380a f9bd
00000100: 00bc 0cbd fc29 5f3c ace3 bbbd 82c8 aabd
00000110: 7b3b 543b d663 a8bc b3f9 903c aa3b 9d3c
00000120: 1b1c 0cbd 9981 33bc a79b 263d 7476 65bc
00000130: 41c3 81bd 8d33 85bd 01da 66bc e035 d1bd
00000140: 21c7 de3b ec27 293c 23af b7bd d43a 84bc
00000150: 822c 363c 0057 04bd f62d b8bd 8dbb 4cbb
00000160: 0b0b fbbc 5ab7 3cbe ff1a d2bc a34c ac3a
00000170: 4555 33bd f11e 77bd 7b8f b8ba b456 36be
00000180: 8daf 01bd 54fc b1bc 35f1 a0bd 980b 163c
00000190: e3ad 14bd e960 39bd 15ff d23b 41f8 38bb
000001a0: 8a81 b2bd bfb9 313c 100e 28bc 86d0 edbd
000001b0: 5076 273c e135 0cbd 22d3 09bd 04d3 0bbc
000001c0: f2b7 4abc bf45 9fbc 43bb 003c 4e96 1abc
000001d0: 7a9f bcbd e656 e13c bd2f febc 4d49 11bd
000001e0: 5e04 aabd 2a14 87be fb83 16be 1205 1d3d
000001f0: 75e7 8b3d 0744 003c c554 1c3c a629 56bd
00000200: fd10 c63c 1cb1 f6bc a848 0fbd 06d9 67bd
00000210: 12b1 67bb 5ffd d63c 16ce c23d 2690 6abd
00000220: ec5b 16bc 639f c3bc fcb9 c63b 1ee9 963c
00000230: 550b b0bd 511f 823d 500e a23d f324 e03d
00000240: c2d2 57bc 564a 213d 4c7a ae3c 1006 e5bc
00000250: af41 253b 31d0 95bc 52e6 2fbd d03f 46bc
00000260: 7060 70bd 52bf 6dbc 5c77 ebbc 9189 b9bb
00000270: c056 47bd f474 5c3b 5265 a2bc ffbc 11bc
00000280: 8c38 44bd d917 0ebd 0e8c 01bd b70b 09be
00000290: 95ad 5abc 757a afbc 2ecd 013c 1f8e d63c
000002a0: 6ba9 403c 3acb a0bc ac13 b5bd 8e97 c139
000002b0: 6d0e bebb 0a78 ed3b e65f 9cbb 78ee f13d
000002c0: c794 a73d 6599 27bd 1122 f7bb 0a15 4fbd
000002d0: c095 76bc 5971 47bb 85d9 fcbc ee72 613b
000002e0: dea7 b23b a3f5 843d 2b08 80bd ebf5 8cbc
000002f0: 8335 653d 06bf 2eba 7ccf d1bd ba9b cc3c
00000300: be63 fcbc 0a55 9d3d 183d 9a3c d795 14bd
00000310: be19 7a3c 98a7 42bd e01f 063b 4948 23bd
00000320: b634 043d 0da4 52bd 5665 063d 13b3 da3d
00000330: 0aec 99bd 5336 1d3d b1c6 ef3b d6d0 17bd
00000340: 9a04 d83d 9849 003d 2c15 e63d 93dc 0dbd
00000350: fe54 bdbd 8c51 343d fe2d 883c c440 1a3d
00000360: 5b14 aebc 8ca5 563d 7e2f 83bc 237b a8bc
00000370: 80ce 563d cecf 0cbe d999 773d a480 2ebd
00000380: 7bac 2bbc 2cd9 e43c e865 c8bc 55c2 3d3d
00000390: ba02 40bd be23 b83c 5f88 c73c f976 a7bd
000003a0: e361 7b3d 264e 0cbe 331e 87bc f528 c3bd
000003b0: 93b9 c5bb 093b 39bd 3468 59bc 25f9 4a3c
000003c0: 2272 24bd ab3a b2bd 298e 68bd 93f9 b33b
000003d0: e3ce febc 6b37 313b dd42 3ebd 5414 77bd
000003e0: 0b56 e13d d68d 93bd fb79 103d 14b7 093d
000003f0: acdb 26ba 86e9 0fbd dd44 46bb 8977 36bc

decoder_conv.0.bias f4 [16]
0.15511416 0.37636727 0.2769621 -0.16497985 0.11686038 0.27617583 0.38023934 0.37591287
0.29770288 0.4837145 0.47093406 0.37090683 0.37240624 0.36128068 -0.0032464233 0.26181394
00000000: 3fd6 1e3e 36b3 c03e facd 8d3e 7af0 28be
00000010: 7f54 ef3d eb66 8d3e bbae c23e a777 c03e
00000020: 836c 983e 6da9 f73e 451e f13e 80e7 bd3e
00000030: 08ac be3e c8f9 b83e f2c1 54bb 7a0c 863e
