Nicola_Dainese_Ex4_NN/params/net_params_8.pth (torch_old, 203909 bytes, 19 tensors)

encoder_cnn.0.weight f4 [8, 1, 3, 3]
0	0x36d9ef8d	6.4949913e-06
1	0xb617ef19	-2.2639927e-06
2	0xb67ca6be	-3.7647983e-06
3	0x365cf0da	3.2922749e-06
4	0xb6c9c23d	-6.012879e-06
5	0xb68cfb4d	-4.2015804e-06
6	0xb5fd584a	-1.8875664e-06
7	0xb698b9fa	-4.5516035e-06
8	0xb6187e29	-2.27232e-06
9	0x355e02f1	8.2705725e-07
10	0xb4cde1dc	-3.834856e-07
11	0xb5827280	-9.719079e-07
12	0x35ebaabf	1.7558558e-06
13	0x34b842cb	3.432127e-07
14	0x349d650a	2.9317044e-07
15	0xb4ff6f30	-4.757835e-07
16	0xb27278c5	-1.4113714e-08
17	0xb353ec8a	-4.9342397e-08
18	0x3ebddb70	0.3708148
19	0x3f082c9f	0.53193086
20	0x3ef3fe9b	0.47655186
21	0x3f150a4f	0.58218855
22	0x3f3400e4	0.7031386
23	0x3f193b35	0.5985597
24	0x3f034d68	0.5128999
25	0x3f13fa3d	0.5780371
26	0x3ed6a2f8	0.4192121
27	0xb5fd85f5	-1.8888956e-06
28	0xb73ffa80	-1.1442811e-05
29	0xb7572d75	-1.2825582e-05
30	0xb7232719	-9.72466e-06
31	0xb77b17be	-1.4966294e-05
32	0xb72dd40f	-1.0360977e-05
33	0xb738f2c9	-1.10237825e-05
34	0xb74cc725	-1.22057145e-05
35	0xb72dc4c2	-1.0357415e-05
36	0x3ebd2dbb	0.36948952
37	0x3f07a4c0	0.52985764
38	0x3ef3e7b9	0.47637728
39	0x3f14f009	0.58178765
40	0x3f3413e0	0.70342827
41	0x3f195d80	0.59908295
42	0x3f0360e0	0.51319695
43	0x3f13ed1f	0.57783693
44	0x3ed6f2c2	0.41982085
45	0xbdcd6fbc	-0.10031077
46	0xbe133603	-0.14376073
47	0xbdee3b24	-0.11632374
48	0xbe93bb5d	-0.28853884
49	0xbe9ee62f	-0.3103499
50	0xbe9af7e0	-0.3026724
51	0xbe555aa7	-0.20835362
52	0xbe7cba44	-0.2468043
53	0xbe785746	-0.24252042
54	0xbd7de463	-0.061985385
55	0xbdf59439	-0.11991162
56	0xbdb4a6bb	-0.08820864
57	0xbe7ca416	-0.24671969
58	0xbe95e8d7	-0.29279205
59	0xbe8dd30a	-0.27700073
60	0xbe405abd	-0.18784614
61	0xbe77a0cd	-0.24182434
62	0xbe608e52	-0.21929291
63	0xbdd79914	-0.10527244
64	0xbe1685a3	-0.14699416
65	0xbdf806a6	-0.12110643
66	0xbe954859	-0.2915676
67	0xbe9e1f82	-0.30883414
68	0xbe9b14c1	-0.3028927
69	0xbe52f84d	-0.20602532
70	0xbe772c99	-0.24138106
71	0xbe77154b	-0.24129216

encoder_cnn.0.bias f4 [8]
0	0xb8503713	-4.9642356e-05
1	0xb61a5762	-2.2998652e-06
2	0x39a05579	0.0003058126
3	0xb83eda9c	-4.5503126e-05
4	0x3b1d6ad0	0.0024019964
5	0x3f9b233a	1.2120125
6	0x3f940a17	1.1565579
7	0x3f9b565f	1.2135733

encoder_cnn.3.weight f4 [16, 8, 3, 3]
0	0x34dcdf19	4.1140518e-07
1	0x34cd6f27	3.82651e-07
2	0x35ffedf5	1.9068235e-06
3	0x35ee3cbe	1.775006e-06
4	0x35b6f633	1.363171e-06
5	0x35d608fd	1.5946858e-06
6	0x362b6fd9	2.554609e-06
7	0x3640415b	2.8648271e-06
8	0x367c79c4	3.7621803e-06
9	0x33ff3dd3	1.18856086e-07
10	0xb289e2fa	-1.6052116e-08
11	0x329fe1f1	1.8612782e-08
12	0x3321a331	3.7634155e-08
13	0xb260a6ca	-1.30764395e-08
14	0x334869c8	4.6662336e-08
15	0x33d9e107	1.0145782e-07
16	0x33897483	6.400753e-08
17	0xb3ff5d74	-1.1891362e-07
18	0x3e15ad62	0.14616922
19	0x3e8488ce	0.25885624
20	0x3de16110	0.11004841
21	0x3ec8984c	0.39178693
22	0x3ef3c571	0.47611573
23	0x3e21970f	0.1578028
24	0x3ea79000	0.3272705
25	0x3e6df0dd	0.23236413
26	0xbcb74075	-0.022369603
27	0xb5179ba9	-5.64784e-07
28	0xb5a477a5	-1.2253773e-06
29	0xb60df74e	-2.1154588e-06
30	0xb597bbe0	-1.1305056e-06
31	0xb663fdeb	-3.3973436e-06
32	0xb61889bb	-2.2729935e-06
33	0xb5ad2482	-1.290013e-06
34	0xb63b173b	-2.7878693e-06
35	0xb51ca6eb	-5.8357426e-07
36	0x3e18f216	0.14936098
37	0x3e860090	0.26172304
38	0x3de0524a	0.109531954
39	0x3ec968fb	0.39337906
40	0x3ef3b6c5	0.4760038
41	0x3e22120b	0.15827195
42	0x3ea62cf8	0.32456183
43	0x3e6c0650	0.23049283
44	0xbcb70202	-0.022339825
45	0x3d0ee274	0.03488393
46	0xbcda46ea	-0.026645143
47	0x3d83b4d5	0.06430975
48	0xbdcec90f	-0.10096943
49	0xbe12737c	-0.14301866
50	0x3d34a860	0.044105887
51	0xbd4413c0	-0.047870398
52	0x3bf8c2e4	0.007591592
53	0x3e1faf63	0.15594248
54	0x3cc195d8	0.023631021
55	0xbd150a80	-0.036386967
56	0x3d4e273e	0.050330393
57	0xbdcf11fb	-0.101108514
58	0xbe0ff0ae	-0.14056656
59	0x3d111534	0.03542061
60	0xbd2759ab	-0.040857
61	0x3c34f045	0.011043613
62	0x3e128b51	0.14310957
63	0x3d177c6d	0.036983896
64	0xbcc60813	-0.024173772
65	0x3d8446c2	0.064588085
66	0xbdcbaf66	-0.09945564
67	0xbe14d8ab	-0.14535777
68	0x3d364629	0.044500504
69	0xbd4375f8	-0.047719926
70	0x3bfffe47	0.0078122946
71	0x3e1fc978	0.15604198
72	0xb7e747fd	-2.7570868e-05
73	0xb6122a3c	-2.178028e-06
74	0xb64e48e4	-3.073882e-06
75	0x374448e5	1.16994825e-05
76	0x36bbb797	5.594407e-06
77	0x38a04160	7.6415716e-05
78	0x37825dca	1.5540882e-05
79	0x36e0d90a	6.700987e-06
80	0xb7934c73	-1.7559365e-05
81	0x32fc524f	2.937409e-08
82	0xb4c3b215	-3.6451152e-07
83	0xb3cc524e	-9.5144614e-08
84	0xb61aa2d6	-2.3042571e-06
85	0x349a86ec	2.8782904e-07
86	0x34a2f3e3	3.0352302e-07
87	0xb52cb574	-6.433904e-07
88	0x33bd6ea6	8.821125e-08
89	0xb6064d54	-2.0012567e-06
90	0x3d882a50	0.066486955
91	0xbdef789d	-0.11692927
92	0xbda9ea7e	-0.08296679
93	0xbe555120	-0.20831728
94	0xbeeada01	-0.4586945
95	0xbe53cc13	-0.20683317
96	0x3dfd8079	0.1237802
97	0x3d3ab89f	0.045586225
98	0x3e6e8d27	0.23296033
99	0x38266b77	3.967757e-05
100	0xb68bde3f	-4.1683957e-06
101	0x372c8207	1.0282273e-05
102	0xb7599ebc	-1.2971166e-05
103	0x36f5aa7e	7.321417e-06
104	0xb544ddce	-7.333846e-07
105	0x37549ef0	1.267319e-05
106	0xb65a920b	-3.256954e-06
107	0xb7204d70	-9.554773e-06
108	0x3d883ea7	0.06652575
109	0xbde8c3ed	-0.11365495
110	0xbda76e7c	-0.0817537
111	0xbe573212	-0.21015194
112	0xbeea4ce5	-0.4576179
113	0xbe59987e	-0.21249577
114	0x3e02383a	0.12716761
115	0x3d2deb7f	0.042460915
116	0x3e6d1669	0.2315308
117	0x3e5e5024	0.21710259
118	0x3ea115bb	0.31461892
119	0x3e95e744	0.29278004
120	0x3eac2ab6	0.33626336
121	0x3eed0a90	0.4629712
122	0x3e981c25	0.29708973
123	0x3e53f72c	0.20699757
124	0x3e27cb6a	0.1638619
125	0x3d5bb6ed	0.05364125
126	0x3e666b6c	0.22501916
127	0x3e9f7b6d	0.31148854
128	0x3e93d6ec	0.2887491
129	0x3ea60601	0.32426456
130	0x3edda7f7	0.4329221
131	0x3e92db77	0.28683063
132	0x3e47a036	0.1949471
133	0x3e242e0d	0.16033192
134	0x3d938462	0.072029844
135	0x3e5fe10f	0.21863197
136	0x3e9d964b	0.30778727
137	0x3e95a0b9	0.29224184
138	0x3eab85c7	0.33500502
139	0x3eef347f	0.4671974
140	0x3e98cbc5	0.29842964
141	0x3e573f14	0.21020156
142	0x3e2615f7	0.16219316
143	0x3d5d4d5f	0.054028865
144	0x3308a3d9	3.1813986e-08
145	0xafb416ca	-3.2758002e-10
146	0xb2d3311a	-2.4585962e-08
147	0x327035db	1.3982084e-08
148	0xb20a7eea	-8.061514e-09
149	0xb27e9ab7	-1.4819924e-08
150	0x320a888c	8.063704e-09
151	0xb2bc47ff	-2.191882e-08
152	0xb2bb5676	-2.1808983e-08
153	0x2a4d29d9	1.8222176e-13
154	0xabf4bb57	-1.738924e-12
155	0xaba09d15	-1.1412283e-12
156	0x2b76aedf	8.763944e-13
157	0xac0f1fdf	-2.0339214e-12
158	0xaaeff8dc	-4.262761e-13
159	0xab42f638	-6.926434e-13
160	0xab830014	-9.308132e-13
161	0x2b05a355	4.747776e-13
162	0xbb8d2938	-0.004307892
163	0xbb909cde	-0.0044132313
164	0xbb93d2a2	-0.0045111934
165	0xbb90ee20	-0.004422918
166	0xbb9d462c	-0.004799625
167	0xbb96154c	-0.0045801755
168	0xbb917f0f	-0.0044401954
169	0xbb9a95da	-0.0047175707
170	0xbb967837	-0.0045919674
171	0xaba18690	-1.1477087e-12
172	0x2a281c1e	1.4931153e-13
173	0xaaf91d47	-4.42516e-13
174	0xab40dd1d	-6.851896e-13
175	0x2ad013cd	3.6961962e-13
176	0x2c14de4f	2.115547e-12
177	0xaa88b8eb	-2.4286766e-13
178	0x2b62dd73	8.059865e-13
179	0x2c2c7d16	2.4512107e-12
180	0xbb8cafc6	-0.0042934148
181	0xbb90ffd2	-0.0044250274
182	0xbb92fe15	-0.0044858553
183	0xbb95c2f1	-0.004570358
184	0xbb9c15c6	-0.004763338
185	0xbb9b130b	-0.0047324947
186	0xbb8f19e7	-0.0043671015
187	0xbb99812b	-0.0046845875
188	0xbb958ab7	-0.0045636552
189	0xbb76a6a1	-0.003763594
190	0xbb82ca8d	-0.003991431
191	0xbb807fe9	-0.003921498
192	0xbb8e346c	-0.0043397453
193	0xbb959ed6	-0.004566054
194	0xbb94913c	-0.004533915
195	0xbb91b51a	-0.004446638
196	0xbb963ef7	-0.0045851427
197	0xbb980cd8	-0.004640203
198	0xbb6f47a1	-0.00365112
199	0xbb7ce6b5	-0.003858966
200	0xbb8031a8	-0.0039121695
201	0xbb893215	-0.0041868784
202	0xbb905cc2	-0.004405589
203	0xbb906c80	-0.0044074655
204	0xbb8d0eda	-0.004304749
205	0xbb90a07c	-0.0044136625
206	0xbb9502a4	-0.004547434
207	0xbb74842d	-0.0037310228
208	0xbb81efba	-0.003965345
209	0xbb7fbe94	-0.0039023506
210	0xbb8e0381	-0.004333914
211	0xbb93fa43	-0.0045159175
212	0xbb94826f	-0.0045321505
213	0xbb905493	-0.0044046133
214	0xbb959c14	-0.004565725
215	0xbb969e68	-0.00459652
216	0x0001344d	1.10597e-40
217	0x80008ae6	-4.9827e-41
218	0x80004914	-2.6215e-41
219	0x80010621	-9.4034e-41
220	0x00000898	3.083e-42
221	0x800024f6	-1.3259e-41
222	0x000103a2	9.3139e-41
223	0x800063c3	-3.5788e-41
224	0x800134dd	-1.10799e-40
225	0x800053bf	-3.0042e-41
226	0x80026614	-2.2029e-40
227	0x00002ea0	1.6726e-41
228	0x000141e9	1.1548e-40
229	0x80019233	-1.44282e-40
230	0x80008844	-4.8883e-41
231	0x8001f6de	-1.80395e-40
232	0x80022085	-1.95337e-40
233	0x80017a37	-1.35678e-40
234	0x00001219	6.492e-42
235	0x0000664f	3.6701e-41
236	0x8000af84	-6.2963e-41
237	0x0000b95e	6.6497e-41
238	0x80003bcd	-2.1452e-41
239	0x80008295	-4.6844e-41
240	0x80001712	-8.276e-42
241	0x0000b284	6.404e-41
242	0x00006abe	3.8292e-41
243	0x00007e1a	4.5237e-41
244	0x80002d91	-1.6346e-41
245	0x00009d50	5.6433e-41
246	0x00012bdc	1.07569e-40
247	0x800109e7	-9.5388e-41
248	0x000100e2	9.2152e-41
249	0x80012b4e	-1.0737e-40
250	0x0000a636	5.9625e-41
251	0x80011f0d	-1.02974e-40
252	0x80002c19	-1.5819e-41
253	0x0000e1fc	8.1068e-41
254	0x80012fb5	-1.0895e-40
255	0x000034d0	1.8946e-41

encoder_cnn.3.bias f4 [16]
0	0x3d5c780d	0.053825427
1	0x3e83de76	0.25755662
2	0xbb98b018	-0.004659664
3	0xaa47d83b	-1.774977e-13
4	0xa5825a70	-2.2612688e-16
5	0xba5eb0f0	-0.00084949937
6	0xa1d08de7	-1.4132189e-18
7	0xb8c31810	-9.3028066e-05
8	0xac8dfdf6	-4.0356564e-12
9	0xa87fba8c	-1.41957945e-14
10	0xaa817eaa	-2.3002894e-13
11	0xa73297cf	-2.4784758e-15
12	0x3e207fa6	0.15673694
13	0x3e38c4f5	0.18043883
14	0xa8af24dc	-1.9444888e-14
15	0xa9149756	-3.2993865e-14

encoder_cnn.6.weight f4 [32, 16, 3, 3]
0	0xbd4bb93b	-0.049737196
1	0x3de59022	0.11209132
2	0xbcdd70cc	-0.027031325
3	0x3e05f297	0.13080822
4	0x3ce44b34	0.02786789
5	0xbe75e894	-0.24014503
6	0x3e4d8cb0	0.200732
7	0xbcac8175	-0.021057824
8	0xbe072974	-0.13199407
9	0x3d8fa6a9	0.0701421
10	0xbd7f7ca8	-0.06237474
11	0x3d23753f	0.039906736
12	0xbdef90ab	-0.11697515
13	0x3d81cc5e	0.06337808
14	0x3deb4b71	0.11488999
15	0xbe2a083d	-0.16604705
16	0x3e49fe43	0.197259
17	0x3e044f5a	0.12920895
18	0xb8a36bef	-7.79255e-05
19	0xb9dccc3a	-0.0004211383
20	0xb9b6307f	-0.00034749878
21	0xb9dbb4a6	-0.0004190553
22	0xba02becc	-0.00049875374
23	0xba1ebdca	-0.00060555025
24	0xb9f3e0ee	-0.00046516157
25	0xba66efb1	-0.00088095205
26	0xba29d86e	-0.0006479089
27	0x8002ec91	-2.68535e-40
28	0x80057ddb	-5.04326e-40
29	0x8003c5f2	-3.46516e-40
30	0xb2d4e6b2	-2.4784956e-08
31	0x8003e49b	-3.57515e-40
32	0xb7d6c5de	-2.5602927e-05
33	0x89d27a25	-5.0670525e-33
34	0x0001894f	1.41093e-40
35	0x0002ae33	2.46162e-40
36	0x00008020	4.5963e-41
37	0x8004d27a	-4.42847e-40
38	0x0004b8fb	4.337e-40
39	0x0000cf73	7.4419e-41
40	0x000556cf	4.90319e-40
41	0x00032b0f	2.90953e-40
42	0x00033be9	2.96998e-40
43	0x0000ddfe	7.9636e-41
44	0x00013c99	1.13574e-40
45	0xb9ada26c	-0.00033118145
46	0xba0188ac	-0.0004941325
47	0x38d70616	0.000102531325
48	0x39e90c59	0.00044450423
49	0xb9cb9759	-0.0003883194
50	0xb9bb32b3	-0.00035705193
51	0xb99a394e	-0.00029415864
52	0xb994368c	-0.000282694
53	0xb990de30	-0.00027631363
54	0x80008a98	-4.9718e-41
55	0x80081380	-7.41679e-40
56	0x00071c94	6.531e-40
57	0x8002b567	-2.48746e-40
58	0x80010df5	-9.6842e-41
59	0x0000fd10	9.0782e-41
60	0x80038e4c	-3.26553e-40
61	0x34cba481	3.793139e-07
62	0x800223fc	-1.9658e-40
63	0xb7e5ae9b	-2.7380234e-05
64	0xb8d46239	-0.00010127243
65	0xb78f6755	-1.7095046e-05
66	0xb88de72f	-6.766465e-05
67	0xb889e1d6	-6.574734e-05
68	0xb85968c9	-5.183442e-05
69	0xb82365e4	-3.895712e-05
70	0xb8b39c97	-8.564552e-05
71	0xb7ba3225	-2.2196278e-05
72	0x80024620	-2.08827e-40
73	0x00029ace	2.39204e-40
74	0x800177f4	-1.34867e-40
75	0xad345acc	-1.0251976e-11
76	0x80015f6f	-1.2607e-40
77	0x80030911	-2.78759e-40
78	0x0001394a	1.12387e-40
79	0x800564ff	-4.95408e-40
80	0x00028e7b	2.34783e-40
81	0x00032b73	2.91093e-40
82	0x000636c8	5.70665e-40
83	0x0004d42e	4.43458e-40
84	0x0004025e	3.68191e-40
85	0x0007798c	6.86451e-40
86	0x8000b7ad	-6.589e-41
87	0xaea5c555	-7.5383845e-11
88	0x00037b36	3.19706e-40
89	0x000228dc	1.98329e-40
90	0x0000da82	7.8386e-41
91	0x33647de8	5.3199898e-08
92	0xb4357df1	-1.6902756e-07
93	0x80007f16	-4.559e-41
94	0x80023b9c	-2.05055e-40
95	0x0007abac	7.04433e-40
96	0xa23684b0	-2.4735844e-18
97	0x313afa09	2.720869e-09
98	0x0001bae9	1.58886e-40
99	0x8000c4df	-7.0624e-41
100	0xb4dad6db	-4.0761992e-07
101	0x00014a31	1.1845e-40
102	0x00088f01	7.85984e-40
103	0xb92c5263	-0.0001643389
104	0x80047a4f	-4.11218e-40
105	0x00012adc	1.0721e-40
106	0x0001fa0b	1.81534e-40
107	0x0006248a	5.64121e-40
108	0x3d8dedb0	0.06930101
109	0xbce63c23	-0.028104847
110	0x3d3745d3	0.044744324
111	0xbdc8e6c4	-0.0980964
112	0x3d017176	0.031602345
113	0x3e867c5c	0.26266754
114	0xbe29b1a8	-0.16571677
115	0x3e16f73c	0.1474275
116	0x3e32f29b	0.17475359
117	0xbc6223c6	-0.013802474
118	0x3b713bb6	0.0036809272
119	0x3d5e8ea0	0.054335237
120	0xbe33eeeb	-0.17571609
121	0x3e999d26	0.30002707
122	0x3de745e5	0.11292628
123	0xbe05d345	-0.13068874
124	0x3cb0b53c	0.021570794
125	0xbcf66062	-0.030075256
126	0x0000e38f	8.1633e-41
127	0x0002464d	2.0889e-40
128	0x2a774207	2.1960915e-13
129	0x80013ae9	-1.12968e-40
130	0x000043d9	2.4339e-41
131	0x0003f8f9	3.64821e-40
132	0x0002ed0e	2.6871e-40
133	0x00031a4c	2.8494e-40
134	0x0004ba59	4.34191e-40
135	0x8000a8f9	-6.0616e-41
136	0xb845b3ac	-4.7135793e-05
137	0x00046603	4.03937e-40
138	0xac943568	-4.2123423e-12
139	0xb703b8d9	-7.851247e-06
140	0x800b6a82	-1.048398e-39
141	0x80017ed1	-1.37329e-40
142	0xb357e382	-5.0265506e-08
143	0x800394b0	-3.28846e-40
144	0x3e0dc2db	0.13843863
145	0x3d96e16a	0.07367213
146	0x3e679ca8	0.22618353
147	0xbe590736	-0.21194157
148	0xbea15677	-0.3151128
149	0xbd1e9918	-0.03872022
150	0x3c457e4f	0.01205404
151	0xbd83188a	-0.06401165
152	0x3d29ea66	0.041483305
153	0xbe2c1599	-0.16805114
154	0xbe3717dd	-0.17880197
155	0xbe249361	-0.16071846
156	0x3e8bb520	0.27286625
157	0x3e366e75	0.17815574
158	0x3d292be2	0.041301616
159	0x3d005cad	0.031338383
160	0x3da407af	0.08009278
161	0xbc9c72f2	-0.019097779
162	0x39844520	0.00025228504
163	0xb8e701a4	-0.00011015244
164	0xba77b9b2	-0.0009449973
165	0x3aa3d7b3	0.0012500196
166	0x3a65def7	0.0008768881
167	0x39c378c2	0.0003728327
168	0x3a704c2f	0.00091666257
169	0xba4abbb4	-0.00077336584
170	0x389a1db0	7.348822e-05
171	0x8000dc14	-7.8949e-41
172	0x800048b9	-2.6088e-41
173	0x800103c0	-9.3181e-41
174	0x8000338f	-1.8496e-41
175	0x80005af3	-3.2626e-41
176	0x0000d3f6	7.6037e-41
177	0x0000d861	7.7622e-41
178	0x8001480a	-1.17678e-40
179	0x00010746	9.4445e-41
180	0x80010a6e	-9.5577e-41
181	0x00014feb	1.20505e-40
182	0x0001b260	1.55824e-40
183	0x8001085e	-9.4837e-41
184	0x800185e7	-1.3987e-40
185	0x8000e6c8	-8.2789e-41
186	0x8000c933	-7.2177e-41
187	0x8000aaa1	-6.121e-41
188	0x800156a7	-1.2292e-40
189	0x389d6eae	7.506959e-05
190	0xb7eda5a3	-2.8329732e-05
191	0x38ef538f	0.00011411972
192	0x3a20a061	0.0006127414
193	0x38b7ae96	8.758639e-05
194	0xb7913543	-1.7310149e-05
195	0x39b41f0d	0.0003435541
196	0xb8e7236b	-0.000110215355
197	0xb8da4ac1	-0.00010408974
198	0x0000f4ac	8.7772e-41
199	0x800161ba	-1.26893e-40
200	0x0000f838	8.9044e-41
201	0x8000f8f6	-8.931e-41
202	0x00009c6b	5.6112e-41
203	0x0000f7d8	8.891e-41
204	0x00001f0d	1.1139e-41
205	0x800020c3	-1.1753e-41
206	0x800033a0	-1.852e-41
207	0xb64ceb67	-3.053539e-06
208	0xb68df340	-4.2304455e-06
209	0xb767123a	-1.3772917e-05
210	0x386a0e26	5.5803124e-05
211	0x3736f2ec	1.0904605e-05
212	0xb78da0d0	-1.6883394e-05
213	0x36c523c6	5.875222e-06
214	0xb7c0e589	-2.299507e-05
215	0xb786c138	-1.606402e-05
216	0x8001613e	-1.2672e-40
217	0x0000e3b2	8.1682e-41
218	0x00012bf9	1.0761e-40
219	0x800004fb	-1.787e-42
220	0x8000fd8e	-9.0958e-41
221	0x0001155f	9.9502e-41
222	0x80000557	-1.916e-42
223	0x8000537d	-2.995e-41
224	0x0000faa3	8.9912e-41
225	0x00003757	1.9852e-41
226	0x0000df93	8.0203e-41
227	0x00010c9d	9.636e-41
228	0x000049e5	2.6508e-41
229	0x00014a0d	1.184e-40
230	0x000031ca	1.7861e-41
231	0x0001135d	9.8782e-41
232	0x8000b451	-6.4685e-41
233	0x0001023a	9.2634e-41
234	0x00016d83	1.31121e-40
235	0x800088a8	-4.9023e-41
236	0x0000c77d	7.1563e-41
237	0x00005ef2	3.406e-41
238	0x00010ffd	9.7571e-41
239	0x00010993	9.527e-41
240	0x8000837d	-4.7169e-41
241	0x0000a4ef	5.9167e-41
242	0x00013c38	1.13438e-40
243	0x8000fd92	-9.0964e-41
244	0x8000a980	-6.0805e-41
245	0x80004678	-2.528e-41
246	0x80003fce	-2.2889e-41
247	0x80004c29	-2.7321e-41
248	0x0000e562	8.2287e-41
249	0x0000b053	6.3253e-41
250	0x00007972	4.3566e-41
251	0x00014b36	1.18816e-40
252	0xbdcfd08e	-0.101472005
253	0xbd8bc25d	-0.06824181
254	0xbddde768	-0.10835153
255	0x3ea0197f	0.31269452

encoder_cnn.6.bias f4 [32]
0	0x3b8f390c	0.004370814
1	0xbbb077f8	-0.005385395
2	0x35e94122	1.7378809e-06
3	0x3d016098	0.03158626
4	0x3bee4911	0.007271894
5	0x3c239fd3	0.0099868355
6	0x9e8022bc	-1.3566893e-20
7	0xb9a80577	-0.0003204753
8	0x3c2fc686	0.010728484
9	0xb8d396ac	-0.00010089329
10	0x3ce3efd8	0.027824327
11	0xb6b53b70	-5.40114e-06
12	0x3c93ff7b	0.018066159
13	0xbbb389cb	-0.0054790727
14	0x185580cb	2.7594629e-24
15	0xb9d8bec3	-0.0004134086
16	0xb9dd78f8	-0.00042242534
17	0xbb326ac1	-0.0027224275
18	0x3cdce624	0.026965208
19	0x1f930e8a	6.2280974e-20
20	0x39e56d1e	0.00043759582
21	0xb743119f	-1.16270085e-05
22	0x3a9c099d	0.001190472
23	0x3c2e3f54	0.010635216
24	0x3cd597fa	0.026073445
25	0xb7ee14af	-2.8381442e-05
26	0x3c4e4d22	0.012591632
27	0x26f0540c	1.6676126e-15
28	0x3c43bfd5	0.011947592
29	0xb93db045	-0.0001809011
30	0x3c769c77	0.015051953
31	0xb7df6adf	-2.6633437e-05

encoder_lin.0.weight f4 [64, 288]
0	0x3b84a640	0.004048139
1	0xbd7d5579	-0.06184909
2	0x3d6a5a15	0.057214815
3	0x3d5c944e	0.053852372
4	0x3d1fa9ad	0.038980175
5	0xbc9c7163	-0.019097036
6	0xbd00c893	-0.031441282
7	0xbc4930a3	-0.012279662
8	0xbbde1c63	-0.0067782863
9	0x3b9485f1	0.0045325686
10	0xbd1b9bb2	-0.03799028
11	0xbc893352	-0.016748104
12	0x3c9a377e	0.018825289
13	0xbd0a2370	-0.033725202
14	0xbd43a38e	-0.0477634
15	0xbba36557	-0.004986446
16	0xbd2e52df	-0.0425595
17	0xbd18a481	-0.03726626
18	0xb3224951	-3.7785245e-08
19	0x35be3503	1.4171532e-06
20	0xb2dda84f	-2.5804324e-08
21	0x354b981c	7.584474e-07
22	0x34ce868f	3.8468394e-07
23	0xb3a431e4	-7.64592e-08
24	0x34505131	1.9401047e-07
25	0x355e05ea	8.271005e-07
26	0xb3054be9	-3.1035515e-08
27	0x3c5262f9	0.01284098
28	0x3afc2da2	0.0019239674
29	0x3d1aaa70	0.037760198
30	0x3c2aa982	0.01041639
31	0xbc5eede5	-0.013606523
32	0xbc9d03ea	-0.019166905
33	0xbc9e109c	-0.01929503
34	0x3e79ab7b	0.24381821
35	0x3d4fa441	0.050693754
36	0x3b81ae28	0.0039575286
37	0x3c5cf8fd	0.013487098
38	0x3c8d5648	0.017253056
39	0x3c2a7f8b	0.010406385
40	0x3d01086e	0.03150218
41	0xbd1935c3	-0.037404787
42	0x3c3ee76e	0.011651857
43	0x3e0dffba	0.13867083
44	0x3c77ee88	0.015132554
45	0x3c8261bf	0.01591575
46	0x3d1b0baf	0.03785294
47	0xbc429ef8	-0.011878721
48	0xbcd3ebbf	-0.025869248
49	0x3d06e901	0.032937054
50	0xbd8814c3	-0.06644585
51	0xbc097768	-0.008390285
52	0xbe710ca0	-0.23539972
53	0x3d650076	0.055908643
54	0x1d225603	2.1484988e-21
55	0x1d9752fd	4.0055175e-21
56	0x9cb96e82	-1.2270839e-21
57	0x1d5d9fe7	2.9331774e-21
58	0x9b458b58	-1.6340482e-22
59	0x1cfb6258	1.6635208e-21
60	0x1d812a83	3.418997e-21
61	0x1c8b4350	9.215648e-22
62	0x1d109641	1.913592e-21
63	0xba7ba2f0	-0.000959917
64	0x38f0f426	0.00011489568
65	0x3863917d	5.4256514e-05
66	0xb93cd532	-0.00018008499
67	0x39859038	0.00025475188
68	0xb91aa856	-0.00014749294
69	0xb930fb15	-0.00016878203
70	0xb69db8fa	-4.7004987e-06
71	0xb916a25e	-0.00014365601
72	0xbafd5f92	-0.001933085
73	0x3d9dc2dc	0.07703182
74	0xbdb027ca	-0.08601339
75	0xbcdabb10	-0.026700526
76	0x3baef2df	0.005339011
77	0xbd810e7a	-0.06301589
78	0xbc2b125b	-0.010441388
79	0xbda4208d	-0.08014021
80	0x3c915988	0.017742887
81	0xb236c6b6	-1.0638976e-08
82	0xb853a939	-5.046392e-05
83	0x36ec2683	7.0378314e-06
84	0x37ec6673	2.8181099e-05
85	0x3a0806de	0.00051890116
86	0xb8b00471	-8.393161e-05
87	0xb7045117	-7.886693e-06
88	0xb94b4926	-0.00019386839
89	0x36b6386a	5.43059e-06
90	0x3c6d6cad	0.014491242
91	0x3d69392b	0.056939285
92	0xbc8a4f03	-0.016883379
93	0x3d5915d5	0.052999336
94	0xbbe36b51	-0.0069402833
95	0xbd0d8375	-0.034549195
96	0x3d95c128	0.07312232
97	0xbd00d2dd	-0.031451095
98	0x3d43fc27	0.047847893
99	0x32d36a2c	2.4611914e-08
100	0x364c9807	3.048686e-06
101	0xb3e558de	-1.0679808e-07
102	0x34ae89d2	3.2510303e-07
103	0x3818f350	3.6466226e-05
104	0xb4765b2c	-2.2943703e-07
105	0xb5ed13ed	-1.7663675e-06
106	0x37a39e92	1.9504954e-05
107	0x3566ff2b	8.6052995e-07
108	0x3ba89b31	0.0051454534
109	0x3c12bb00	0.008955717
110	0x3d1deb39	0.038554404
111	0x3d9434a1	0.07236601
112	0xbd5d3125	-0.054001946
113	0xbd195034	-0.037430003
114	0x3db72a07	0.08943563
115	0x3d4cc779	0.04999492
116	0x3cb4e471	0.022081586
117	0x3beaa66e	0.0071609532
118	0xba88f375	-0.0010448532
119	0xbd7dc09c	-0.061951265
120	0xbbd2a61c	-0.006428493
121	0xbcceb282	-0.025231604
122	0xbcbdc0b0	-0.02316317
123	0xbd68ec9d	-0.056866277
124	0xbe03f2e0	-0.12885618
125	0x3d487ef1	0.048949186
126	0x16a2374e	2.6207414e-25
127	0x16ad208d	2.79702e-25
128	0x9517f2e9	-3.068583e-26
129	0x95806042	-5.1850656e-26
130	0xa402c8c1	-2.8359302e-17
131	0x15638dd6	4.5954174e-26
132	0x150632aa	2.710105e-26
133	0x15b844b0	7.442538e-26
134	0x167990bc	2.015973e-25
135	0x34612ef9	2.0971846e-07
136	0xb915af87	-0.00014275136
137	0xb781436a	-1.540939e-05
138	0x37433072	1.1634185e-05
139	0xba169831	-0.0005744724
140	0xba765370	-0.00093965884
141	0x35fad0da	1.8687235e-06
142	0xb9fd66bb	-0.0004833246
143	0xb61cffbf	-2.3394675e-06
144	0x339072f5	6.726433e-08
145	0x37ab4907	2.0418795e-05
146	0x388589a9	6.3675754e-05
147	0xb61e4c6f	-2.3588325e-06
148	0x3a59a6b6	0.0008302735
149	0x39256d9f	0.00015776463
150	0xb52e2c68	-6.488467e-07
151	0x37d44bce	2.5307669e-05
152	0x39405d98	0.00018345413
153	0xb9a62113	-0.0003168663
154	0xb98f320c	-0.00027312373
155	0x38cf9fa9	9.900268e-05
156	0xb988909c	-0.00026047684
157	0xba25e209	-0.00063279324
158	0xb983cef8	-0.0002514047
159	0xb90efcec	-0.00013636396
160	0xba095174	-0.0005238273
161	0x3a1a1751	0.0005878108
162	0x3c4c2d28	0.012461938
163	0xbbd8bb3c	-0.006614117
164	0x3d02c2c3	0.03192402
165	0x3c9396bc	0.018016212
166	0xbce391eb	-0.02777954
167	0xbc41ad1a	-0.011821056
168	0xbc9146db	-0.017733982
169	0x3d3ce46b	0.046116274
170	0x3d842b63	0.06453588
171	0x132629a2	2.0972672e-27
172	0x132a23b7	2.1474625e-27
173	0x9386f61f	-3.406905e-27
174	0x1380f9b6	3.2557977e-27
175	0xa147c50b	-6.7684607e-19
176	0x931ef946	-2.0065305e-27
177	0x1211d80b	4.6020226e-28
178	0x92ba5ef7	-1.1761661e-27
179	0x12d6f7f2	1.3566422e-27
180	0x3b214280	0.0024606287
181	0xbcfea06a	-0.03108235
182	0xba431e29	-0.0007443154
183	0x3ba96b01	0.0051702266
184	0xbd606f83	-0.054793846
185	0xbd76bb10	-0.06023699
186	0xbc6f5319	-0.014607214
187	0xbe472069	-0.19445957
188	0x3d840bd2	0.06447567
189	0x35f382e4	1.8143005e-06
190	0x36f3607f	7.253198e-06
191	0x34c78829	3.7165708e-07
192	0xb6cd4355	-6.1173146e-06
193	0x38147233	3.5392306e-05
194	0x377c1b03	1.502666e-05
195	0xb554448c	-7.9075903e-07
196	0x381caa59	3.7351947e-05
197	0x36f48994	7.287783e-06
198	0xbbc0cf12	-0.0058840597
199	0xbdc1d9c7	-0.09465366
200	0x3c9f8d79	0.01947664
201	0x3d471210	0.04860121
202	0x3cdc8544	0.026919015
203	0x3a39fdb0	0.00070949923
204	0xbbc4893b	-0.0059978045
205	0xbd8d76ec	-0.06907448
206	0x3d2ff014	0.042953566
207	0x3c24c5e0	0.010056943
208	0xbd1dd9b3	-0.038537692
209	0x3d12dfcb	0.035857957
210	0x3bdaf596	0.006682108
211	0x3c019544	0.007909123
212	0x3c064523	0.008195194
213	0xbdd765e9	-0.10517485
214	0x3d083b15	0.03325947
215	0x3cde03f9	0.027101504
216	0x3c7a0b21	0.015261442
217	0xbc8ea883	-0.017414337
218	0x3cc8c3f7	0.024507506
219	0x3df645ff	0.120250694
220	0xb9d0e192	-0.00039840915
221	0x3b309a78	0.002694754
222	0x3d55d80c	0.05220799
223	0xbd8e4ca8	-0.06948215
224	0x3cdc7e3d	0.026915664
225	0xb5a8d9dc	-1.2580381e-06
226	0x3662801d	3.3751196e-06
227	0xb7d20451	-2.503596e-05
228	0xb71f23cb	-9.485472e-06
229	0xb8e2dd20	-0.000108177075
230	0xb89f8213	-7.605939e-05
231	0xb70d785f	-8.432281e-06
232	0xb7bddd89	-2.2633716e-05
233	0xb82e3818	-4.1537074e-05
234	0x3bba64ae	0.0056882715
235	0x3d0203f8	0.031742066
236	0xbc83cad1	-0.016087921
237	0x3bb55e8a	0.0055349516
238	0x3dd63d4a	0.10460909
239	0xbbee18ba	-0.007266131
240	0xbcd0a5fc	-0.025469773
241	0xbe34346c	-0.17598122
242	0x3d32903c	0.043594584
243	0x27821129	3.6100853e-15
244	0xa6f186bc	-1.6759254e-15
245	0xa71dbd3a	-2.1890707e-15
246	0x26e7c1b9	1.6081354e-15
247	0x269fcbf5	1.1088124e-15
248	0xa6e07af5	-1.557645e-15
249	0xa59fcd50	-2.7721228e-16
250	0xa6dbc35a	-1.5249128e-15
251	0xa716ba74	-2.0917758e-15
252	0xbbab428d	-0.0052264393
253	0xbd96d1cb	-0.073642336
254	0x3b2e5629	0.0026601648
255	0xbaa5cf1d	-0.0012650226

encoder_lin.0.bias f4 [64]
0	0x3b7cb53b	0.003856017
1	0xb83d4b7d	-4.5131415e-05
2	0xbb77b8b1	-0.0037799294
3	0x3b51b251	0.0031997154
4	0xb82189e9	-3.851383e-05
5	0x36dd8cd3	6.6027073e-06
6	0x3b61bb3f	0.0034443883
7	0x39899c29	0.00026247025
8	0xbae04d5a	-0.0017112896
9	0x36a87703	5.020645e-06
10	0xb99f3c15	-0.00030371608
11	0xae913c10	-6.604506e-11
12	0xb13064ea	-2.5668734e-09
13	0x38d578ca	0.0001017913
14	0x3b8369b8	0.0040104054
15	0x37187cab	9.0889325e-06
16	0x3bd6da13	0.006556758
17	0xbae2e094	-0.0017309361
18	0x30867635	9.78338e-10
19	0x36b91890	5.516289e-06
20	0xb7614c48	-1.3428806e-05
21	0xb41a3c02	-1.4364198e-07
22	0xb2ee5eb1	-2.7749907e-08
23	0x3c0b9e77	0.008521668
24	0xba8d6b68	-0.0010789456
25	0x3b25d8d9	0.0025306253
26	0x310b5cf7	2.0280007e-09
27	0xbb23b038	-0.002497686
28	0x3ad43724	0.001619075
29	0x3ac33b64	0.0014895019
30	0xbab5159a	-0.0013815642
31	0x3c17153d	0.009221372
32	0x3b81559c	0.003946973
33	0xbb4d77e2	-0.0031351973
34	0x3693a5e4	4.4002536e-06
35	0xb84ed8da	-4.9316186e-05
36	0x3935e0a9	0.00017345198
37	0x3b60cddd	0.0034302392
38	0xb8061236	-3.196505e-05
39	0xbaad64fb	-0.0013228947
40	0x349af16b	2.886039e-07
41	0x3935f504	0.0001735278
42	0x3b6a26c8	0.0035728682
43	0x3bf33403	0.0074219718
44	0xbbcca1a9	-0.0062448573
45	0xb5c71f88	-1.4835832e-06
46	0xb0069aff	-4.896918e-10
47	0x39a6be38	0.0003180371
48	0xb5ad6e46	-1.2921598e-06
49	0xba7d4724	-0.0009661785
50	0xba426723	-0.0007415881
51	0xbb8cf461	-0.004301593
52	0xae62741a	-5.148957e-11
53	0x3a52c2c6	0.0008039888
54	0xb8fb2c94	-0.00011976916
55	0x315bf676	3.2008791e-09
56	0xb78be9ec	-1.667902e-05
57	0x37ba8f05	2.2239527e-05
58	0x38d41b54	0.00010114038
59	0xba3c0d60	-0.0007173624
60	0xbb25fefd	-0.0025328987
61	0x3b914bb2	0.0044340724
62	0x3ac6355a	0.0015122101
63	0xb9a475d1	-0.00031368298

encoder_lin.3.weight f4 [8, 64]
0	0xbef870d6	-0.48523587
1	0x392870aa	0.00016063699
2	0xbe0396ba	-0.12850466
3	0xbdf377a2	-0.118880525
4	0xb858b7b1	-5.166949e-05
5	0xb96e6177	-0.00022733757
6	0x3cabf6dd	0.020991737
7	0xbafbdbd8	-0.0019215299
8	0x3bee3ff1	0.007270806
9	0xb487ce8f	-2.5296e-07
10	0xbe887e58	-0.26658893
11	0x331bba8f	3.6258424e-08
12	0x30035943	4.778437e-10
13	0xb97b4140	-0.00023961533
14	0xbecaf79f	-0.39642045
15	0xba6920ab	-0.00088931125
16	0xbe7053dd	-0.23469491
17	0xbe305e02	-0.17223361
18	0x3208907f	7.9490965e-09
19	0x37d84412	2.5780904e-05
20	0x35c66f30	1.4784509e-06
21	0xb56b283d	-8.7602876e-07
22	0xb4b4ee6e	-3.3701093e-07
23	0xbd60270a	-0.05472473
24	0x3e2d5355	0.1692632
25	0xbdbd9562	-0.09257008
26	0x31067a9d	1.9569264e-09
27	0x3e50ac80	0.20378304
28	0x3c80a86b	0.015705308
29	0x3d66e742	0.05637289
30	0xbd8f25e3	-0.06989648
31	0xbd2dbffe	-0.042419426
32	0x3d7b79a1	0.06139529
33	0x3ece37d5	0.4027697
34	0x340714be	1.2580401e-07
35	0xba52ad4e	-0.00080366887
36	0xba5a16f0	-0.0008319458
37	0xbc82b043	-0.015953189
38	0xbdbe3868	-0.092881024
39	0xbebee287	-0.37282202
40	0xb691e3b5	-4.3478453e-06
41	0x3eaf755d	0.3426923
42	0xba58bc4a	-0.00082678034
43	0x3ebefcb2	0.37302166
44	0x3dcdc138	0.10046619
45	0xb64d1943	-3.0562085e-06
46	0xb0f90a1c	-1.8120008e-09
47	0x3c16f913	0.009214657
48	0x3491c448	2.7151168e-07
49	0x3deeb293	0.11655154
50	0x3be2a8a7	0.0069170776
51	0xbdf85e49	-0.121273585
52	0xadb6f613	-2.0800283e-11
53	0x3eaf7524	0.3426906
54	0xb9019f5a	-0.00012361762
55	0x31faa1a0	7.2943322e-09
56	0xb8b83f6c	-8.785617e-05
57	0xb9de6389	-0.000424173
58	0xba969f0f	-0.0011491495
59	0xbd65d45c	-0.056110725
60	0xbe8023bf	-0.25027272
61	0x3e2d3846	0.16915998
62	0xbbfbfa95	-0.007689784
63	0x3d2eb172	0.042649694
64	0x3e2a14cc	0.16609496
65	0xb7e71aed	-2.7549884e-05
66	0x3ddd3648	0.10801369
67	0xbc95f30e	-0.018304374
68	0xbb07d439	-0.002072586
69	0xb9e5250b	-0.00043705883
70	0x3ec60344	0.38674366
71	0xbb65b3be	-0.0035049762
72	0x3e0209b8	0.1269902
73	0xb531e421	-6.626961e-07
74	0x3d4ca698	0.049963564
75	0x3335d343	4.2334488e-08
76	0xb2eaa4ef	-2.7316188e-08
77	0xbb318970	-0.0027089976
78	0xbe03b903	-0.12863545
79	0x394811e4	0.00019080151
80	0x3dadb83c	0.084824055
81	0xbe7a999c	-0.2447266
82	0xb0bac8e2	-1.3590375e-09
83	0xb9cc7d36	-0.00039003202
84	0xb82252c2	-3.8700884e-05
85	0x3447296e	1.8548391e-07
86	0x3435afbd	1.6920872e-07
87	0xbe232d42	-0.15935233
88	0x3e751bc6	0.23936376
89	0x3e495174	0.19659978
90	0xb21950f9	-8.924183e-09
91	0x3edb5cb0	0.42844152
92	0xbe22d106	-0.15900049
93	0xbe6a5d10	-0.22887063
94	0xbe3870b1	-0.18011738
95	0xbec298d0	-0.38007212
96	0x3e1c37b9	0.15255632
97	0xbdc1fa53	-0.09471574
98	0x3982262d	0.00024823975
99	0xba0ef382	-0.00054531556
100	0x3ae0e910	0.0017159302
101	0xbc4b09a3	-0.012392434
102	0xbd952706	-0.07282834
103	0x3d3ec224	0.046571866
104	0xb40c70f5	-1.307961e-07
105	0xbdc15d3e	-0.09441613
106	0x3e6cec56	0.2313703
107	0x3d5dc25b	0.05414043
108	0x3c88cdac	0.016699634
109	0xb7a62320	-1.9805098e-05
110	0xb154b969	-3.0955454e-09
111	0x3e0c6341	0.13709737
112	0x3698bf4c	4.552223e-06
113	0x3e01b46d	0.12666483
114	0x3c014087	0.00788892
115	0x3e00f185	0.12592132
116	0x2e149916	3.378727e-11
117	0xbecda846	-0.40167445
118	0xb9c93bcd	-0.00038382263
119	0xb547d2cd	-7.444003e-07
120	0xbb7ad578	-0.003827421
121	0xb939c782	-0.00017717297
122	0x3a0816b8	0.00051913736
123	0xbe290f30	-0.165097
124	0x3c7a169f	0.015264182
125	0xbc5a88d8	-0.01333829
126	0xbea32f4e	-0.31872028
127	0xbe912b54	-0.2835337
128	0x3c8907b7	0.016727312
129	0x393f69a4	0.00018254534
130	0xbe16779c	-0.14694065
131	0x3e3f12b5	0.1865948
132	0xba64cb13	-0.000872777
133	0xb9c403a2	-0.0003738674
134	0x3d715da7	0.058927204
135	0x3b152c7b	0.0022762108
136	0xbd500eb3	-0.05079527
137	0x37870174	1.609393e-05
138	0x3b74415e	0.0037270407
139	0xb27740c9	-1.4392023e-08
140	0x33884679	6.3458124e-08
141	0x3811e40f	3.478309e-05
142	0x3e97fbd9	0.29684332
143	0xb9a8c2c3	-0.00032188566
144	0xbcb31289	-0.021859424
145	0xbe6c1581	-0.23055078
146	0x32e866c9	2.7055096e-08
147	0xb5153ab1	-5.559223e-07
148	0xb8195089	-3.6553047e-05
149	0x33a525b6	7.690271e-08
150	0xb4518135	-1.9511647e-07
151	0x3e911fd9	0.2834461
152	0xbe695010	-0.22784448
153	0xbe84d40c	-0.2594303
154	0x3379c2d5	5.815203e-08
155	0x3e25e7c3	0.16201691
156	0x3ef16779	0.47149256
157	0xbe4d94c1	-0.20076276
158	0xbddafffc	-0.106933564
159	0x3e1cc1ea	0.15308347
160	0x3ef2abae	0.47396606
161	0xbe5102ae	-0.20411178
162	0x39a74121	0.00031901247
163	0x396a374d	0.0002233658
164	0x3b144fcb	0.0022630568
165	0xbe14b2bd	-0.14521308
166	0x3c652879	0.0139867
167	0xbe19b4f7	-0.15010439
168	0x35403ed5	7.1617006e-07
169	0x3e26d0c9	0.16290583
170	0x3de8a542	0.113596454
171	0x3d669198	0.056291193
172	0xbe8db8d8	-0.27680087
173	0xba1dc0ed	-0.0006017823
174	0xb126c23f	-2.4266595e-09
175	0x3d27dbdb	0.040981155
176	0xb579b0ef	-9.30172e-07
177	0xbe05ed0a	-0.13078704
178	0x3ba28794	0.00496001
179	0xbd803e8f	-0.06261932
180	0xaea48f19	-7.483276e-11
181	0xbd2ab9be	-0.041681044
182	0x3b08fe24	0.0020903433
183	0x348b08b8	2.589711e-07
184	0xb9661b4e	-0.00021944681
185	0xb9ddb30a	-0.000422858
186	0xb9341900	-0.00017175451
187	0xbe1f003e	-0.15527436
188	0xbd490baf	-0.049083408
189	0x3dd4e757	0.10395687
190	0x3d294ced	0.041333128
191	0x3d066868	0.032814413
192	0x3e07f497	0.13276897
193	0xba0f3d36	-0.0005464138
194	0xbef030ed	-0.46912327
195	0xbd471a63	-0.04860915
196	0x38019934	3.089868e-05
197	0xba9b758e	-0.0011860596
198	0xbda02143	-0.07818844
199	0xbbf77d87	-0.007552806
200	0xbdf4a54e	-0.11945592
201	0xb7a88a8a	-2.0091673e-05
202	0xbea77b2e	-0.32711166
203	0x33ba7a17	8.683508e-08
204	0x330e683b	3.315675e-08
205	0xb9bfd524	-0.0003658916
206	0xbcdf4982	-0.027256731
207	0xb936d4bc	-0.00017436122
208	0x3c38bd55	0.011275609
209	0x3d996adf	0.07491087
210	0x33139151	3.435827e-08
211	0xb6731c6f	-3.6226372e-06
212	0x3804e298	3.1682284e-05
213	0x31d953d4	6.3250614e-09
214	0xb5083072	-5.0734445e-07
215	0x3cb99702	0.022655014
216	0xbd3fb4cc	-0.04680328
217	0xbe15b2de	-0.14619014
218	0x332e3036	4.055638e-08
219	0x3d10a7bb	0.03531621
220	0x3e4bfa80	0.19919777
221	0xbe7801ea	-0.2421948
222	0xbddb3be1	-0.1070478
223	0x3d3335ed	0.0437526
224	0xbe5f64ad	-0.21815749
225	0xbdfcfc3e	-0.12352799
226	0x39edb6e7	0.00045340435
227	0x3b5b46ed	0.0033459023
228	0xbb73097d	-0.0037084513
229	0xbea3f0cc	-0.3201965
230	0x3dccac08	0.0999375
231	0x3cfb61ee	0.030686345
232	0xb57ec562	-9.4909603e-07
233	0xbe4e0202	-0.20117953
234	0x3d966b62	0.073447004
235	0x3e073e9e	0.1320748
236	0xbe49176e	-0.19637844
237	0xbacbe2c0	-0.0015555248
238	0x31a83c30	4.896286e-09
239	0xbec0477a	-0.37554532
240	0xb4aae2e6	-3.1830058e-07
241	0xbd904d60	-0.07046008
242	0x3b7c2fde	0.003848068
243	0xbcb26f19	-0.021781491
244	0xaeef7626	-1.0889449e-10
245	0xba8f547c	-0.0010935212
246	0x3b0fb6cc	0.0021929024
247	0x348af54c	2.588298e-07
248	0x3ad8aaed	0.0016530432
249	0xb9a49b35	-0.00031396156
250	0xba125457	-0.00055820256
251	0xbe03ee8e	-0.1288397
252	0xbc91dd75	-0.017805794
253	0x3c1559dc	0.009115662
254	0x3de77e15	0.11303345
255	0xbdd85e43	-0.10564854

encoder_lin.3.bias f4 [8]
0	0xbd149b9b	-0.03628121
1	0xbc8ab7d8	-0.016933367
2	0xbd1029df	-0.03519618
3	0xbd0e929a	-0.03480778
4	0xbc360116	-0.011108657
5	0x3c0fa542	0.008767428
6	0xbbaa0657	-0.005188744
7	0xbc2edda8	-0.010672964

decoder_lin.0.weight f4 [64, 8]
0	0xbe248467	-0.16066132
1	0xbe00a27e	-0.12561986
2	0xbdbc4444	-0.09192708
3	0x3d2718a2	0.040794976
4	0x3e0a7652	0.13521698
5	0xbec30f57	-0.3809764
6	0xbd3de04b	-0.04635648
7	0xbe2b43f9	-0.16725148
8	0x3d9c25b5	0.076243795
9	0x3d1f575b	0.038901668
10	0xbe904092	-0.28174263
11	0xbe2d946d	-0.16951151
12	0xbdd63c86	-0.10460763
13	0x3dafbf4e	0.0858141
14	0xbe04a650	-0.12954068
15	0x3d4494aa	0.04799334
16	0xbdb811d1	-0.08987773
17	0x3e485b98	0.1956619
18	0xbe4a6c23	-0.19767813
19	0xbe21a08b	-0.15783899
20	0x3e823176	0.2542836
21	0x3dcfd000	0.10147095
22	0xbd77d037	-0.060501304
23	0xbd8fc64f	-0.07020246
24	0x3e118770	0.14211822
25	0x3ebf3447	0.37344572
26	0xbc935c76	-0.017988425
27	0xbdf0687f	-0.11738681
28	0x3dbd4ce7	0.092431836
29	0x3d854341	0.06506968
30	0x3d1b2d3b	0.037884932
31	0x3c8b5cb0	0.01701197
32	0x3c9cf457	0.019159479
33	0x3db71f15	0.08941475
34	0x3d8c5fba	0.06854196
35	0x3bfa83d3	0.007645109
36	0x3e3f4531	0.18678738
37	0xbe51a0b9	-0.20471467
38	0xbea04c15	-0.31308046
39	0x3b4b1a44	0.0030990997
40	0xbd384450	-0.044987023
41	0xbbcce9cc	-0.0062534567
42	0x3da31894	0.07963672
43	0xbc9e4aa6	-0.019322705
44	0xbe81ae15	-0.25328127
45	0x3e05c5a8	0.13063681
46	0x3e846558	0.2585857
47	0xbd86dd9c	-0.065852374
48	0xbe98a7c2	-0.2981549
49	0x3e2167a3	0.1576219
50	0x3d9c7a58	0.07640523
51	0xbd754c7c	-0.059887394
52	0xbde9fa4f	-0.11424696
53	0xbd0caed2	-0.03434641
54	0x3c81457d	0.015780205
55	0x3e31704e	0.17327997
56	0x3eb38750	0.35064173
57	0x3c557af3	0.013029802
58	0x3db4d7f1	0.0883025
59	0xbda7f152	-0.08200325
60	0xbda4d873	-0.08049097
61	0xbe4b6472	-0.19862536
62	0xbe00a951	-0.12564589
63	0x3dfe54b9	0.12418503
64	0x3dea6088	0.11444193
65	0x3e819262	0.25306994
66	0xbe2c8e5c	-0.16851181
67	0xbdf0e446	-0.1176229
68	0xbbb88ee0	-0.0056322664
69	0xbde1c3e2	-0.1102369
70	0xbe801775	-0.25017896
71	0xbca2125f	-0.01978415
72	0xbe1d5390	-0.15363908
73	0xbe4c7568	-0.19966662
74	0x3e212f25	0.1574064
75	0xbdd60fdb	-0.10452243
76	0xbd913dce	-0.070918664
77	0xbc26e10c	-0.010185491
78	0x3d5c2340	0.053744555
79	0xbdf464f0	-0.11933315
80	0xbd1443bf	-0.03619742
81	0xbd3e6c02	-0.046489723
82	0xbce0ac44	-0.027425893
83	0xbe6e7628	-0.2328726
84	0xbd2edb90	-0.04268986
85	0xbcab4c02	-0.020910267
86	0xbd6befc4	-0.057601705
87	0xbd0dc69f	-0.034613248
88	0x3ddf9417	0.10916918
89	0x3df566c8	0.119824946
90	0x3ebcbd18	0.36863017
91	0xbe28288a	-0.16421714
92	0xbd216931	-0.03940696
93	0xbdb4b16d	-0.08822904
94	0xbbe2a892	-0.006917068
95	0xbe84969a	-0.2589615
96	0xbdb37599	-0.08762664
97	0x3bd3d56f	0.0064646523
98	0xbd8b9364	-0.06815222
99	0xbe397800	-0.18112183
100	0xbe07d6cb	-0.13265531
101	0xbd889068	-0.06668168
102	0xbd03ae75	-0.032148797
103	0xbd7fa2ef	-0.062411245
104	0xbe87e882	-0.26544577
105	0x3a9bbb84	0.0011881446
106	0xbe52aa85	-0.2057286
107	0xbe22f870	-0.15915084
108	0x3e5e0a6f	0.21683668
109	0x3df9dd93	0.12200465
110	0xbc023d04	-0.007949118
111	0x3d9651ce	0.07339822
112	0xbd6aaf1d	-0.057295907
113	0x3dad7093	0.084687375
114	0x3d9999b4	0.0750002
115	0xbda3bd11	-0.07995046
116	0xbdbefb87	-0.09325319
117	0xbea9af74	-0.33141673
118	0x3df5f0bc	0.12008807
119	0xbab634af	-0.0013901199
120	0x3e8a8606	0.27055377
121	0xbe26dba9	-0.16294731
122	0x3db5e3f5	0.0888137
123	0x3db6a7a8	0.08918697
124	0xbe8c5080	-0.27405167
125	0x3e0f65e8	0.14003718
126	0x3dc4ede7	0.09615689
127	0x3db06647	0.08613258
128	0xbe726836	-0.23672566
129	0xbd85e62a	-0.06538041
130	0x3e5b5f8c	0.21423167
131	0xbd35cca5	-0.044384617
132	0xbc807717	-0.015681786
133	0x3da3435a	0.07971831
134	0xbe46b33b	-0.19404308
135	0x3e5a3f02	0.21313098
136	0x3e9a5f8a	0.30151016
137	0xbe1d7abc	-0.1537885
138	0xbe63e664	-0.22255856
139	0xbd0ff82e	-0.035148792
140	0x3e4a9b75	0.19785865
141	0x3e2694a6	0.16267642
142	0x3e264668	0.16237795
143	0xbe26b37f	-0.1627941
144	0xbe5d03e0	-0.2158351
145	0xbe40f4b5	-0.18843348
146	0x3e071b59	0.13194026
147	0x3e028bd2	0.1274865
148	0x3e910c4c	0.28329694
149	0x3ea2191e	0.31659788
150	0xbdc89f55	-0.09796015
151	0xbd5dccde	-0.054150455
152	0x3e7827db	0.24233954
153	0xbd92b9f2	-0.071643725
154	0xbe146c61	-0.14494468
155	0xbe10e56b	-0.14150016
156	0xbc490e70	-0.012271509
157	0xbe3d4676	-0.1848391
158	0x3e27f3f9	0.16401662
159	0x3e143bea	0.1447598
160	0xbc6cf0f5	-0.0144617455
161	0xbd1383b5	-0.036014277
162	0xbd88c7ee	-0.066787586
163	0xbe751e7c	-0.2393741
164	0xbd782435	-0.060581405
165	0xbaea24c2	-0.0017863738
166	0xbd8d4dae	-0.06899582
167	0xbba46816	-0.005017291
168	0xbe69ef3d	-0.22845168
169	0x3e836078	0.25659537
170	0x3db44927	0.08803015
171	0xbc86c49e	-0.016451176
172	0x3e0f0e25	0.1397024
173	0x3e14f278	0.1454562
174	0x3e543188	0.2072202
175	0xbdbbac28	-0.091636956
176	0xbb06ff24	-0.0020598853
177	0x3db66b46	0.089071795
178	0xbd13ed80	-0.03611517
179	0xbe0899a9	-0.13339867
180	0xbe2ed93f	-0.1707506
181	0x3d7cd7e3	0.061729323
182	0xbe571c02	-0.21006778
183	0x3e4272e3	0.18989138
184	0xbdc3fe95	-0.09570042
185	0xbe71b830	-0.23605418
186	0x3d540f82	0.051772602
187	0xbe00750d	-0.12544651
188	0x3e240d79	0.16020764
189	0xbb8f96dd	-0.004381998
190	0x3c3ac938	0.011400513
191	0xbe2903ea	-0.165054
192	0x3d72f430	0.059314907
193	0x3e3f19d6	0.186622
194	0xbe6a4507	-0.22877894
195	0xbe0c748f	-0.13716339
196	0xbea6463c	-0.3247546
197	0xbd45d919	-0.048302744
198	0x3dc0034e	0.0937563
199	0x3d884eb5	0.06655637
200	0xbd643924	-0.055718556
201	0x3e1f3490	0.15547395
202	0xbd15cbf2	-0.03657145
203	0xbdb5434a	-0.08850725
204	0xbceb5ba6	-0.028730225
205	0x3ebee393	0.37283
206	0xbc45a4c8	-0.012063213
207	0xbd4fd57c	-0.050740704
208	0xbb0e2d4a	-0.0021694475
209	0xbdd7a987	-0.10530382
210	0x3e23bfa2	0.15991071
211	0xbe786628	-0.2425772
212	0x3e3d2a2e	0.18473122
213	0x3d09b99f	0.033624288
214	0x3c486e16	0.012233278
215	0x3ca4dc68	0.02012463
216	0xbe0e90fd	-0.13922496
217	0xbda04e79	-0.078274675
218	0xbde928bd	-0.11384723
219	0xbdd9f4a4	-0.106423646
220	0xbddcc01f	-0.10778832
221	0x3e07b1e6	0.13251457
222	0x3e14c950	0.1452992
223	0xbda46b2c	-0.08028254
224	0xbe8bb288	-0.27284646
225	0xbdc53a0b	-0.096302114
226	0xbd6d2a22	-0.05790151
227	0xbc46178e	-0.012090577
228	0xbe24cb13	-0.16093092
229	0xbe039f4c	-0.12853736
230	0x3e486067	0.19568025
231	0x3d885a26	0.066578194
232	0x3e6de801	0.23233034
233	0x3d9270f8	0.07150453
234	0x3e5aaf0c	0.21355838
235	0xbe31415e	-0.17310092
236	0xbd8688a5	-0.065690316
237	0x3df1d14b	0.118074976
238	0xbc937835	-0.018001655
239	0xbe060296	-0.13086924
240	0xbe920372	-0.28518254
241	0x3daf275c	0.08552429
242	0x3e488810	0.19583154
243	0xbc2d4716	-0.01057603
244	0xbc781637	-0.015142015
245	0xbe31368d	-0.17305966
246	0x3e1dc600	0.15407562
247	0xbd7cbd1e	-0.061703794
248	0xbd75d001	-0.06001282
249	0xbe75aa37	-0.23990713
250	0x3dcb5426	0.099281594
251	0x3cc5c415	0.02414135
252	0xbe56230f	-0.20911811
253	0xbe1765c9	-0.14784922
254	0x3de93d25	0.113886155
255	0x3d92c477	0.07166379

decoder_lin.0.bias f4 [64]
0	0x3ca07665	0.019587705
1	0x3c56d26c	0.013111692
2	0x3c9de39c	0.019273572
3	0x3cc501cf	0.024048714
4	0xbc5650b5	-0.0130807655
5	0x3ca9e46e	0.020738807
6	0x3ce164e2	0.027513925
7	0x3ca5140b	0.020151159
8	0x3c4223d0	0.011849359
9	0x3c24c19b	0.010055925
10	0x3cd3f2a4	0.025872536
11	0x3ccc5a3c	0.02494537
12	0x3c958124	0.018250056
13	0x3d1b945f	0.037983295
14	0x3c73936d	0.014866692
15	0xbc7459be	-0.014913974
16	0xbc354c80	-0.011065602
17	0x3c428cc7	0.011874384
18	0x3d1a4166	0.037660025
19	0x3bd4f82a	0.00649931
20	0x3d0fff59	0.035155628
21	0x3c1eee6b	0.009700398
22	0x3b461781	0.0030226412
23	0x3c3f38d8	0.011671267
24	0xbcbb38b6	-0.02285419
25	0x3c3842b4	0.011246372
26	0xbcdcc62b	-0.026949963
27	0x3b96e5b9	0.004605022
28	0xbb8157c7	-0.0039472315
29	0x3bc1ec48	0.0059180595
30	0x3c8f7d70	0.017515868
31	0x395c811f	0.00021028936
32	0x3bc85e1c	0.0061147343
33	0x3cd946f3	0.026523089
34	0x3d313304	0.043261543
35	0xbba06c93	-0.0048957556
36	0x3aae68e7	0.001330641
37	0x3d42ee8a	0.04759077
38	0xbacd317e	-0.0015655009
39	0xbd459a4d	-0.048242856
40	0x3bc118a2	0.005892829
41	0x3c254302	0.010086777
42	0x39b7b6c7	0.0003504066
43	0x3c1502b6	0.009094885
44	0x3cc23f74	0.023711897
45	0x3d1f4fcc	0.03889446
46	0x3ce03aab	0.027371725
47	0xbc742928	-0.014902391
48	0x3c9b0dc0	0.018927455
49	0xbbf8f7f1	-0.0075979163
50	0x3a061311	0.00051145355
51	0x3c5cf378	0.013485782
52	0xbbb6032f	-0.0055545787
53	0xbc7a7084	-0.015285615
54	0x3d1135e8	0.0354518
55	0x3c018a79	0.00790655
56	0x3b072980	0.00206241
57	0xbc0e07a1	-0.008668811
58	0x3c3760fc	0.0111925565
59	0x3cf6966a	0.03010102
60	0x3ce2b135	0.02767239
61	0x3c116332	0.008873748
62	0xbbd68aa0	-0.006547287
63	0x3d1a0ab9	0.037607882

decoder_lin.3.weight f4 [288, 64]
0	0x3c863d67	0.0163867
1	0xbc11582c	-0.0088711195
2	0x3d07b338	0.0331299
3	0xbc200111	-0.009765879
4	0x3cf65071	0.030067654
5	0x3ce59b7e	0.028028246
6	0x3c9a676f	0.01884815
7	0x3c2c0e07	0.010501391
8	0xbbc00863	-0.005860375
9	0x3ce82170	0.028336257
10	0x3cded629	0.027201729
11	0x3d35873a	0.044318415
12	0x3bf86253	0.0075800805
13	0x3d3a3270	0.045458257
14	0x3cc2f619	0.02379899
15	0x3bbdbfa4	0.0057906676
16	0x3c2cf331	0.010556028
17	0x3cc92418	0.024553344
18	0x3d3625a2	0.044469483
19	0xbc4f27cb	-0.012643765
20	0x3c98b38a	0.018640298
21	0x3d28b559	0.04118857
22	0x3aad3b23	0.0013216477
23	0x3d4a7a16	0.049432836
24	0xbc5c7e94	-0.013457913
25	0x3c99e7df	0.018787323
26	0x3d485123	0.048905503
27	0x3c9f57dc	0.019451074
28	0x3c99788c	0.018734239
29	0x3cd60404	0.026124962
30	0x3cad172a	0.02112921
31	0x3ccd37fc	0.02505111
32	0xbb77ea42	-0.0037828838
33	0x3d235330	0.039874256
34	0x3bdec3bc	0.0067982357
35	0x3cd0dc76	0.025495749
36	0xb9ae09f5	-0.00033195285
37	0x3c68d533	0.014210987
38	0xbc51a960	-0.01279673
39	0x3d48b870	0.04900402
40	0xbc81f62c	-0.015864454
41	0x3bd91503	0.0066248192
42	0x3ab5b04a	0.0013861742
43	0x3d0cc905	0.034371395
44	0xb9a0be68	-0.00030659442
45	0x3d059301	0.032610897
46	0xba350150	-0.00069047976
47	0x3c1ec561	0.0096906135
48	0x3d084f4d	0.033278752
49	0x3d240f0f	0.040053423
50	0x3badb8b3	0.005301559
51	0xbba071c9	-0.0048963767
52	0xbbdab5b0	-0.006674491
53	0x3bd5e22d	0.0065272064
54	0x3d7ddc3d	0.061977614
55	0x3cc763ec	0.024339639
56	0x3ca504aa	0.020143826
57	0x3aec309c	0.0018019858
58	0x3cdfba66	0.027310561
59	0x3d384d53	0.044995617
60	0x3ce0fbc5	0.027463803
61	0xbb47ab0f	-0.003046695
62	0x3c65284b	0.013986657
63	0x3cbe576e	0.02323505
64	0x3d0b2538	0.03397104
65	0xbc4bbfea	-0.012435893
66	0x3dd70106	0.10498242
67	0x3d0bb9bb	0.034112673
68	0x3bb529c0	0.0055286586
69	0x3d269c9d	0.0406767
70	0x3d2938f7	0.04131409
71	0x3caa8a24	0.020817824
72	0x3c8bd95f	0.017071424
73	0xbd0b5961	-0.034020785
74	0xbd14e81e	-0.036354177
75	0x3d5df2ee	0.054186754
76	0xbcb2fd06	-0.021849167
77	0x3e02f107	0.12787257
78	0x3c21a17e	0.009865163
79	0x3cb205c8	0.021731272
80	0xbc76f90c	-0.015074026
81	0x3d94a1b1	0.07257403
82	0x3d74bed0	0.059752285
83	0x3a693bea	0.00088971725
84	0xbd04e4d1	-0.03244478
85	0x3da3a921	0.07991243
86	0xbc585cfd	-0.013205764
87	0x3d1fa117	0.038971987
88	0xbadb366c	-0.0016724593
89	0x3db0157d	0.085978486
90	0xbc0b95fd	-0.008519647
91	0x3ce88f86	0.02838875
92	0x3d5ee523	0.05441774
93	0x3cc55e4a	0.024092812
94	0x3d535352	0.051593132
95	0x3c5fbf50	0.013656452
96	0xbc700230	-0.014648959
97	0x3cefb2ff	0.029260157
98	0x3d15d9b6	0.03658458
99	0xbb0084e0	-0.001961045
100	0x3af3096e	0.0018542239
101	0x3cef5b2d	0.02921828
102	0xbbfc5656	-0.0077007217
103	0xbd063072	-0.032761045
104	0x3d8ab532	0.067728415
105	0x3cac4eb1	0.021033617
106	0xbacecc5d	-0.0015777458
107	0xbd3e67a7	-0.04648557
108	0x3d732036	0.05935689
109	0xbbf1e445	-0.007381948
110	0x3cd9caea	0.026586015
111	0x3d867921	0.06566072
112	0x3d1fa7ea	0.038978495
113	0x3cd04133	0.025421714
114	0x3d1b5391	0.037921492
115	0xbb7ef5ea	-0.00389039
116	0xbc016195	-0.0078968005
117	0x3d82bf25	0.06384114
118	0xbac30daf	-0.0014881397
119	0xbd35e5b5	-0.04440852
120	0x3d43dec6	0.047819875
121	0x3cda5cc3	0.02665556
122	0xbc9fc311	-0.019502195
123	0x3d9f6670	0.0778321
124	0xbcec9d77	-0.028883679
125	0xbc965485	-0.018350849
126	0x3da13af0	0.078725696
127	0xbc1f4ac2	-0.0097224135
128	0x3bf3270d	0.0074204267
129	0x3ca40f83	0.020026928
130	0x3de82457	0.11335056
131	0x3d891328	0.06693107
132	0x3bb67e04	0.0055692215
133	0x3c8c4def	0.017127005
134	0x3de86848	0.11348015
135	0x3d401aa4	0.046900406
136	0xbba69e52	-0.005084791
137	0xbc4b9568	-0.012425758
138	0xbd523add	-0.051325668
139	0x3d6de321	0.058077935
140	0xbd0fea53	-0.03513558
141	0x3e29c608	0.16579449
142	0x3cbc3975	0.022976616
143	0x3badb4fe	0.005301117
144	0x3d890faf	0.066924445
145	0x3d561a1c	0.052270994
146	0x3e03c08d	0.12866421
147	0xbc9dac36	-0.019247156
148	0xbd1a0c47	-0.037609365
149	0x3d7975d4	0.060903385
150	0x3cd38cbd	0.025823945
151	0x3a959fd3	0.0011415429
152	0x3c124512	0.0089276
153	0x3dbeb714	0.09312263
154	0xbc5365a3	-0.01290265
155	0x3d21b8b5	0.03948279
156	0x3d1ba6ce	0.038000874
157	0x3d310222	0.043214925
158	0x3dc52738	0.09626621
159	0xbc98812c	-0.018616281
160	0x3dc094f4	0.094034106
161	0x3d68e6ff	0.05686092
162	0xbbf98e2d	-0.0076158256
163	0x3d1b2601	0.03787804
164	0x3c03d851	0.008047179
165	0x3de6459a	0.11243744
166	0x3d1fd86d	0.03902476
167	0xbd097f2d	-0.03356855
168	0x3bf6ad61	0.0075279926
169	0x3d06bb9c	0.032893762
170	0x399bae98	0.00029693986
171	0x398fa0ca	0.00027394883
172	0x3dab4790	0.08363259
173	0xbcedbeb2	-0.029021595
174	0x3d9f21de	0.077701315
175	0x3da16b9d	0.07881854
176	0x3aa5ee3e	0.0012659503
177	0x3dafcb64	0.085837156
178	0x3d316e40	0.043318033
179	0x3d5f667f	0.054541107
180	0xbd2ad6ad	-0.041708637
181	0x3d4a834e	0.04944163
182	0xbb8324b0	-0.004002176
183	0xbd2cb996	-0.042169176
184	0x3c3b3c06	0.011427885
185	0xbbb03e80	-0.0053785443
186	0xbcd2eed0	-0.02574864
187	0x3c3998df	0.011327951
188	0xbd5da701	-0.054114345
189	0x3d4c6ade	0.049906604
190	0x3d8eba01	0.06969071
191	0xbcbdfd63	-0.023192113
192	0x3d18c8a6	0.03730073
193	0x3c68b009	0.014202126
194	0xbc9ac6eb	-0.01889368
195	0xbd135f2c	-0.035979435
196	0xbd234e63	-0.039869677
197	0xbd17145b	-0.036884647
198	0x3b59ba77	0.0033222714
199	0x3cca5b3d	0.024701709
200	0x36ede5ed	7.0899173e-06
201	0x3cfa224a	0.030533928
202	0x3b7313c2	0.0037090634
203	0xbd42251b	-0.047398668
204	0x3c26d436	0.010182431
205	0xbb87ea27	-0.004147786
206	0xbc1f68c5	-0.009729569
207	0x3cea0afc	0.02856969
208	0x3cfbec3a	0.03075229
209	0x3cfc3b31	0.030789943
210	0xbd084dfd	-0.0332775
211	0x3d01383e	0.031547777
212	0xba78680e	-0.00094759546
213	0xbd12ff12	-0.035887785
214	0xbbb7306c	-0.005590489
215	0x3ca072db	0.019586017
216	0xbc24107e	-0.010013698
217	0xbd41af94	-0.047286585
218	0xbd48ebfa	-0.04905317
219	0xb7dfae08	-2.6664711e-05
220	0x3d6daaad	0.058024097
221	0xbd211444	-0.039325967
222	0x3bc7c13c	0.0060960334
223	0x3d772fa0	0.060348153
224	0x3d82afd4	0.06381193
225	0x3d6df9e6	0.05809965
226	0xbdb10f80	-0.086455345
227	0x3965224a	0.00021851916
228	0x3bb64196	0.0055620177
229	0xbc48687f	-0.012231945
230	0xbbf0cb4b	-0.007348453
231	0xbcfee272	-0.031113837
232	0x3c533398	0.012890719
233	0xbc375d1b	-0.011191632
234	0x3a1609a3	0.0005723482
235	0xbd41746a	-0.04723016
236	0x3c81c40e	0.015840556
237	0xbc12f95c	-0.008970585
238	0xbccf196b	-0.025280675
239	0x3be31acc	0.0069306847
240	0xbbb8bd17	-0.0056377756
241	0xbd0617ec	-0.032737657
242	0x3ced5854	0.028972782
243	0x3d1bd14d	0.0380414
244	0x3d2178f4	0.03942199
245	0x3b1672cb	0.0022956606
246	0x3d134c7c	0.035961613
247	0x3d8a1d28	0.06743842
248	0x3cedebf3	0.029043173
249	0xbd21b93d	-0.039483298
250	0x3d1ebd50	0.03875476
251	0x3d12a5a4	0.0358025
252	0xbc1f6cc1	-0.009730519
253	0x3d20f6af	0.039297756
254	0xbc86ded4	-0.016463675
255	0xbb1655bd	-0.0022939288
