Nicola_Dainese_Ex4_NN/params/net_params_2.pth (torch_old, 200811 bytes, 19 tensors)

encoder_cnn.0.weight f4 [8, 1, 3, 3]
0	0xbdcff68b	-0.10154446
1	0xbdee57e4	-0.116378576
2	0xbdcf594d	-0.10124455
3	0xbe3751e2	-0.1790233
4	0xbe34a709	-0.17641844
5	0xbe3cb7bd	-0.18429466
6	0xbe2921f4	-0.16516858
7	0xbe2bf684	-0.16793257
8	0xbe239317	-0.15974079
9	0xbda6e354	-0.08148828
10	0xbde07777	-0.10960286
11	0xbdbc85f0	-0.09205234
12	0xbe42db0d	-0.19028874
13	0xbe42d00e	-0.19024679
14	0xbe44dc5d	-0.19224687
15	0xbe41eac1	-0.18937208
16	0xbe490e31	-0.1963432
17	0xbe3987af	-0.18118165
18	0xbe037f4b	-0.12841527
19	0xbe0bf25e	-0.13666674
20	0xbdf90e97	-0.12160986
21	0xbe5761ff	-0.21033476
22	0xbe4a21e6	-0.19739494
23	0xbe4ed43d	-0.2019815
24	0xbe37473a	-0.17898265
25	0xbe318143	-0.17334466
26	0xbe29901f	-0.16558884
27	0x3ee2551f	0.44205567
28	0x3f24b3b6	0.6433672
29	0x3f0ee26d	0.5581425
30	0x3f143316	0.5789045
31	0x3f2cb83b	0.67468613
32	0x3f03479a	0.5128113
33	0x3f03efdd	0.5153788
34	0x3f04a695	0.51816684
35	0x3e94ec6f	0.29086635
36	0x0000b46b	6.4722e-41
37	0x8000711e	-4.0579e-41
38	0x80005169	-2.9204e-41
39	0x80003ed7	-2.2543e-41
40	0x0000c628	7.1085e-41
41	0x000012c8	6.737e-42
42	0x80004239	-2.3756e-41
43	0x0000cecc	7.4185e-41
44	0x00006395	3.5723e-41
45	0x32a35e0c	1.9018465e-08
46	0x32db06a1	2.549797e-08
47	0x32898ff5	1.6014363e-08
48	0x32cf36ce	2.4122894e-08
49	0x32bddc09	2.2102556e-08
50	0x32353a8f	1.0548901e-08
51	0x329fb0bc	1.8590406e-08
52	0x323c5435	1.0962187e-08
53	0x318344fb	3.820444e-09
54	0xbdde6e49	-0.10860879
55	0xbe001b73	-0.12510471
56	0xbde6ea17	-0.11275118
57	0xbe44c992	-0.19217518
58	0xbe42e388	-0.19032109
59	0xbe488b50	-0.19584394
60	0xbe2da769	-0.16958393
61	0xbe2f9d31	-0.17149808
62	0xbe2561a2	-0.16150525
63	0xbe08630a	-0.1331903
64	0xbe10f3ed	-0.1415555
65	0xbe063d03	-0.13109212
66	0xbe5a747b	-0.21333496
67	0xbe4d290e	-0.20035192
68	0xbe552ba6	-0.20817432
69	0xbe372ffc	-0.17889398
70	0xbe2f34cd	-0.17109986
71	0xbe277631	-0.1635368

encoder_cnn.0.bias f4 [8]
0	0x3f5a27d5	0.8521703
1	0x3f6aff4e	0.91795814
2	0x3f6b5b75	0.9193643
3	0x3ba5c883	0.0050593033
4	0xaa8aeaeb	-2.4676731e-13
5	0x3063e180	8.2902574e-10
6	0x3f667d2e	0.9003476
7	0x3f717620	0.9432087

encoder_cnn.3.weight f4 [16, 8, 3, 3]
0	0xbb8f9216	-0.0043814285
1	0x3ca98f6b	0.02069827
2	0x3d9e17db	0.07719394
3	0x3d116a41	0.035501722
4	0x3dafe989	0.08589465
5	0x3dfbbb96	0.122916386
6	0x3d947b9a	0.072501376
7	0x3de1016d	0.109866
8	0x3dcc46a7	0.09974413
9	0x3bc9cf3b	0.006158737
10	0x3ccf3612	0.025294337
11	0x3daa0dcb	0.08303412
12	0x3d0ccfb8	0.034377784
13	0x3dc63a7c	0.09679124
14	0x3e095ed0	0.13415074
15	0x3dab5556	0.08365886
16	0x3dd87f6f	0.10571181
17	0x3db4ccd0	0.088281274
18	0x3bb29475	0.0054498264
19	0x3c990f1d	0.018683964
20	0x3da0efb1	0.078582175
21	0x3d0c9b8d	0.034328032
22	0x3db791d1	0.08963359
23	0x3e0d6876	0.1380938
24	0x3da12e52	0.07870163
25	0x3ded2c56	0.11580722
26	0x3ddd681c	0.10810873
27	0x3e8f7ecb	0.28026423
28	0x3e249c42	0.16075233
29	0x3b1eaae4	0.0024210745
30	0x3e1cc2f4	0.15308744
31	0xbdd92e43	-0.10604527
32	0xbe17d8b4	-0.1482876
33	0x3c630fee	0.013858778
34	0xbe3ca4c1	-0.18422224
35	0xbe0318b6	-0.12802395
36	0x00001810	8.632e-42
37	0x800022fb	-1.2549e-41
38	0x800064d4	-3.617e-41
39	0x00006f4b	3.9924e-41
40	0x8000fdb8	-9.1017e-41
41	0x000096b5	5.4063e-41
42	0x8000e524	-8.22e-41
43	0x8000eb74	-8.4465e-41
44	0x0000b220	6.3899e-41
45	0x30fd6daf	1.8439347e-09
46	0x3284714f	1.541835e-08
47	0xb1f6b244	-7.1798087e-09
48	0x32966b72	1.7511159e-08
49	0x31b32fca	5.2150186e-09
50	0xb0b5cccf	-1.3227693e-09
51	0x32fecd82	2.9662946e-08
52	0x3296633a	1.7507421e-08
53	0x32d3b02a	2.4643743e-08
54	0x3b288175	0.0025711928
55	0x3c93d9d8	0.018048212
56	0x3da70922	0.08156039
57	0x3cd30040	0.025756955
58	0x3dc0aa2a	0.09407456
59	0x3e015ef8	0.12633884
60	0x3d9edf95	0.07757489
61	0x3de96861	0.11396862
62	0x3dde3af5	0.10851089
63	0x3aa94b31	0.0012916086
64	0x3c9443a2	0.018098656
65	0x3da386b9	0.07984681
66	0x3d0bdc97	0.034145918
67	0x3db363b3	0.087592505
68	0x3e0b348f	0.13594268
69	0x3db066e0	0.08613372
70	0x3df66104	0.12030223
71	0x3deb6e46	0.11495642
72	0x3e046fa4	0.12933213
73	0x3e11581b	0.14193766
74	0x3d847def	0.064693324
75	0x3e117def	0.14208196
76	0x3e02192f	0.1270492
77	0x3d1531d0	0.036424458
78	0x3d37a24b	0.04483251
79	0x3c87f713	0.016597306
80	0xbcc3ee7e	-0.023917433
81	0x3e11c323	0.14234595
82	0x3e1b47d0	0.15164113
83	0x3d95f8a7	0.07322817
84	0x3e1c3faf	0.15258668
85	0x3e08a831	0.1334541
86	0x3d21ba6c	0.039484426
87	0x3d1def0c	0.03855805
88	0x3c741127	0.014896668
89	0xbce53591	-0.027979644
90	0x3e0b739d	0.13618322
91	0x3e1ac9ff	0.15116118
92	0x3d929213	0.07156768
93	0x3e2114ba	0.15730563
94	0x3e0c5f4d	0.1370823
95	0x3d4c4df8	0.049879044
96	0x3d3f4eb6	0.046705924
97	0x3c56ff5f	0.013122409
98	0xbcfcb6a9	-0.030848818
99	0xbe2aa6f5	-0.16665252
100	0xbe18dc23	-0.14927725
101	0x3d2add95	0.041715223
102	0xbe6124f8	-0.21986759
103	0xbe641db8	-0.22276962
104	0x3d8bf12a	0.06833108
105	0x3db7a874	0.08967677
106	0x3e462599	0.1935028
107	0x3ea1283f	0.31476018
108	0x00009e66	5.6823e-41
109	0x800006ab	-2.392e-42
110	0x8000324d	-1.8045e-41
111	0x80003653	-1.9488e-41
112	0x8000d45b	-7.6179e-41
113	0x8000dc44	-7.9016e-41
114	0x8000b5c5	-6.5207e-41
115	0x00005ec1	3.3991e-41
116	0x0000d63e	7.6856e-41
117	0xb1f74bc7	-7.197261e-09
118	0xb2131318	-8.560868e-09
119	0x324a4c15	1.17752466e-08
120	0xb24186aa	-1.1264698e-08
121	0xb21982b6	-8.935492e-09
122	0x323f124a	1.1121822e-08
123	0x31296e2b	2.465536e-09
124	0x31e7a49e	6.7416996e-09
125	0x32800996	1.490552e-08
126	0x3e0e6718	0.13906515
127	0x3e17ae36	0.1481255
128	0x3d919033	0.07107582
129	0x3e1d7c65	0.15379484
130	0x3e0a901a	0.13531533
131	0x3d3ada51	0.04561836
132	0x3d42e7e8	0.047584444
133	0x3c7a5a1d	0.015280274
134	0xbcca7212	-0.024712596
135	0x3e108ad0	0.14115453
136	0x3e188628	0.14894927
137	0x3d9203c1	0.07129622
138	0x3e25306b	0.16131751
139	0x3e137b20	0.14402437
140	0x3d3880a0	0.04504454
141	0x3d5ad555	0.053426106
142	0x3c4ed0b9	0.012623006
143	0xbcdcaec8	-0.026938811
144	0xbce0f044	-0.027458318
145	0xbbb4d0d7	-0.0055180597
146	0x3d68e9a7	0.056863453
147	0x3b22fcee	0.0024869996
148	0x3d74ad56	0.05973562
149	0x3ddf7d81	0.1091261
150	0x3d84d124	0.06485203
151	0x3ddd2826	0.10798673
152	0x3dd8fdd0	0.10595286
153	0xbcac5c48	-0.021040097
154	0xbb3bad05	-0.0028637063
155	0x3d7d2605	0.061803836
156	0xba8cd402	-0.0010744336
157	0x3d8ec835	0.0697178
158	0x3df450a7	0.11929446
159	0x3d9eb11c	0.07748625
160	0x3ddc357b	0.10752388
161	0x3dc9d158	0.09854382
162	0xbca649ee	-0.020298924
163	0xbc128abe	-0.0089442115
164	0x3d67c718	0.056586355
165	0xbb544250	-0.0032388158
166	0x3d81648a	0.063180044
167	0x3df54c2a	0.11977418
168	0x3d90f650	0.070782304
169	0x3deb8c89	0.11501414
170	0x3def77ef	0.116927974
171	0x3ea3bc75	0.3197972
172	0x3e5f6523	0.21815924
173	0x3d2804c8	0.041020185
174	0x3e67d245	0.22638805
175	0xbd2015b4	-0.039083198
176	0xbe047de0	-0.12938643
177	0x3c87bb7f	0.016568897
178	0xbe53839f	-0.20655678
179	0xbe1e7eb7	-0.15478025
180	0x00005a4a	3.239e-41
181	0x0000147a	7.346e-42
182	0x0000c974	7.2268e-41
183	0x000018bb	8.872e-42
184	0x000039a8	2.0683e-41
185	0x0000d020	7.4661e-41
186	0x8000943f	-5.318e-41
187	0x0000e163	8.0854e-41
188	0x8000a596	-5.9401e-41
189	0x323a8043	1.0855788e-08
190	0x30a36397	1.1888116e-09
191	0xb24c7eb1	-1.1903169e-08
192	0x31f6fe38	7.1884436e-09
193	0xb0869ba1	-9.794016e-10
194	0xb1b133de	-5.1572746e-09
195	0x3211c0cd	8.483949e-09
196	0x31d928eb	6.320183e-09
197	0x31ac46cb	5.013907e-09
198	0xbcc9ec57	-0.024648828
199	0xbc026eee	-0.007961018
200	0x3d79110d	0.060807277
201	0xbc2b9666	-0.0104728695
202	0x3d874772	0.06605424
203	0x3de168e5	0.11006335
204	0x3d9113a6	0.07083826
205	0x3dea0a44	0.11427739
206	0x3de97f35	0.11401216
207	0xbcc3ff5d	-0.023925478
208	0xbc171943	-0.009222331
209	0x3d71b17f	0.059007164
210	0xbbaf5335	-0.005350495
211	0x3d785de7	0.060636427
212	0x3df684d0	0.12037051
213	0x3d9ccea1	0.07656599
214	0x3df5da28	0.12004501
215	0x3dfb0266	0.12256317
216	0xbc5e2fc5	-0.013561194
217	0x3c0dd587	0.008656866
218	0x3d8dd923	0.06926181
219	0x3c5c5079	0.013446921
220	0x3d8b4c18	0.06801623
221	0x3df29144	0.118441135
222	0x3d8f7a57	0.07005756
223	0x3ddf9877	0.10917752
224	0x3de153dd	0.11002324
225	0xbb92dd42	-0.0044819424
226	0x3c3a6eeb	0.011378984
227	0x3d9ba4b5	0.07599775
228	0x3c385da5	0.011252795
229	0x3d9faf22	0.07797076
230	0x3e05b97f	0.13059042
231	0x3da891d7	0.08230942
232	0x3ddba4bb	0.10724779
233	0x3dcd7828	0.100326836
234	0xbbac047d	-0.0052495585
235	0x3b849ec7	0.004047248
236	0x3d913619	0.070903964
237	0x3c36f4db	0.0111667765
238	0x3d9364b1	0.0719694
239	0x3e071950	0.1319325
240	0x3d964f3c	0.073393315
241	0x3deede0d	0.116634466
242	0x3df54850	0.11976683
243	0x3e9bf80f	0.3046269
244	0x3e411148	0.18854249
245	0x3c6af0ce	0.014339639
246	0x3e5c6e6e	0.215265
247	0xbd77acb0	-0.060467422
248	0xbe1842ae	-0.14869186
249	0x3d08831d	0.033328164
250	0xbe4305c6	-0.19045171
251	0xbe256029	-0.16149963
252	0x80005a28	-3.2342e-41
253	0x8000fa1a	-8.972e-41
254	0x00011a70	1.0132e-40
255	0x80005444	-3.0229e-41

encoder_cnn.3.bias f4 [16]
0	0x3d93f3bf	0.07224225
1	0x3db36ae1	0.0876062
2	0x3d745a40	0.05965638
3	0x3d8f2fec	0.06991562
4	0x3d7d27db	0.061805587
5	0x3d71f9af	0.059076007
6	0x3d9b4d55	0.07583109
7	0x3d7d6549	0.06186417
8	0xb58a98e4	-1.0326298e-06
9	0x3d9d8c89	0.076928206
10	0x3d90cfee	0.070709094
11	0x3dac6f9e	0.08419727
12	0xbb9eabca	-0.004842256
13	0x3d7a7797	0.061149206
14	0x3d5cf50a	0.053944625
15	0xb8548640	-5.066977e-05

encoder_cnn.6.weight f4 [32, 16, 3, 3]
0	0xb60022b5	-1.9093688e-06
1	0xb652b3a6	-3.1397008e-06
2	0xb604a825	-1.9767406e-06
3	0xb6017ddc	-1.9295758e-06
4	0xb651dbf3	-3.1271454e-06
5	0xb60f4455	-2.1348435e-06
6	0xb5e317b0	-1.6919712e-06
7	0xb6596af9	-3.2397786e-06
8	0xb5fa8dfd	-1.8667776e-06
9	0xb6004af2	-1.911711e-06
10	0xb62372e5	-2.435577e-06
11	0xb61f8dda	-2.3775415e-06
12	0xb62612a1	-2.474677e-06
13	0xb633e073	-2.6803725e-06
14	0xb6503016	-3.1022405e-06
15	0xb60545bc	-1.9859135e-06
16	0xb61cde20	-2.3375105e-06
17	0xb626d4af	-2.4859726e-06
18	0xb5e9576f	-1.7385299e-06
19	0xb63a130d	-2.7727249e-06
20	0xb5ee447d	-1.7752315e-06
21	0xb5d86dad	-1.6125174e-06
22	0xb623b341	-2.4393232e-06
23	0xb5fc12f1	-1.8780976e-06
24	0xb5e2ac90	-1.6888534e-06
25	0xb6412f96	-2.878694e-06
26	0xb5df8825	-1.6654418e-06
27	0xb60052b4	-1.9121626e-06
28	0xb6479d75	-2.9744963e-06
29	0xb5f5478f	-1.8274749e-06
30	0xb5fb1406	-1.8706785e-06
31	0xb647da3c	-2.978034e-06
32	0xb60bb60b	-2.0818577e-06
33	0xb5f6a71c	-1.8377063e-06
34	0xb64d1ca2	-3.0564047e-06
35	0xb6035467	-1.956965e-06
36	0xb60b74fd	-2.078071e-06
37	0xb62dfbb8	-2.5925528e-06
38	0xb61dc6b5	-2.3510486e-06
39	0xb5fb3a01	-1.8717839e-06
40	0xb630ef89	-2.6365472e-06
41	0xb6298c8b	-2.526477e-06
42	0xb5f15e2a	-1.7983305e-06
43	0xb60e6b0d	-2.122196e-06
44	0xb611dc18	-2.1734795e-06
45	0xb6086f93	-2.0330524e-06
46	0xb6274f70	-2.4931178e-06
47	0xb611896f	-2.168668e-06
48	0xb5f1774c	-1.7990619e-06
49	0xb61c07d5	-2.325037e-06
50	0xb61be923	-2.3232503e-06
51	0xb5c89424	-1.4944276e-06
52	0xb614875c	-2.2132508e-06
53	0xb5dc592f	-1.6417233e-06
54	0xb60c7f71	-2.0935806e-06
55	0xb638d6c0	-2.7543138e-06
56	0xb623cc02	-2.440764e-06
57	0xb607c856	-2.0233178e-06
58	0xb62b16b5	-2.5494203e-06
59	0xb6319303	-2.6460627e-06
60	0xb607e58f	-2.0250188e-06
61	0xb621fa23	-2.4136468e-06
62	0xb620b978	-2.3949815e-06
63	0xb6011f31	-1.9240654e-06
64	0xb63dbed3	-2.827427e-06
65	0xb5f2bf3d	-1.8086063e-06
66	0xb5fd068e	-1.8851877e-06
67	0xb63c5540	-2.8063805e-06
68	0xb60d727a	-2.1077271e-06
69	0xb5f2aa8a	-1.8080038e-06
70	0xb6474bac	-2.9697358e-06
71	0xb5f69f39	-1.8374768e-06
72	0x2965031e	5.0850918e-14
73	0xa9cafe8d	-9.0147596e-14
74	0xa998723c	-6.7699725e-14
75	0x2949a76e	4.4776188e-14
76	0x2a7ab237	2.2266291e-13
77	0x28315e14	9.845874e-15
78	0xa90bdc8c	-3.1055494e-14
79	0x29bdf7ad	8.436251e-14
80	0x29f1e3bc	1.07420556e-13
81	0xb5f707e1	-1.8405227e-06
82	0xb6318924	-2.6454882e-06
83	0xb60e29bb	-2.118394e-06
84	0xb60c1237	-2.0872228e-06
85	0xb6314e32	-2.642057e-06
86	0xb63a683c	-2.7776832e-06
87	0xb5ea465d	-1.7454837e-06
88	0xb61e70e1	-2.3609539e-06
89	0xb60a3927	-2.059687e-06
90	0xb5fd9bee	-1.889535e-06
91	0xb62db704	-2.5885538e-06
92	0xb6127a04	-2.1826718e-06
93	0xb5f59379	-1.8296843e-06
94	0xb6321907	-2.6538635e-06
95	0xb6297ccc	-2.5255604e-06
96	0xb5e79f3b	-1.7257183e-06
97	0xb61cbd2d	-2.3355926e-06
98	0xb611eaa1	-2.1743256e-06
99	0xb5e422a3	-1.6997404e-06
100	0xb6165d82	-2.240617e-06
101	0xb6162468	-2.2372933e-06
102	0xb61c36d4	-2.3277726e-06
103	0xb6244377	-2.4477174e-06
104	0xb64a9d1b	-3.0191793e-06
105	0xb6031349	-1.9531747e-06
106	0xb61447c6	-2.2095496e-06
107	0xb61d6fb8	-2.3459852e-06
108	0xb406955d	-1.253406e-07
109	0xb42bf444	-1.601448e-07
110	0xb411d6dd	-1.3582344e-07
111	0xb3fa5142	-1.1656313e-07
112	0xb421c6a4	-1.5066558e-07
113	0xb40ded4b	-1.3217975e-07
114	0xb406c04f	-1.2549684e-07
115	0xb420ad9c	-1.496432e-07
116	0xb406dfc8	-1.2561134e-07
117	0xb6032938	-1.9544514e-06
118	0xb646e4b0	-2.9637413e-06
119	0xb5f2967a	-1.80742e-06
120	0xb60163a0	-1.9280487e-06
121	0xb64571ae	-2.9421458e-06
122	0xb6143011	-2.2081697e-06
123	0xb5d19d7f	-1.5617551e-06
124	0xb63d538d	-2.8211828e-06
125	0xb5da5358	-1.6266522e-06
126	0xb5ea6960	-1.7465027e-06
127	0xb61b8efd	-2.318003e-06
128	0xb5fb99a5	-1.8745674e-06
129	0xb5e90390	-1.736089e-06
130	0xb61ae009	-2.3078194e-06
131	0xb6043760	-1.9701765e-06
132	0xb5d02d41	-1.5510378e-06
133	0xb6117d7b	-2.1679723e-06
134	0xb5e44462	-1.7007226e-06
135	0x27171565	2.0967058e-15
136	0xa572519f	-2.1017808e-16
137	0xa6dfe08b	-1.5534596e-15
138	0xa491aa2a	-6.3171995e-17
139	0x2497d517	6.58468e-17
140	0xa7960ec2	-4.1649364e-15
141	0xa4ef1985	-1.0369296e-16
142	0xa7a15142	-4.4774577e-15
143	0xa6c82d0c	-1.3889998e-15
144	0x3c27ce88	0.010242112
145	0xbd3a401c	-0.045471296
146	0xbcbe2c74	-0.023214556
147	0x3dae3026	0.08505277
148	0xbc4c00ed	-0.012451393
149	0x3d544bc0	0.051830053
150	0xbdaaecf0	-0.083459735
151	0xbc623e04	-0.013808731
152	0xbb16f1b4	-0.002303225
153	0x3b95c453	0.004570523
154	0x3d65aca1	0.056072835
155	0xbd2d8271	-0.042360727
156	0x3d778684	0.06043102
157	0x3d7a7ff4	0.06115718
158	0xbd06a755	-0.032874424
159	0xbcf41f1e	-0.029799994
160	0xbbdbf43a	-0.0067124637
161	0x3d58ca03	0.05292703
162	0x3c30a0ea	0.010780552
163	0xbd2f4c8b	-0.042797606
164	0xbc8c463b	-0.017123332
165	0x3d7d5d44	0.061856523
166	0xbcaa48c4	-0.02078665
167	0x3d33062e	0.043707065
168	0xbdac61ca	-0.08417089
169	0xbcda2589	-0.026629226
170	0xbc812c7d	-0.015768284
171	0x3c4a6475	0.012353052
172	0xbd439777	-0.04775187
173	0xbc466d60	-0.012111038
174	0x3d8f2bdb	0.06990787
175	0xbcc7fbc4	-0.024412043
176	0x3d47913f	0.0487225
177	0xbda8bb4a	-0.082388476
178	0xbc2a8de0	-0.010409802
179	0xbc857cb6	-0.016294818
180	0x3bbe822a	0.0058138566
181	0x3bd51781	0.006503046
182	0xbd640171	-0.055665437
183	0x3ddbb79f	0.10728382
184	0x3d37c20c	0.044862792
185	0x3d4df5df	0.05028331
186	0xbdeb9c70	-0.115044475
187	0xbc94c927	-0.018162323
188	0x3d44c7ff	0.048042294
189	0x3c8fdb80	0.01756072
190	0xbbfc5957	-0.00770108
191	0xbd5aa48b	-0.053379577
192	0x3ddb0867	0.10694962
193	0x3d0198f4	0.031640008
194	0x3d5ff1b5	0.05467387
195	0xbdd44115	-0.10363976
196	0xbbba2ef2	-0.005681866
197	0x3d3fda84	0.046839252
198	0xb96e43c2	-0.0002272269
199	0x3cce15b8	0.02515684
200	0xbd78fe9b	-0.060789686
201	0x3dc64620	0.09681344
202	0x3d462241	0.04837251
203	0x3d0e7f3b	0.034789305
204	0xbdc87494	-0.097878605
205	0xbd14d791	-0.036338393
206	0x3d41261d	0.04715549
207	0x3c578d02	0.0131561775
208	0xbd46481d	-0.048408616
209	0xbc9e6700	-0.019336224
210	0x3da4f8b3	0.08055248
211	0xbc3f2b4f	-0.01166804
212	0x3d30569e	0.043051355
213	0xbda3124b	-0.079624735
214	0xbc277186	-0.010219937
215	0xbbde0ab1	-0.006776177
216	0xb5f0acca	-1.7931682e-06
217	0xb59cb7d2	-1.1676404e-06
218	0xb60f7d99	-2.1381768e-06
219	0xb5f42dd3	-1.8192753e-06
220	0xb631ab62	-2.6474813e-06
221	0xb58d9667	-1.0549091e-06
222	0x3349125f	4.6815668e-08
223	0xb59f74ac	-1.1880379e-06
224	0xb6080884	-2.0270536e-06
225	0x3c828738	0.015933618
226	0x3d00f5d8	0.031484455
227	0xbd4201b8	-0.04736492
228	0x3dbee580	0.093211174
229	0x3d35e748	0.04441002
230	0x3be4e754	0.0069855843
231	0xbd587ff4	-0.0528564
232	0xbc8b5b7b	-0.017011395
233	0x3d598523	0.053105485
234	0x3bab82bd	0.005234091
235	0x3cc74216	0.024323504
236	0xbd6eae3b	-0.058271628
237	0x3db669e5	0.089069165
238	0x3d4bd8bf	0.049767252
239	0x3caee8fb	0.021351328
240	0xbd9f918f	-0.07791435
241	0xbc6ced03	-0.014460805
242	0x3d68d514	0.056843832
243	0xbbc4e3c0	-0.006008595
244	0x3d3be9b7	0.045877185
245	0xbd1354e7	-0.03596964
246	0x3d71159d	0.058858503
247	0x3d5c0c67	0.053722765
248	0xbd03c1d8	-0.032167286
249	0xbce43ec8	-0.027861968
250	0xbbab077a	-0.005219397
251	0x3d47f69e	0.048819177
252	0xbaf26acb	-0.0018494962
253	0xbb15ed61	-0.0022877085
254	0xbb0c9c98	-0.0021455642
255	0xba9ee66b	-0.0012123113

encoder_cnn.6.bias f4 [32]
0	0xb58133f9	-9.626375e-07
1	0xbc45ab6a	-0.012064794
2	0xb8fc9abc	-0.00012045118
3	0x3c2c816f	0.010528906
4	0x3ba4db61	0.005031035
5	0x3babacba	0.0052390965
6	0xbb6422e6	-0.003481084
7	0x38494d3b	4.799406e-05
8	0xaabefdb2	-3.3926816e-13
9	0x2e18146d	3.457894e-11
10	0xbc936cba	-0.01799618
11	0xbc90bff8	-0.017669663
12	0xa98185c1	-5.7519534e-14
13	0xaa01f530	-1.1542568e-13
14	0xbc75afb0	-0.0149955
15	0xbce9156b	-0.028452596
16	0x3a4ecdcc	0.00078889425
17	0x3a44bae6	0.00075046567
18	0x3d119137	0.03553888
19	0x3a7c9828	0.000963571
20	0xbc2a7f6d	-0.010406357
21	0xbc8c09ef	-0.01709458
22	0xba02ff82	-0.000499718
23	0x399af7e4	0.00029557862
24	0xbc1edc5a	-0.009696091
25	0x3b37e989	0.0028062782
26	0x2b051699	4.728245e-13
27	0xbc89557a	-0.016764391
28	0x3c4d5252	0.012531834
29	0xbc178ee1	-0.009250374
30	0xade5b98f	-2.611669e-11
31	0x3c84eddb	0.0162267

encoder_lin.0.weight f4 [64, 288]
0	0xb61556bb	-2.2253214e-06
1	0xb5a08bf6	-1.1961663e-06
2	0xb5c3f574	-1.4600068e-06
3	0xb6574880	-3.2079697e-06
4	0xb59486c5	-1.1066082e-06
5	0xb5fbcd93	-1.8760787e-06
6	0xb601d44a	-1.9346066e-06
7	0xb5c47813	-1.4638084e-06
8	0xb6036cba	-1.9583808e-06
9	0xbcbbd342	-0.022927884
10	0x3d1a34af	0.0376479
11	0x3d175d3a	0.036954142
12	0x3c99752e	0.018732633
13	0xbd1597a0	-0.036521554
14	0xbd545aa7	-0.051844265
15	0x3c08f257	0.00835856
16	0x3d04780c	0.032341048
17	0xbbe751ac	-0.0070592966
18	0xb930d572	-0.00016864183
19	0xb868e81e	-5.5529286e-05
20	0xb8f0d7fb	-0.00011484321
21	0xb8dbb1ed	-0.00010475875
22	0xb7574175	-1.2830239e-05
23	0xb990b103	-0.00027597704
24	0xb90c9cf0	-0.00013409904
25	0xb8481871	-4.770648e-05
26	0xb98547b2	-0.00025421154
27	0xbc7989cd	-0.015230608
28	0xbaa6f829	-0.0012738752
29	0x3ba782e9	0.0051120413
30	0x3d558ab4	0.05213423
31	0x3c0bfcdf	0.008544176
32	0xbc258d13	-0.0101044355
33	0xbd882369	-0.06647379
34	0xbb38edf0	-0.0028217994
35	0xbc2d607d	-0.010582087
36	0xbc861eb4	-0.016372062
37	0xbc872d0f	-0.016500978
38	0x3ba8924e	0.005144394
39	0x3ccd7de7	0.025084449
40	0xbdd06c9f	-0.10176968
41	0xbab9ab19	-0.0014165371
42	0xbd1d0a7b	-0.038340073
43	0x3cd8cd75	0.026465157
44	0x3cb0bf31	0.021575542
45	0x3d8637a2	0.0655358
46	0xba9001cd	-0.0010986865
47	0xbcd34db2	-0.025793884
48	0x3c5374ff	0.012906312
49	0x3c54eb29	0.01299552
50	0x3cd1d10e	0.02561238
51	0xbbb4e9c8	-0.005521033
52	0x3e01601e	0.12634322
53	0x3c3eb841	0.011640609
54	0xbd69bc9c	-0.057064638
55	0xbd0caed8	-0.03434643
56	0x3cf1b818	0.029506728
57	0x3bbb2e7a	0.0057123275
58	0x3d3c506f	0.045975145
59	0x3c471e86	0.012153273
60	0x3c8b174e	0.016978886
61	0xbd01a2af	-0.031649288
62	0xb9aa2cf3	-0.00032458417
63	0xbc2c5163	-0.010517451
64	0xbcbb34cf	-0.02285233
65	0xbbec9de3	-0.00722097
66	0x3c5ee2b4	0.013603855
67	0x3d2c5add	0.04207884
68	0xbd7b8528	-0.061406285
69	0x3d170f01	0.036879543
70	0xbd1416d8	-0.036154598
71	0xbc5b9724	-0.013402734
72	0x1eb08ff5	1.8694264e-20
73	0x2028bdc5	1.4292943e-19
74	0x9e38399e	-9.752794e-21
75	0x9f19c987	-3.256571e-20
76	0xa8944c93	-1.646451e-14
77	0x9e9013f3	-1.5254844e-20
78	0x9ed6b4bb	-2.273288e-20
79	0xa758e767	-3.0101465e-15
80	0x1e255833	8.7532664e-21
81	0x2a99f1af	2.734596e-13
82	0xa98b7199	-6.192546e-14
83	0x2aa54a84	2.9361593e-13
84	0x2b1a7009	5.486727e-13
85	0x2aaae91c	3.0359818e-13
86	0xab88c149	-9.717029e-13
87	0x29b78dd8	8.1514385e-14
88	0x2b9a0271	1.0943036e-12
89	0x2a8285e0	2.3185533e-13
90	0xbcf0d2af	-0.029397337
91	0x39b2f3ef	0.0003413255
92	0xbd40f551	-0.047108952
93	0x3b375d0c	0.0027979044
94	0x3e4522f5	0.19251616
95	0xbcf32d58	-0.029684708
96	0x3c703de8	0.014663197
97	0x3d4db773	0.05022378
98	0xbca31852	-0.019909058
99	0xbc1515a7	-0.009099401
100	0x3cb2b1c0	0.021813273
101	0xbd1f2f1c	-0.038863286
102	0xbcd9c3bb	-0.02658259
103	0x3d4885e8	0.048955828
104	0xbd8b7fc0	-0.06811476
105	0xb9bfd386	-0.00036587956
106	0x3d4eb1c4	0.0504625
107	0x3c4a09ea	0.012331465
108	0xab8b7427	-9.908783e-13
109	0x2a7002b7	2.1317224e-13
110	0xab8f4ac9	-1.0181518e-12
111	0xab1f6a7a	-5.6635913e-13
112	0xa9337843	-3.9850295e-14
113	0x281cdf23	8.708125e-15
114	0xab22975f	-5.776403e-13
115	0x2996f2d7	6.703464e-14
116	0x2a4f2b4a	1.8400312e-13
117	0x2844f502	1.0933313e-14
118	0x27f692fa	6.843807e-15
119	0x27e4e061	6.3525985e-15
120	0x26949ca5	1.0312022e-15
121	0x2831e9a4	9.8761365e-15
122	0x2887a5fe	1.5059998e-14
123	0x27c22339	5.3884005e-15
124	0x27ed3f80	6.584956e-15
125	0x284d9646	1.1412371e-14
126	0x3cc58128	0.024109438
127	0x3d5f2305	0.054476757
128	0xbbff96df	-0.0077999677
129	0xbd277477	-0.040882554
130	0x3d6008d1	0.054695908
131	0xbd9d2f99	-0.07675094
132	0x3c931868	0.017955974
133	0x3d60b06d	0.054855753
134	0x3c18a35b	0.009316291
135	0xbc4177d4	-0.011808354
136	0xbd857d18	-0.06518
137	0xbd66f4a5	-0.056385655
138	0x3ca2db9b	0.019880107
139	0x3d9ec25e	0.07751916
140	0xbd9bf867	-0.07615738
141	0xbcc61017	-0.024177594
142	0x3d6a5941	0.057214025
143	0xbc1ab782	-0.009443166
144	0x3a115786	0.0005544353
145	0x39d18a11	0.00039966454
146	0x39c56a78	0.00037654093
147	0x3a8a1c60	0.0010537021
148	0x3d3bc99c	0.045846567
149	0x3da314bf	0.079629414
150	0xbdb4f3ec	-0.08835587
151	0xbdf59e9d	-0.11993144
152	0xbdbdc5ff	-0.092662804
153	0x3bf256b2	0.007395589
154	0xbbb1412c	-0.0054093804
155	0x3c77e873	0.015131104
156	0x3d28ba87	0.04119351
157	0xbd50d715	-0.05098637
158	0x3d40111f	0.046891328
159	0xbb7b02da	-0.003830126
160	0x3ba53c16	0.005042563
161	0xbd124977	-0.035714593
162	0xbb3f78bb	-0.0029216248
163	0xbe29e322	-0.1659055
164	0xbd6ef2f5	-0.05833717
165	0x3d28f341	0.04124761
166	0x3cb90743	0.02258647
167	0xbc920e50	-0.01782909
168	0xbd5f2e76	-0.054487668
169	0xbe433dfb	-0.19066612
170	0xbe033976	-0.12814888
171	0xbb5b58cd	-0.0033469677
172	0xbb0ee3e3	-0.0021803312
173	0xbb149ef8	-0.002267776
174	0xbb53ce16	-0.0032318882
175	0xb92f14d1	-0.00016697055
176	0xbacc8044	-0.0015602191
177	0xbb79c2ac	-0.0038110418
178	0xbad25569	-0.0016047183
179	0xbb486e04	-0.0030583153
180	0xbbbd8e9c	-0.0057848226
181	0x3bfee42d	0.0077786655
182	0xbd1761b6	-0.03695842
183	0xbcf49465	-0.029855916
184	0x3e0e1d9e	0.13878486
185	0xbd99ad56	-0.07503764
186	0xbc81c80e	-0.015842464
187	0x3e25e4ff	0.16200636
188	0x3c80aeba	0.015708316
189	0xbaebd250	-0.0017991755
190	0x3b593caf	0.0033147743
191	0x3d38aa2c	0.045084164
192	0x3c935c85	0.017988453
193	0xbd9ac5b1	-0.07557238
194	0x3d366202	0.04452706
195	0xbc30d616	-0.01079323
196	0x3e2286ce	0.15871736
197	0x3cb4c365	0.022065828
198	0xbad17319	-0.0015979736
199	0xbaa98e4b	-0.0012936083
200	0xba86fb07	-0.0010298201
201	0xbace7423	-0.0015751164
202	0xba0f955c	-0.00054772734
203	0xba8feff0	-0.0010981541
204	0xbad1ca90	-0.0016005803
205	0xbad8f170	-0.0016551446
206	0xbaba3a48	-0.0014208043
207	0xb85b4901	-5.228166e-05
208	0x3951944f	0.00019987042
209	0xb94fc9a8	-0.00019816181
210	0x3926905a	0.00015884769
211	0xb8ed6454	-0.00011319728
212	0xb8df4b73	-0.00010647522
213	0xb9528a7e	-0.00020078753
214	0x3970d5b1	0.0002296779
215	0xb99074d8	-0.00027552876
216	0xbc5a56ed	-0.013326389
217	0x3cd960d8	0.026535437
218	0x3c894749	0.016757624
219	0xbd46c56d	-0.048528124
220	0x3c83d974	0.0160949
221	0xbbffb67f	-0.0078037377
222	0x3d1cfa57	0.03832468
223	0x3d2241b2	0.039613433
224	0xbb43acdb	-0.0029857669
225	0xbbe3056f	-0.006928138
226	0xbcc0421b	-0.023469022
227	0x3c7c161c	0.015386131
228	0x3d5356b4	0.05159636
229	0xbe2ac852	-0.16677979
230	0x3a6fb2fb	0.00091437966
231	0xbd5c24b8	-0.053745955
232	0xbd006ac1	-0.03135181
233	0xbc51e547	-0.012811012
234	0xaa3c6bc9	-1.673515e-13
235	0xaa4631bf	-1.7603192e-13
236	0xaa0a3c71	-1.2277832e-13
237	0xaa4db49d	-1.827032e-13
238	0xaa27a6e5	-1.4890483e-13
239	0xaa650b61	-2.0343234e-13
240	0xa9f28f0e	-1.0771775e-13
241	0xaa8d21f7	-2.50702e-13
242	0xaa351d52	-1.6086202e-13
243	0x3c1c7379	0.009549015
244	0x3d416a6b	0.04722063
245	0x3ba2a6d0	0.0049637333
246	0xbd182c39	-0.03715155
247	0xbb5e8be5	-0.0033957895
248	0xbdb17c07	-0.086662345
249	0x3c79022c	0.015198272
250	0xbbca1d33	-0.0061680316
251	0x3c8ac70b	0.016940614
252	0x3d6a761d	0.057241548
253	0x3c644c43	0.013934198
254	0xbc5eb6a7	-0.013593352
255	0x3d4b3b6e	0.049617223

encoder_lin.0.bias f4 [64]
0	0xbab3280b	-0.001366855
1	0x3c40d7f4	0.011770237
2	0x3bb1d105	0.0054265284
3	0x3b23501a	0.002491957
4	0x3bc3b651	0.0059726615
5	0x369ae2bd	4.6159535e-06
6	0xba8a7f78	-0.0010566553
7	0x3bf7f940	0.0075675547
8	0xb3d9819c	-1.0128426e-07
9	0x313084ea	2.5686924e-09
10	0x3b0b490b	0.0021253254
11	0xb9cd3f41	-0.00039147775
12	0x3c485e78	0.012229554
13	0x3b0d8ef8	0.0021600109
14	0xb89e141f	-7.537775e-05
15	0x34e7cc2f	4.3175666e-07
16	0x3a85729e	0.0010181253
17	0xb9ca556d	-0.0003859209
18	0x3bd9c4c0	0.006645769
19	0xbb428617	-0.0029681975
20	0x3c974870	0.018467158
21	0x274e4e25	2.8630605e-15
22	0xbc1cffbc	-0.009582456
23	0x3b9fe40a	0.0048794793
24	0x3bbd5187	0.005777541
25	0x38d42e69	0.00010117592
26	0x3714355d	8.833912e-06
27	0xb7bc1a38	-2.2423555e-05
28	0xbb907854	-0.0044088755
29	0xb1f1123b	-7.0160957e-09
30	0xbc37b876	-0.0112134125
31	0xb5e21701	-1.6845007e-06
32	0x39d86218	0.00041271816
33	0x3bd9ece6	0.006650555
34	0x3a5ac38b	0.0008345178
35	0x3b09778b	0.0020975794
36	0x2fc958fb	3.6624911e-10
37	0x3781bf00	1.546694e-05
38	0xba354c3f	-0.00069159636
39	0xbbbcd450	-0.0057626143
40	0xbb366b18	-0.002783483
41	0x3c4a1a7f	0.012335419
42	0xb786c52d	-1.6065862e-05
43	0xba820f3b	-0.0009922752
44	0xb8b9c246	-8.857674e-05
45	0x3b7c1be9	0.0038468784
46	0x3a43dcad	0.0007471543
47	0x2bc81b7b	1.4218482e-12
48	0x3be51d08	0.006991986
49	0xb6b91b3c	-5.5166e-06
50	0x3b20a42b	0.0024511914
51	0xade82c15	-2.6394923e-11
52	0xb7b2f4f5	-2.133332e-05
53	0x3b5d998d	0.0033813447
54	0xb7a7b217	-1.999088e-05
55	0xba886d4a	-0.0010408547
56	0x3c2dc23f	0.010605394
57	0xba026f98	-0.0004975735
58	0xb38a84d9	-6.4502906e-08
59	0xbb23c988	-0.0024991948
60	0x39f640fa	0.00046969188
61	0xb9e19848	-0.00043028803
62	0x3c137d31	0.009002016
63	0xba8fd8bf	-0.001097463

encoder_lin.3.weight f4 [2, 64]
0	0x3f1af032	0.6052276
1	0x3e49c56c	0.19704217
2	0x3d1bcc9a	0.03803692
3	0x3bb526f0	0.0055283234
4	0x3e8c654b	0.2742103
5	0xb89eb3bf	-7.5675074e-05
6	0x383680ee	4.3512257e-05
7	0x3d391bb7	0.045192447
8	0xb98586f9	-0.000254683
9	0x3308b018	3.1825124e-08
10	0x3ea60fe4	0.32434
11	0xbad7fce1	-0.0016478562
12	0x3d63d02f	0.05561846
13	0x3e9679d7	0.2938983
14	0xbb1b2cf0	-0.0023677908
15	0xbc17a76d	-0.009256226
16	0x3b76bcb9	0.0037649109
17	0xbb20cdd8	-0.0024536755
18	0x3e87e691	0.26543096
19	0x3f007986	0.5018543
20	0x3e1489d4	0.14505702
21	0xbb08cbc2	-0.0020873402
22	0xbf04f540	-0.5193672
23	0x3eb71efe	0.35765833
24	0x3c9f52d2	0.019448671
25	0xba1fec9d	-0.0006100627
26	0x37d70d5b	2.5636216e-05
27	0xb956b72c	-0.00020476867
28	0x3eb517dc	0.35369766
29	0x32c766c1	2.3213376e-08
30	0x3f45b300	0.7722626
31	0xb732ac2f	-1.0649716e-05
32	0xbb036bd7	-0.0020053291
33	0xbd2174b9	-0.039417956
34	0x3f138229	0.57620484
35	0x3b76f34c	0.0037681637
36	0x3b85b025	0.004079836
37	0x3a59b2fd	0.00083045644
38	0xbb3fb444	-0.0029251734
39	0xbf0ca12a	-0.54933417
40	0xbea4a419	-0.32156447
41	0x3d773ebd	0.060362566
42	0xbafa6ff0	-0.0019106846
43	0xbe977252	-0.29579407
44	0x399935ea	0.00029222603
45	0x3ae1855e	0.0017205884
46	0x3a83545c	0.0010019648
47	0x3aeda1ae	0.0018129849
48	0x3ef5603e	0.4792499
49	0x39b0419d	0.00033618222
50	0xbecc750b	-0.39933047
51	0xbac88876	-0.0015299458
52	0xb81f8164	-3.802906e-05
53	0x3c2b8284	0.010468129
54	0x3b54abd2	0.0032451046
55	0x3bfc1b63	0.0076936944
56	0x3dd8b149	0.105806895
57	0x3a8048ab	0.0009787282
58	0xb695cd73	-4.4644635e-06
59	0xbf13e8c4	-0.5777705
60	0x3bcea234	0.006305957
61	0xba6251ac	-0.0008633386
62	0x3e8167c7	0.25274488
63	0x3b237b67	0.002494538
64	0xbd597949	-0.053094182
65	0xbd687e90	-0.056761324
66	0xbeb5a689	-0.3547862
67	0x3c4bf4f2	0.012448536
68	0xbf057406	-0.5213016
69	0xb6f3b132	-7.2625926e-06
70	0xb7e75f93	-2.7581851e-05
71	0x3b532761	0.0032219517
72	0x3a163bde	0.0005730967
73	0x335889aa	5.0416624e-08
74	0xbf0d470b	-0.5518653
75	0xbb27c717	-0.0025600845
76	0x3ec0004d	0.3750023
77	0x3f216f1c	0.63060164
78	0xba760561	-0.0009384957
79	0xbc1edf5f	-0.0096968105
80	0x3aa17433	0.0012317955
81	0xbc2966d3	-0.010339457
82	0xbeef91bc	-0.46790874
83	0x3e6733ce	0.22578356
84	0x3e183fe4	0.14868122
85	0x3bbcf148	0.0057660677
86	0xbf09711f	-0.53688234
87	0xbe3cc80b	-0.18435685
88	0x3cb81cc9	0.022474663
89	0xbbc63337	-0.0060485858
90	0x37f783a4	2.9505994e-05
91	0x39ac6022	0.0003287802
92	0x3f5f277b	0.8716962
93	0xb29940d9	-1.7841034e-08
94	0x3e366b6b	0.17814414
95	0xb87da0fa	-6.046982e-05
96	0x398a65e9	0.0002639734
97	0x3e1f22b8	0.15540588
98	0xbd5b2f84	-0.05351211
99	0x3c62e78d	0.013849151
100	0xbb1b01bb	-0.0023652154
101	0x37e48fc8	2.7246671e-05
102	0x39c26073	0.00037074424
103	0x3ec16388	0.3777125
104	0x3e4459de	0.19174907
105	0x3dee1479	0.116249986
106	0xbc06c504	-0.008225683
107	0xbeec8ff5	-0.4620358
108	0x39a58654	0.00031571335
109	0xbf0708c1	-0.5274773
110	0x3b766328	0.0037595723
111	0xb8fa16ff	-0.00011925212
112	0xbdb834ef	-0.08994471
113	0x39035518	0.00012524833
114	0x3f06f851	0.5272265
115	0x39d43305	0.00040473804
116	0x3868e005	5.5521745e-05
117	0x3c2003de	0.009766547
118	0xbb6cef02	-0.0036153202
119	0xba12ca50	-0.0005599605
120	0xbcb34130	-0.02188167
121	0x3a32826e	0.00068095967
122	0x39409ddc	0.00018369354
123	0x3deaa7d7	0.11457794
124	0x3ab249c1	0.0013602303
125	0x3a59499f	0.00082888635
126	0x3e8a0354	0.26955664
127	0x3b1a4f1d	0.002354569

encoder_lin.3.bias f4 [2]
0	0x3d518af3	0.051157903
1	0x3e129634	0.1431511

decoder_lin.0.weight f4 [64, 2]
0	0x3dff2380	0.12457943
1	0x3e9e50cf	0.30921027
2	0x3eb2a3dc	0.3489064
3	0xbe491f2f	-0.19640802
4	0x3e5ffa9f	0.21872948
5	0x3e32b024	0.17450005
6	0x3e5f768f	0.2182257
7	0x3e08a0ea	0.13342634
8	0x3e8a9017	0.27063057
9	0x3d29fea4	0.04150261
10	0x3e2b2953	0.16714983
11	0x3eb5a5e2	0.3547812
12	0xbbaa9c2d	-0.005206606
13	0xba72f935	-0.0009268702
14	0x3e95001b	0.29101643
15	0x3e7a8852	0.24466065
16	0xbe0924fe	-0.13393018
17	0xbee916a9	-0.455251
18	0x3e8a6492	0.27029854
19	0x3d8e75c9	0.069560595
20	0x3e95751c	0.2919091
21	0xbe2ac688	-0.16677296
22	0x3c3d2858	0.011545263
23	0x3ee78c30	0.45224142
24	0xbea4b3b9	-0.32168368
25	0xbe77c795	-0.24197228
26	0x3ec086e8	0.37602925
27	0xbe5b7bd1	-0.21433951
28	0x3d1713bb	0.03688405
29	0x3eec5d3d	0.46164885
30	0xbefbae3f	-0.49156377
31	0x3e8a7f5f	0.270503
32	0xbd82a7a3	-0.063796304
33	0x3ee847c2	0.45367247
34	0xbdcde96d	-0.10054288
35	0xbe3a4fe1	-0.18194534
36	0x3e85d92b	0.2614225
37	0x3e5bb17f	0.21454428
38	0x3d86efbb	0.06588694
39	0x3ef8ea4a	0.48616248
40	0x3ec7b66d	0.39006367
41	0xbe619271	-0.22028519
42	0xbe8168bb	-0.25275216
43	0xbd5f1812	-0.054466315
44	0x3ebc1353	0.36733493
45	0xbe53b134	-0.20673066
46	0xbc10a339	-0.008827978
47	0x399edaf3	0.00030299238
48	0x3e63cbfa	0.2224578
49	0x3e542a02	0.2071915
50	0x3dfea81d	0.12434409
51	0x3ef7c8b4	0.48395312
52	0x3e6b2c32	0.22966078
53	0x3d92c094	0.071656376
54	0x3e8967cb	0.26837
55	0x3d9bde93	0.07610812
56	0xbf03b9f3	-0.5145561
57	0x3e8f4b31	0.27987054
58	0xbce8bdbb	-0.028410783
59	0x3ca230ff	0.019798754
60	0xbe36cd33	-0.17851715
61	0xbeed529c	-0.46352088
62	0x3e73a163	0.23792033
63	0x3d628bad	0.055308986
64	0xbcca9e81	-0.024733784
65	0x3cadadca	0.021201033
66	0x3e37aa27	0.17936002
67	0x3ec485d2	0.38383347
68	0x3e2636f5	0.16231902
69	0x3eeea2c4	0.46608555
70	0xbe938e9b	-0.28819737
71	0xbe74127c	-0.23835176
72	0x3e81dea0	0.25365162
73	0x3d9676b0	0.073468566
74	0x3e95f46b	0.2928804
75	0x3d84e207	0.06488424
76	0x3e83b671	0.2572513
77	0x3e5755bb	0.21028797
78	0x3d430fbc	0.047622427
79	0x3cfbcee2	0.030738298
80	0x3e633921	0.22189762
81	0x3d50a808	0.050941497
82	0xbefd574f	-0.49480674
83	0x3e8a39a2	0.26997095
84	0x3e84d460	0.2594328
85	0x3d643633	0.05571575
86	0xbc2b5750	-0.010457829
87	0x3ee3c989	0.44489697
88	0xb1572772	-3.130904e-09
89	0x2e8a4cc0	6.289147e-11
90	0x3e42f714	0.19039565
91	0xbee7183d	-0.4513568
92	0xbab8db4c	-0.0014103441
93	0xba442845	-0.0007482807
94	0xbcd3bac8	-0.0258459
95	0x3ca3af52	0.01998106
96	0x35d76fcd	1.6051287e-06
97	0x35492733	7.493538e-07
98	0x3e1c8aed	0.15287371
99	0x3e967155	0.2938334
100	0xbeb86583	-0.36014947
101	0xbe849785	-0.2589685
102	0x3eb1f66a	0.34758312
103	0xbe4944db	-0.19655173
104	0x3ea45c6d	0.32101765
105	0xbe3ac2d1	-0.18238379
106	0x3e8a3111	0.2699056
107	0x3d723fe0	0.059142947
108	0x3eb0494f	0.3443093
109	0xbe48986f	-0.19589399
110	0xbef1c265	-0.47218624
111	0x3e842dfe	0.2581634
112	0xbcd2c5c3	-0.025729066
113	0x3cafa72b	0.021442017
114	0x3e467929	0.19382156
115	0x3ea4759f	0.32120988
116	0xbcb1c485	-0.021700153
117	0x3c9fdbda	0.019514013
118	0x3ebe4044	0.37158406
119	0xbe579c73	-0.21055774
120	0xbba6d75e	-0.0050915917
121	0xb90c384a	-0.0001337241
122	0xbc4bc589	-0.012437233
123	0x3c8638cf	0.01638451
124	0xbcc687f1	-0.024234744
125	0x3cb48b5b	0.022039106
126	0x3e8bdabe	0.27315325
127	0x3d7b4139	0.061341498

decoder_lin.0.bias f4 [64]
0	0xbd3e16c5	-0.046408433
1	0x3d62273f	0.05521321
2	0xbd04e561	-0.032445315
3	0x3d1fed1b	0.03904448
4	0x3cbaed9f	0.022818385
5	0xbc67f371	-0.014157162
6	0x3965f97b	0.0002193208
7	0xbca9633d	-0.020677203
8	0x3e13603b	0.14392178
9	0x3dad0f79	0.08450217
10	0x3d3e3e7c	0.04644631
11	0x3e02618d	0.12732525
12	0x3d9c7a3b	0.07640501
13	0x3d815992	0.06315912
14	0x3dd66a4f	0.104694955
15	0x3c10426f	0.0088049015
16	0x3e265fbb	0.16247456
17	0x3d419d5a	0.047269203
18	0xbc3f3e52	-0.011672573
19	0x3db3db04	0.08782008
20	0x3d8a9b9a	0.0676796
21	0x3cdde407	0.027086271
22	0x3d70ff54	0.05883725
23	0xbc0dd2e1	-0.0086562345
24	0x3cf6e068	0.030136302
25	0x3d041988	0.03225091
26	0x3e01f1ea	0.12689939
27	0x3ddec6ae	0.10877739
28	0x3c9997f3	0.018749213
29	0x3f4dbab7	0.8036303
30	0x3e3ea197	0.18616329
31	0x3d4bcc53	0.049755406
32	0x3f43a221	0.76419264
33	0x3cc4f291	0.024041446
34	0xbca953bf	-0.020669816
35	0x3d9bdf24	0.0761092
36	0x3da6b807	0.08140569
37	0x3d5b6790	0.05356556
38	0xbcde3d1e	-0.027128752
39	0x3d88f7a8	0.06687862
40	0x3cf98e01	0.03046322
41	0x3c86a1f1	0.016434642
42	0x3c25b5a3	0.010114106
43	0x3e281297	0.16413341
44	0xb12b8ffd	-2.4965623e-09
45	0x3d4e9ae6	0.05044069
46	0xbbea5385	-0.0071510696
47	0x3f445420	0.76690865
48	0xb635ed2b	-2.7109152e-06
49	0x3d3adc2b	0.045620125
50	0x3dae31a3	0.08505561
51	0x3d682c3c	0.05668281
52	0x3d56b382	0.052417286
53	0x3c260d09	0.010134944
54	0x3d703b4d	0.058650304
55	0x3bfc8637	0.0077064293
56	0x3f5519bc	0.8324239
57	0xbc1b51a3	-0.009479913
58	0x3f2f2a71	0.68424135
59	0x3d7df23f	0.061998602
60	0xbb39b564	-0.0028336877
61	0x3eea9073	0.4581333
62	0x3f39d4ad	0.7259014
63	0x3c42a8e3	0.011881086

decoder_lin.3.weight f4 [288, 64]
0	0xbaf9cba4	-0.0019057882
1	0x3c5e87d4	0.013582189
2	0x3b90f445	0.0044236504
3	0x3c041246	0.008060997
4	0x3c3e6825	0.01162151
5	0x3b80aeab	0.003927072
6	0x39e93848	0.00044483156
7	0x3bea8769	0.0071572554
8	0x3be627e4	0.0070237983
9	0x3c38c548	0.011277504
10	0x3c0418b2	0.008062528
11	0x3c1376a8	0.009000458
12	0x3cb0b8a6	0.021572422
13	0x3c7ebbb0	0.015547678
14	0x3ab8dc5a	0.0014103756
15	0x3c75072e	0.014955325
16	0x3c6a1eca	0.014289567
17	0x3bdb4d9f	0.0066926028
18	0x3ba77eb2	0.005111539
19	0x3b787d3b	0.003791644
20	0x3c47fe07	0.012206561
21	0x3ca5b025	0.020225594
22	0x3c4b385b	0.012403573
23	0xbab9281f	-0.0014126337
24	0x3b73a3f8	0.003717659
25	0x3a540fac	0.00080894935
26	0x3c150cac	0.0090972595
27	0x3c419578	0.011815421
28	0x3c6ae6d3	0.014337259
29	0x3d285b81	0.04110289
30	0x3c24cbcf	0.010058357
31	0x3bf10bb5	0.007356132
32	0x3d19a0e3	0.03750695
33	0x3b85d029	0.0040836525
34	0x396f557a	0.00022824659
35	0x3cc0dd87	0.023543132
36	0x3c40fdf7	0.0117793
37	0x3c406e65	0.01174507
38	0x3bc6b17b	0.006063638
39	0x3b08cb05	0.0020872962
40	0x3c1af072	0.009456741
41	0x3c7717a5	0.015081321
42	0x3c0604ba	0.008179838
43	0x3c46007b	0.0120850755
44	0xb04629a7	-7.209117e-10
45	0x3c323616	0.010877153
46	0x3a688a18	0.0008870675
47	0x3d22f617	0.03978547
48	0xb5962b08	-1.1188395e-06
49	0x3b145300	0.002263248
50	0x3cb99663	0.022654718
51	0x3becced2	0.0072268033
52	0x3be0a141	0.0068551605
53	0x3c00b773	0.007856238
54	0x3c004e80	0.007831216
55	0x3c80734e	0.015679982
56	0x3d21e476	0.039524518
57	0x3b6897d3	0.0035490885
58	0x3d0bd8f0	0.034142435
59	0x3c0d8bd9	0.008639299
60	0x3a2aa309	0.00065092795
61	0x3cacccac	0.021093689
62	0x3d1e8bac	0.03870742
63	0x3c1d8bb8	0.009615831
64	0xbcb284b0	-0.021791786
65	0xbc8d2797	-0.017230792
66	0xbc0f11c9	-0.008732268
67	0xbbb98744	-0.005661877
68	0x3b82b3eb	0.003988733
69	0xbcf6948b	-0.030100128
70	0x3ac5c0d4	0.0015087374
71	0xbc7fafbb	-0.015605862
72	0x3d70712b	0.058701675
73	0x3c223986	0.00990141
74	0xbce8c8c4	-0.028416045
75	0xbda57da4	-0.08080605
76	0x3da68820	0.081314325
77	0xbcbb45a3	-0.022860354
78	0xbda49c3e	-0.08037613
79	0xbcad2081	-0.021133663
80	0xbdb8138b	-0.089881025
81	0x3d0de6ed	0.034644056
82	0xbc3f01d0	-0.011658147
83	0xbda406f5	-0.080091394
84	0xbcabcbbb	-0.02097117
85	0x3d75d122	0.060013898
86	0xbcec6d54	-0.028860725
87	0xba5aeb47	-0.0008351099
88	0xbc8d0e2d	-0.017218674
89	0xbd88b56a	-0.06675227
90	0x3c2d30a4	0.010570679
91	0x3bb90aee	0.005647055
92	0xbca30184	-0.019898184
93	0x3d4628ca	0.048378743
94	0x3d9300c2	0.07177879
95	0x3c208f4a	0.009799788
96	0x3d2f1960	0.04274881
97	0xbd292fd0	-0.041305363
98	0xbd36a123	-0.044587266
99	0x3d8fc3d6	0.070197746
100	0x3c3509ef	0.011049732
101	0x3c1ffeb0	0.009765312
102	0xbc4823cd	-0.012215567
103	0x3b08b9cd	0.00208627
104	0x3c086853	0.008325654
105	0xbce1b714	-0.027553119
106	0x3bf23e93	0.0073927133
107	0xbdbb0b3c	-0.09133002
108	0xaf9839f4	-2.7689817e-10
109	0x3cf7425a	0.030183006
110	0x39b416c0	0.00034349225
111	0x3d39c60f	0.0453549
112	0x34bbbf68	3.497073e-07
113	0xbd137669	-0.036001597
114	0x3da6bfc7	0.081420474
115	0xbcad823b	-0.021180263
116	0xbca3ec09	-0.020010011
117	0x3c5aee3f	0.013362466
118	0xbc953ffc	-0.018218987
119	0xbc92bddb	-0.017912796
120	0x3d566930	0.05234641
121	0xbcf153f2	-0.029458974
122	0x3d1a1d60	0.03762567
123	0xbcd03c93	-0.025419509
124	0xba4c74ad	-0.00077993685
125	0x3c94f15a	0.018181492
126	0x3d140b46	0.036143564
127	0x3c5850b4	0.013202835
128	0xb2f1e6e9	-2.8161098e-08
129	0x27109987	2.0067242e-15
130	0x2957ac5a	4.788908e-14
131	0xaa05bedc	-1.187899e-13
132	0x26ec652e	1.6403214e-15
133	0xb4244227	-1.5297756e-07
134	0x25dc31f9	3.819778e-16
135	0xb47723b3	-2.3016655e-07
136	0xb4271145	-1.555937e-07
137	0xaa9338d3	-2.6151875e-13
138	0x26915159	1.0083445e-15
139	0xb6a0231d	-4.7724593e-06
140	0xa63938e3	-6.4261864e-16
141	0xa64056dd	-6.6731103e-16
142	0xb6d3449b	-6.2962768e-06
143	0xb1e4be4f	-6.657309e-09
144	0xb71e93e2	-9.4519655e-06
145	0xa5b10f01	-3.0714773e-16
146	0x2d504b56	1.1840159e-11
147	0xb7039a98	-7.844203e-06
148	0x27acb7bb	4.793879e-15
149	0x25b46c4e	3.1298413e-16
150	0xa7277921	-2.324157e-15
151	0x2126630b	5.637407e-19
152	0xaeb10a15	-8.050819e-11
153	0xb7ad3cee	-2.065158e-05
154	0x29ac8af4	7.662439e-14
155	0xaae53bdf	-4.0720116e-13
156	0xae738b4a	-5.5375517e-11
157	0xb0be04be	-1.3825667e-09
158	0xb3bb01c2	-8.708186e-08
159	0x2976e16a	5.481849e-14
160	0xb0bb9e7e	-1.3651087e-09
161	0xb5b61e52	-1.3568881e-06
162	0xb727f2dc	-1.0010521e-05
163	0x25139528	1.2800754e-16
164	0x299dd441	7.009021e-14
165	0xa789d011	-3.8250725e-15
166	0xb0d1cb02	-1.526445e-09
167	0xa79e6cc7	-4.3971746e-15
168	0x280d41c5	7.841334e-15
169	0xaef12a8b	-1.0966968e-10
170	0xa7f9f9b1	-6.93821e-15
171	0xb6812a5b	-3.8494304e-06
172	0xa29584b2	-4.0527028e-18
173	0xb2ac3d72	-2.0051377e-08
174	0x24b62b76	7.9003544e-17
175	0x2c5e4056	3.1583811e-12
176	0xa456f463	-4.6610857e-17
177	0xadb9f963	-2.1142815e-11
178	0x27a8bc81	4.6833743e-15
179	0x2736a178	2.5345106e-15
180	0xa724f270	-2.2890998e-15
181	0x29b61733	8.086448e-14
182	0x269c0e21	1.0828504e-15
183	0xb0b96269	-1.3488491e-09
184	0xb3c3f403	-9.1247806e-08
185	0xb477c365	-2.3074752e-07
186	0x2c168e86	2.1395398e-12
187	0xa72b378a	-2.3761125e-15
188	0xa449a223	-4.3722262e-17
189	0x25c2397e	3.3692594e-16
190	0xafd95f56	-3.953981e-10
191	0x292ec253	3.880431e-14
192	0xbb95a5ad	-0.004566869
193	0x3c4bf3ee	0.012448294
194	0xbc7719b3	-0.015081811
195	0xbb8a537c	-0.004221378
196	0x3ac87bf6	0.0015295732
197	0xbbed4ee3	-0.00724207
198	0x3a5e36ef	0.00084768137
199	0xbc83ab82	-0.016072992
200	0x3d8f76ed	0.07005105
201	0xba96d3be	-0.0011507196
202	0x3bbac1a3	0.005699353
203	0x3cf846f7	0.030307276
204	0x3c9e9677	0.019358857
205	0x3c909f11	0.017653974
206	0x3d012517	0.031529512
207	0xbc1095e0	-0.0088247955
208	0x3cf60335	0.030030826
209	0x3c9a0281	0.018800022
210	0xbc981be3	-0.018567985
211	0x3cd0f4a6	0.025507282
212	0x3c968763	0.018375104
213	0x3bf38fcf	0.007432915
214	0x3c8580b0	0.016296715
215	0xbb10b81a	-0.002208239
216	0xbc670c3b	-0.014102037
217	0x3bf6e833	0.0075350045
218	0x3b938434	0.004501844
219	0x3be474c1	0.006971926
220	0xbc0ecca8	-0.008715786
221	0x3dae68c4	0.08516076
222	0x3d815974	0.0631589
223	0xbb617ef0	-0.0034407936
224	0x3da3213e	0.07965325
225	0xbc276b08	-0.010218389
226	0xba33f7cc	-0.0006865233
227	0x3c8aef78	0.01695989
228	0xbb906569	-0.0044066203
229	0xba418785	-0.00073825597
230	0xbc9c6310	-0.019090205
231	0x3b99c258	0.004692357
232	0x3aa7053c	0.0012742649
233	0xbc113387	-0.008862383
234	0xbc27973c	-0.010228928
235	0x3d0b87aa	0.034064926
236	0x3005bf45	4.865693e-10
237	0x3d529ad6	0.051417194
238	0x3966fe48	0.00022029236
239	0x3dac016a	0.08398707
240	0x3440d537	1.795896e-07
241	0xbc180489	-0.009278425
242	0x3c9d49d9	0.019200252
243	0x3c327cf5	0.01089405
244	0x3c09aa0c	0.008402359
245	0xbbfa9dc6	-0.0076482026
246	0x3c2cdab5	0.010550191
247	0xbbea6cc8	-0.007154081
248	0x3db3f5bc	0.087871045
249	0xbc842b29	-0.016133862
250	0x3d964d77	0.07338994
251	0x3c79434c	0.015213799
252	0x389911f2	7.298951e-05
253	0x3d409742	0.04701925
254	0x3d9d52b7	0.07681792
255	0xbc12be0a	-0.008956442

decoder_lin.3.bias f4 [288]
0	0x3d5ab5d4	0.05339606
1	0x3d4ca350	0.049960434
2	0xb482230a	-2.423988e-07
3	0x3deb4c77	0.11489194
4	0xb8a5f359	-7.91314e-05
5	0xbd57e0d1	-0.052704636
6	0x3dca5ce6	0.09881
7	0xb0351769	-6.5880684e-10
8	0xbc4a852c	-0.012360852
9	0xba92254b	-0.001115003
10	0xbd8930ae	-0.06698738
11	0x360bc21e	2.0825605e-06
12	0xba1e4020	-0.0006036777
13	0xbdd15b67	-0.10222512
14	0xbd1eaa33	-0.038736533
15	0x3d739418	0.059467405
16	0x3da64641	0.081188686
17	0x3d56d9e2	0.052453883
18	0x3d0ac5be	0.033879988
19	0x3d3ec79d	0.046577085
20	0xbd46589d	-0.048424352
21	0xbd8f8b48	-0.07008988
22	0x3d08aa81	0.03336573
23	0xbd0ec3f8	-0.03485486
24	0x3cffedf4	0.031241395
25	0x3d036935	0.032082755
26	0xbace494e	-0.0015738399
27	0xbb1e526b	-0.0024158012
28	0xaaf78716	-4.3969749e-13
29	0xb374d2a5	-5.7002257e-08
30	0xb50ea8c6	-5.314472e-07
31	0x3dbf2639	0.09333462
32	0xbc4da218	-0.012550853
33	0x3d764b97	0.06013068
34	0x3eba6b46	0.36409968
35	0x3df2c852	0.11854614
36	0xbd332177	-0.043733086
37	0xbcbccf0e	-0.02304795
38	0xbae49949	-0.0017440702
39	0xbc2333a2	-0.009961041
40	0x3c0e127f	0.008671402
41	0x3d8364ff	0.06415748
42	0x3c3dd81c	0.011587169
43	0xbc8f55a3	-0.01749689
44	0xb283d100	-1.534545e-08
45	0xbbc5eab3	-0.006039941
46	0xb0657fd0	-8.3491347e-10
47	0x3dcc1cbe	0.0996642
48	0xba478401	-0.00076109177
49	0xbc28a076	-0.010292163
50	0x3e1e2a3c	0.15445799
51	0x3c1b52db	0.0094802035
52	0x3cbe185d	0.023204977
53	0x3e1432c6	0.14472494
54	0x3ca421d2	0.020035658
55	0xbdc51e1b	-0.09624883
56	0x3de83759	0.11338682
57	0x3ad7212c	0.0016413084
58	0xb928b204	-0.00016088045
59	0xba1a168a	-0.00058779924
60	0x3b799fb7	0.0038089582
61	0xabfb6d36	-1.7864935e-12
62	0x2f1c00ae	1.4188359e-10
63	0xb8ae0db3	-8.299518e-05
64	0x3049b266	7.3376893e-10
65	0x264adcfe	7.038233e-16
66	0x3bd330d8	0.0064450316
67	0xbd53d35b	-0.051715236
68	0x3d9f3e83	0.07775595
69	0xafe1373c	-4.0966508e-10
70	0x3d97d0a3	0.07412841
71	0x3dc3c390	0.09558785
72	0xb7824897	-1.553101e-05
73	0xac34216b	-2.559809e-12
74	0xbc85a83d	-0.016315574
75	0xb4d98961	-4.0519356e-07
76	0xbcbe7b52	-0.023252163
77	0x3c237eb7	0.009978942
78	0x3c8365c8	0.016039744
79	0xbc5265c1	-0.012841643
80	0x3d8872ee	0.06662546
81	0x3dae61a6	0.08514719
82	0x3e0ed883	0.1394978
83	0x3dca92ce	0.09891282
84	0xb5053c4a	-4.9634093e-07
85	0x39707e18	0.00022935157
86	0xb6ae3329	-5.19156e-06
87	0x3d423650	0.047415078
88	0x3e1b374e	0.15157816
89	0xa8a51ce2	-1.8331206e-14
90	0x3d92133c	0.07132575
91	0xbc94bc5a	-0.01815622
92	0x3cd95e68	0.026534274
93	0x3ceeda02	0.029156689
94	0xb6219473	-2.4077278e-06
95	0xbb3299b9	-0.002725227
96	0x3d6289e7	0.055307295
97	0xba87b136	-0.0010352496
98	0xb43cdb1b	-1.7588575e-07
99	0xb6a24f83	-4.8372326e-06
100	0xbaa323a5	-0.0012446536
101	0x2854fab7	1.1822729e-14
102	0x3d7c457e	0.06158971
103	0xbe8749af	-0.26423404
104	0x3d0c6fa1	0.034286145
105	0x3adab66a	0.0016686444
106	0x3b761694	0.0037550079
107	0xbc5ebd9e	-0.013595013
108	0x3da299ac	0.07939467
109	0xb09de340	-1.1487842e-09
110	0xb9f6229c	-0.00046946562
111	0x3d4cfb3e	0.05004429
112	0xb79fc964	-1.9048057e-05
113	0xb8346643	-4.3010583e-05
114	0x3e0a8866	0.13528594
115	0xaa463922	-1.7605755e-13
116	0xb546d4c5	-7.407037e-07
117	0xb999ff57	-0.00029372677
118	0xbc83a4fc	-0.016069882
119	0x3d3eafc6	0.04655435
120	0xb5006176	-4.782554e-07
121	0xba3d6ad2	-0.00072256953
122	0x3df43a80	0.119252205
123	0xbae9f5f4	-0.0017849789
124	0xbbb196a5	-0.0054195696
125	0x3d08d3c3	0.033405077
126	0xb9d66320	-0.00040891115
127	0xbb4a6619	-0.003088361
128	0x3c0d0d2f	0.0086091
129	0xb9b9c52c	-0.00035432854
130	0xbe17bc33	-0.14817886
131	0xb33e62ad	-4.4327567e-08
132	0x3cb0478b	0.02151849
133	0xbaba59f5	-0.0014217483
134	0x3d0b7481	0.034046654
135	0xb5458f6e	-7.3596937e-07
136	0xb392ad67	-6.8301965e-08
137	0x3dd9ceab	0.10635122
138	0x3b66b71c	0.0035204357
139	0xb28d2077	-1.6429324e-08
140	0x3e516c51	0.20451476
141	0xa9ce21bf	-9.154092e-14
142	0xb823bae6	-3.903629e-05
143	0xbb16f778	-0.0023035686
144	0xbc8c882a	-0.017154772
145	0xad40ea4b	-1.096596e-11
146	0x3c8bcb81	0.017064812
147	0xb90b9e80	-0.00013315119
148	0xb8d00f9a	-9.921119e-05
149	0xb977db96	-0.00023637558
150	0xbbf10486	-0.0073552756
151	0x3cd20d54	0.025641121
152	0x3d89e44a	0.06732996
153	0x3d0ea6e8	0.034827143
154	0xbd09a71e	-0.03360664
155	0x3db184e9	0.08667929
156	0xbd83371c	-0.06406996
157	0xb5e8c1fa	-1.7341802e-06
158	0xbd3ba4de	-0.045811526
159	0x3c7053e5	0.0146684395
160	0xb333e773	-4.1887187e-08
161	0xbd47fa92	-0.048822947
162	0xbc2595fe	-0.010106562
163	0x3da971bd	0.08273647
164	0xbd481f50	-0.048857987
165	0x3cb94c13	0.022619283
166	0x3e69a470	0.22816634
167	0x3d0a7468	0.03380242
168	0x3d2049e9	0.039132986
169	0x3c57bfcc	0.0131682865
170	0x3dea5aff	0.114431374
171	0x3d9bbccf	0.07604372
172	0x3e0b96f5	0.13631804
173	0x3d8ed9d4	0.06975141
174	0x3a89c95d	0.0010512281
175	0xb3d7c550	-1.00476086e-07
176	0x3db4ba3c	0.08824584
177	0xb1677682	-3.3682288e-09
178	0xbcb73eee	-0.022368874
179	0xbd4f7377	-0.050647225
180	0xbaa2c8b7	-0.0012419437
181	0xbe03de3a	-0.12877741
182	0x3d4e72aa	0.05040232
183	0xbb320c74	-0.0027168067
184	0xbcacb086	-0.021080267
185	0x3e0ab81e	0.13546798
186	0xb757e50c	-1.2868328e-05
187	0xba158b13	-0.00057046226
188	0xbc01aa84	-0.007914189
189	0xb9cd89ce	-0.0003920332
190	0x3c86c813	0.016452825
191	0x3d8823c9	0.066474505
192	0xbd8b04f7	-0.06788056
193	0x2e46e90e	4.5226982e-11
194	0xbcccfd09	-0.025023
195	0xbd81b485	-0.063332595
196	0xb8e7007e	-0.0001101503
197	0x3db9f909	0.09080703
198	0x3c9837a0	0.018581212
199	0xbdc07f92	-0.09399332
200	0x3d15140c	0.03639607
201	0x3cc8ace8	0.02449651
202	0x3d014ef2	0.03156943
203	0x3d90fa8d	0.07079039
204	0xbb964f44	-0.004587086
205	0xbb0e4e69	-0.0021714217
206	0xb0902af0	-1.0489583e-09
207	0xbb338c56	-0.002739688
208	0xbe1408e4	-0.14456517
209	0x3d16ef41	0.036849264
210	0xbbf459ca	-0.0074569928
211	0x3e02a0cb	0.1275665
212	0xba6116bb	-0.0008586456
213	0x3ddc96c4	0.10770944
214	0x3c106e00	0.008815289
215	0x3db5631c	0.08856794
216	0xbd7600a2	-0.060059197
217	0xbd394f14	-0.04524143
218	0x3b8dd753	0.004328647
219	0xbdae4a30	-0.08510244
220	0xbc752997	-0.014963529
221	0xbd879be6	-0.06621532
222	0x3d3507a9	0.04419676
223	0x3e0a3e95	0.13500436
224	0xbd149153	-0.036271404
225	0xb80b1eaa	-3.316874e-05
226	0x3d535e56	0.051603638
227	0x3d3b2ce7	0.04569712
228	0xbdd26e2e	-0.10274921
229	0xb2005663	-7.470223e-09
230	0xbd93bd32	-0.072138205
231	0x3d1da91f	0.038491365
232	0xbd889d66	-0.06670646
233	0xbdfc726c	-0.12326512
234	0x3dc14491	0.09436906
235	0xbde75e72	-0.11297311
236	0xbca0b104	-0.019615658
237	0x3e337b0d	0.17527409
238	0xbb5c5309	-0.0033618829
239	0xbe04bf26	-0.12963542
240	0x3ddcc925	0.10780553
241	0xb0f95405	-1.8141014e-09
242	0xbd7db1ee	-0.061937265
243	0xbaaf70c1	-0.0013385044
244	0x3e82bf05	0.2553636
245	0x3dd512bf	0.10403966
246	0x2d27d2ea	9.539683e-12
247	0x3e3f8052	0.18701294
248	0x3df3bae8	0.11900884
249	0x3d992fad	0.074797966
250	0x3e43f360	0.19135809
251	0xba95b801	-0.0011422635
252	0x3d95f58f	0.07322227
253	0x3d34b927	0.044121888
254	0x3c2795fd	0.010228631
255	0xbd2cb185	-0.042161483
