Nicola_Dainese_Ex4_NN/params/net_params_4.pth (torch_old, 201801 bytes, 19 tensors)

encoder_cnn.0.weight f4 [8, 1, 3, 3]
0	0xb98e80ec	-0.00027180405
1	0xb983ff1e	-0.00025176344
2	0xb8ebc3a7	-0.00011242116
3	0xb975381e	-0.00023385926
4	0xb9a60234	-0.0003166363
5	0xb8fc1cb4	-0.00012021643
6	0xb912e806	-0.0001401008
7	0xb908b03a	-0.0001303562
8	0xb854b40b	-5.0712417e-05
9	0xbce92055	-0.0284578
10	0xbdaee02f	-0.085388534
11	0xbda19803	-0.07890322
12	0xbddaa303	-0.10675623
13	0xbe25c61d	-0.16188855
14	0xbe16afe9	-0.14715542
15	0xbde6270e	-0.11237918
16	0xbe197164	-0.14984661
17	0xbdf74c01	-0.120750435
18	0xbccbddfe	-0.024886128
19	0xbd9308da	-0.07179423
20	0xbd882801	-0.06648255
21	0xbdb5dd37	-0.08880084
22	0xbe07889d	-0.13235708
23	0xbdf91bef	-0.12163531
24	0xbdbdafee	-0.092620715
25	0xbdf8efb9	-0.121550985
26	0xbdcb223a	-0.099186376
27	0x3e9da059	0.30786398
28	0x3efe3a48	0.4965384
29	0x3ee05bbc	0.43819988
30	0x3efe1afb	0.4962996
31	0x3f280760	0.65636253
32	0x3f0ad6b9	0.5423389
33	0x3ee0eccc	0.43930662
34	0x3f07b9df	0.5301799
35	0x3eba9314	0.36440337
36	0xbcdf181d	-0.027233178
37	0xbd99c6d5	-0.07508627
38	0xbd8dde4c	-0.069271654
39	0xbdbd22b5	-0.092351355
40	0xbe0c8dbe	-0.13725945
41	0xbe009d82	-0.12560084
42	0xbdc4f10b	-0.09616288
43	0xbe00d43f	-0.12580965
44	0xbdd0df32	-0.10198821
45	0xbcea905f	-0.028633295
46	0xbdb36773	-0.08759966
47	0xbda919a4	-0.08256844
48	0xbdddd8d8	-0.10832375
49	0xbe28b7bf	-0.16476344
50	0xbe1a44b3	-0.15065269
51	0xbde9e2fc	-0.11420247
52	0xbe1bbaa7	-0.15207921
53	0xbdfc23fe	-0.123115525
54	0x3e9d5402	0.30728155
55	0x3eff07db	0.4981068
56	0x3ee12f1f	0.43981263
57	0x3efdd0d2	0.4957338
58	0x3f2866e8	0.6578202
59	0x3f0b1ce6	0.5434097
60	0x3ee081d2	0.43849045
61	0x3f080d96	0.5314573
62	0x3ebafa91	0.36519292
63	0x3e9f3a29	0.3109906
64	0x3f00de57	0.50339264
65	0x3ee4789e	0.44623274
66	0x3f00f3ff	0.5037231
67	0x3f2a7907	0.66590923
68	0x3f0d2c29	0.5514551
69	0x3ee4940d	0.44644204
70	0x3f09dbae	0.5385083
71	0x3ebd0d67	0.36924288

encoder_cnn.0.bias f4 [8]
0	0xb9768037	-0.00023508152
1	0x3f449a8c	0.7679832
2	0x3f1cc5bb	0.6123921
3	0x3a8591ce	0.0010190548
4	0x3f22fbb7	0.63665336
5	0x3f48d00a	0.7844244
6	0xb9cbd47e	-0.00038877496
7	0x39f353f1	0.00046411113

encoder_cnn.3.weight f4 [16, 8, 3, 3]
0	0x339636fc	6.994921e-08
1	0xb495c87d	-2.7899287e-07
2	0xb43ec27c	-1.7765882e-07
3	0x34ab6e52	3.19315e-07
4	0xb4e71120	-4.3039563e-07
5	0xb383161e	-6.104186e-08
6	0x39078a0f	0.00012926034
7	0x36a7558d	4.9869473e-06
8	0x34f97aa4	4.6469097e-07
9	0xb82f9cf7	-4.1869436e-05
10	0xb905b546	-0.00012751398
11	0xb904286a	-0.00012603556
12	0xb9089267	-0.0001302451
13	0xb95890de	-0.00020653332
14	0xb95a094d	-0.00020793565
15	0xb904666f	-0.0001262666
16	0xb95c9c93	-0.00021039163
17	0xb95c640c	-0.00021018105
18	0x38e7514d	0.00011030082
19	0x3800a18a	3.0668023e-05
20	0x38222153	3.8654845e-05
21	0x3797a485	1.8077213e-05
22	0xb837b90e	-4.3802946e-05
23	0xb8408194	-4.5897046e-05
24	0x3800691e	3.0615476e-05
25	0xb83005d9	-4.1967116e-05
26	0xb836ecf4	-4.361286e-05
27	0x39d3a357	0.00040366754
28	0x39f3be3f	0.00046490316
29	0x39ee93e5	0.00045505087
30	0x398ad6bb	0.00026481398
31	0x39a7e28c	0.00032021513
32	0x3981ec34	0.00024780782
33	0x3982707f	0.00024879348
34	0x395b0a77	0.00020889366
35	0x396becc3	0.00022499547
36	0x38ab8898	8.179358e-05
37	0x36561a13	3.1903662e-06
38	0x36c0c26d	5.74468e-06
39	0x34b19c88	3.308271e-07
40	0xb8960176	-7.1528295e-05
41	0xb8962db0	-7.161067e-05
42	0x368fe8c5	4.28883e-06
43	0xb88ed2dd	-6.810364e-05
44	0xb8975774	-7.2165305e-05
45	0xb86a0d7d	-5.580251e-05
46	0xb9138c39	-0.0001407125
47	0xb915101f	-0.00014215753
48	0xb9159947	-0.00014266848
49	0xb962a6bb	-0.00021615151
50	0xb96e0b2e	-0.00022701613
51	0xb915f972	-0.00014302673
52	0xb969d135	-0.00022298547
53	0xb96c32e4	-0.00022525672
54	0x39bb49a5	0.0003572229
55	0x3a037e1a	0.0005016044
56	0x39d616d0	0.00040834257
57	0x39a0d5a1	0.00030676744
58	0x39c8903a	0.0003825443
59	0x399addd4	0.00029538444
60	0x39389262	0.00017602139
61	0x398c794f	0.00026793263
62	0x39297664	0.000161612
63	0x39cfdba4	0.00039645762
64	0x39ebf161	0.00045002534
65	0x39c652d6	0.0003782722
66	0x3968f78a	0.0002221746
67	0x39b5b950	0.0003466108
68	0x39874e74	0.0002580766
69	0x39209fb2	0.0001531828
70	0x3965ba8c	0.00021908636
71	0x3916731b	0.00014347995
72	0x3968ebd1	0.00022213093
73	0x3907e7e4	0.00012960989
74	0x383c49df	4.489149e-05
75	0x393abe2c	0.00017809187
76	0x36ca1532	6.0225366e-06
77	0xb7f1f527	-2.8843597e-05
78	0x39070c6d	0.00012879232
79	0xb86b96fc	-5.616898e-05
80	0xb80de1f3	-3.382745e-05
81	0x3d58094d	0.052743245
82	0x3d8c5b03	0.068532966
83	0x3dbf5bfa	0.09343715
84	0x3d2398ca	0.039940633
85	0x3dc16ac2	0.094441906
86	0x3dea2dbf	0.114345066
87	0x3d760f17	0.060072985
88	0x3de80260	0.11328578
89	0x3def8c8a	0.116967276
90	0x3d25938d	0.04042392
91	0x3d5a4190	0.05328518
92	0x3d9b3c0a	0.07579811
93	0x3cfaba91	0.03060654
94	0x3d9b2d18	0.0757696
95	0x3dbc619e	0.091983065
96	0x3d41d091	0.047318045
97	0x3dba35b6	0.09092276
98	0x3dc31955	0.09526316
99	0x3e1f66cd	0.15566559
100	0x3d9464b8	0.07245773
101	0xbd13b80b	-0.03606419
102	0x3e57f71c	0.21090358
103	0xbd18fa4a	-0.03734807
104	0xbe03fd4d	-0.12889595
105	0x3e14d24c	0.14533347
106	0xbdf95ade	-0.12175535
107	0xbe2561b4	-0.16150552
108	0x3d2cf8f6	0.042229615
109	0x3d626fed	0.055282522
110	0x3da15521	0.07877565
111	0x3d00622d	0.031343628
112	0x3da03890	0.078232884
113	0x3dc34be8	0.09535962
114	0x3d468041	0.048462156
115	0x3dc197aa	0.09452756
116	0x3dcbbc25	0.09947995
117	0x3d59e1b4	0.053193763
118	0x3d8b7a5a	0.06810446
119	0x3dc33bf5	0.0953292
120	0x3d2a05e2	0.041509517
121	0x3dc5636f	0.09638106
122	0x3deee19f	0.116641276
123	0x3d6f8ea3	0.05848564
124	0x3deafe06	0.114742324
125	0x3df38c5c	0.11892006
126	0x3e1f5505	0.15559776
127	0x3d90fdde	0.07079671
128	0xbd13882a	-0.036018528
129	0x3e57c04e	0.21069452
130	0xbd1abfe6	-0.037780665
131	0xbe0668dd	-0.1312594
132	0x3e1561ba	0.14588061
133	0xbdfce8d6	-0.123490974
134	0xbe23f185	-0.16010101
135	0x3e213e81	0.157465
136	0x3d95d2c7	0.07315593
137	0xbd0c9594	-0.034322336
138	0x3e5ba131	0.21448208
139	0xbd1c5551	-0.0381673
140	0xbe0619d1	-0.13095786
141	0x3e173dbd	0.14769645
142	0xbdf9d0ca	-0.121980265
143	0xbe28853b	-0.16457073
144	0xb29dc7e4	-1.8368105e-08
145	0x32c84341	2.3313648e-08
146	0xb30f5ed4	-3.3381028e-08
147	0xb2bdc4c7	-2.209198e-08
148	0xb136958d	-2.6569495e-09
149	0xb3115fa2	-3.384742e-08
150	0x331fba4d	3.7189512e-08
151	0x3316f3bf	3.5146282e-08
152	0xb34eb863	-4.813081e-08
153	0x37dca319	2.6301992e-05
154	0x37e35463	2.7099804e-05
155	0x3563eba2	8.490698e-07
156	0x384d9988	4.9018796e-05
157	0x37a9e6c6	2.0253832e-05
158	0xb709d814	-8.216146e-06
159	0x37e07bcd	2.676053e-05
160	0x364eb283	3.08003e-06
161	0xb8065b2b	-3.2032996e-05
162	0x395e1c8c	0.00021182204
163	0x38d78ab5	0.00010277835
164	0x38a6f2f6	7.960752e-05
165	0x38d91ebc	0.00010353091
166	0x38c35542	9.314205e-05
167	0x38520a76	5.0077644e-05
168	0x38b84130	8.785946e-05
169	0x38916fb3	6.9349444e-05
170	0x371f074d	9.478838e-06
171	0xb98f62ac	-0.00027348602
172	0xb9c89f8f	-0.00038265853
173	0xb9a64f9e	-0.00031721307
174	0xb9ef7714	-0.00045674352
175	0xba03733a	-0.00050144235
176	0xb9bdaff9	-0.0003618
177	0xb9f801ad	-0.00047303495
178	0xb9e2dc6e	-0.00043270312
179	0xb9c8dde8	-0.00038312306
180	0x394583da	0.00018836503
181	0x38cbef1d	9.7243326e-05
182	0x38a3089c	7.774049e-05
183	0x38d9468a	0.00010360505
184	0x38ce3b82	9.83393e-05
185	0x38457e0f	4.708586e-05
186	0x38ba3f95	8.881014e-05
187	0x389152c3	6.9295544e-05
188	0x377c4fc4	1.5038942e-05
189	0x380af2e3	3.312797e-05
190	0x38409f3d	4.592467e-05
191	0x374df1d4	1.2275257e-05
192	0x389d1a66	7.4912605e-05
193	0x382fe856	4.193963e-05
194	0x37421ebf	1.157046e-05
195	0x383e48ec	4.5367444e-05
196	0x379920d7	1.8254314e-05
197	0xb71cf3fc	-9.355132e-06
198	0xb99f6624	-0.00030402944
199	0xb9c56026	-0.00037646404
200	0xb9b1548b	-0.0003382306
201	0xb9f8d7ff	-0.00047463176
202	0xba012612	-0.00049266324
203	0xb9c81ce0	-0.00038168486
204	0xb9fd9d7a	-0.0004837325
205	0xb9ebc03a	-0.00044965913
206	0xb9ccff79	-0.00039100254
207	0xb9984177	-0.00029040474
208	0xb9d7d49d	-0.00041166405
209	0xb9a68e9b	-0.00031768237
210	0xb9e744da	-0.00044111052
211	0xb9fe06c8	-0.00048451708
212	0xb9b9d2b9	-0.0003544295
213	0xb9f9dc3c	-0.00047657068
214	0xb9e7ceb0	-0.00044213748
215	0xb9cdc416	-0.00039246742
216	0x336faf07	5.580571e-08
217	0x329407b2	1.7232967e-08
218	0xb2fd820c	-2.9512215e-08
219	0xb326fb00	-3.887817e-08
220	0x3344e0fa	4.583942e-08
221	0xb41a47fa	-1.4368553e-07
222	0xb37751d7	-5.7583602e-08
223	0xb3830e31	-6.102744e-08
224	0x32424026	1.1306872e-08
225	0xba057db6	-0.000509228
226	0xba0d70a2	-0.0005395507
227	0xba0e0d7b	-0.0005418879
228	0xba0245d4	-0.00049695116
229	0xba0ce59d	-0.0005374791
230	0xba0dbbe3	-0.00054067204
231	0xba03405e	-0.0005006845
232	0xba0e2c42	-0.0005423465
233	0xba0eeddf	-0.00054523157
234	0xba131430	-0.0005610613
235	0xba1f3e7d	-0.000607468
236	0xba1da85a	-0.0006014161
237	0xba0d1145	-0.00053812965
238	0xba1bd768	-0.0005944879
239	0xba1ab8f7	-0.00059021957
240	0xba0bb44d	-0.0005329296
241	0xba1a5f24	-0.0005888811
242	0xba1c59b1	-0.0005964293
243	0xba08aba2	-0.00052135636
244	0xb9f63a42	-0.00046964182
245	0xb9fe1b66	-0.0004846707
246	0xba0bd663	-0.00053343753
247	0xb9de1a87	-0.00042362904
248	0xb9d17fb0	-0.0003995872
249	0xba20181f	-0.000610711
250	0xb9e875f1	-0.00044338361
251	0xb9dcd545	-0.00042120568
252	0xba154157	-0.00056936353
253	0xba23be07	-0.0006246273
254	0xba206f5f	-0.0006120111
255	0xba10cca6	-0.0005523659

encoder_cnn.3.bias f4 [16]
0	0xba200d87	-0.00061055314
1	0x3dedc8e0	0.116105795
2	0xb99598f3	-0.0002853345
3	0xb9f4329b	-0.0004657701
4	0x3e0041be	0.12525079
5	0x3d53160f	0.05153471
6	0x3dfb8d56	0.12282817
7	0x3e079ee4	0.13244206
8	0x3dc75e80	0.09734821
9	0x3e02fa2c	0.12790745
10	0x3d4afc6a	0.049557127
11	0xb6f16819	-7.1944783e-06
12	0xb8b518d0	-8.635374e-05
13	0x3d457ffe	0.048217766
14	0x3dfa61c3	0.12225678
15	0x3e0353cb	0.12824933

encoder_cnn.6.weight f4 [32, 16, 3, 3]
0	0xb99bf102	-0.0002974347
1	0xba1135c8	-0.0005539325
2	0xba55d003	-0.00081563013
3	0xb927eb31	-0.00016013977
4	0xb9f8d7fb	-0.00047463164
5	0xba4d54e9	-0.0007832782
6	0xb8275824	-3.989799e-05
7	0xb99c2a76	-0.00029786275
8	0xba0c6d8e	-0.0005356901
9	0x3c5209bb	0.012819703
10	0x3c992d1d	0.01869827
11	0x3cc57656	0.024104279
12	0x3c8a923a	0.01691543
13	0x3d90e980	0.070757866
14	0x3cb4d1eb	0.022072753
15	0x3c6673fa	0.014065737
16	0xbd335ba2	-0.04378856
17	0x3d94937c	0.07254693
18	0xb8859862	-6.370318e-05
19	0xb88ddce5	-6.764549e-05
20	0xb8a339ff	-7.783248e-05
21	0xb8cd3082	-9.784197e-05
22	0x378eed86	1.7038325e-05
23	0xb93a4cbe	-0.00017766931
24	0xb7545fe9	-1.26585155e-05
25	0x35647163	8.510162e-07
26	0xb6ccabe0	-6.0996827e-06
27	0xb7cd51c5	-2.4475981e-05
28	0xb6ea54e0	-6.983624e-06
29	0x377b29e2	1.4970517e-05
30	0xb8239272	-3.8998616e-05
31	0xb7fcd254	-3.0138683e-05
32	0x37a42a9d	1.9570167e-05
33	0xb8771bb6	-5.8915197e-05
34	0xb81a7c97	-3.6832495e-05
35	0x3446a947	1.850177e-07
36	0x3cbd803f	0.023132442
37	0xbca04fb6	-0.01956926
38	0xbd37e544	-0.04489638
39	0x3dad0837	0.084488325
40	0x3daba8d7	0.08381813
41	0xbcdb796c	-0.026791297
42	0x3d97d515	0.07413689
43	0x3d136271	0.035982553
44	0xbc367c97	-0.011138103
45	0x3c49d173	0.012318003
46	0x3cdb8de2	0.026801053
47	0x3c0415d6	0.008061847
48	0xbdb4912a	-0.0881675
49	0xbe257aec	-0.16160172
50	0x3cdd6838	0.027027234
51	0xbd7173e4	-0.058948413
52	0xbd7bef93	-0.061507773
53	0x3da286b6	0.0793585
54	0x3ca982d9	0.020692276
55	0xbc8cf608	-0.01720716
56	0xbd296be7	-0.04136267
57	0x3da1bdc7	0.07897525
58	0x3d8ab4b1	0.067727454
59	0xbcf4af1b	-0.029868653
60	0x3d9b77b3	0.0759119
61	0x3d2b676b	0.041846674
62	0xbc8742ca	-0.01651134
63	0x3cc485d7	0.023989601
64	0x3c38d40c	0.011281025
65	0xbc21ba64	-0.009871099
66	0x3d72669e	0.059179895
67	0x3d890b47	0.06691604
68	0xbcfdebf7	-0.030996306
69	0x3da77e32	0.08178367
70	0x3db0a17e	0.08624552
71	0xbcaff885	-0.021480808
72	0x3d329783	0.043601524
73	0x3ca8d698	0.020610139
74	0xbdbdd793	-0.09269633
75	0x3dd865c0	0.10566282
76	0x3e05ed19	0.13078727
77	0x3c2e7b4d	0.010649514
78	0x3c6d66ee	0.014489872
79	0xbd9afda8	-0.07567912
80	0xba85ebcd	-0.0010217369
81	0x3d100a7c	0.03516625
82	0xbbc23f66	-0.005927968
83	0xbd89b0d8	-0.067231834
84	0x3dd35858	0.103195846
85	0x3e0e2990	0.13883042
86	0x3bfd7659	0.0077350554
87	0x3d4d5635	0.05013104
88	0xbc58a03f	-0.013221799
89	0x3b39b203	0.0028334863
90	0x3d64aa16	0.05582627
91	0x3d85c9fb	0.06532665
92	0x3d345a54	0.044031456
93	0xbdb39c89	-0.08770091
94	0xbe223264	-0.15839535
95	0x3cb00611	0.021487268
96	0xbcc1bb84	-0.023648985
97	0x3d94e1fc	0.072696656
98	0xbc3fc91c	-0.011705663
99	0x35f42282	1.818946e-06
100	0x35b17c65	1.3223731e-06
101	0x358e235a	1.0590113e-06
102	0x36b3a26a	5.353523e-06
103	0x34770157	2.3004155e-07
104	0x35c2725e	1.4487412e-06
105	0x36a9560c	5.0466097e-06
106	0xb4934814	-2.7433327e-07
107	0x3546bf33	7.403898e-07
108	0xb86a3eb7	-5.5848355e-05
109	0xb8b6d830	-8.718704e-05
110	0xb7b57670	-2.1632033e-05
111	0xb888ec32	-6.52898e-05
112	0xb8470ff2	-4.7460147e-05
113	0xb7f359b9	-2.9009638e-05
114	0x37366301	1.08710965e-05
115	0xb7881486	-1.622202e-05
116	0xb72c9697	-1.0287061e-05
117	0x3c876ef6	0.016532402
118	0xbc082966	-0.008310651
119	0xbcea34d6	-0.028589647
120	0xbdc27c2d	-0.09496341
121	0xbdbe4e0f	-0.09292232
122	0x3d0392cf	0.03212243
123	0xbdb12ecd	-0.08651505
124	0xbe1fe81a	-0.15615883
125	0x3da01d7a	0.07818122
126	0x3cb79582	0.022410158
127	0xbca53061	-0.02016467
128	0xbd3714ad	-0.044697452
129	0x3db451fb	0.08804699
130	0x3da86f6e	0.082243785
131	0xbcdc29e6	-0.026875447
132	0x3d89d229	0.06729538
133	0x3cd726de	0.02626365
134	0xbc00455e	-0.007829038
135	0x3c9af9ef	0.018918006
136	0xbb856047	-0.004070315
137	0xbb66f4a4	-0.0035241032
138	0x3d7b617e	0.061372273
139	0x3d60343c	0.054737315
140	0xbd158aa2	-0.036509164
141	0x3d91a0d5	0.071107544
142	0x3d52da12	0.0514775
143	0xbbc60d14	-0.0060440395
144	0x39c2648e	0.00037077483
145	0x39dcbf0d	0.00042104014
146	0x39a724eb	0.00031880228
147	0x3a1b8df9	0.00059339363
148	0x3a17d675	0.00057921495
149	0x39c85fbd	0.00038218303
150	0x3a34728e	0.0006883525
151	0x39f9a33e	0.00047614606
152	0x392329c5	0.00015560452
153	0xbba1b8b7	-0.00493535
154	0xbb9f7c15	-0.0048670867
155	0x3d48069a	0.04883442
156	0x3b55bc1d	0.0032613345
157	0xbe158a1d	-0.14603467
158	0x3dfd1d8a	0.1235915
159	0x3c9d9b14	0.019238986
160	0xbc73250b	-0.014840375
161	0x3d6f78cb	0.058464807
162	0xb8eebf0f	-0.00011384312
163	0x389bf12c	7.435898e-05
164	0x3889570a	6.548881e-05
165	0x385610c4	5.103719e-05
166	0x3876051c	5.865573e-05
167	0x382a7df8	4.0648476e-05
168	0x38924145	6.97398e-05
169	0xb7dc8e43	-2.629229e-05
170	0xb802b8f1	-3.1166655e-05
171	0x375f4c6f	1.3309632e-05
172	0xb7c58cf1	-2.3549861e-05
173	0x37c2e2e5	2.3232258e-05
174	0x382a158c	4.0551226e-05
175	0x37885c6f	1.6255506e-05
176	0x388289f5	6.2245796e-05
177	0x38598a98	5.1865907e-05
178	0x38352311	4.318642e-05
179	0x3872294c	5.7735757e-05
180	0x3c5af11c	0.013363149
181	0xbaa7b50a	-0.0012795043
182	0xbc800aa1	-0.015630068
183	0x3d36ea52	0.04465706
184	0xbd4a3272	-0.049364515
185	0xbc9d7b32	-0.019223783
186	0x3bdc9f2d	0.0067328424
187	0xbd032368	-0.032016188
188	0xbb067996	-0.0020519248
189	0xbad9ad6c	-0.001660747
190	0x3c4e0f62	0.01257691
191	0xbd39ae8d	-0.04533248
192	0xbd8b4d79	-0.06801886
193	0x3d83887c	0.06422517
194	0x3d5e072c	0.05420606
195	0xbcf5eee8	-0.030021146
196	0x3e262ffa	0.16229239
197	0xbc323c5b	-0.010878648
198	0x3c446b71	0.011988507
199	0xbaf66c43	-0.0018800575
200	0xbca7f7cf	-0.020503907
201	0x3d3ca8ef	0.046059545
202	0xbd2651a8	-0.040605217
203	0xbca86208	-0.020554557
204	0x3bd2c949	0.0064326865
205	0xbcfbad02	-0.030722145
206	0xbba336fb	-0.0049809194
207	0x3c2d05d1	0.010560469
208	0xbb86f312	-0.0041183317
209	0xbc9c5dd3	-0.019087708
210	0x3d33ea65	0.043924708
211	0xbbfeb3ba	-0.00777289
212	0xbcd47275	-0.025933484
213	0x3c73e949	0.0148871625
214	0xbd238481	-0.039921287
215	0xbc705838	-0.0146694705
216	0x3d29f50b	0.041493457
217	0x3d5e13b9	0.054218028
218	0x3cc2f5fc	0.023798935
219	0x3d003c98	0.031307787
220	0xbda601af	-0.0810579
221	0xbd2c464c	-0.042059228
222	0x3c564738	0.013078503
223	0x3d249eab	0.04019038
224	0x3d5f2a3e	0.054483645
225	0x3d0178c6	0.03160932
226	0x3c828d56	0.015936535
227	0x3c1ba803	0.009500506
228	0x3d0ce610	0.034399092
229	0xbd71b32e	-0.05900877
230	0xbd06647b	-0.03281067
231	0x3c8f52c1	0.017495515
232	0x3a49e697	0.0007701902
233	0x3c9588be	0.01825368
234	0x3c45eae7	0.012079931
235	0xbbc6d74c	-0.006068146
236	0xbd3fe533	-0.04684944
237	0xbd86583b	-0.065597974
238	0x3e797ec8	0.2436477
239	0xbced4045	-0.02896131
240	0xbcde707a	-0.027153242
241	0x3dd76049	0.10516412
242	0xbcbcda13	-0.023053205
243	0x35da88fd	1.6282135e-06
244	0x3611d701	2.1731832e-06
245	0x35d71775	1.6025575e-06
246	0x35ad81bf	1.2927266e-06
247	0x355f7c14	8.325453e-07
248	0xb2fb8f22	-2.9285335e-08
249	0x3550c69d	7.777506e-07
250	0x35a45f40	1.2246674e-06
251	0x34a684b8	3.1016475e-07
252	0x38736afb	5.8035348e-05
253	0x38aa8d21	8.132519e-05
254	0x386bc21d	5.6209148e-05
255	0x38b10630	8.44117e-05

encoder_cnn.6.bias f4 [32]
0	0x3c902c96	0.017599385
1	0x3a0673f5	0.0005128973
2	0x3c93fe3f	0.01806557
3	0xbb1bf41f	-0.002379663
4	0x3bad5c5e	0.005290552
5	0x3c01d5ff	0.007924556
6	0x3bcde5ac	0.0062834825
7	0x3a25fb50	0.0006331699
8	0x3a656170	0.0008750176
9	0x3b3bca78	0.0028654616
10	0x3cd9c8c6	0.026584994
11	0x3c8187d8	0.015811846
12	0x3ab0eded	0.0013498642
13	0x3a0a4780	0.00052749366
14	0xa549b0fa	-1.7493933e-16
15	0x3cd6fc81	0.02624345
16	0x3b96be0d	0.0046002925
17	0x3d029f67	0.0318903
18	0x3bbe716d	0.0058118613
19	0x3c9d0e62	0.019171897
20	0xbaf8baec	-0.0018976605
21	0x394edf42	0.00019728861
22	0x3c4f1810	0.012640014
23	0x3814cb86	3.5475496e-05
24	0xbaf9345b	-0.0019012796
25	0x3b6b73f1	0.003592726
26	0x3c62a622	0.013833554
27	0x3ca65595	0.02030448
28	0x3be640e1	0.007026777
29	0xbbe5ee58	-0.007016938
30	0x3cd49e07	0.02595426
31	0xb08fe0ff	-1.0468567e-09

encoder_lin.0.weight f4 [64, 288]
0	0xbc80971f	-0.01569706
1	0x3b9d3992	0.0047981227
2	0x3c0be816	0.00853922
3	0x3b4585bb	0.0030139524
4	0x3de7eea8	0.11324817
5	0xbc72a03f	-0.014808713
6	0xbcd4f958	-0.025997803
7	0x3dbfe842	0.093704715
8	0xbba1a53f	-0.004933029
9	0x3aa8250f	0.0012828427
10	0xbca84103	-0.020538813
11	0xbccfed2e	-0.02538165
12	0xbb83439c	-0.0040058624
13	0xbce96055	-0.028488318
14	0xbd327fa6	-0.043578766
15	0xbc751ea1	-0.014960916
16	0xbd1a6c16	-0.037700735
17	0xbd0692df	-0.03285491
18	0x3bf55ac0	0.007487625
19	0x3bbe1db1	0.0058018793
20	0x3d0fa9b1	0.03507394
21	0x3cf7310f	0.03017476
22	0x3aa74334	0.0012761117
23	0x3c47cac7	0.012194342
24	0x3d14f325	0.036364693
25	0x3adbe673	0.0016777053
26	0xbb8cc3b6	-0.0042957915
27	0xb901fd28	-0.00012396707
28	0xb9bae6ef	-0.00035648744
29	0x3b523c6b	0.003207947
30	0xb99f16cc	-0.00030343828
31	0x3a905b42	0.0011013525
32	0xbbbaa45c	-0.0056958627
33	0x3ad8e92f	0.0016548986
34	0x3aa8bbd1	0.0012873356
35	0xbb767d7f	-0.0037611423
36	0xbc084374	-0.008316863
37	0x3c487bd4	0.012236554
38	0xba4679fb	-0.0007571277
39	0xbbb77c29	-0.005599518
40	0xbbf136ce	-0.0073612696
41	0x3c8d69d3	0.017262375
42	0xbbe1a023	-0.006885545
43	0xbbddd361	-0.006769583
44	0xbaa05344	-0.0012231846
45	0xb89e1cf4	-7.53942e-05
46	0xbc09dc69	-0.008414366
47	0xbc03619f	-0.00801888
48	0xbb926e5a	-0.0044687213
49	0xbcd99fe3	-0.026565498
50	0xbd2f582a	-0.04280869
51	0xbc8e93ac	-0.0174044
52	0x3caf7710	0.021419078
53	0x3a7a696b	0.00095524517
54	0x3c4de93f	0.012567817
55	0x3d2fa458	0.04288134
56	0x3838a51a	4.402278e-05
57	0x3d2e59ab	0.042565983
58	0x3d8a6c64	0.06758955
59	0xbc8462f9	-0.016160475
60	0x3c070d6d	0.008242947
61	0xbc3a51dd	-0.011372057
62	0xbc3d6aaf	-0.01156108
63	0x3aeb97a9	0.0017974275
64	0xbcf583bb	-0.02997004
65	0xbcdebe24	-0.027190275
66	0xba11bb9a	-0.0005559266
67	0xbd3ca492	-0.046055384
68	0xbd726499	-0.05917797
69	0xbca8a810	-0.020587951
70	0xbd6ccf87	-0.0578151
71	0xbd32eea5	-0.04368462
72	0x3bb4fa43	0.0055229976
73	0xbcb8a94b	-0.022541663
74	0xbd9681fc	-0.07349011
75	0xbc36a129	-0.011146822
76	0xbda8f587	-0.082499556
77	0xbd237afd	-0.039912213
78	0xbc1e300c	-0.00965501
79	0xbd9e3ca7	-0.07726412
80	0x3be01696	0.00683863
81	0x3a594dc1	0.00082894793
82	0x3856cb53	5.1210936e-05
83	0x37c18082	2.3067234e-05
84	0x3c225bca	0.0099095795
85	0x3d4043ad	0.04693954
86	0xbce3a6b5	-0.027789453
87	0xbcdb3db9	-0.02676283
88	0x3c6d76c4	0.014493648
89	0x3cd03feb	0.025421103
90	0x3bf964a7	0.0076108756
91	0x3ccaeefe	0.024772163
92	0x3cc45edb	0.023971012
93	0x3c4ea3fc	0.012612339
94	0xbc1970e2	-0.009365292
95	0x3ca71208	0.02039434
96	0x3d121e87	0.035673644
97	0xbbd0fc63	-0.006377743
98	0xbb511e49	-0.003190892
99	0xbb095940	-0.0020957738
100	0x3ccf6ec3	0.02532137
101	0x3d2008fd	0.039071072
102	0x3b890b36	0.0041822447
103	0xbb81494d	-0.0039455057
104	0x3cb836c3	0.02248705
105	0x3cdbcd6a	0.026831347
106	0x3cd09eec	0.025466405
107	0xbbc6ac23	-0.0060630008
108	0xbac0e3c1	-0.0014716313
109	0xba03894f	-0.0005017714
110	0xbcf484a3	-0.029848402
111	0x3b51e6af	0.0032028367
112	0x3d64b087	0.055832412
113	0xba5e1f40	-0.00084732845
114	0xbc9781d0	-0.018494517
115	0x3d2512ad	0.040301014
116	0xbc0b8a0a	-0.008516798
117	0xb8f6d41c	-0.000117697025
118	0xb9f0319d	-0.00045813332
119	0xb93b66e5	-0.00017872041
120	0x3a4ca277	0.00078061916
121	0x39e7d349	0.00044217173
122	0x373701cd	1.0908069e-05
123	0x3a3ad4b2	0.0007127031
124	0xba1116c5	-0.0005534704
125	0xb90fc7ec	-0.0001371202
126	0xa37f98f5	-1.3855968e-17
127	0x24aac5bd	7.406073e-17
128	0x230f52f7	7.769614e-18
129	0xa28234ce	-3.529248e-18
130	0xa6044874	-4.589489e-16
131	0xa2e1f7df	-6.1248816e-18
132	0xa3d70432	-2.3312123e-17
133	0xa682b9ba	-9.070903e-16
134	0xa48b89b3	-6.051491e-17
135	0xbbeca4e9	-0.0072218073
136	0xbc5e113b	-0.013553913
137	0x3d9b1e02	0.07574083
138	0x3c9e7a44	0.01934541
139	0x3ca93a6d	0.020657742
140	0xbc3fdb53	-0.011710006
141	0x3c92baa9	0.017911272
142	0x3d8bd238	0.068272054
143	0xbcddf923	-0.027096337
144	0x3c12c1f0	0.008957371
145	0x3d12043a	0.035648562
146	0xbd02168f	-0.031759795
147	0xbcb8ca8c	-0.02255752
148	0xbcc47772	-0.023982737
149	0x3c86da83	0.016461616
150	0x3c89159e	0.01673394
151	0xbbb87e57	-0.0056302953
152	0xbc1ac45e	-0.009446232
153	0xba6e76d8	-0.00090966886
154	0x3d08fd58	0.033444732
155	0x3d9be98d	0.07612906
156	0x3ce7d301	0.028298857
157	0x3db94b36	0.090475485
158	0x3d0e1f69	0.034697924
159	0x3cbb7e0c	0.022887252
160	0x3e2b4a82	0.16727641
161	0xbcc9560d	-0.024577165
162	0xbc3861c8	-0.011253782
163	0xbca36ac5	-0.019948373
164	0x3bc24f8f	0.0059298943
165	0x3d0e6cd3	0.03477175
166	0x3c048802	0.008089067
167	0xbccbe8db	-0.024891308
168	0x3c3d9577	0.01157128
169	0xbd1b085c	-0.03784977
170	0xbc40bbec	-0.011763554
171	0x3b7a0384	0.0038149068
172	0x3d357995	0.044305403
173	0x3d24ddc0	0.04025054
174	0x3c237c8e	0.009978427
175	0x3d0f2901	0.034951214
176	0x3c28264d	0.010263038
177	0x3c5bc747	0.013414211
178	0x3d04c4f8	0.032414407
179	0xbc1ed5fd	-0.0096945735
180	0xba85eac5	-0.0010217061
181	0xb99e1cb7	-0.00030157503
182	0xb901ff7b	-0.00012397573
183	0xb99f7303	-0.00030412534
184	0x38a9f763	8.104627e-05
185	0x38c84bc0	9.550853e-05
186	0xbac638e8	-0.001512316
187	0x3891db23	6.954956e-05
188	0x38ce02df	9.82338e-05
189	0xb91d0f48	-0.0001497838
190	0x37877bd1	1.615091e-05
191	0x388144b2	6.163995e-05
192	0x39b6116e	0.0003472673
193	0xb8bc3040	-8.973526e-05
194	0x37a9fceb	2.0264144e-05
195	0x39d9c55a	0.00041536504
196	0x396dea5f	0.00022689391
197	0xb7557902	-1.2723964e-05
198	0xbb4c3cd7	-0.0031164193
199	0xbd15db61	-0.03658617
200	0x3c6684a1	0.014069707
201	0x3c7cb773	0.015424597
202	0xbcfb3734	-0.030665971
203	0x3a22790c	0.0006197847
204	0x3ca08804	0.019596107
205	0xbd179218	-0.03700456
206	0xbc2f0ae4	-0.010683749
207	0xbbf8c7d7	-0.007592182
208	0xbd01707d	-0.031601418
209	0xbd359605	-0.044332523
210	0x3ab69568	0.0013930025
211	0x3cd92194	0.02650527
212	0xbd241f12	-0.040068693
213	0xbc9c5b69	-0.019086557
214	0xbd26e1d2	-0.040742703
215	0x3a82b422	0.0009971897
216	0xba74e014	-0.00093412516
217	0xb993983d	-0.0002815145
218	0xbae0205c	-0.0017099488
219	0xbb19bf03	-0.00234598
220	0xba5ffeb4	-0.00085447286
221	0xba00ee2d	-0.00049183035
222	0xbaf536b4	-0.0018708319
223	0xbb4dec30	-0.0031421296
224	0xba541e2d	-0.0008091655
225	0x3b4a3b1b	0.0030857984
226	0xbbc51a3e	-0.006015091
227	0xbd83e612	-0.06440367
228	0xbd04d747	-0.032431867
229	0xbc36d597	-0.011159322
230	0x3cbc3e46	0.022978913
231	0xbd13db04	-0.03609754
232	0x3c782bae	0.015147133
233	0xbbab5901	-0.005229116
234	0xbccd15c9	-0.025034802
235	0x3b7483a7	0.0037309916
236	0x3d191579	0.037373994
237	0x3cb584cf	0.022158055
238	0x3c4803ab	0.012207906
239	0x3cb4bc25	0.02206237
240	0x3cd84a1e	0.02640253
241	0xbc2037b1	-0.009778903
242	0x3a809aa4	0.0009811711
243	0xbc68914c	-0.014194798
244	0x3c4a31a5	0.012340938
245	0x3d35f782	0.044425495
246	0x3ceae38f	0.028672962
247	0xbbaa242e	-0.0051923012
248	0xbc8b86d6	-0.017032068
249	0x3d48097a	0.048837163
250	0x3d2c1d0c	0.04201989
251	0xbd333903	-0.043755542
252	0xbc82b9d8	-0.015957758
253	0xbc627363	-0.013821456
254	0xbae6501b	-0.0017571481
255	0xbc01fe54	-0.007934172

encoder_lin.0.bias f4 [64]
0	0xba625f6d	-0.00086354354
1	0x3c257b93	0.010100263
2	0x3c16c2fa	0.0092017595
3	0x3c1f7901	0.009733439
4	0x3af8807a	0.0018959187
5	0x3b79f6c7	0.0038141476
6	0x3c4098fe	0.011755226
7	0xbaa3d6ca	-0.0012499925
8	0x3a901967	0.0010993899
9	0xbaa01bb1	-0.0012215284
10	0x3b93750c	0.004500037
11	0x3c34c00c	0.011032116
12	0x3ba18b60	0.004929945
13	0xba5636bc	-0.0008171608
14	0xb9b54b9b	-0.0003457934
15	0xbb4b8bbc	-0.003105863
16	0x3b29a923	0.0025888167
17	0xbbb748d5	-0.005593399
18	0x3a91d5ba	0.0011126318
19	0x3bba08c2	0.0056773135
20	0xbbe0da84	-0.0068619866
21	0xbb288682	-0.0025714939
22	0xbb468ceb	-0.0030296396
23	0xbb26bb3d	-0.0025441193
24	0x39a89b4c	0.00032159162
25	0x3c24df01	0.010062934
26	0x3ad98afe	0.0016597209
27	0xbb57fe18	-0.0032957848
28	0x3b953ef9	0.004554626
29	0xb98112fa	-0.00024618936
30	0x3b72944e	0.0037014666
31	0x3baf5ff3	0.005352014
32	0x3c04f9d4	0.008116204
33	0xbbca3626	-0.006171006
34	0x3b4b5ebe	0.0031031813
35	0x36c6bd31	5.9228846e-06
36	0x3b694841	0.0035596045
37	0x3b8e083a	0.004334477
38	0x3c24f7c8	0.010068841
39	0xbaf11fb6	-0.0018396291
40	0xb9dd77e1	-0.00042241722
41	0xb977e27b	-0.00023640126
42	0xbb275f92	-0.0025539142
43	0x3a982978	0.0011609038
44	0x3b4445dd	0.0029948868
45	0x3c0a5e22	0.008445295
46	0x3b8555ad	0.0040690512
47	0xb3880ef6	-6.335715e-08
48	0x3b4a3826	0.003085622
49	0x3b0968ec	0.002096708
50	0x3bfa1e99	0.007633042
51	0x39ad5eee	0.0003306786
52	0xbabbfd85	-0.0014342522
53	0xb97304c9	-0.00023176068
54	0xbaeb497a	-0.0017950975
55	0x3c162432	0.009163903
56	0xbb1f30ee	-0.002429064
57	0xbb4952a2	-0.003071942
58	0xb9306874	-0.0001682358
59	0x3af073a4	0.001834501
60	0xbb3221a6	-0.00271807
61	0x3bc412c9	0.0059836847
62	0x3a37f148	0.00070168497
63	0x3c1f7c9c	0.009734299

encoder_lin.3.weight f4 [4, 64]
0	0x3d0dfee1	0.0346669
1	0x3e114392	0.14185932
2	0xbe214076	-0.15747246
3	0xbe118bad	-0.14213438
4	0x3e46e67e	0.19423863
5	0xbe387de4	-0.18016773
6	0xbe00eb20	-0.12589693
7	0xbeaf08a0	-0.34186268
8	0x3e52ea0e	0.20597097
9	0x3e94f634	0.29094088
10	0xbe3d9efe	-0.18517682
11	0xbe540f25	-0.20708902
12	0xbe149d45	-0.14513119
13	0xba0bf4a5	-0.0005338884
14	0xbe3c6a09	-0.18399824
15	0x3d8cf056	0.06881778
16	0x3e29f116	0.16595873
17	0x3e65b740	0.22433186
18	0xbd0f7d25	-0.035031457
19	0xbdba6e23	-0.09103038
20	0x3eecc24e	0.46241993
21	0xbe1f2ace	-0.15543672
22	0x3e20e3b9	0.1571187
23	0xbe201d48	-0.1563617
24	0xbbcebfcc	-0.006309485
25	0xbdbc3d41	-0.09191371
26	0xbc978b54	-0.018499054
27	0x3d7881d0	0.060670674
28	0x3c8bfd7b	0.017088642
29	0xbeb6ce54	-0.3570429
30	0x3c17a7e1	0.009256334
31	0xbdd2e107	-0.10296827
32	0x3c02b34c	0.007977318
33	0x3e288d2c	0.16460103
34	0xbe80c154	-0.25147498
35	0x370e33d8	8.47593e-06
36	0x3e296711	0.16543223
37	0xbddf7c3e	-0.10912369
38	0xbe38845d	-0.18019243
39	0x3d11b986	0.03557732
40	0x3da0fb02	0.07860376
41	0xbebf9571	-0.37418702
42	0x3e0a7cd3	0.13524179
43	0xbebd6b58	-0.3699596
44	0x3e438341	0.19093038
45	0x3dc36f94	0.09542766
46	0x3df60083	0.12011816
47	0xb9f983f2	-0.00047591288
48	0xbe9ade21	-0.30247596
49	0xbe5ca75c	-0.21548218
50	0x3d8835fb	0.06650921
51	0x3ed5441a	0.4165352
52	0x3e0147c1	0.12625028
53	0xbe65f435	-0.22456439
54	0xbeae9b9d	-0.341031
55	0x3d392259	0.045198772
56	0x3a9105d3	0.0011064358
57	0x3e165277	0.14679895
58	0x3ebdef8f	0.3709683
59	0xbdc593cd	-0.096473314
60	0xbeafb131	-0.34314874
61	0xbe1edade	-0.15513179
62	0xbc35ca3d	-0.011095581
63	0xbb397fb4	-0.0028304877
64	0x3eab7dee	0.33494514
65	0xbdb49482	-0.08817388
66	0x3d70231d	0.058627237
67	0xbcfbebbd	-0.030752057
68	0x3e361c95	0.1778434
69	0xbcd7cd76	-0.026343089
70	0x3daa9223	0.083286546
71	0xbdc61672	-0.0967225
72	0xbd3e189f	-0.0464102
73	0xbc062e7d	-0.008189795
74	0xbea47a71	-0.32124665
75	0xbed11886	-0.40839022
76	0x3d241bac	0.040065452
77	0x3955ff12	0.00020408284
78	0x3d8c3a6a	0.06847079
79	0x3e97a03e	0.29614443
80	0xbda4953e	-0.08036278
81	0xbe23b294	-0.15986091
82	0xbe8a5efb	-0.2702559
83	0x3cd792df	0.02631515
84	0xbd1806de	-0.037115924
85	0x3e427494	0.18989784
86	0xbb4c76b4	-0.0031198682
87	0x3dce9cc8	0.100884974
88	0x3b209e47	0.0024508403
89	0x3d9570ff	0.07296943
90	0xbdb802a3	-0.08984878
91	0xbe2c1963	-0.1680656
92	0x3e4d7962	0.20065835
93	0x3dd721e5	0.10504512
94	0x3e5fbf10	0.21850228
95	0xbed406d2	-0.41411453
96	0x3e435d73	0.19078617
97	0x3c611a35	0.013739158
98	0x3b659d26	0.0035036295
99	0xb68c2fc6	-4.1778867e-06
100	0x3e32dca8	0.17466986
101	0xbd747473	-0.059681367
102	0xbe1f7e64	-0.15575558
103	0x3cba62e4	0.022752233
104	0x3e8e866f	0.2783694
105	0x3e9267a1	0.28594688
106	0xbe7ced5b	-0.24699919
107	0x3e2ebfa3	0.17065291
108	0x3e9cf03f	0.30652043
109	0xbefe0960	-0.49616528
110	0xbee714a6	-0.4513294
111	0x3a645ecf	0.00087116373
112	0xbcd5f4a1	-0.026117625
113	0x3d116488	0.035496265
114	0x3dd8673b	0.10566565
115	0x3e3190f0	0.17340446
116	0xbe72e075	-0.23718436
117	0x3d510dbf	0.0510385
118	0xbd34cbf7	-0.04413983
119	0xbe111a7a	-0.14170256
120	0xb8a9c78b	-8.095716e-05
121	0x3e8781fb	0.26466355
122	0x3e9631c2	0.29334837
123	0xbc87e55b	-0.016588857
124	0x3e323f0f	0.17406867
125	0xbe96b55b	-0.29435238
126	0x3ecd7ae9	0.40132836
127	0x3dc6e90e	0.097124204
128	0x3e5565af	0.2083957
129	0x3ec47601	0.3837128
130	0xbc68ad32	-0.014201449
131	0x3e0c16d1	0.13680579
132	0x3e527f6b	0.20556419
133	0xbe08da3b	-0.13364498
134	0x3dd6666d	0.10468755
135	0xbd8e2a7f	-0.06941699
136	0xbe989873	-0.2980381
137	0x3df037c2	0.11729385
138	0x3d90f216	0.07077424
139	0x3e8a93c8	0.27065873
140	0x3eb65fcb	0.3561996
141	0x3a8fa4b1	0.0010959116
142	0x3dc3a659	0.09553213
143	0x3e7b1e33	0.24523239
144	0xbc98dfa7	-0.018661333
145	0xbe9ebe16	-0.310044
146	0xbdba002c	-0.09082064
147	0xbdb56aef	-0.088582866
148	0x3e69f832	0.22848585
149	0xbddc4b5c	-0.10756561
150	0xbdc6fb64	-0.09715918
151	0xbe28f556	-0.16499838
152	0x3ac72e12	0.0015196225
153	0x3d530d12	0.051526137
154	0xbe93d9db	-0.28877148
155	0x3dd9de0d	0.10638056
156	0x3e34fb9a	0.17674103
157	0xbe8c24d5	-0.2737185
158	0xbe0aa1cb	-0.13538282
159	0x3e33ba16	0.17551455
160	0x3dd24a49	0.10268075
161	0xbde4d0c7	-0.111726336
162	0xbeb5a9d8	-0.35481143
163	0xb585ed9b	-9.978424e-07
164	0xbebf69c4	-0.3738538
165	0xbd4923b3	-0.04910631
166	0x3e12c261	0.14331962
167	0x3ebaec24	0.36508286
168	0xbe5eced4	-0.21758586
169	0x3e2d00c8	0.1689483
170	0x3e42ee87	0.19036303
171	0xbe103134	-0.1408127
172	0xbe923c19	-0.28561476
173	0x3e147290	0.14496827
174	0xbdea3711	-0.11436284
175	0x3b0a585d	0.0021109798
176	0x3d95d7b1	0.073165305
177	0x3d2dc8f8	0.042427987
178	0x3e1c3e28	0.15258086
179	0x3dd0c6e9	0.10194189
180	0xbda88db3	-0.08230152
181	0x3e5d1ac6	0.21592245
182	0x3ba279f8	0.0049583875
183	0x3e777df2	0.24169138
184	0xb940015d	-0.00018311055
185	0xbdcc076e	-0.099623546
186	0xbded1c85	-0.11577705
187	0xbe85ebbe	-0.2615642
188	0xbcca1909	-0.02467014
189	0xbe2a1b17	-0.16611896
190	0xbe2d4c65	-0.16923673
191	0x3e1104c3	0.14161973
192	0xbe1edc97	-0.15513836
193	0xbe4c7733	-0.19967346
194	0x3d03602d	0.032074142
195	0xbe0869ea	-0.13321653
196	0xbe2035d9	-0.15645541
197	0x3dc2640e	0.0949174
198	0x3e10af38	0.1412934
199	0x3e79d7bc	0.24398702
200	0xbe92b4f5	-0.28653684
201	0x3d6bb08e	0.057541423
202	0x3e42281b	0.18960612
203	0x3cf3e918	0.029774234
204	0xbebe3b77	-0.37154743
205	0x3a86b4f4	0.0010277317
206	0x3ea7720a	0.32704192
207	0x3e7044e0	0.23463774
208	0xbe8aa994	-0.27082503
209	0x3e6e5176	0.23273262
210	0xbd09b87c	-0.033623204
211	0x3de562d5	0.11200491
212	0x3e808d3a	0.25107747
213	0xbe6cc230	-0.23120952
214	0x3eb13086	0.34607333
215	0xbeb17312	-0.34658104
216	0x3b5a3907	0.003329815
217	0x3df75aca	0.120778635
218	0xbdaed5de	-0.08536886
219	0x3e461a50	0.19345975
220	0x3e21e6e4	0.15810734
221	0xbe2c04c0	-0.16798687
222	0x3c56e8e4	0.013117049
223	0x3d941241	0.07230044
224	0x3d69169b	0.056906324
225	0x3e50a2b6	0.2037457
226	0x3d5453f6	0.051837884
227	0x376dec7a	1.418136e-05
228	0x3cac761d	0.021052415
229	0x3ddaaffc	0.106780976
230	0x3d16c827	0.036811974
231	0x3eb2963b	0.34880242
232	0xbe654221	-0.22388507
233	0x3ca53fed	0.020172084
234	0x3e75e43c	0.24012846
235	0x3dff9938	0.12480396
236	0x3df6e177	0.12054723
237	0xbddf6b96	-0.10909192
238	0xbe321a46	-0.17392835
239	0x3a84528c	0.0010095402
240	0x3cce46d4	0.025180258
241	0xbe7c937c	-0.24665636
242	0xbce9e467	-0.028551294
243	0xbe064852	-0.13113526
244	0x3c52b1e8	0.012859799
245	0xbec582a5	-0.38576236
246	0xbecb49dc	-0.39704788
247	0xbdad0dc6	-0.08449893
248	0xbb4bb2ff	-0.0031082032
249	0xbed59022	-0.41711527
250	0xbdf2c3d9	-0.11853761
251	0x3e7a9180	0.24469566
252	0xbea1a311	-0.31569722
253	0xbe40cb55	-0.18827565
254	0x3d9d0e77	0.076687746
255	0x3e1f178d	0.15536328

encoder_lin.3.bias f4 [4]
0	0xbe0062f2	-0.12537745
1	0x3d6f222f	0.05838221
2	0x3d90696e	0.07051359
3	0x3df2ee7e	0.11861895

decoder_lin.0.weight f4 [64, 4]
0	0x3e162f5d	0.14666505
1	0x3baf5f66	0.0053519486
2	0x3e4e82f3	0.2016714
3	0x3e8946cc	0.26811826
4	0x3b0e5a55	0.0021721323
5	0xbba83810	-0.0051336363
6	0x3bd67dd5	0.006545762
7	0xbbd1995d	-0.006396456
8	0xbe280657	-0.16408668
9	0xbec63f08	-0.38719964
10	0x3e38c6fb	0.18044655
11	0x3de3cf7c	0.11123559
12	0xbe5094d3	-0.20369272
13	0x3da88be4	0.08229807
14	0x3de3a140	0.1111474
15	0xbe9ad19e	-0.3023805
16	0xbe0b1f11	-0.1358607
17	0x3e941500	0.28922272
18	0x3dfb52d0	0.122716546
19	0x3db24770	0.08705032
20	0x3da7fc44	0.08202413
21	0x3dc9fb64	0.09862402
22	0x3e1f4a8c	0.15555781
23	0x3e83c48a	0.25735885
24	0x3e50ba9f	0.2038369
25	0xbe296602	-0.16542819
26	0xbd245a0b	-0.040124934
27	0xbec94cc9	-0.39316395
28	0xbdbb7b0e	-0.0915433
29	0x3defd2ce	0.1171013
30	0x3e097f09	0.13427366
31	0x3d81309c	0.063081
32	0x3e67170b	0.22567384
33	0x3e111d87	0.1417142
34	0xbd08d38b	-0.033404868
35	0xbeb0ef22	-0.34557444
36	0xbe0cce16	-0.1375049
37	0xbe57c774	-0.21072179
38	0x3e3d4cd5	0.1848634
39	0x3e468c23	0.19389395
40	0xbe20bd08	-0.1569711
41	0x3e89e4ae	0.2693228
42	0x3e47200d	0.1944582
43	0x3e0cef7f	0.13763236
44	0xbe9cdf42	-0.30639082
45	0x3d806c26	0.06270628
46	0x3e11dbf8	0.14244068
47	0xbe7c141f	-0.2461705
48	0x3e568c93	0.20952062
49	0x3ec79599	0.3898132
50	0xbd8d0405	-0.06885532
51	0x3e76d761	0.24105598
52	0xbe614479	-0.21998776
53	0x3ec2b6fe	0.38030237
54	0xbe029847	-0.12753402
55	0xbe346ffc	-0.17620844
56	0xbea61a51	-0.32441953
57	0xbe0c2c6d	-0.13688822
58	0x3de3cc06	0.11122899
59	0x3e28706a	0.16449133
60	0x3e02a26f	0.12757276
61	0x3d9de678	0.07709974
62	0xbe49edfb	-0.19719689
63	0xbe62862b	-0.22121494
64	0xbe917243	-0.28407487
65	0xbdc3ed68	-0.09566766
66	0x3e7358dd	0.23764367
67	0xbdbccce7	-0.092187695
68	0xbe77a8b9	-0.24185456
69	0xbe2b99d7	-0.16757904
70	0x3d9bdca6	0.07610445
71	0x3e7f6e67	0.24944459
72	0x3e705462	0.2346969
73	0xbdc5fe9e	-0.09667705
74	0xbdca8d15	-0.098901905
75	0x3ec17131	0.3778167
76	0xbe679754	-0.22616321
77	0xbda2c955	-0.07948557
78	0x3e6807c3	0.22659211
79	0x3dce131b	0.10062238
80	0x3d86711d	0.065645434
81	0xbe125a27	-0.14292203
82	0x3ec14c84	0.3775369
83	0xbe3de7eb	-0.18545501
84	0xbe3f2b5e	-0.18668887
85	0x3c30435a	0.010758245
86	0xbde0fa1d	-0.10985205
87	0x3e353102	0.17694476
88	0x3aa93a30	0.0012911018
89	0x3eb874e5	0.36026683
90	0xbe0e5421	-0.1389928
91	0x3e07f53e	0.13277146
92	0xbe932090	-0.2873578
93	0x3d8eb87a	0.0696878
94	0xbe103239	-0.14081658
95	0x3ca3ac59	0.019979643
96	0x3ee59ef9	0.4484785
97	0xbd5bd094	-0.053665712
98	0x3e0c4d72	0.13701418
99	0x3de1596e	0.110033855
100	0xbe8eb61c	-0.27873313
101	0xbe2a4495	-0.16627724
102	0xbe536351	-0.20643355
103	0xbe04f583	-0.1298428
104	0xb953a10d	-0.00020182524
105	0x38a9fec5	8.1060025e-05
106	0xb88ae682	-6.623288e-05
107	0xb926026b	-0.00015831894
108	0xbe8a3884	-0.26996243
109	0xbd958162	-0.073000684
110	0x3ce4d939	0.027935611
111	0x3e276213	0.16346006
112	0x3ed41534	0.41422427
113	0xbd6429da	-0.055703975
114	0x3d3ba140	0.045808077
115	0x3e4e3d71	0.20140626
116	0xbe8747f4	-0.26422083
117	0xbeb4bee7	-0.35301897
118	0x3d020413	0.031742167
119	0xbe693545	-0.22774227
120	0x3e818364	0.25295556
121	0x3d908fe0	0.07058692
122	0x3eaea6ab	0.34111533
123	0xbc670f84	-0.01410282
124	0xbe19e143	-0.15027337
125	0x3ebe486e	0.37164634
126	0xbdcbd986	-0.09953599
127	0xbd03556a	-0.03206388
128	0xbe2cf353	-0.16889696
129	0xbcfceee3	-0.030875629
130	0xbe3528cf	-0.17691348
131	0x3e145492	0.14485386
132	0xbe1342f0	-0.14381003
133	0x3e7013bd	0.2344503
134	0x3e0998f2	0.1343725
135	0x3d7f4690	0.062323153
136	0xbc7c18ce	-0.015386773
137	0xbe0fcd54	-0.1404317
138	0x3e4cf130	0.2001388
139	0x3e976fd1	0.29577497
140	0xbdd13a2f	-0.10216176
141	0xbbfa25fd	-0.007633923
142	0x3da8cf98	0.0824272
143	0x3e1e8c96	0.15483317
144	0xbb9bb25e	-0.0047514876
145	0x3d177303	0.036974918
146	0xbd4df6c8	-0.050284177
147	0x3e64e499	0.22352828
148	0xbe72aa26	-0.23697719
149	0x3dcdb882	0.10044958
150	0xbe6400c0	-0.22265911
151	0xbe904f71	-0.2818561
152	0xbc9f0802	-0.019412998
153	0x3eac364c	0.33635175
154	0x3e3033ce	0.17207262
155	0x3deb92c3	0.11502602
156	0xbd2a36ad	-0.04155605
157	0x3e4fc299	0.20289077
158	0xbeb481a7	-0.35255167
159	0x3e060b09	0.13090147
160	0x3c7dc6ae	0.015489263
161	0x3e310253	0.17286043
162	0xbe475a0f	-0.19467948
163	0xbe943bf7	-0.28952
164	0xbe5b72f1	-0.21430565
165	0xbd8caf55	-0.068693794
166	0xbe73ef82	-0.23821834
167	0x3ca675eb	0.0203199
168	0xbe0134c7	-0.12617789
169	0xbe5f2045	-0.21789654
170	0xbe94b60a	-0.29045135
171	0xbe60a190	-0.21936631
172	0xbe1044b1	-0.14088704
173	0xbe1824a8	-0.14857733
174	0xbe600212	-0.2187579
175	0x3e8dc7a1	0.27691367
176	0xbc86baf3	-0.016446566
177	0xbd0d2c6e	-0.0344662
178	0x3cd8e672	0.026477072
179	0xbce2efa4	-0.02770216
180	0x3e6c78ec	0.23093003
181	0xbd9baf4a	-0.07601793
182	0x3e0edd3f	0.13951586
183	0x3eb55c81	0.35422137
184	0x3e25bfca	0.16186443
185	0xbda9c712	-0.08289923
186	0xbe5512b0	-0.2080791
187	0x3ea4fe4b	0.3222526
188	0x3ea1629c	0.31520545
189	0x3dc97e91	0.09838594
190	0xbd830e19	-0.06399173
191	0xbe3b0a99	-0.18265761
192	0x3e6c0272	0.23047808
193	0xbea0d661	-0.31413558
194	0x3dc1a94a	0.094561175
195	0x3e702274	0.23450643
196	0xbe07b3a7	-0.13252126
197	0xbe1691f5	-0.14704116
198	0xbe99537d	-0.2994651
199	0x3defd246	0.11710028
200	0xbe5d002e	-0.215821
201	0xbe842703	-0.25811014
202	0x3e967761	0.29387954
203	0xbd969882	-0.07353307
204	0x3da43ab9	0.08019013
205	0xbdfb1e07	-0.12261587
206	0xbe7712d3	-0.24128275
207	0x3e96c6d3	0.29448566
208	0xbd0a7087	-0.03379872
209	0xbcbdb52e	-0.023157682
210	0x3ecb8763	0.3975173
211	0xbe0ac85d	-0.13552995
212	0x3e1d9a9c	0.1539101
213	0xbed8a970	-0.4231677
214	0xbdd437ad	-0.10362182
215	0xbe1cf048	-0.15326035
216	0x3e14d6c0	0.14535046
217	0xbea7f4c6	-0.32803935
218	0x3e9d8d71	0.30771974
219	0x3de0e7f9	0.10981745
220	0x3cc3bc90	0.023893625
221	0xbb926fcb	-0.004468893
222	0xbcae2b8c	-0.021261
223	0xbcf354d8	-0.029703543
224	0xbebb8473	-0.36624488
225	0x3d74e3d2	0.05978758
226	0xbce866cf	-0.028369335
227	0xbdef7149	-0.11691529
228	0xbc769d70	-0.015052184
229	0x3ec26796	0.37969655
230	0x3d59c4bb	0.053166132
231	0xbe071985	-0.13193329
232	0xbe124485	-0.1428395
233	0x36b66807	5.436133e-06
234	0x3cb80638	0.022463903
235	0x3e5f8b0b	0.21830384
236	0x3d152a56	0.036417328
237	0x3e74c665	0.23903807
238	0x3e0db045	0.13836773
239	0x3ddbc6ea	0.10731299
240	0x3e865545	0.2623693
241	0x3e9f7383	0.31142816
242	0xbe9da9a2	-0.30793482
243	0x3d7f8cdf	0.062390205
244	0x3deae504	0.114694625
245	0x3e42e11d	0.19031186
246	0x3e88ddaf	0.2673163
247	0xbe8942de	-0.26808828
248	0x3a1c09dd	0.00059523975
249	0x3ae29e05	0.0017289525
250	0xba1c7d10	-0.00059695635
251	0x39cc365d	0.00038950416
252	0xbdb63081	-0.0889597
253	0x3dc1765e	0.09446405
254	0x3e1c7764	0.15279919
255	0x3d9a9e7d	0.075497605

decoder_lin.0.bias f4 [64]
0	0x3db85a3b	0.09001585
1	0xbc48c70f	-0.0122544905
2	0xbcc34bf5	-0.02383993
3	0xbd3a3b90	-0.04546696
4	0x3eb84ee4	0.3599769
5	0xbdd9255d	-0.106028296
6	0x3b692215	0.0035573293
7	0xbe949739	-0.29021624
8	0xbad8187f	-0.0016486793
9	0x3e2dbe89	0.16967215
10	0x3e9470c0	0.2899227
11	0x3b545d54	0.003240426
12	0x3e04d146	0.12970456
13	0x3ca2fa45	0.019894728
14	0x3dd2766a	0.10276492
15	0x3cd68359	0.026185678
16	0xbd856a27	-0.065143876
17	0x3d60fbdf	0.054927703
18	0xbc3d447e	-0.011551974
19	0x3e9262b0	0.28590918
20	0x3d156add	0.036478866
21	0xbd668c82	-0.056286342
22	0x3ea046d1	0.3130403
23	0x3cc864dc	0.024462156
24	0xbd2444a9	-0.040104542
25	0xbce40c3c	-0.027837865
26	0xba1ac6cf	-0.00059042586
27	0xbb2afbd5	-0.0026090045
28	0xbdd300ac	-0.103028625
29	0xbd81c562	-0.06336476
30	0x3d81bb26	0.06334524
31	0x3c78510e	0.015156044
32	0xbd4d5cde	-0.050137393
33	0xbd68b309	-0.056811366
34	0x3d83b83f	0.064316265
35	0xbe4b0f3b	-0.19830029
36	0xbe66fb1c	-0.22556728
37	0xbd587c15	-0.05285271
38	0x3d6adb16	0.057337843
39	0x3d55c086	0.052185558
40	0xbc68c94a	-0.014208147
41	0xbd087655	-0.033315975
42	0xbca6eda6	-0.020376991
43	0x3e1d504a	0.15362659
44	0x3f472904	0.7779696
45	0x3d7cc352	0.06170971
46	0x3d1ce4f5	0.038304288
47	0x3b8da458	0.00432257
48	0xbd279036	-0.040909015
49	0x3c41acac	0.011820953
50	0x3ddec3bb	0.108771764
51	0x3daadbec	0.08342728
52	0x3ccbd8f9	0.024883734
53	0x3cc4f7e3	0.024043983
54	0xbcb6d0a3	-0.022316283
55	0x3f855ea7	1.0419511
56	0x3d7f9d34	0.06240578
57	0xbddfdeb4	-0.10931149
58	0xbe0564b4	-0.13026696
59	0xbe225762	-0.15853646
60	0xbd50cf0b	-0.0509787
61	0xbd1cb314	-0.03825672
62	0xbb10e66e	-0.0022110003
63	0xbe8e4e23	-0.2779399

decoder_lin.3.weight f4 [288, 64]
0	0x3cdffff0	0.02734372
1	0x3ab5bbcb	0.0013865171
2	0x3cb5f512	0.022211585
3	0x39eb77ac	0.00044911855
4	0x3d1dd066	0.038528822
5	0x3ca2aade	0.019856866
6	0x3cbf7e1d	0.023375565
7	0xbb535ba7	-0.0032250674
8	0xba8d1f38	-0.001076675
9	0x3ca8f311	0.020623716
10	0x3d24ed54	0.040265396
11	0x3bb2ed03	0.005460383
12	0x3d89da52	0.067310944
13	0x3c0665b2	0.008202957
14	0x3cc6aa72	0.024251197
15	0x3bce08ec	0.0062876847
16	0x3c42f3d0	0.01189895
17	0x3cbcd239	0.02304946
18	0x3d0b494c	0.03400545
19	0x3ccadf7d	0.02476477
20	0x3c1bfebb	0.009521182
21	0x3c93b412	0.0180302
22	0x3d572715	0.052527506
23	0x3c9aed30	0.018911928
24	0x3cf74e54	0.030188717
25	0x3cb04542	0.0215174
26	0x383d3b68	4.5116438e-05
27	0x3c86fa45	0.01647676
28	0x3cfbc854	0.030735172
29	0x3d2eea47	0.042703893
30	0x3c2ad2d2	0.01042624
31	0x3cbede37	0.02329932
32	0x3c46f33a	0.012142951
33	0x3c508ad9	0.012728416
34	0x3cbb9552	0.02289835
35	0x3b757775	0.0037455235
36	0x3c3115c3	0.010808411
37	0x3c317073	0.010830033
38	0x3cebf277	0.02880214
39	0x3d17d142	0.0370648
40	0x3b8386a6	0.004013854
41	0x3c397639	0.01131969
42	0x3cb91183	0.022591358
43	0x3c999d5a	0.018751789
44	0x3d008a45	0.031381864
45	0x3d12ad94	0.03581007
46	0x3cc79af7	0.024365885
47	0x3c2a2990	0.010385886
48	0x3cb44207	0.02200414
49	0x3c029854	0.007970888
50	0x3ca57b51	0.020200403
51	0x3c69ef82	0.0142782945
52	0x3b39ce96	0.0028351895
53	0x3d16a1e8	0.0367755
54	0x3cd287fd	0.02569961
55	0x3d2fc580	0.04291296
56	0x3c893d2b	0.0167528
57	0x3ac483e1	0.0014992916
58	0x3c554cf4	0.013018835
59	0x3c317f9b	0.010833646
60	0x3cf711bd	0.030159825
61	0xbbe2630b	-0.0069087795
62	0x35b147fb	1.3208477e-06
63	0xbbc28882	-0.005936683
64	0x3beacae9	0.007165302
65	0xbb38134c	-0.0028087674
66	0x3cc38060	0.023864925
67	0xbca1d69c	-0.019755654
68	0x3c8568b2	0.016285274
69	0xbb97fc61	-0.00463824
70	0xbc05fc1a	-0.0081777815
71	0xbcca9d19	-0.024733113
72	0xbcc045b4	-0.023470737
73	0x3c95675a	0.018237758
74	0x3c2915ab	0.010320107
75	0xbc414259	-0.011795604
76	0xbcb9ed44	-0.022696145
77	0x3c986d07	0.018606676
78	0x3c9f7e4c	0.019469403
79	0xbc184972	-0.0092948545
80	0x3b1741d3	0.0023080006
81	0x3cf490ab	0.02985414
82	0x3cb980e6	0.022644471
83	0x3cae3497	0.021265311
84	0xbca9e234	-0.020737745
85	0x3d3ac619	0.045599077
86	0x3c7001d1	0.014648871
87	0x3d193066	0.037399672
88	0xbce57dcc	-0.028014086
89	0xbc3022ee	-0.010750515
90	0xb964a375	-0.00021804667
91	0x3ce03ce4	0.027372785
92	0xbc9f6e97	-0.019461913
93	0xbd232624	-0.039831296
94	0xbd406bb7	-0.046977725
95	0x3c3e0a72	0.01159917
96	0x3d22f3e4	0.039783373
97	0xbc11fa56	-0.008909782
98	0x3c26f36e	0.010189874
99	0x3beee694	0.0072906706
100	0x3c50f803	0.012754443
101	0xbc9edcfe	-0.019392487
102	0xbc9f943c	-0.019479863
103	0x3d0c93ab	0.034320515
104	0xbc89af7a	-0.016807307
105	0x3c7344db	0.014847959
106	0x3c793bae	0.015211983
107	0x3d88b8ec	0.06675896
108	0x3d36ec37	0.044658866
109	0xbac5f306	-0.0015102334
110	0x3d3a0fa7	0.045425083
111	0xbd087daf	-0.033322986
112	0x3d106eb7	0.035261836
113	0x3d1b1a96	0.03786715
114	0x3cd8939a	0.02643757
115	0x3d887010	0.06661999
116	0xbc93aff8	-0.018028244
117	0x3ade26dd	0.0016948838
118	0x3cd38a05	0.025822649
119	0x3d687bed	0.05675881
120	0x3a53e0b9	0.00080824975
121	0xbd096061	-0.03353918
122	0x3d087037	0.03331014
123	0xbd1d966f	-0.038473543
124	0x3c95ac86	0.018270742
125	0xbd5eb945	-0.054375906
126	0xbb0d5171	-0.0021563435
127	0xbcaabb5d	-0.020841295
128	0x3d572943	0.052529585
129	0x3b5be871	0.0033555294
130	0xbd2a0051	-0.041504208
131	0x3ce2f411	0.02770427
132	0x3c98463e	0.018588182
133	0x3d310713	0.043219637
134	0x3c2a65a8	0.010400213
135	0x3d1fc724	0.039008275
136	0x3d6632af	0.05620068
137	0xbca4945a	-0.02009027
138	0x3c89fd21	0.016844334
139	0x3c238519	0.009980463
140	0xbc4012ba	-0.011723215
141	0x3d4dec34	0.05027409
142	0xbd3d354d	-0.04619341
143	0x3d3ac062	0.045593627
144	0xbb85cd11	-0.0040832837
145	0xbd46902c	-0.048477337
146	0x3c91a3ca	0.017778296
147	0xbc5e89ab	-0.013582627
148	0xbce68a81	-0.028142216
149	0xbd7fdb8d	-0.06246524
150	0xbc83509e	-0.016029652
151	0xbced828f	-0.02899292
152	0x3d25930c	0.040423438
153	0x3cbb6a74	0.02287791
154	0x392fa9fa	0.00016752622
155	0xbd3a2d75	-0.045453507
156	0x3d1f9fe7	0.038970854
157	0xbcf2e8ab	-0.02965196
158	0x3d4a7078	0.049423665
159	0x3cc98f63	0.024604505
160	0xbd60ce11	-0.05488402
161	0x3cf8e6b7	0.03038345
162	0x3d19dfcd	0.03756695
163	0xbc03e0dd	-0.008049217
164	0xbcca0802	-0.024662022
165	0x3cfb4859	0.030674146
166	0x3d6c0a41	0.057626966
167	0xbd6eb48b	-0.058277648
168	0x3db7b571	0.08970154
169	0xbc60e7e2	-0.01372716
170	0x3d943d9b	0.07238313
171	0xbd36ab61	-0.044597033
172	0xbcc6c86f	-0.024265496
173	0x3d49c939	0.049264167
174	0x3b1ee7ad	0.0024246976
175	0x3cbfe616	0.023425143
176	0x3d0a6a6e	0.033792906
177	0x3c1f78f9	0.009733432
178	0xbd02a01c	-0.031890973
179	0x3be31838	0.0069303773
180	0x3d4fe03c	0.050750956
181	0x3d1ed2bf	0.038775202
182	0xbd27dc0b	-0.040981334
183	0xbd050f6f	-0.03248542
184	0x3bb0b2dc	0.0053924154
185	0x3d887089	0.066620894
186	0xbd085824	-0.033287182
187	0x3d723a05	0.059137363
188	0x3b2d047f	0.0026400385
189	0x3d937a64	0.072010785
190	0x3a0ef3ae	0.0005453181
191	0x3d04c03f	0.032409903
192	0x3cbf3545	0.02334083
193	0xbb1e4b56	-0.002415379
194	0x3d1d5cba	0.03841851
195	0x3c8f3dc5	0.017485509
196	0x3cd80f99	0.026374625
197	0xb8c1a9e9	-9.2346054e-05
198	0x3ab36f64	0.0013689813
199	0x3a88125e	0.001038145
200	0xbc72f4b9	-0.014828854
201	0x3d22ecf8	0.039776772
202	0x3cdf113c	0.027229898
203	0x3d151a14	0.036401823
204	0x3cd5d40e	0.026102092
205	0x3ccdbbd9	0.025113987
206	0x3d400b3f	0.046885725
207	0xb932dc1b	-0.00017057399
208	0x3d842012	0.064514294
209	0x3c808dc2	0.015692595
210	0x3cdcbd6a	0.026945788
211	0x3d8302d3	0.06397023
212	0x3cd4d90f	0.025982408
213	0x3c901972	0.017590258
214	0x3b813289	0.003942792
215	0x3d04501d	0.032302964
216	0x3d16f026	0.036850117
217	0x3d385671	0.045004312
218	0xb7bd8ddc	-2.2596614e-05
219	0x3cc4835e	0.023988422
220	0x3d04825f	0.032350894
221	0x3d8b0b84	0.06789306
222	0x3be5ba1e	0.0070107123
223	0x3c443405	0.011975293
224	0x3c32fc3a	0.010924393
225	0x3c0a48e3	0.008440229
226	0x3c809a99	0.015698718
227	0x3b2fb5b1	0.0026811177
228	0x3b9b1b47	0.0047334763
229	0x3cfba4e9	0.030718284
230	0x3c1b1a98	0.00946679
231	0x3cfa8187	0.030579342
232	0xbb8bc57b	-0.004265485
233	0x3cd3d746	0.025859486
234	0x3d707096	0.05870112
235	0x3c927227	0.017876698
236	0x3d87d234	0.0663189
237	0x3c4d276f	0.012521609
238	0x3cf7a177	0.03022836
239	0xbc249398	-0.010044955
240	0x3d1c826e	0.038210325
241	0x3cee9c83	0.029127365
242	0x3da64a21	0.08119608
243	0x3d01219a	0.031526186
244	0x3c933a1e	0.017972048
245	0x3d4d5018	0.05012521
246	0x3d337cac	0.04382007
247	0x3d9ef18b	0.077609144
248	0x3d4ec3dd	0.05047976
249	0xbc469b48	-0.012121983
250	0x3c1028fe	0.008798836
251	0xb88f16e2	-6.8230336e-05
252	0x3d01499d	0.031564344
253	0xbc41698f	-0.011804952
254	0xba319a89	-0.00067750417
255	0x3b35d54c	0.0027745543
