Nicola_Dainese_Ex4_NN/params/occluded_net_params_1.pth (torch_old, 200291 bytes, 18 tensors)

encoder_cnn.0.weight f4 [8, 1, 3, 3]
000000 a6 96 2a bd 3c 20 92 bd b5 10 b9 bd 4f 94 12 bd
       -0.041647576 -0.071350545 -0.0903639 -0.03578597
000010 76 73 8a bd 8d 9b bf bd bb 75 ce bc c4 71 6f bd
       -0.06760304 -0.09355841 -0.025202623 -0.058458105
000020 0d a0 c1 bd 34 6e 1b bd d5 2e 68 bd 11 95 82 bd
       -0.094543554 -0.037946895 -0.056685288 -0.063760884
000030 4e ef ec bc 4f 58 3b bd 31 ec 7f bd 01 12 a9 bc
       -0.028922703 -0.045738515 -0.06248111 -0.020638468
000040 cc b9 22 bd 98 fb 7d bd bd 42 d7 3e ed 2f 05 3f
       -0.03972797 -0.062007517 0.42043105 0.52026254
000050 f1 6c e0 3e b4 46 ef 3e 74 d6 16 3f 63 02 00 3f
       0.43833116 0.4673363 0.5892098 0.5000364
000060 13 ba df 3e cc 1a 0a 3f eb d8 ee 3e 6e 78 d8 3e
       0.4369665 0.5394714 0.4664987 0.4227938
000070 11 d1 05 3f b1 1a de 3e e3 38 f0 3e 52 3d 17 3f
       0.52272135 0.4337974 0.469184 0.5907794
000080 03 0b ff 3e 9a d3 e3 3e c2 5f 0b 3f 56 2c f3 3e
       0.4981309 0.44497377 0.5444299 0.47494763
000090 8a 73 0f bd cc ed 4a bd c7 f3 1a bd e7 69 d3 bc
       -0.035022296 -0.049543187 -0.03783014 -0.025807334
0000a0 f2 4d 0b bd dd 12 03 bd a4 af cd bc bc 1a 13 bd
       -0.03400988 -0.03200041 -0.025108166 -0.035914168
0000b0 0b 0f 17 bd 39 34 10 bd fd 59 5e bd 1a b8 5c bd
       -0.03687958 -0.035206053 -0.05428504 -0.05388651
0000c0 97 a6 dc bc 3b 8f 31 bd a2 71 58 bd 48 52 bb bc
       -0.026934905 -0.043349486 -0.052842744 -0.022866383
0000d0 51 e8 21 bd d0 da 59 bd 70 5e 24 bd 70 92 a2 bd
       -0.039528195 -0.05318719 -0.040129125 -0.07938087
0000e0 50 5a dc bd 6b 15 0f bd 11 58 97 bd 06 9b e1 bd
       -0.10759413 -0.034932535 -0.07389844 -0.110158965
0000f0 78 28 b4 bc 60 ba 7e bd c7 ee dc bd 3c 0f 09 bd
       -0.021991953 -0.06218946 -0.10787731 -0.033461794
000100 c7 59 3b bd c1 f4 08 bd 4e 58 d2 bc ca 48 04 bd
       -0.045739915 -0.03343654 -0.025676873 -0.03229598
000110 4a 5f ff bc 46 45 c8 bc b8 73 08 bd 49 28 0a bd
       -0.031173367 -0.024447095 -0.033313483 -0.033729825

encoder_cnn.0.bias f4 [8]
000000 61 74 ce 3e 61 e1 8c 3e c8 d9 dd 3a 87 45 51 3a
       0.40323165 0.275157 0.0016925866 0.00079830777
000010 43 ca 39 3e bc 90 75 3e 65 ca ed 3e f6 25 32 3e
       0.18143563 0.23980993 0.46443477 0.17397293

encoder_cnn.3.weight f4 [16, 8, 3, 3]
000000 54 85 f5 3c 4a 1d 99 3d d6 7c b2 3d 13 36 41 3d
       0.029970802 0.074762896 0.08715217 0.04717071
000010 78 42 99 3d 8a 10 ab 3d 4e 54 0f 3d d4 74 88 3d
       0.07483381 0.08352764 0.03499251 0.06662908
000020 31 86 a8 3d 06 8b 8a 3c 5e 64 54 3d 81 14 7f 3d
       0.0822872 0.016911995 0.05185353 0.062275413
000030 8d 73 04 3d 8f 36 4b 3d cc c4 70 3d cf 9b bf 3c
       0.03233676 0.049612578 0.05878143 0.023389725
000040 96 0b 41 3d d9 d3 6c 3d 8b e4 21 3e f4 d4 5d bd
       0.04713019 0.05781922 0.15809838 -0.054158166
000050 49 fc 59 be 61 b4 b8 3d b5 1e 60 bd cd f6 3f be
       -0.21287645 0.090187795 -0.054716785 -0.18746491
000060 4d b7 11 3e be a1 8c bb 8d a5 50 be 17 d8 1c 3e
       0.1423008 -0.004291742 -0.20375653 0.15316807
000070 2c b9 52 bd fb 3d 67 be 6a 98 b5 3d aa b1 45 bd
       -0.051446125 -0.22582237 0.08866961 -0.048265137
000080 f7 7f 3c be 15 1b 1b 3e 20 6e 7e 3b 45 cd 4d be
       -0.1840819 0.1514705 0.0038822964 -0.20097835
000090 71 1b 0a 3c e7 23 f9 3c 42 f2 37 3d 0b 5e a7 3c
       0.008429394 0.030412627 0.04490877 0.020430585
0000a0 bc 57 09 3d c2 df 1e 3d 05 9e 64 3c 9b 55 ea 3c
       0.033530936 0.03878761 0.01395369 0.028605273
0000b0 33 91 2e 3d 10 37 75 3c be 9a 35 3d e3 cd 65 3d
       0.04261894 0.014966741 0.044337027 0.056104552
0000c0 67 be de 3c f8 8b 31 3d cd 88 4b 3d 4f fa b3 3c
       0.0271904 0.043346375 0.04969101 0.021969942
0000d0 a3 23 29 3d 50 48 5d 3d 24 a5 18 3d 27 1f b7 3d
       0.04129375 0.05402404 0.037266865 0.08941489
0000e0 4e 81 c6 3d 11 d0 58 3d 33 41 b3 3d d0 4f c1 3d
       0.09692632 0.052932803 0.0875267 0.09439051
0000f0 5f e1 34 3d bf 4b a4 3d 6d d9 bf 3d d9 49 0a 3c
       0.044160243 0.0802226 0.093676426 0.008440458
000100 6b 26 fc 3c db 8e 2b 3d 12 7c 98 3c e9 fd 00 3d
       0.030780038 0.041884284 0.018613849 0.031492148
000110 17 e0 14 3d a9 92 77 3c b1 8c e8 3c 9a 8d 21 3d
       0.03634652 0.01511065 0.0283874 0.039441682
000120 e6 4c 6a 3b c6 f6 02 3d c3 38 24 3d 05 33 58 3c
       0.0035751401 0.031973623 0.040093195 0.013195758
000130 18 9b 02 3d 2a 26 1f 3d a5 af 68 3b e1 a6 e4 3c
       0.03188619 0.038854755 0.0035505083 0.027911605
000140 df cd 1f 3d d7 02 28 b8 77 3d ad 3c c3 12 f3 3c
       0.039014693 -4.0056966e-05 0.021147473 0.029672032
000150 9f 56 08 3c b5 2c a6 3c fa a7 d3 3c 84 1e f9 3a
       0.008321433 0.02028499 0.025836933 0.0019006287
000160 ad 95 a3 3c 6f ed d4 3c a6 95 f1 3d dd 21 13 bd
       0.019968832 0.025992123 0.11796121 -0.035920966
000170 ec 0e 18 be 52 7e a8 3d 4e cf 17 bd 68 55 07 be
       -0.14849442 0.08227219 -0.037062936 -0.13216174
000180 9d ac d3 3d 10 c8 94 bc a4 c0 24 be 3a 1f f2 3d
       0.10335658 -0.018161803 -0.16089112 0.11822362
000190 b9 67 1a bd df b8 2b be 77 5b 9b 3d 8b f2 ed bc
       -0.037696574 -0.16769741 0.07585805 -0.029046318
0001a0 96 ad fd bd 5d 4b e5 3d 81 a1 33 bc fc 02 21 be
       -0.123866245 0.11196015 -0.0109637985 -0.15723795
0001b0 d3 a2 26 bb 30 ab 24 3c 94 b4 a7 3c 63 3b 5d 3b
       -0.002542664 0.01005058 0.020471849 0.003375732
0001c0 a7 64 53 3c 4e 66 81 3c 19 5d a7 ba 78 5f 25 3c
       0.012902415 0.015795853 -0.0012768834 0.010093562
0001d0 18 3e a8 3c f3 b0 b6 b7 15 ef 8b 3c 64 7c d1 3c
       0.020537421 -2.177849e-05 0.017081777 0.02557201
0001e0 18 73 cb 3b 97 45 8c 3c b3 ae aa 3c 02 df 28 3b
       0.0062087886 0.017123027 0.020835256 0.0025767689
0001f0 2d 56 86 3c f9 26 d5 3c fc 39 c0 3b 03 d9 26 3d
       0.016398514 0.02601956 0.0058662873 0.040734302
000200 1a f2 3a 3d d0 5e 58 3c f7 82 1c 3d 23 07 35 3d
       0.045641042 0.013206199 0.038210835 0.04419626
000210 29 e3 03 3c 35 b1 13 3d 8d d5 38 3d 38 e9 06 bb
       0.008049765 0.03605767 0.045125533 -0.0020585787
000220 81 94 34 3c 72 c7 98 3c eb 2c 36 3b 3c c3 41 3c
       0.011021734 0.01864979 0.002779777 0.011826333
000230 61 7f 60 3c 17 d1 00 b9 73 fa 29 3c eb 9d 91 3c
       0.0137022445 -0.00012284923 0.010374653 0.017775496
000240 ff 17 03 af 46 7b 0c af 2c 37 00 af 23 67 f1 ae
       -1.1922906e-10 -1.2776721e-10 -1.1661133e-10 -1.0977732e-10
000250 20 66 e9 ae 9f 39 de ae d8 90 04 af de 1b c8 ae
       -1.0613754e-10 -1.0105627e-10 -1.2056789e-10 -9.099897e-11
000260 36 bf cd ae 26 4c b2 ae 92 08 b8 ae d5 83 af ae
       -9.3562866e-11 -8.1080295e-11 -8.3688736e-11 -7.981497e-11
000270 37 45 ad ae 2e 80 8d ae 0d 45 80 ae c2 0f b0 ae
       -7.879424e-11 -6.434707e-11 -5.833032e-11 -8.0063525e-11
000280 7e 01 65 ae b8 3c 9c ae e2 8a 87 b0 6f 0d 3f b0
       -5.2069897e-11 -7.1048445e-11 -9.862016e-10 -6.9504486e-10
000290 77 72 97 ae f2 56 8d b0 b4 95 4d b0 95 49 5c af
       -6.887018e-11 -1.0283812e-09 -7.4791306e-10 -2.0035025e-10
0002a0 37 54 7b b0 bd 3f 92 b0 0a ea 93 b0 22 d1 95 b0
       -9.1432945e-10 -1.0641014e-09 -1.0762176e-09 -1.0900616e-09
0002b0 d8 b0 60 b0 56 ba 47 b0 fa 6b 9b b0 b7 6b 8f b0
       -8.1742035e-10 -7.266058e-10 -1.1308423e-09 -1.0435234e-09
0002c0 96 66 a0 b0 46 31 8d b0 2f 3f b0 b0 38 e6 ba b0
       -1.1670689e-09 -1.0273105e-09 -1.2823643e-09 -1.3598713e-09
0002d0 f9 8d d4 2c 82 dd a9 ac 12 14 a9 2a 49 89 da ac
       6.0411645e-12 -4.827861e-12 3.0034357e-13 -6.2111744e-12
0002e0 a4 eb 67 ad 3e 59 2b ad 78 09 0e ad 4e bd e9 ac
       -1.31831525e-11 -9.74004e-12 -8.073868e-12 -6.6432753e-12
0002f0 91 ff c5 ac ab 58 c5 ad 96 3c cd ad ac 04 c2 ad
       -5.6274503e-12 -2.2435684e-11 -2.3332707e-11 -2.2057321e-11
000300 8b a1 c9 ad 6d 35 1c ae bf 8c ff ad 39 b7 10 ae
       -2.2922794e-11 -3.5517745e-11 -2.9052647e-11 -3.2904544e-11
000310 39 8f da ad 06 d2 b1 ad b1 bd 20 af 2f 5f 25 af
       -2.4847334e-11 -2.021584e-11 -1.4619307e-10 -1.5040479e-10
000320 75 0c 1d af 25 88 19 af 17 20 05 af 41 c4 05 af
       -1.4283492e-10 -1.3963637e-10 -1.210768e-10 -1.2166003e-10
000330 cd 5b 15 af 11 0b f7 ae 4a 1c 14 af fa dc 67 2d
       -1.3584085e-10 -1.12342254e-10 -1.3470572e-10 1.3179896e-11
000340 3d 9e 85 ab 9e 66 70 2c d9 98 40 ac 9c 04 47 ad
       -9.494138e-13 3.4163015e-12 -2.7369689e-12 -1.1312864e-11
000350 05 65 0a ad fc 77 8e ac 3e 9b f2 ac 3f ea 9f aa
       -7.866823e-12 -4.0492037e-12 -6.895289e-12 -2.8406615e-13
000360 07 6d 65 3d f0 04 a9 3d 85 ea b5 3d 63 40 99 3d
       0.05601218 0.08252895 0.08882622 0.07482984
000370 b6 0d ba 3d 63 2d c4 3d c3 33 7c 3d 95 aa ab 3d
       0.090846464 0.09578969 0.0615728 0.08382145
000380 72 46 c3 3d 73 d2 16 3d 42 65 6d 3d 5e ea 7f 3d
       0.09534921 0.036821794 0.057957895 0.06247937
000390 73 98 56 3d c8 08 7e 3d 9b 9c 8b 3d b9 d6 2e 3d
       0.05239148 0.062020093 0.068169795 0.042685244
0003a0 d2 44 75 3d 76 2d 8b 3d 9a 95 bf 3d 6d a7 1d bc
       0.059880085 0.0679578 0.09354706 -0.009622437
0003b0 67 66 93 bd b7 bf c1 3c 7d f4 3d bd 62 b5 01 be
       -0.07197266 0.023650987 -0.04637574 -0.12666848
0003c0 95 6d b8 3d 9e 4b a1 bb 1f ec 15 be 59 65 b4 3d
       0.09005276 -0.0049223443 -0.14640854 0.08808393
0003d0 86 d2 14 bc 11 c8 a6 bd ea fb a6 3c d0 e9 25 bd
       -0.009083396 -0.081436284 0.020383794 -0.040506184
0003e0 90 d0 fc bd 1c ca c2 3d 5e 62 ed ba d7 94 15 be
       -0.12344468 0.095112056 -0.0018110981 -0.14607559
0003f0 ec 1e c1 3c c7 18 14 3d da ed 33 3d f0 77 0d 3d
       0.023574315 0.036156442 0.043928005 0.03453821

encoder_cnn.3.bias f4 [16]
000000 ac aa 24 3e 89 89 8e 3d 4e eb 98 b0 8e 5b 49 3e
       0.16080731 0.069598265 -1.1126333e-09 0.19663832
000010 9d 2a 82 aa fb c5 97 3c 7c 6c 16 3e a1 1c 15 3d
       -2.3122208e-13 0.018527022 0.14689821 0.036404256
000020 a7 82 2a 35 f3 b5 3c 3e 49 88 ac b1 6a d2 e7 3b
       6.352006e-07 0.18428783 -5.0213527e-09 0.007074644
000030 65 30 fd b9 33 9e c1 b7 f1 cb 3a 3d f3 ee c9 ac
       -0.00048291977 -2.308106e-05 0.04560465 -5.7392923e-12

encoder_cnn.6.weight f4 [32, 16, 3, 3]
000000 7c 6c a1 3d 66 33 1d 3c 32 22 a8 3d e9 30 51 3d
       0.0788202 0.009594774 0.08209647 0.051072035
000010 20 67 10 bc cd 40 ce 3d 53 09 90 3d fb 93 bc 3c
       -0.008813649 0.100709535 0.070330285 0.023019781
000020 10 3c 28 3e 3f aa 0c 3d cf 4c 95 bb 93 c1 72 3d
       0.16429162 0.034342047 -0.0045562754 0.059266638
000030 05 52 ec 3c 5c eb 8e bb 71 3c 9c 3d 25 20 1b 3d
       0.028847704 -0.004361553 0.07628716 0.037872452
000040 c0 d3 a1 3c a8 d5 f7 3d d5 42 ac ac 43 e0 4c ae
       0.01975429 0.121012986 -4.895954e-12 -4.6583414e-11
000050 23 70 6f 2d 87 ba 5c 2d 68 c1 15 af 36 ff c1 ac
       1.36104765e-11 1.25469695e-11 -1.3620183e-10 -5.513724e-12
000060 57 ae 4f 2d dd 60 ed ae cf f1 f1 ad 84 81 ae 3d
       1.1805299e-11 -1.07947186e-10 -2.7505912e-11 0.08520797
000070 13 1c 4e 3c cf 7e 39 3d 62 47 5c 3d 71 ff 87 bb
       0.012579936 0.04528695 0.053779013 -0.004150324
000080 30 e5 77 3d aa 52 83 3d 90 2b 05 3c 2e 5e 16 3e
       0.060521305 0.06412251 0.008128062 0.14684364
000090 08 78 42 a9 d1 7d 40 28 89 c9 9a a7 dc 5d 69 29
       -4.3180764e-14 1.0685423e-14 -4.296209e-15 5.1817803e-14
0000a0 b5 4e e1 a7 60 b8 4b a8 03 13 dc 29 3e 0f 93 a7
       -6.253538e-15 -1.1308744e-14 9.7732606e-14 -4.081722e-15
0000b0 37 1f 8a a9 ac 50 0f be 1c 9e f5 bd 8b 02 4d bd
       -6.133846e-14 -0.13995618 -0.119930476 -0.050051253
0000c0 3e 64 90 bd 6e 65 87 bd fc 5d 1f 3e a8 b1 85 bb
       -0.0705037 -0.06611143 0.15563196 -0.004080016
0000d0 f6 79 93 bd 7c 3b ea 3c 6a 32 53 3d 34 8b a9 3c
       -0.072009966 0.028592817 0.05156175 0.02069626
0000e0 b2 48 2a 3c 79 75 1c 3d 9a f7 0e bb 05 2b 96 3c
       0.0103933085 0.03819797 -0.0021815063 0.01833106
0000f0 48 c7 f5 3c 38 4a f4 bb 4b 89 65 3d 15 b4 14 be
       0.030002251 -0.0074551366 0.056039136 -0.14521821
000100 2c 1c 18 3d 42 29 f9 bc 21 c2 7f bd 7b 96 b2 3d
       0.03713624 -0.030415181 -0.062440995 0.08720108
000110 93 c0 ff bd 69 5a 43 bd 7b 79 1c 3d 7b 50 7c be
       -0.124879025 -0.047693644 0.03820179 -0.24640076
000120 7f 1e 9f 31 a1 e2 d2 b1 ff 85 f1 b1 b5 14 94 b0
       4.630976e-09 -6.137569e-09 -7.0292567e-09 -1.0774303e-09
000130 5c 99 1b b1 15 ea 09 b1 14 09 aa 31 f8 4f 8d b1
       -2.2642643e-09 -2.0069184e-09 4.9486832e-09 -4.1127315e-09
000140 7f 9c 61 31 97 5d b3 3d 63 75 e8 3b ff a2 ae 3d
       3.2830767e-09 0.08758085 0.0070940717 0.08527183
000150 77 ff 65 3d 63 52 37 bc 25 f2 df 3d a1 9b 95 3d
       0.056151833 -0.011189076 0.10934857 0.073050745
000160 1f 3e d6 3c 9b fc 40 3e 23 9e 92 b1 ad 0d 0d b1
       0.026152669 0.18846361 -4.2671373e-09 -2.0525974e-09
000170 ff 43 1f 31 4c 1d 19 31 ea 6c 91 2f 8d db b0 31
       2.3176197e-09 2.2281084e-09 2.6452734e-10 5.147234e-09
000180 26 9d 08 b1 fc be 09 31 99 be 85 31 df ef fb bd
       -1.9879933e-09 2.0044686e-09 3.892478e-09 -0.12301611
000190 44 3e 8e bd c5 c9 4a bd 58 e8 96 bd 06 01 d4 3c
       -0.0694547 -0.04950883 -0.07368535 0.025879394
0001a0 a9 62 35 3c 26 62 d7 3c d8 9d 0a bd 12 2a ea bc
       0.011070886 0.026291918 -0.033841938 -0.028584514
0001b0 fa 2d 85 38 03 55 44 39 a5 1e 1b b9 d4 ab 92 b8
       6.350498e-05 0.00018723686 -0.00014793368 -6.993828e-05
0001c0 38 65 45 38 b5 e1 a2 b8 69 bd 0e 38 7f 72 a0 b9
       4.7062727e-05 -7.766803e-05 3.403184e-05 -0.00030602884
0001d0 df cd 87 b8 a4 7c 9f b7 f7 fa 8e b7 9d 58 b6 b7
       -6.475648e-05 -1.9012317e-05 -1.7044584e-05 -2.1737354e-05
0001e0 1a a4 c6 b5 0c e3 9b b6 25 8a 7f b7 b4 05 42 b7
       -1.4799909e-06 -4.6457917e-06 -1.5231349e-05 -1.1564629e-05
0001f0 9a c8 f2 b7 db 9f 93 b7 ba 1c b2 3c 1c 6f 35 bb
       -2.894206e-05 -1.7598204e-05 0.021742214 -0.0027684635
000200 04 4d ac 3d c3 e7 c1 3c 1a 9d 86 bb 68 cc bc 3d
       0.08413127 0.023670083 -0.0041080834 0.09218675
000210 31 cd 0d 3d 5c f7 dd 3c eb 19 17 3e 8b ce 8a 2e
       0.034619514 0.02709549 0.1475598 6.312203e-11
000220 98 87 55 2f 3a b7 01 30 d3 d8 e9 2e 21 2d a1 2f
       1.942041e-10 4.7190307e-10 1.0634129e-10 2.9317795e-10
000230 ab 2d c7 2f bf 87 c3 2f f7 bf ec 2f c0 3a ab 2f
       3.6230338e-10 3.5566747e-10 4.306455e-10 3.1146463e-10
000240 4c f5 d9 38 8e d4 3b b8 d9 73 05 b9 88 44 51 b9
       0.000103930564 -4.478223e-05 -0.00012727025 -0.00019957323
000250 65 79 e3 b8 89 08 53 b9 f5 ba da 38 9a cf 50 b5
       -0.00010846815 -0.00020125708 0.000104298735 -7.778814e-07
000260 7a 42 79 b9 73 41 38 ba f8 b2 31 b8 df 9a 31 b9
       -0.00023771255 -0.00070287957 -4.2366766e-05 -0.0001693773
000270 c7 23 7b b9 ff 12 9e b9 14 eb d9 b9 51 5c 76 b9
       -0.00023950553 -0.00030150262 -0.00041564612 -0.00023494779
000280 6b 0e 88 b9 53 9b 95 b9 05 4e db a8 62 e5 18 aa
       -0.00025950684 -0.0002853522 -2.434772e-14 -1.3579895e-13
000290 8e b8 bd a9 cc 2c e1 a9 64 a4 02 a9 d1 e3 ae 27
       -8.425301e-14 -9.999778e-14 -2.9008385e-14 4.85417e-15
0002a0 ce bd c4 28 50 fb 69 26 cf 49 00 28 ed 5a 0e 36
       2.1842686e-14 8.1178706e-16 7.121432e-15 2.1212575e-06
0002b0 49 22 28 b9 bb d1 d0 b8 9c 80 88 b9 83 af a0 b9
       -0.00016034501 -9.957278e-05 -0.00026035763 -0.00030648345
0002c0 72 16 0d b9 af b2 70 38 33 10 51 38 47 73 92 b9
       -0.0001345517 5.738687e-05 4.984457e-05 -0.00027933178
0002d0 88 f8 99 a3 c0 c3 0d a3 55 b5 14 a3 f1 af b6 23
       -1.669355e-17 -7.685077e-18 -8.061495e-18 1.9806994e-17
0002e0 15 3b ca 22 57 84 d1 22 21 21 28 23 d6 fd b5 a0
       5.4814765e-18 5.6789684e-18 9.1143136e-18 -3.0830567e-19
0002f0 9f f7 c5 a1 f5 8a da 38 20 61 a3 b7 74 32 81 38
       -1.3414784e-18 0.00010420933 -1.9476342e-05 6.160597e-05
000300 a9 70 8b 39 59 3a 4f 38 40 f2 e6 38 16 3a 0c ba
       0.00026596084 4.9406986e-05 0.00011012377 -0.00053492317
000310 91 e8 76 39 de fe f9 b8 cb 1b da b8 f9 b0 93 b8
       0.00023547026 -0.00011920718 -0.00010400227 -7.04247e-05
000320 27 59 f4 b8 c4 c3 c9 b8 ba 39 12 b9 65 80 25 b9
       -0.000116514326 -9.620891e-05 -0.0001394515 -0.00015783457
000330 56 a6 39 b8 8c b2 21 38 64 0d aa b9 7c 5e 72 b9
       -4.426235e-05 3.8551676e-05 -0.00032434904 -0.00023114117
000340 0a a6 4a 39 8f a9 43 b8 61 0f b4 b9 bc 69 9e 39
       0.00019326076 -4.6649537e-05 -0.00034343734 0.00030214887
000350 cb cc e0 b8 b6 3c 2d ba f8 8a 67 ba 67 e7 81 ba
       -0.00010719298 -0.0006608473 -0.00088326586 -0.0009910882
000360 59 d3 b5 ae bd 80 1e ae 68 51 0b ad f4 e2 fb ae
       -8.26847e-11 -3.6039383e-11 -7.919311e-12 -1.14544735e-10
000370 77 5d 1c ae 8d 89 71 ae 78 b1 e7 ae 0a 32 af ae
       -3.5553307e-11 -5.4919225e-11 -1.05361886e-10 -7.9669674e-11
000380 6b e9 ec ae 65 8a c3 38 5f 89 77 b8 df 82 95 b8
       -1.0773501e-10 9.3241026e-05 -5.9017326e-05 -7.12925e-05
000390 18 13 12 b9 71 1c 1b b9 71 d2 14 b9 de b7 bc 38
       -0.00013930758 -0.00014792547 -0.00014192775 8.9987865e-05
0003a0 ab 77 b6 38 85 fa 58 b9 9a 9b d4 2d 8f 2e 95 ae
       8.700726e-05 -0.00020692691 2.417071e-11 -6.784006e-11
0003b0 aa ef 91 29 f4 8d 29 2e cd 3b 80 2c 26 8e 66 2b
       6.4808686e-14 3.855223e-11 3.644618e-12 8.1909685e-13
0003c0 36 49 fc 2c 01 ea 9e 2c c0 8e 81 2c 0e 35 54 b9
       7.170399e-12 4.5166097e-12 3.682249e-12 -0.0002023766
0003d0 01 75 a2 b8 11 eb 72 b6 ab 2d c3 b9 34 4e 8c b8
       -7.746556e-05 -3.6197637e-06 -0.00037227324 -6.690287e-05
0003e0 12 fb 12 39 05 7e 84 ba 01 ac 01 ba 05 d2 83 ba
       0.00014017176 -0.0010108358 -0.000494659 -0.0010057098
0003f0 ad 0c 19 b5 55 c9 52 32 b0 5b 2f b6 32 ae 57 35
       -5.701539e-07 1.2269386e-08 -2.6130401e-06 8.034723e-07

encoder_cnn.6.bias f4 [32]
000000 d9 ef 0b 3d 42 a3 83 b9 79 4e f8 b3 8a 1a 13 3c
       0.034164283 -0.00025107904 -1.1562674e-07 0.008978495
000010 3a e9 3c bb 38 6c 04 3d d3 8e 29 3d 41 74 02 3d
       -0.0028825537 0.032329768 0.041395973 0.03184915
000020 13 0a db bb 06 a3 55 ba b1 bf 03 ae 69 43 44 3c
       -0.0066845505 -0.00081495976 -2.9956208e-11 0.011978962
000030 4f e2 65 3d a0 84 dd b1 69 98 c1 3c 60 9b 83 3c
       0.056124028 -6.4470242e-09 0.023632245 0.0160653
000040 14 17 c7 3b c8 18 2e b5 d1 f6 da 3b e2 79 2a bb
       0.006075749 -6.485611e-07 0.006682255 -0.002601259
000050 3c 1e a5 b3 03 86 15 bc ff 80 10 3c ce c2 b2 bc
       -7.688911e-08 -0.009126189 0.008819818 -0.021821406
000060 ef f0 b2 3c 57 26 81 3c e0 42 a4 bc a9 28 d9 3c
       0.021843402 0.015765352 -0.02005142 0.026508646
000070 f7 52 b7 3c 19 37 46 bc f5 06 3f 3d 1f 7e d2 3d
       0.022378428 -0.012098097 0.046637494 0.10277962

encoder_lin.0.weight f4 [64, 288]
000000 c2 a3 70 b9 48 52 89 b8 69 2b 10 b9 a2 a0 c2 38
       -0.00022949188 -6.547995e-05 -0.00013749082 9.280561e-05
000010 84 73 a3 3a ba 88 1c 39 9f 7d 9c 39 f5 17 34 3a
       0.001247034 0.00014928254 0.00029848234 0.0006870025
000020 4b e6 ef b7 77 0e 2b b4 cc 8b b8 35 b2 d1 0f 38
       -2.8598259e-05 -1.5930878e-07 1.3749755e-06 3.428915e-05
000030 33 52 50 34 10 c1 7b b5 1e 30 f8 b2 7f e1 39 b6
       1.9401413e-07 -9.378573e-07 -2.8892881e-08 -2.7698404e-06
000040 f2 12 55 b3 1d 95 60 37 79 ed 3a 31 a7 2d fe ae
       -4.9610158e-08 1.3386159e-05 2.720155e-09 -1.1558692e-10
000050 d8 02 db b7 85 23 a8 af c1 12 c6 b8 5f dc ef 31
       -2.6108159e-05 -3.058426e-10 -9.444869e-05 6.9808688e-09
000060 7a 23 29 31 f3 3e 86 30 ac f7 09 b4 1f 4c 72 36
       2.4612903e-09 9.767674e-10 -1.2849222e-07 3.6105118e-06
000070 f5 b9 bd b9 bd c2 80 38 8f ca 2e 38 da df a9 39
       -0.00036187438 6.1397885e-05 4.167348e-05 0.00032400974
000080 42 48 9f b9 c5 f1 1a 38 c9 b3 ee 39 3d 56 68 b8
       -0.0003038068 3.6941627e-05 0.00045528848 -5.5393426e-05
000090 4f 26 5c 36 e9 2b 1d b4 51 63 2a b6 75 5f 56 b6
       3.2804853e-06 -1.4637739e-07 -2.5389784e-06 -3.1944048e-06
0000a0 82 76 80 35 f5 88 3f 37 29 a3 aa 36 2c de 9a b5
       9.571233e-07 1.1416375e-05 5.085389e-06 -1.1538555e-06
0000b0 f7 f2 1b 37 51 d2 aa 37 dc b4 09 b7 d0 45 53 37
       9.29529e-06 2.0363515e-05 -8.207946e-06 1.25928345e-05
0000c0 25 4d b9 39 c7 96 fc 38 ae 5c 02 b9 35 a6 ee 39
       0.00035343427 0.00012044381 -0.00012432292 0.0004551873
0000d0 77 d5 8c b8 0a 59 00 b9 e6 8f 91 b9 6b 31 86 39
       -6.715481e-05 -0.00012240201 -0.00027763768 0.0002559529
0000e0 1f c5 86 39 66 c8 1d b8 e6 ed 3c b9 0f 6e 98 39
       0.00025705338 -3.7618353e-05 -0.00018017701 0.000290737
0000f0 a3 8c f1 b8 17 e0 16 3a 48 b9 5c 39 29 b7 22 b9
       -0.00011517971 0.0005755438 0.00021049858 -0.00015517756
000100 99 c9 d0 b8 ba d2 0c 37 cf 5b 8f 38 f2 7c 0e 38
       -9.9557634e-05 8.393714e-06 6.835872e-05 3.3971803e-05
000110 24 59 a7 b8 53 f6 2e 39 ca 3f 1f ba f0 71 3e b8
       -7.979784e-05 0.00016685696 -0.0006074874 -4.5405643e-05
000120 6d ac 68 b5 2e 58 85 af 94 05 b9 36 f7 52 e6 b3
       -8.667765e-07 -2.4255215e-10 5.514079e-06 -1.0725301e-07
000130 6b 28 2e 29 fd e7 85 b9 5e 5f 9d b8 30 53 b2 35
       3.8670818e-14 -0.00025540582 -7.504107e-05 1.3286244e-06
000140 07 ae 20 b3 99 ce e5 b4 f0 a7 4e b2 0e 2c 07 34
       -3.741118e-08 -4.2804893e-07 -1.2028963e-08 1.2588882e-07
000150 e1 f1 51 2f db c3 5a 30 7f 91 ca af 9f df 1d 34
       1.9094372e-10 7.9586265e-10 -3.6846967e-10 1.4703117e-07
000160 bd 28 a1 b1 06 a7 c3 31 95 a6 8a 26 23 e8 7f 29
       -4.690348e-09 5.6942353e-09 9.620826e-16 5.682272e-14
000170 ac 8d 6b a8 27 04 28 29 c1 e9 05 28 81 c0 6d a6
       -1.3075841e-14 3.7307095e-14 7.43367e-15 -8.2486784e-16
000180 db b9 e5 28 31 a0 90 a6 1e fc 99 26 b2 4b a5 38
       2.550471e-14 -1.0035427e-15 1.0684844e-15 7.8819125e-05
000190 2d c1 78 b8 bf 01 01 b9 17 30 19 38 f9 21 e6 b8
       -5.9307717e-05 -0.00012303049 3.652283e-05 -0.000109735825
0001a0 0a 15 f9 35 30 82 84 b8 33 a3 4c b7 93 3e f6 b8
       1.8558069e-06 -6.3185e-05 -1.2197345e-05 -0.000117418494
0001b0 e7 0d 9b 38 a8 08 15 39 aa 2a 68 39 b2 76 ee 37
       7.3935655e-05 0.00014212972 0.00022141138 2.8427083e-05
0001c0 8f ef 9d 37 53 83 ae 3a cb e5 03 b8 a5 13 df b7
       1.8827412e-05 0.0013314284 -3.1446845e-05 -2.659282e-05
0001d0 7f 39 cd b8 3b ea 4a 2e 83 27 2b 2e 90 aa 06 2c
       -9.785871e-05 4.613752e-11 3.8915992e-11 1.9137227e-12
0001e0 ee cb 09 ae 44 0b 41 af a1 a5 a9 2a 25 5a 1e 2d
       -3.133132e-11 -1.755725e-10 3.013536e-13 9.001276e-12
0001f0 88 d4 86 ae 8f ed a0 2c df 75 3e 39 f0 6b 81 38
       -6.1313676e-11 4.573848e-12 0.00018163722 6.171304e-05
000200 1b 6c c7 b8 07 ed ad b8 a6 dd 03 39 eb f1 6d 37
       -9.509196e-05 -8.2934326e-05 0.00012575704 1.4182627e-05
000210 d5 88 b7 b8 80 6f 85 ba 12 9d f0 b8 c3 9b ee 38
       -8.751607e-05 -0.0010180324 -0.000114733484 0.00011377737
000220 be 66 1b 39 f8 2b d0 39 3a 24 60 b7 a2 30 71 b8
       0.00014820226 0.0003970561 -1.3359875e-05 -5.750417e-05
000230 2c a3 9d 3a 05 9c d9 36 01 bd cd b4 ec 2a a4 b9
       0.0012026778 6.485267e-06 -3.8321744e-07 -0.00031312497
000240 2f 0a c6 b7 0f 0d d9 38 be a3 ab 38 57 46 67 b9
       -2.3608181e-05 0.00010349799 8.184415e-05 -0.0002205608
000250 ba cc 37 39 d7 45 82 38 cf c8 02 38 95 a5 db 38
       0.00017528507 6.211892e-05 3.1181433e-05 0.00010473576
000260 9d 2a 6e 39 b5 0e 2a 33 bb 0b ea b2 50 cd 01 32
       0.00022713323 3.9594585e-08 -2.724652e-08 7.555471e-09
000270 55 1d f7 b0 8c 5b 31 31 03 43 d8 b2 3b ba 20 b2
       -1.7979952e-09 2.5808928e-09 -2.5176183e-08 -9.35557e-09
000280 a3 a5 37 31 e2 52 af b2 39 13 a3 b7 50 eb 1f 38
       2.6724158e-09 -2.0410372e-08 -1.9440065e-05 3.8127706e-05
000290 cd a7 fb 35 3e 85 62 b8 cb b0 ac 39 12 b0 77 b9
       1.8749794e-06 -5.400669e-05 0.00032938118 -0.00023621347
0002a0 52 bc d3 b8 b2 27 02 ba ec d4 a0 b9 4c b2 e2 b8
       -0.000100963414 -0.00049650215 -0.00030676217 -0.0001080973
0002b0 48 3f db b9 4a 6f 5e b8 b7 65 03 b8 47 6f 88 39
       -0.00041818083 -5.303257e-05 -3.1327563e-05 0.0002602285
0002c0 d5 0f f0 35 63 8c be b6 68 4e 1f 39 e7 48 5e 38
       1.7886001e-06 -5.6787844e-06 0.0001519263 5.299682e-05
0002d0 2a 46 41 b1 bf 97 14 36 ea 48 ea ad 32 a7 37 30
       -2.812508e-09 2.2142046e-06 -2.66351e-11 6.681261e-10
0002e0 8d a9 f5 ac b3 95 0b 30 4e 2f f1 af 17 10 bd ad
       -6.9821427e-12 5.078064e-10 -4.3871257e-10 -2.1493958e-11
0002f0 67 af fc 2d e3 6a 7c 38 ee 94 a0 39 61 03 f4 38
       2.8726977e-11 6.0181028e-05 0.0003062854 0.00011635456
000300 68 1e 87 39 d0 09 ea 39 c4 72 dd 38 ca e3 88 b8
       0.0002577186 0.0004463927 0.00010559478 -6.5274144e-05
000310 37 08 a3 38 1b 50 98 b6 a4 36 b6 38 3a 75 3a b6
       7.773976e-05 -4.5392785e-06 8.688614e-05 -2.7784395e-06
000320 66 dd c3 38 04 a9 3d b8 c8 ac ae b5 b5 ec 0e 3a
       9.339563e-05 -4.521852e-05 -1.3014296e-06 0.0005452142
000330 4d 08 12 b8 31 eb 05 b8 7d 3b 9d b9 03 fe c4 37
       -3.4816843e-05 -3.192871e-05 -0.00029989696 2.3483304e-05
000340 cd e7 56 b7 0c 82 33 b7 1b a1 ad 38 36 65 d7 b8
       -1.2809364e-05 -1.069951e-05 8.279291e-05 -0.00010270851
000350 46 a5 0c b8 53 3a 97 b6 12 61 18 37 80 6e 19 39
       -3.3532524e-05 -4.5069405e-06 9.082507e-06 0.00014632381
000360 52 23 a9 b9 aa 6f 05 39 7a 1a 94 b6 1b 0b 1f b8
       -0.00032260508 0.00012725467 -4.413826e-06 -3.7918897e-05
000370 dd 32 b3 b8 1b 75 37 b9 70 a4 e7 b9 be 4a 1c ba
       -8.544859e-05 -0.00017495865 -0.0004418227 -0.0005962065
000380 a8 a8 2d b9 6c 83 81 39 a2 03 c8 b8 5e 50 73 b7
       -0.00016561395 0.00024702714 -9.53742e-05 -1.4502641e-05
000390 72 82 8b 38 58 4d 32 b9 8c 7a 05 b7 f6 38 2c b9
       6.652334e-05 -0.00017004216 -7.95595e-06 -0.00016424418
0003a0 d4 d1 c0 b8 c6 30 de 37 8b 93 8c 38 2d 9f c5 37
       -9.194357e-05 2.6487174e-05 6.703202e-05 2.3558352e-05
0003b0 99 28 8a 37 ee 44 fe 37 68 eb a6 b9 5a bc f8 b8
       1.6469787e-05 3.0311257e-05 -0.0003183738 -0.00011860645
0003c0 59 49 63 b9 63 91 fa b4 1d c1 1d b8 87 9f 4b b9
       -0.00021675731 -4.6671911e-07 -3.7611568e-05 -0.00019419017
0003d0 4b 65 1c 39 b7 d2 88 b8 d2 be 0d b9 6a c4 95 b8
       0.00014915054 -6.524234e-05 -0.00013517894 -7.1414586e-05
0003e0 f7 cc 52 b9 d8 25 2c b7 0f 78 92 ba 88 c4 f7 b8
       -0.00020103516 -1.026081e-05 -0.0011174696 -0.000118144846
0003f0 99 85 5c b9 6b c8 d8 39 ad 80 42 39 3d 11 21 b7
       -0.00021030604 0.00041348053 0.00018549217 -9.600361e-06

encoder_lin.0.bias f4 [64]
000000 f9 92 b7 b8 ab 1d 94 38 fe 17 ac b9 21 2d 5d 39
       -8.753496e-05 7.062716e-05 -0.00032824272 0.00021093014
000010 fb f4 a8 33 ae a8 d9 39 4e 86 9b b1 f6 00 9a 3a
       7.867671e-08 0.00041515141 -4.5263624e-09 0.0011749554
000020 10 b1 12 3d a9 48 07 3d cf 07 2e ac 8f 5f 11 30
       0.03581339 0.03302828 -2.4731222e-12 5.288649e-10
000030 e4 02 70 ac 3e a6 bd b9 9b 26 dc b7 ef 29 f0 ab
       -3.4107656e-12 -0.0003617275 -2.624402e-05 -1.7064665e-12
000040 2b 3b e5 bb fc a2 2f 38 f6 53 b4 3d eb e5 2b bb
       -0.0069955788 4.1875042e-05 0.08805077 -0.002622957
000050 59 69 0a 37 7b 57 22 35 82 98 1e 32 41 fb 01 3c
       8.249969e-06 6.0477004e-07 9.231487e-09 0.007933439
000060 9f c3 3a bb 16 67 ab 3c d9 6b a7 3d 4d f9 94 3d
       -0.0028497947 0.020923179 0.08174867 0.07274113
000070 fc 28 a5 bb aa e3 b6 b6 96 d3 80 3c 4f 89 e7 39
       -0.005040286 -5.4505263e-06 0.015725892 0.00044162056
000080 75 55 af 34 b9 8d 93 3a b9 05 c5 3d a4 a8 1a 3d
       3.2658468e-07 0.0011257447 0.09620232 0.037758484
000090 c6 11 4f 31 49 97 c3 3d 11 f3 1e 3d f1 c7 83 ad
       3.0132568e-09 0.0955034 0.038806025 -1.4981768e-11
0000a0 92 a5 4f aa bb 8c 14 3d 91 9b 2b 3a 87 46 20 3d
       -1.8442737e-13 0.036267024 0.00065463135 0.03912976
0000b0 75 a1 59 b2 28 73 8b 3d c1 af 15 bb 86 69 18 b9
       -1.26677735e-08 0.06809074 -0.0022840353 -0.0001453516
0000c0 bc 7e 57 ba 57 a0 02 b7 a3 64 ee ad a5 db 84 3d
       -0.0008220484 -7.785936e-06 -2.7102159e-11 0.06487206
0000d0 31 30 2e 39 52 1f 8b bb 48 6f f9 34 28 ff 89 3d
       0.00016611886 -0.004245677 4.6460832e-07 0.0673812
0000e0 bd d9 67 37 63 fa 8e b6 75 89 c3 b2 e7 4d 0e 35
       1.3819369e-05 -4.2610786e-06 -2.2763496e-08 5.3012485e-07
0000f0 c1 02 c2 3c 80 b1 d2 b7 25 e2 07 bd b0 9f 9b b1
       0.023682954 -2.5116606e-05 -0.033174653 -4.529248e-09

encoder_lin.3.weight f4 [1, 64]
000000 59 88 21 3b a6 53 9a 3a ff a1 16 3b 7f f6 ae ba
       0.002464792 0.0011774197 0.002298474 -0.0013348608
000010 37 57 b4 b7 53 2b bb ba 48 fa 05 37 32 62 4c bf
       -2.1498285e-05 -0.0014279879 7.985691e-06 -0.79837334
000020 0a 90 78 3d 55 b4 55 3d 4c ee 60 b6 0b c8 dc b3
       0.06068424 0.05217393 -3.3517308e-06 -1.0280936e-07
000030 8f 9f 0b b1 56 cf de 3b b1 26 0e bb 0b 69 c7 b4
       -2.031786e-09 0.0067996187 -0.0021690542 -3.7143067e-07
000040 82 6e 18 be b7 3e dd 3a 5c b9 3b 3e 29 1b 5e 3c
       -0.14885905 0.0016879652 0.18332428 0.01355628
000050 5f a9 9a 3a 76 42 c2 b8 4c 79 95 b5 45 7b 18 3f
       0.0011799744 -9.26302e-05 -1.1136667e-06 0.59563094
000060 0f 89 bd 3e 24 b6 1e 3f c4 4b b1 3e 76 19 ca 3e
       0.3701863 0.61996675 0.34628117 0.3947255
000070 fd 35 66 3b a2 de 4d b7 17 a5 49 bf 5f fd f5 39
       0.0035127394 -1.2270788e-05 -0.7876753 0.00046918818
000080 62 39 96 3a 86 8c 4a bc 6c c6 75 3e f1 8b 2c 3f
       0.0011461193 -0.012362605 0.24001473 0.67401034
000090 fd 3e 08 36 16 af 8e 3e 15 71 80 3d 88 0b 37 33
       2.0302243e-06 0.27867955 0.06271569 4.2618495e-08
0000a0 4c 64 3b ad 0b 7f 15 3f d8 44 00 3f 22 32 7d 3d
       -1.065199e-11 0.5839698 0.5010505 0.06181539
0000b0 28 81 ce 32 ec d0 ed 3e 5b 04 d0 3c 8f 12 fd b9
       2.404029e-08 0.46448457 0.025392702 -0.00048269748
0000c0 76 e0 96 3b 3c 84 97 3b a7 96 19 30 e1 a7 e9 3d
       0.0046043945 0.004623918 5.5875166e-10 0.114089735
0000d0 57 5d 0d 3c d3 7f ca bb c4 5c 65 b5 58 d8 0f 3f
       0.008628211 -0.0061797886 -8.544414e-07 0.5618949
0000e0 fd df 02 3c 2b 9a 03 ba fd 5c d1 37 d7 a0 20 b6
       0.007987973 -0.0005020226 2.4958043e-05 -2.393548e-06
0000f0 88 0c 25 3f 2d 87 c6 b8 15 8c 47 bf 96 10 83 b2
       0.64472246 -9.466554e-05 -0.77948123 -1.525795e-08

decoder_lin.0.weight f4 [64, 1]
000000 ae b6 5a bc b4 8a 53 bc 5b 93 57 b6 b7 6c 64 bc
       -0.013349218 -0.012911487 -3.2123269e-06 -0.013941935
000010 a2 68 d7 b9 e1 14 27 3e ba c5 eb 3e a8 31 7a bc
       -0.00041085953 0.16316558 0.4604929 -0.015270628
000020 2d 13 47 bb 39 65 b0 3e ec b6 ad 39 d4 cf 76 3e
       -0.003037642 0.34452227 0.0003313342 0.24102718
000030 4e d9 98 3e 94 44 3a bf be 89 37 bb ad 98 a9 3e
       0.2985329 -0.7276089 -0.0028005685 0.33124295
000040 78 23 35 bb fd c8 ea 3e cd f9 50 bb 1e 6d e8 3e
       -0.002763955 0.45856467 -0.0031887174 0.4539575
000050 14 93 ee 3e 2b 2c e3 3e 67 37 67 3e 5b 8b 54 3b
       0.46596587 0.44369635 0.22579728 0.0032431695
000060 55 e4 5d bc 35 5a 0b bb 74 65 d8 3e 5e cb da b9
       -0.013543208 -0.0021263484 0.42264903 -0.0004173172
000070 93 e1 4c 3e 4b b7 9d 3e 26 8d a6 3e bc 4d 3f bb
       0.20007925 0.30803904 0.32529563 -0.002919062
000080 61 1c b4 3e c4 8d 71 ba 0e c1 b8 3e c5 0b 59 bc
       0.351779 -0.0009214545 0.3608479 -0.013247435
000090 0d 25 ed 3e 5b ba 0b ba fd 99 79 bc 11 39 e4 b8
       0.4631733 -0.00053301983 -0.015234468 -0.00010882517
0000a0 c6 f4 6a 3a ff c2 74 bc 02 b5 34 bc cb f0 f2 3e
       0.00089628657 -0.014939069 -0.011029484 0.47449335
0000b0 02 3e 8a 3e eb c5 72 bc 6f 80 0d bc 8d 7a 34 bf
       0.27000433 -0.014817695 -0.008636578 -0.704995
0000c0 36 55 6a 3e 2c f7 ca 3e c0 c6 77 3e 26 ba 79 3e
       0.22884068 0.39641702 0.24196911 0.24387416
0000d0 3b 1a 02 3b e3 19 9f 9d 5a 67 df 3e 8b e4 38 bf
       0.001985206 -4.2113716e-21 0.43633538 -0.7222373
0000e0 39 08 27 22 b8 db f3 3e 45 df 56 bc 6b f4 45 bc
       2.2637073e-18 0.4762857 -0.013114755 -0.0120822
0000f0 aa cb 6e bc 79 f6 56 3e 9b 25 fb 3e 46 d2 35 bb
       -0.0145749245 0.2099246 0.49052128 -0.002774374

decoder_lin.0.bias f4 [64]
000000 13 dd 0b 3f 55 0b 13 3f e2 4e 3a b8 64 3a 22 3f
       0.5463421 0.57439166 -4.441932e-05 0.6337035
000010 cd 24 8d ba 06 43 57 3c 3a 8d 4c 3d ae 04 27 3f
       -0.0010768414 0.013138538 0.04993937 0.65241516
000020 e5 a8 a6 bb b5 33 0d 3d ff ec 33 bb 70 af 28 be
       -0.0050860518 0.03447314 -0.0027454493 -0.16473174
000030 08 83 fa 3c b6 4d 39 bd 82 7a 12 3e 12 8b 08 3d
       0.030580059 -0.045240127 0.14304546 0.033335753
000040 c8 f1 b7 ba dd 92 46 3d 0c c5 06 bc 1a 2e 46 3d
       -0.0014033848 0.048479903 -0.008225691 0.04838381
000050 dd 5e 4c 3d b5 98 43 3d dd ba 1f be 47 a3 d8 bb
       0.049895156 0.047753055 -0.15598626 -0.006611261
000060 1f 88 14 3f a7 69 6e bb 5b 1c 39 3d e4 51 6f bb
       0.58020204 -0.0036378892 0.045193058 -0.0036517316
000070 62 92 85 3c fe d8 fc 3c 35 c4 0c 3d 7d 73 01 bb
       0.016305152 0.030865189 0.034366805 -0.0019752674
000080 17 c8 11 3d 8e fb 13 ba 89 b3 14 3d 3c bc 0e 3f
       0.03559121 -0.00056450895 0.03630403 0.5575597
000090 2a 38 47 3d 9c 14 d5 3c f8 0b 26 3f a8 6a 1d b7
       0.048637547 0.026010804 0.6486201 -9.382762e-06
0000a0 b9 f9 05 ba 0b 9c 20 3f cb d3 f0 3e d2 a1 54 3d
       -0.0005110759 0.627381 0.47036585 0.051912136
0000b0 83 31 d6 3c 29 f5 1c 3f 40 7c c6 3e 9e 93 0d bd
       0.026146656 0.61311585 0.3876667 -0.034564607
0000c0 99 f1 1f be d7 fa 26 3d 17 1a 2c be ab f1 b1 3c
       -0.15619506 0.040766563 -0.16806827 0.021721682
0000d0 4b d6 44 bb 29 44 d1 9d 98 cf 3f 3d 44 a7 37 bd
       -0.0030034955 -5.5392315e-21 0.046828836 -0.04483725
0000e0 10 c7 74 a3 fd 7c 58 3d 02 ee 0c 3f 47 18 03 3f
       -1.326942e-17 0.052853573 0.5505067 0.5120892
0000f0 e4 89 1f 3f 35 bf 92 3c 7f 89 5e 3d 9d 26 bc bb
       0.6231978 0.01791344 0.054330345 -0.0057419077

decoder_lin.3.weight f4 [288, 64]
000000 b9 0c 3c 39 6b e9 1b 38 d6 fe d5 b3 1e c6 e1 b9
       0.00017933817 3.7172267e-05 -9.96494e-08 -0.00043062953
000010 e3 e2 96 b6 3a cd 48 39 d6 33 f6 36 43 c6 09 ba
       -4.4967614e-06 0.00019149939 7.337406e-06 -0.00052556786
000020 88 31 4c 38 08 4b cb b8 bc 97 a3 b5 db 55 4a b8
       4.868352e-05 -9.69377e-05 -1.2188607e-06 -4.8240512e-05
000030 23 b6 ff 38 4c e4 97 bb 7e 4d 3d 38 0b e5 6c 37
       0.00012193273 -0.0046353694 4.513328e-05 1.4120024e-05
000040 5a 05 d7 37 ac 6a 04 37 e0 ab 04 39 d3 f9 a2 37
       2.563249e-05 7.89265e-06 0.0001265253 1.9428238e-05
000050 3a 10 95 36 fd 44 33 b8 6c 5e 57 b7 7e 51 34 37
       4.442435e-06 -4.2741176e-05 -1.2836983e-05 1.074781e-05
000060 e5 e5 8b 38 73 4b 6b b8 82 fe 09 b8 b4 92 5d b6
       6.670858e-05 -5.6098634e-05 -3.2900374e-05 -3.3016959e-06
000070 54 63 75 39 e3 4b cd 37 0d c7 c2 b7 4c 80 59 b6
       0.00023402023 2.4473242e-05 -2.3219292e-05 -3.2410198e-06
000080 af 59 f0 b8 ea d8 87 b6 73 89 f3 b8 30 01 a9 39
       -0.00011460797 -4.0485656e-06 -0.00011612745 0.00032235077
000090 f2 70 17 b6 b8 1b 17 38 bb a8 92 b9 df ab 92 b6
       -2.2566496e-06 3.602702e-05 -0.00027973004 -4.3711475e-06
0000a0 0f 50 7d b6 0a 36 1b b9 67 9a 10 3a f8 1b 82 38
       -3.7746538e-06 -0.00014802083 0.0005516172 6.204093e-05
0000b0 c1 b5 c7 38 f9 70 de b8 b3 f5 e4 39 91 ea 2d bb
       9.522914e-05 -0.00010606828 0.0004367061 -0.0026537518
0000c0 3c 7b 06 b8 bb a2 b5 b8 b9 4a 69 b8 1a 2d 4f 39
       -3.206286e-05 -8.6610635e-05 -5.562112e-05 0.0001975786
0000d0 8f df 75 b8 52 cb 20 16 9c 4d 9f b8 ce 1e 92 bb
       -5.8620757e-05 1.2988854e-25 -7.596167e-05 -0.0044592386
0000e0 ec c8 2f 21 6e 23 a6 38 5f 50 71 39 c3 f9 d2 39
       5.9558224e-19 7.922096e-05 0.00023013492 0.00040240408
0000f0 b1 22 a9 b8 46 b6 8f 39 f8 0f 03 38 c9 11 9e b8
       -8.06501e-05 0.0002741089 3.1247706e-05 -7.53734e-05
000100 c5 73 48 b6 4d cd 4e b6 d7 10 ba 2d c1 7c d4 b7
       -2.986971e-06 -3.0815893e-06 2.115323e-11 -2.5330462e-05
000110 45 2b 3a 2c 96 16 61 2f 73 69 ba b7 34 f1 0f b8
       2.645621e-12 2.0471655e-10 -2.2222031e-05 -3.4318495e-05
000120 f5 54 33 a8 1a c2 9a b5 2e 2a e6 2c a2 d4 b3 af
       -9.954918e-15 -1.1530385e-06 6.541676e-12 -3.2710995e-10
000130 8a 8e 8c b3 08 f0 6d b9 ad 46 a4 2e 69 8a 41 b5
       -6.545186e-08 -0.000226915 7.470411e-11 -7.2099516e-07
000140 fc e0 d0 2c 49 41 f4 b7 b0 2b 1d ab 58 12 cf b7
       5.936694e-12 -2.9117467e-05 -5.5838233e-13 -2.4684865e-05
000150 a1 1f bc b7 79 f8 82 b7 41 54 08 2f 9a 20 de ac
       -2.2426075e-05 -1.5612912e-05 1.2399061e-10 -6.313239e-12
000160 ef ac 2b b7 31 ba 03 29 7c b8 17 b7 24 d8 92 2d
       -1.02326585e-05 2.924934e-14 -9.043255e-06 1.6694264e-11
000170 5a a5 70 af a2 ec 42 b3 bb 22 47 b5 4c 89 8e ac
       -2.1886618e-10 -4.538436e-08 -7.4183816e-07 -4.0511258e-12
000180 04 7b 2b b5 c5 d4 71 aa fd fb 85 b6 6f c4 f8 b6
       -6.3881475e-07 -2.1478919e-13 -3.993044e-06 -7.413844e-06
000190 ab c6 82 b7 f2 0e e2 ad b4 55 1e b8 1c 95 07 26
       -1.558972e-05 -2.5699862e-11 -3.7749953e-05 4.7039615e-16
0001a0 04 fc b7 a9 fb a0 62 b7 94 b0 4e b5 ae a9 88 b7
       -8.17055e-14 -1.3508131e-05 -7.6997935e-07 -1.6291477e-05
0001b0 0b c3 69 30 9a ba 32 b7 4e 11 77 b1 91 25 b5 b9
       8.504208e-10 -1.0653073e-05 -3.5953067e-09 -0.00034551
0001c0 70 26 24 2f 7f 23 4a b6 3e 19 d3 af 6c 9b ad 2f
       1.4929369e-10 -3.0121007e-06 -3.8398612e-10 3.157895e-10
0001d0 6c 80 02 ad b2 d3 c6 93 2e 92 4c b7 5f ff 54 b9
       -7.41816e-12 -5.0190975e-27 -1.2193383e-05 -0.00020313029
0001e0 ae 8d d1 20 e9 5f 6e b7 c7 e6 b9 b6 a2 65 a4 b6
       3.5499733e-19 -1.4208236e-05 -5.5402957e-06 -4.8994125e-06
0001f0 c3 c3 49 b7 53 6f bf af 55 c5 05 b8 de 75 a9 ab
       -1.2026113e-05 -3.4821798e-10 -3.189345e-05 -1.2040887e-12
000200 0b 79 16 3d 97 a1 18 3d 1f b3 b5 b7 ee f9 31 3d
       0.03673653 0.03726348 -2.1660291e-05 0.043451242
000210 81 b7 fb b9 ab 63 81 ba 65 6e 13 bc 35 6e 40 3d
       -0.00048011172 -0.0009871622 -0.008998488 0.0469801
000220 08 66 c3 ba c6 60 e7 bb 64 f9 81 ba 27 8b d2 bc
       -0.0014907727 -0.007061097 -0.0009916243 -0.025701119
000230 45 fd f9 bb db dd f2 3c d8 bd 6f 3c 65 1c 00 bc
       -0.007629069 0.029646805 0.014632665 -0.00781927
000240 d5 cf ef ba 53 57 2c bc 1e 1f d7 ba 6d 29 57 bc
       -0.0018296192 -0.010518867 -0.0016412472 -0.013132435
000250 38 4e 77 bc d4 60 69 bc d2 a4 b8 bc f2 27 64 ba
       -0.015094332 -0.014244277 -0.02253953 -0.0008703462
000260 b1 01 1d 3d 8a f2 18 bb fa bb 00 bc 73 c3 ca ba
       0.03833169 -0.0023337924 -0.007857317 -0.0015469625
000270 52 dc 8f bb bd f5 01 bc c2 5a d6 bb 74 66 dc ba
       -0.004390278 -0.007932124 -0.006541581 -0.0016815201
000280 8e 3d 00 bc af 27 09 ba 51 70 9b bb a2 14 1a 3d
       -0.007827176 -0.00052320486 -0.004743614 0.037617333
000290 27 9f 56 bc fc d4 2c 3b cb cd 28 3d 87 1f 80 b8
       -0.013099468 0.0026372066 0.041211884 -6.109388e-05
0002a0 fa 40 98 b9 35 b9 2a 3d bf 1b 06 3d a6 3d 28 bc
       -0.0002904011 0.041680533 0.032741304 -0.010268604
0002b0 0e b4 a6 bb a9 90 1e 3d 6f b5 fa 3c 38 58 0d 3d
       -0.005087382 0.038712177 0.030604092 0.03450796
0002c0 4c e8 bc bc 70 25 2d bc 3c a4 c8 bc be d3 b7 bb
       -0.023059987 -0.010568008 -0.024492376 -0.0056099584
0002d0 94 1f 9d 3a d6 d9 18 9d 41 97 04 bc 57 af d2 3c
       0.001198756 -2.0229651e-21 -0.008092702 0.025718374
0002e0 b6 8a 5c 20 26 f6 fb bb e1 79 21 3d ca d6 14 3d
       1.868062e-19 -0.0076892553 0.039422873 0.03633765
0002f0 2e 02 21 3d bc c8 da bb 51 0c 84 bc 68 b6 22 bb
       0.03930872 -0.0066767614 -0.016119154 -0.002482796
000300 93 06 c8 a6 16 9c 6e a8 78 3e 69 9f b5 f9 bd 2a
       -1.387957e-15 -1.32455e-14 -4.9391342e-20 3.3746413e-13
000310 b6 16 d8 1d 89 7e 05 22 e5 d2 06 ac af 59 28 ac
       5.7198206e-21 1.8091848e-18 -1.9159615e-12 -2.392402e-12
000320 7c 05 c5 9a 87 de 62 26 8d 86 c0 20 3e 88 28 a3
       -8.148615e-23 7.871108e-16 3.2615103e-19 -9.136149e-18
000330 75 0d 85 a4 63 63 1e ae 9d 0a a7 a2 2f 23 86 a1
       -5.770235e-17 -3.6013314e-11 -4.527668e-18 -9.089506e-19
000340 4a 98 7a 9f a2 84 1c ad 90 4c 39 a7 51 0f a0 a8
       -5.306553e-20 -8.897024e-12 -2.5715412e-15 -1.777021e-14
000350 bb d2 5a ab 74 1c 49 2a ef 83 1c a3 4d e8 0e a1
       -7.7741605e-13 1.7862258e-13 -8.484715e-18 -4.841892e-19
000360 d3 bd 11 a8 5e e2 76 99 73 25 55 28 0a e0 b0 20
       -8.0902785e-15 -1.27636164e-23 1.1831996e-14 2.9963816e-19
000370 2c 32 cd a2 58 a7 70 24 f3 01 34 a5 c5 5e 7c a0
       -5.5618483e-18 5.218345e-17 -1.5613172e-16 -2.1376587e-19
000380 a1 ee 40 26 28 ee 56 99 f2 75 13 a7 c8 0c 84 26
       6.6936784e-16 -1.1111636e-23 -2.0464286e-15 9.162804e-16
000390 b5 e8 16 ac f3 d3 82 a2 1c 2f e1 2a cd 9d 93 21
       -2.144546e-12 -3.546098e-18 4.0000718e-13 1.0002877e-18
0003a0 78 ed c5 20 fb c3 22 2a a4 0a 77 a1 46 2c 21 ad
       3.3530242e-19 1.4456485e-13 -8.370094e-19 -9.161621e-12
0003b0 43 7e bd 22 a5 c7 27 2a 8e 95 60 a3 33 dd b8 ad
       5.1362237e-18 1.4901845e-13 -1.2174734e-17 -2.101661e-11
0003c0 7c 14 16 23 84 9e 61 a8 2e 89 3a 23 6d 83 06 22
       8.135854e-18 -1.2524382e-14 1.0112129e-17 1.8229963e-18
0003d0 2f e6 47 a0 c5 44 42 0c 3a 5e 01 2b 8e eb cb a9
       -1.6932117e-19 1.4965911e-31 4.596077e-13 -9.055873e-14
0003e0 0c 45 0e 1e 0f f6 ac ad 76 85 ac 26 f4 a8 60 a5
       7.531696e-21 -1.9663408e-11 1.1971072e-15 -1.9486146e-16
0003f0 59 db 97 27 25 ba 24 21 4b f8 64 af 94 f6 0a 20
       4.2148736e-15 5.581172e-19 -2.082469e-10 1.177064e-19

decoder_lin.3.bias f4 [288]
000000 fa 0a 6d bb 56 f4 4c b9 c3 66 99 3d 7f 42 91 b3
       -0.0036169873 -0.00019545978 0.07490303 -6.764184e-08
000010 3f 74 5a 3d a0 04 94 3d aa aa 05 ba f6 ee 9e 3d
       0.053333517 0.07227445 -0.0005098978 0.07760422
000020 62 25 31 3d 6a 1f 40 ba 4f f9 d3 a6 8e 13 a1 3d
       0.04324854 -0.00073289 -1.4708641e-15 0.07865058
000030 02 df ad b4 b7 dc 7f 3e 4b 28 3a 3d 87 71 7e bc
       -3.238602e-07 0.2498654 0.045448583 -0.015529997
000040 7e 58 57 3e 8c dc bc 3d 2d 3c 25 bc 41 1a 60 3d
       0.21029851 0.092217535 -0.010085148 0.054712538
000050 68 85 62 3d a0 a2 66 ba 90 de d9 3d 54 95 dc 3d
       0.055303007 -0.0008798037 0.106381536 0.107706696
000060 00 ef 2f bb 9d 73 d1 b9 63 71 5f bc 8c df 17 ba
       -0.0026845336 -0.00039949725 -0.013637873 -0.0005793504
000070 d1 7f 53 ba d6 2f a4 3c 12 a9 f1 bb de 39 8b b8
       -0.00080680574 0.020042341 -0.007374891 -6.638815e-05
000080 42 bb 38 b0 1a 61 c5 3d 24 41 d3 3d b0 ba e4 3d
       -6.720492e-10 0.09637661 0.10315159 0.1116842
000090 42 48 db ba 92 f3 98 3d dc bc 6d bc 46 16 4d bd
       -0.0016729909 0.07468332 -0.01451036 -0.05007007
0000a0 26 e3 1e a0 29 75 ab 3c ab 25 9e 3d d2 0d f6 bc
       -1.3458278e-19 0.02092989 0.07722028 -0.030035887
0000b0 7c 27 e6 b8 83 ab 24 3d 77 78 08 3e 53 3b 15 3e
       -0.00010974609 0.04020263 0.13327204 0.14573412
0000c0 e2 40 b8 3c 9a 42 22 be cd 69 97 ae 51 cf be bb
       0.022491876 -0.15845719 -6.885479e-11 -0.005823054
0000d0 c5 49 54 b9 99 99 2c ba 6d ff 63 bb 18 bf 2f 3e
       -0.00020245377 -0.0006584167 -0.0034789697 0.1716274
0000e0 01 1a 0a bb cf 3b 27 3c 22 ce 35 bd 97 a7 9b 3c
       -0.0021072628 0.010207131 -0.044386037 0.019000812
0000f0 55 6e 1b 3d d1 19 06 3e 8a 15 61 bd 52 c3 1e b7
       0.037947018 0.13095786 -0.054952182 -9.46301e-06
000100 fe a2 47 b4 e1 66 1f 3e 75 b9 e4 ba 2b 06 15 a6
       -1.8592615e-07 0.15566589 -0.001745029 -5.170312e-16
000110 d4 8b bf 3d 5f b3 10 3c e5 f6 88 3e 30 68 5c 3e
       0.09352842 0.008831828 0.26750866 0.2152412
000120 30 57 af bb 09 07 f7 3d 21 07 01 3e 7a 6f 8a ba
       -0.0053509697 0.12061889 0.12600376 -0.0010561787
000130 d4 27 56 3d b5 29 45 3e bb 92 b5 b7 01 36 ec bb
       0.052284077 0.19254191 -2.1645208e-05 -0.007208586
000140 61 04 f3 b3 22 99 99 bb cb b9 4b b9 48 77 ba b9
       -1.1316366e-07 -0.0046874443 -0.00019428802 -0.00035565556
000150 c1 0d 2e 3d d2 0b ad ac 85 17 8d b7 b3 dd 69 3d
       0.042493585 -4.918268e-12 -1.6819462e-05 0.057096194
000160 d8 58 8c 3e d1 4b 6b bd 60 b3 3b bc c7 80 36 3e
       0.27411532 -0.05744535 -0.011456341 0.17822562
000170 c9 55 8d 3b e6 7a ed bb 2a e8 b6 bc 55 d1 68 3d
       0.004313205 -0.0072473167 -0.022327501 0.05684026
000180 62 a7 59 bb 5e 96 70 be a7 23 a1 bd da 21 c4 bb
       -0.003321134 -0.2349486 -0.07868128 -0.0059854807
000190 20 55 61 ba 73 95 9e ba c6 0e b9 b9 e6 d5 02 bd
       -0.00085957535 -0.0012098983 -0.00035296957 -0.03194227
0001a0 97 8b 94 bd 38 40 c9 3d ab 45 5f 3d 75 b0 a1 3d
       -0.07253187 0.09826702 0.0545098 0.07894985
0001b0 6b bb a7 bb 04 d8 aa ba 9e 2a b0 3d 2c 8f 7c a7
       -0.0051187775 -0.0013034348 0.086018786 -3.5049639e-15
0001c0 29 72 a8 bd cf 46 5c bc 38 cf 94 3c 8d bb 3c bb
       -0.08224899 -0.013444616 0.018165216 -0.0028798312
0001d0 03 bb 60 3e a1 8e 73 bc 20 aa 96 bb 99 fe 38 bc
       0.2194634 -0.014865548 -0.004597917 -0.01129117
0001e0 d6 0e 9e bb 8b 3c 96 3d 6d 17 5f ba 85 6a f4 ba
       -0.004823546 0.073357664 -0.00085102656 -0.0018647468
0001f0 c5 8e 93 b8 57 52 63 bc 2a 59 7b bc 58 7f 84 3c
       -7.036099e-05 -0.013874612 -0.015341083 0.016174003
000200 b5 3b ba bd 79 11 1b bb 78 a4 1e b7 db fd 32 3e
       -0.090934195 -0.0023661538 -9.455827e-06 0.1747965
000210 3b b6 84 b5 97 e7 4d be a0 f9 55 3e 6f d5 1a bc
       -9.887802e-07 -0.20107876 0.20896006 -0.009450301
000220 18 fb c3 bc 2d 20 93 3c 68 af 86 ba ab 16 2a bd
       -0.023923442 0.017959679 -0.0010275664 -0.041525524
000230 ab 08 59 3d f8 32 af a2 88 c0 66 bc 90 dd de b5
       0.052986782 -4.748781e-18 -0.014083989 -1.6604772e-06
000240 95 0f 1a 3d f7 b8 a3 3d 08 92 6b 3d 11 8a 6d b9
       0.037612516 0.079942636 0.057512313 -0.00022653515
000250 7b be 46 ba 6d 5b a6 bb dd 8d 6c ba cc 92 17 bd
       -0.00075814844 -0.005076817 -0.0009023825 -0.03700523
000260 70 10 90 b7 cc 0e 4c 3d 20 eb 2e bc 9d c1 90 3c
       -1.7173792e-05 0.0498188 -0.010676175 0.017670447
000270 89 68 59 3d 1c c6 a7 bb 4c 56 43 bd 16 6e ae 3d
       0.053078208 -0.005120052 -0.04768972 0.08517091
000280 3b a6 43 3c 5e 59 c2 ba 5a 92 31 3d 05 d5 89 bd
       0.011941488 -0.0014827659 0.043352462 -0.067300834
000290 62 1b 9d bc 24 bf 20 3d 38 18 1d bd 8c 45 c1 b1
       -0.019178096 0.039244786 -0.038353175 -5.624946e-09
0002a0 b1 56 b5 3c a4 5d ac ba 12 af 53 bd f1 0d a7 bc
       0.022136064 -0.0013150466 -0.051680632 -0.02039239
0002b0 63 55 41 bc 12 c3 f1 ab 82 e0 67 ba 1d df db 3d
       -0.011800143 -1.7178223e-12 -0.0008845405 0.10735915
0002c0 fc 67 81 3d a7 82 b7 b9 66 b4 b1 bb e8 7f 63 3b
       0.063186616 -0.00035001824 -0.0054231165 0.003471369
0002d0 66 29 4b b9 9e e4 a9 3a 83 a1 67 3b 9b 2d 5a bc
       -0.00019375011 0.001296181 0.0035344071 -0.013316537
0002e0 93 da 59 3d ac 93 b5 3c 68 23 2d b2 25 18 94 bc
       0.053186964 0.022165142 -1.0077976e-08 -0.01807792
0002f0 06 3b a8 b9 6e bd 02 ab 1f 6f 99 b4 d6 d3 d9 3d
       -0.00032087433 -4.6448164e-13 -2.8579322e-07 0.106361076
000300 ac 8b 5b bc ea 71 80 3b 86 be be 3d cd 20 12 3c
       -0.0134 0.0039198296 0.09313683 0.008918953
000310 46 1d 8f bd fa ab 8b 3d 9f a5 82 3c 74 b9 67 b9
       -0.06988005 0.06819911 0.015948115 -0.00022098963
000320 52 fd 95 3d f1 a4 c9 b0 04 45 78 3d 9b 75 c6 ba
       0.07323708 -1.4671554e-09 0.060612693 -0.001514125
000330 39 da f0 3c b5 e1 c8 b1 6a 78 1e 3c 90 86 7e b8
       0.029400932 -5.846426e-09 0.009672264 -6.068364e-05
000340 39 4c 35 bc d4 e3 33 3d e3 a1 db b7 6d f9 ad bd
       -0.011065536 0.043918446 -2.6182219e-05 -0.0849484
000350 37 68 a9 bd 4f 5a a1 3c f0 e1 3b 3e d0 31 06 3e
       -0.082718305 0.019696383 0.18347907 0.1310494
000360 98 6c 30 3d a2 84 0d ab b6 40 c5 3a fc 85 87 3d
       0.043072313 -5.027733e-13 0.0015049193 0.06617352
000370 b4 a2 f0 b9 7e 16 83 ac 48 28 c5 3d 57 60 84 3c
       -0.0004589759 -3.725741e-12 0.09626824 0.01615922
000380 2e 4f 43 b6 d3 fd 80 3c 46 cc fe bc 8c b9 d0 b7
       -2.9103353e-06 0.015746033 -0.031103265 -2.4881934e-05
000390 8e ce 6c bb 12 c7 c9 bb 94 a0 06 bd e3 07 48 bb
       -0.0036133858 -0.0061577642 -0.032867983 -0.003052228
0003a0 62 13 ae bc 8d fb ab b9 ab 7a 59 ba 86 82 01 3d
       -0.021249477 -0.00032803082 -0.0008296172 0.031618617
0003b0 75 b7 7a 3a ed ec a3 bc 37 8e fc 3d 1f 15 a1 b8
       0.00095640804 -0.020010436 0.12331813 -7.681012e-05
0003c0 56 be 10 b2 37 99 1d bd 05 30 89 bb f8 28 28 bc
       -8.4251806e-09 -0.038476195 -0.0041866326 -0.010263674
0003d0 19 76 56 bd 02 24 f5 af 2e e4 cf bc 38 18 2c 3e
       -0.05235872 -4.4590825e-10 -0.02537736 0.16806114
0003e0 4d d5 6a b5 55 94 98 3d ff 48 15 3e fb e4 90 bd
       -8.7482186e-07 0.07450167 0.14578627 -0.070749246
0003f0 d3 2d 82 bc a3 16 c8 b7 98 66 ae 3d 5d 6a 0b bd
       -0.015890991 -2.3852399e-05 0.08515662 -0.034036983
