Nicola_Dainese_Ex4_NN/params/occluded_net_params_8.pth (torch_old, 203909 bytes, 19 tensors)

encoder_cnn.0.weight f4 [8, 1, 3, 3]
000000 99 66 fe bd cf 6c 36 be a0 d1 17 be 71 d3 7a be
       -0.12421913 -0.17814945 -0.1482606 -0.24494721
000010 39 3b 8a be 24 bf 85 be b1 01 13 be 70 ff 44 be
       -0.26998308 -0.2612239 -0.14356114 -0.19238067
000020 e4 9f 35 be 4e 4e f0 bd eb 21 34 be f3 cc 13 be
       -0.17736775 -0.117336854 -0.17591064 -0.1443365
000030 0b d1 7a be 80 e4 8b be 8a 0b 87 be 9e a0 15 be
       -0.24493806 -0.2732277 -0.2637599 -0.14612052
000040 81 31 49 be 36 1e 38 be e3 13 f3 3e d7 1e 3f 3f
       -0.1964779 -0.17980275 0.4747611 0.7465643
000050 79 60 2f 3f fb ce 38 3f 79 46 6c 3f 2f 7c 46 3f
       0.6850658 0.7219083 0.9229503 0.7753324
000060 8a 83 0e 3f f3 09 2e 3f 78 53 e6 3e 46 f0 90 bd
       0.5566946 0.6798393 0.44985557 -0.070770785
000070 48 c5 0d be 9d 68 de bd da b9 73 be 0e 8d 8c be
       -0.13844788 -0.10859797 -0.23801365 -0.27451366
000080 d8 8d 86 be 8d a1 2a be e4 0e 64 be 5b fe 50 be
       -0.26280093 -0.16663189 -0.22271305 -0.20409529
000090 20 c1 e9 b2 22 cb 08 b3 40 21 2b b1 f9 69 0a b3
       -2.7212593e-08 -3.1849716e-08 -2.4902675e-09 -3.222701e-08
0000a0 8e f4 be b2 86 1b 64 31 17 89 bc b2 f1 39 4d b2
       -2.2230122e-08 3.3194012e-09 -2.1948422e-08 -1.1945745e-08
0000b0 f6 4b f2 31 3d 9e 0a ba 1f b7 f3 b9 f6 2b 78 b9
       7.0517627e-09 -0.00052878616 -0.00046485008 -0.000236675
0000c0 01 53 04 ba ed b1 e0 b9 62 6f 6e b9 49 a7 fd b9
       -0.0005047769 -0.00042857174 -0.00022738942 -0.00048380558
0000d0 2b e8 a5 b9 43 51 2f b9 5d 49 9c bd 75 d2 14 be
       -0.0003164423 -0.00016719573 -0.076311804 -0.14533408
0000e0 6c de e5 bd f6 c9 70 be 41 33 8c be 5f f1 84 be
       -0.11224064 -0.23514542 -0.27382854 -0.25965402
0000f0 42 62 22 be 13 1a 5d be 8f 89 45 be 4d e1 c7 bd
       -0.15857795 -0.21591978 -0.19290756 -0.097597696
000100 e0 ae 25 be c7 6d 05 be 09 9a 74 be fa 10 8c be
       -0.16179991 -0.13030158 -0.23886885 -0.27356702
000110 eb fd 85 be 48 62 1c be 50 94 53 be e8 6b 3f be
       -0.26170287 -0.15271866 -0.20662045 -0.18693507

encoder_cnn.0.bias f4 [8]
000000 fc 1d 84 3f 04 15 85 3f 0e f8 05 ba 36 96 84 3f
       1.032165 1.0397038 -0.00051105104 1.0358341
000010 9e d2 8e b1 a1 84 37 b9 05 a9 84 3f 24 c9 85 3f
       -4.1566883e-09 -0.00017501648 1.0364081 1.0452008

encoder_cnn.3.weight f4 [16, 8, 3, 3]
000000 66 77 11 31 57 08 4d 31 0b b5 d1 31 9e a5 15 32
       2.1168147e-09 2.9836167e-09 6.1032828e-09 8.7105985e-09
000010 b2 97 1c 32 b4 73 f0 31 da 86 19 32 3c 63 0c 32
       9.114887e-09 6.9980732e-09 8.936434e-09 8.171636e-09
000020 ab 32 9f 31 c9 92 27 31 ec ff 8d 31 82 a3 e5 31
       4.6332693e-09 2.4385136e-09 4.132735e-09 6.683366e-09
000030 54 5e 1d 32 31 d0 21 32 cf cd 02 32 a3 40 1a 32
       9.1600505e-09 9.418771e-09 7.613791e-09 8.9786765e-09
000040 24 6e 05 32 95 97 9a 31 9b 68 27 31 e3 bb e4 31
       7.766662e-09 4.4992228e-09 2.436116e-09 6.6570336e-09
000050 c8 00 23 30 e3 1f 15 31 af 6f a9 31 01 66 8f 30
       5.9300165e-10 2.170048e-09 4.9312443e-09 1.0433611e-09
000060 49 ba ce 31 b3 7b 6a 31 2a 6f b7 31 71 63 17 31
       6.0165672e-09 3.4121796e-09 5.338639e-09 2.2029918e-09
000070 71 00 8d 31 da 36 d2 31 ce 21 14 32 c1 fc 1c 32
       4.1036903e-09 6.1180403e-09 8.62242e-09 9.137865e-09
000080 b9 9b d7 31 2e a9 13 32 1b 70 f3 31 a4 3b 9b 31
       6.275027e-09 8.594993e-09 7.0849757e-09 4.517874e-09
000090 66 3f 8c a7 ab e0 a7 26 74 19 c2 26 cc 64 1e a6
       -3.8926543e-15 1.1648849e-15 1.3468353e-15 -5.4953867e-16
0000a0 5c 3a 36 27 2f 2c 49 27 9b 00 90 25 65 f2 1c 27
       2.528921e-15 2.7918305e-15 2.4980428e-16 2.1780751e-15
0000b0 67 e3 f5 26 88 ba f9 2a 0a ee b9 2a ff b7 8f ac
       1.7061928e-15 4.4360717e-13 3.3027774e-13 -4.084732e-12
0000c0 1c b9 3f 2a 94 77 66 ac 7c 8b 3c ac 4a f0 3b 2c
       1.702843e-13 -3.2751345e-12 -2.6793836e-12 2.6707686e-12
0000d0 f1 33 5d ac f7 55 1a ac 7a 1a 68 31 05 e4 95 31
       -3.1434822e-12 -2.1932436e-12 3.3775494e-09 4.3623936e-09
0000e0 e5 ec e3 31 04 14 21 32 76 78 23 32 15 30 e5 31
       6.6335013e-09 9.375984e-09 9.515238e-09 6.6702435e-09
0000f0 f8 ce 0e 32 2f 80 f5 31 78 0d 96 31 a8 d0 4f 31
       8.312547e-09 7.1450112e-09 4.367106e-09 3.0241072e-09
000100 39 53 a0 31 1e 01 e0 31 8a e6 18 32 0a 2f 1d 32
       4.666074e-09 6.519385e-09 8.899983e-09 9.149298e-09
000110 fb 32 f5 31 69 f3 17 32 35 b2 00 32 1e ab 99 31
       7.1362343e-09 8.844702e-09 7.4911e-09 4.47234e-09
000120 e0 8c cd 39 ce d9 c2 b9 8e f6 12 ba 14 46 12 ba
       0.00039205607 -0.0003716484 -0.00056061975 -0.00055799005
000130 62 36 46 ba b4 2a 6b ba c0 60 1c ba 20 c1 41 ba
       -0.0007561204 -0.0008970902 -0.00059653446 -0.00073911436
000140 6f 12 62 ba 6d 05 e9 39 c3 dd c7 b9 3d 5d 18 ba
       -0.00086239626 0.00044445266 -0.00038121463 -0.00058122334
000150 ed 29 20 ba c2 08 56 ba 90 30 6e ba 41 d5 22 ba
       -0.0006109763 -0.0008164757 -0.0009086216 -0.0006211587
000160 58 14 44 ba 22 b6 67 ba 68 e4 3d bb 68 ed 76 bb
       -0.0007479838 -0.00088390906 -0.0028975252 -0.0037678126
000170 d9 f0 84 bb d1 a3 5b bb bc ff 52 bb 93 ba 59 bb
       -0.0040570316 -0.003351439 -0.0032195887 -0.003322278
000180 c1 6c 7c bb 51 81 59 bb 8a b5 29 bb 0c e1 a3 39
       -0.003851697 -0.003318865 -0.002589556 0.00031257456
000190 84 61 c5 b9 f3 91 1a ba 3b 18 1c ba ff 8a 50 ba
       -0.00037647423 -0.0005896382 -0.00059545384 -0.00079552823
0001a0 73 2b 6e ba c4 ed 1d ba 58 d4 3d ba 03 52 6a ba
       -0.0009085454 -0.00060245045 -0.00072414195 -0.00089386123
0001b0 15 da dd ae 5e e8 49 b5 c0 09 6f ad ff ee 93 2b
       -1.00886556e-10 -7.5216474e-07 -1.3587742e-11 1.0511313e-12
0001c0 ac 87 ab 35 69 12 a8 2d 1d c4 9f ae 45 77 22 b8
       1.2779979e-06 1.9107564e-11 -7.2653196e-11 -3.873489e-05
0001d0 2d 9c 99 ae 52 ca 88 36 c9 66 58 b4 34 46 fe 34
       -6.985377e-11 4.076669e-06 -2.015396e-07 4.7362266e-07
0001e0 16 84 49 b4 b7 a1 1f b8 85 5c ea b4 32 b9 85 b5
       -1.8767636e-07 -3.8059163e-05 -4.3653213e-07 -9.963171e-07
0001f0 0e 9a 4f b5 2a a7 3f b4 1a d4 ab 39 2d 3d c2 b9
       -7.733769e-07 -1.7849075e-07 0.0003277369 -0.00037048143
000200 34 f9 20 ba d4 23 24 ba 6a 18 52 ba b9 09 6e ba
       -0.000614065 -0.00062614423 -0.0008014502 -0.0009080428
000210 f7 bd 23 ba 4b cd 45 ba 6a 07 70 ba 8a 62 e0 39
       -0.00062462635 -0.00075455446 -0.0009156378 0.00042798027
000220 2b ea de b9 b8 0d 1b ba 86 fb 2c ba 32 28 56 ba
       -0.00042517608 -0.0005914825 -0.0006598759 -0.0008169442
000230 84 fc 74 ba 8a 81 2b ba 3c 06 4c ba 4d 0c 6f ba
       -0.0009345489 -0.0006542435 -0.00077829114 -0.00091189594
000240 b8 18 c6 bd 21 66 d1 bd b7 bb 13 bd 0b 4c ef bc
       -0.096726835 -0.10224558 -0.03606769 -0.029211065
000250 b6 4e d7 3d 83 bb 05 3e 31 9b 4f 3d ad 48 27 3e
       0.1051306 0.13059811 0.05068511 0.16336317
000260 42 1e 1e 3e 8f fc bf bd ec c1 d2 bd 2d 13 10 bd
       0.1544123 -0.093743436 -0.10290894 -0.035174537
000270 82 1f ee bc a5 c2 d9 3d eb da 06 3e 65 ab 4a 3d
       -0.029067758 0.106328286 0.13169448 0.04947986
000280 cb 55 2b 3e e3 dd 1b 3e af d3 01 3f 09 24 12 3f
       0.16731946 0.15221362 0.5071363 0.57086235
000290 0b 5f d4 3e 28 47 ab 3e 28 05 a2 bc 8c 08 23 be
       0.41478762 0.33452725 -0.01977785 -0.15921229
0002a0 38 b8 f6 3d cf 05 86 be 10 f1 8b be 6a b9 b9 bd
       0.12046856 -0.26176307 -0.27332354 -0.09068568
0002b0 e7 e5 b2 bd 0f de ac bc 8c 76 92 bc be ed f9 3d
       -0.08735257 -0.02110198 -0.017878793 0.12203549
0002c0 6d 12 10 3e 42 98 4b 3d 10 57 24 3e 5e 7e 13 3e
       0.14069529 0.04970575 0.16048837 0.14403674
0002d0 71 63 9c 33 a1 58 94 32 7b 95 96 b2 c8 1d ac b2
       7.2824044e-08 1.7269771e-08 -1.7530274e-08 -2.0036978e-08
0002e0 31 2d 28 32 45 de 87 b0 44 a0 e3 32 4c 87 03 32
       9.789162e-09 -9.885716e-10 2.6499158e-08 7.6559665e-09
0002f0 26 13 a9 32 bf 28 b1 b8 1d a2 94 b9 03 e7 cf b8
       1.9682897e-08 -8.447607e-05 -0.00028349544 -9.9135585e-05
000300 7e 28 c4 b8 d2 16 20 b8 4a c5 d6 b8 76 14 a8 38
       -9.3535506e-05 -3.8168226e-05 -0.00010241063 8.0146754e-05
000310 c8 a8 69 b8 8a e2 ce b8 4d a7 ba bd c2 57 ba bd
       -5.570872e-05 -9.865042e-05 -0.09113941 -0.0909877
000320 57 f8 bb bc 21 cd 9c bc 80 28 f1 3d 8c cb 0b 3e
       -0.022945566 -0.019140782 0.11775303 0.13651866
000330 97 cd 4d 3d c3 52 22 3e 1b c2 14 3e d1 bf bd bd
       0.050244894 0.15851884 0.1452717 -0.09265102
000340 b5 18 c5 bd a5 42 f8 bc 37 18 c9 bc ac 4f e5 3d
       -0.09623853 -0.030305216 -0.02454768 0.11196837
000350 52 d6 0a 3e 0a e4 4e 3d 22 3c 29 3e 70 38 19 3e
       0.13558319 0.050510444 0.16526845 0.14962935
000360 9e 05 04 bb ec 41 ad bc c2 d2 68 3c a2 1a 28 bd
       -0.002014495 -0.021149598 0.014210405 -0.041041024
000370 7d 33 c1 bd 5b 73 c5 bc ae 7a 00 bd 1c 6c 25 bd
       -0.09433649 -0.024102857 -0.031366996 -0.040386304
000380 a1 fe 12 3c 75 6a 0c bb 93 b1 bf bc a4 8f 5d 3c
       0.008971841 -0.0021425758 -0.023400104 0.013523016
000390 16 c5 2c bd 0c c2 c3 bd 6a 34 b7 bc d2 52 fc bc
       -0.042180143 -0.09558496 -0.02236386 -0.03080121
0003a0 6f 22 24 bd 20 0b 06 3c 50 57 e0 3d 10 f5 02 3e
       -0.0400719 0.008181363 0.109541535 0.12788796
0003b0 f3 51 8f 3d fe 4f 28 3e 08 82 5b 3e 65 f3 0c 3e
       0.069980524 0.16436765 0.21436322 0.13764723
0003c0 d8 c9 1b 3e 8d f1 2c 3e 82 29 c6 3d 12 a4 38 bb
       0.15213716 0.1688902 0.09675886 -0.0028173965
0003d0 79 8c e4 bc 53 1b 1d 3c 72 8b 39 bd a1 c2 c9 bd
       -0.027899014 0.009589034 -0.045299 -0.09851576
0003e0 10 5c cb bc ba 4d e3 bc 99 84 0b bd bd 0c 47 3c
       -0.024824172 -0.027747024 -0.034062 0.012149033
0003f0 2f c6 ee b0 b0 a0 f3 b1 7f 36 cb b1 3f 4e a5 b1
       -1.7373106e-09 -7.090499e-09 -5.914273e-09 -4.8110276e-09

encoder_cnn.3.bias f4 [16]
000000 57 67 19 b6 c7 83 b9 ba d0 e8 6a 3d a1 66 5a 3c
       -2.2858928e-06 -0.0014153653 0.057350934 0.013330133
000010 3f 16 55 b2 d3 33 c9 3d 55 37 01 3e e4 b9 91 3d
       -1.240329e-08 0.09824338 0.12618764 0.07115534
000020 cf 2b 15 3e a0 49 bb 3d 27 e6 d8 3d 4c 5f 07 b8
       0.14567493 0.09144902 0.10590773 -3.227526e-05
000030 46 a7 fb b7 27 a0 b1 b7 7c 3c 5e ba fb b9 36 b3
       -2.9999424e-05 -2.1174621e-05 -0.0008477641 -4.2544325e-08

encoder_cnn.6.weight f4 [32, 16, 3, 3]
000000 9b 4a 73 31 0d dd 78 b1 6a 8d 4d 31 48 da 15 31
       3.5403562e-09 -3.6214403e-09 2.991181e-09 2.1806432e-09
000010 49 da 18 b1 af e8 94 31 bc 08 67 b0 17 fd 06 31
       -2.2242992e-09 4.33382e-09 -8.404972e-10 1.9643431e-09
000020 61 af af b0 56 2f 84 3a df ea b6 3a 2e 97 12 3a
       -1.2782772e-09 0.0010084908 0.0013955495 0.00055919855
000030 98 af 9e 3a 99 4f fe 39 e7 02 f2 39 07 f9 7f 3a
       0.0012106774 0.0004850596 0.0004616 0.0009764586
000040 df 77 99 3a 50 af 5a 3a 02 6d 80 bd 19 dc 43 3e
       0.0011708698 0.00083421636 -0.062707916 0.1912693
000050 7e 25 1f 3c 33 85 98 bd dd da 90 be d6 4e 41 bd
       0.009713529 -0.07447281 -0.2829198 -0.047194324
000060 01 3a e2 bc 63 95 69 bc 2f d8 e9 bd 24 f5 8e bd
       -0.027615549 -0.014256808 -0.11418187 -0.069803506
000070 7b b8 b6 bd 86 2b 34 bd 47 88 c3 bc 69 8d 48 bd
       -0.089219056 -0.04398682 -0.023868693 -0.048962984
000080 88 52 18 bd e2 4f 15 bd 2d cf 2c bd 5b 88 95 bb
       -0.037188083 -0.036453135 -0.042189766 -0.004563374
000090 d0 6f 8c ad 1a 2d 20 2e 96 6d 62 2c 92 8e a7 ae
       -1.5965812e-11 3.6419846e-11 3.2177364e-12 -7.619606e-11
0000a0 23 bf 2b 2e 90 39 aa 2d 1b 53 71 ad cb fa 6b 2c
       3.9050662e-11 1.9352325e-11 -1.3717717e-11 3.3534727e-12
0000b0 1f 83 38 2d 47 ec ec 3c 02 c7 72 3e fe 47 41 bd
       1.0488304e-11 0.02892126 0.23708728 -0.047187798
0000c0 cc e0 a8 bc 44 c6 e2 bd ef a4 ef 3c 9c 73 06 3d
       -0.020615004 -0.110729724 0.029253451 0.032825097
0000d0 94 0b 47 3c 05 f0 91 bd c8 09 10 3d cc 62 d3 3d
       0.0121487565 -0.07125858 0.035165578 0.103215784
0000e0 f4 9f f9 3c 50 fa 1f bd 54 b9 2e 3e 08 e1 ed bc
       0.03047178 -0.039057076 0.17062885 -0.029037967
0000f0 65 b3 9f 3d 08 48 8e 3d a7 3c b7 3d c3 36 8f bd
       0.07797889 0.069473326 0.089471154 -0.06992867
000100 a9 e1 85 3e a2 1e 81 bd 21 a7 9b bd 39 6b 11 3e
       0.26148728 -0.06304671 -0.07600237 0.14201058
000110 49 2f 65 bc 23 9d a0 3d 78 4c 15 3d a8 66 ac 3d
       -0.013988324 0.078424715 0.03644988 0.084180176
000120 b5 ee 7f 3d be 62 87 3e fa 19 9c 3d 66 c8 82 3c
       0.06248351 0.26442522 0.07622142 0.015964698
000130 48 50 45 3d c8 ae 24 3d c2 5a 92 3d a3 33 85 3d
       0.048172265 0.040205747 0.07146217 0.065039895
000140 f0 fd ed 3c 2b 89 d9 bc b0 73 8f 3e 80 62 a5 bc
       0.02905175 -0.026554665 0.2801795 -0.02018857
000150 b9 b0 0f bd f6 45 09 bc 6a 31 05 3d 43 b3 69 3d
       -0.035080645 -0.008378496 0.032517828 0.057055723
000160 6b f9 14 3d e3 65 76 3c 04 5c 2c 3d f9 16 55 bc
       0.036370676 0.01503894 0.04207994 -0.013005965
000170 2b 7a 84 bc 23 ef 9b bd 08 78 73 3e e9 ee 12 bd
       -0.016171535 -0.07613971 0.23776257 -0.035872374
000180 3e b5 4f 3d 4b 2a 41 3d 4a 3f d1 3d 75 6e 18 b8
       0.050709955 0.047159474 0.102171496 -3.6342495e-05
000190 e3 9e 67 38 4e 67 da 36 5c 6b c9 b7 4e 23 27 38
       5.5222667e-05 6.5089325e-06 -2.401106e-05 3.9848783e-05
0001a0 80 81 62 b7 f6 e2 02 37 8b ed 0c 35 59 73 46 37
       -1.3500801e-05 7.801447e-06 5.2499735e-07 1.1828576e-05
0001b0 0e 0c 71 b6 5a c0 ad 36 67 17 06 37 e3 be 31 b6
       -3.5918815e-06 5.1781944e-06 7.992471e-06 -2.6486166e-06
0001c0 72 9a de 36 bb e3 12 37 ac 93 c0 35 55 15 c5 36
       6.6340954e-06 8.755301e-06 1.4348093e-06 5.873541e-06
0001d0 01 76 0a 37 75 2e f8 b6 96 fa 24 36 04 10 8e b6
       8.252916e-06 -7.3963843e-06 2.4583765e-06 -4.2337942e-06
0001e0 54 e5 58 b7 20 05 99 b6 d3 5c 4f b6 72 d6 b5 b6
       -1.2927998e-05 -4.560352e-06 -3.0899434e-06 -5.419185e-06
0001f0 a0 9f 0f b7 78 6c 43 b6 82 80 e3 37 96 dc fe b8
       -8.56063e-06 -2.9120401e-06 2.712035e-05 -0.00012152751
000200 06 68 1c b9 99 33 23 38 21 33 f7 b8 20 56 71 b9
       -0.00014916071 3.8910282e-05 -0.00011787401 -0.00023015635
000210 de 07 cb 37 d8 e1 5e b9 95 f4 c3 b8 d4 4b 5b b0
       2.420315e-05 -0.00021255703 -9.3438815e-05 -7.9779494e-10
000220 b8 a1 ca 30 b8 0d 03 b0 8c 32 de b0 e6 9a fe 2f
       1.4743398e-09 -4.767702e-10 -1.6166992e-09 4.6312393e-10
000230 97 d7 08 31 3c 3a dc 30 1d 57 27 31 b6 be b4 30
       1.9913153e-09 1.6023658e-09 2.4351217e-09 1.3150927e-09
000240 73 d5 00 00 60 0c 00 00 06 94 00 80 e3 a5 00 00
       7.6571e-41 4.44e-42 -5.3101e-41 5.9509e-41
000250 a7 69 00 00 4b d4 00 00 2a 17 e4 a0 8d 71 01 00
       3.7901e-41 7.6156e-41 -3.864003e-19 1.3257e-40
000260 4a 1d 01 80 31 6f 85 a8 a3 23 a5 33 0b 3e 21 a9
       -1.02342e-40 -1.4814188e-14 7.6898935e-08 -3.5802995e-14
000270 5d 6b 3b a9 33 e5 88 a7 c4 dc e2 a8 e7 62 1e b3
       -4.1615464e-14 -3.799608e-15 -2.5186782e-14 -3.6877193e-08
000280 93 97 94 a9 63 8b 25 28 5e f1 6a 28 e2 3e bc 2c
       -6.598814e-14 9.189565e-15 1.30419476e-14 5.3502628e-12
000290 a3 8e 4e 2c e6 86 44 2b ec 7c 8c 2b 8a e1 e7 2b
       2.935354e-12 6.98204e-13 9.982271e-13 1.6476137e-12
0002a0 47 67 e7 2a 69 cb ad ad 52 dd d3 2c 79 58 2f 2b
       4.1105506e-13 -1.9758155e-11 6.021552e-12 6.229527e-13
0002b0 4a b1 af ab 19 4b cd ab 6d f1 f6 aa 98 cb fd ab
       -1.2483705e-12 -1.458697e-12 -4.38659e-13 -1.803324e-12
0002c0 39 3a cd ab 47 64 08 ab d9 b2 7e ab c6 52 ad ab
       -1.4582286e-12 -4.845607e-13 -9.048713e-13 -1.2315364e-12
0002d0 4f 4b 01 80 59 2b 01 80 fc 19 01 80 88 2f 01 80
       -1.18851e-40 -1.07386e-40 -1.01157e-40 -1.08886e-40
0002e0 cc ff 00 80 6e fa 00 00 d2 87 01 80 fc 6b 01 00
       -9.1763e-41 8.9837e-41 -1.40559e-40 1.30573e-40
0002f0 84 1d 01 80 f9 34 dc 2a 81 40 45 2c 5b 39 f0 aa
       -1.02424e-40 3.9116608e-13 2.803119e-12 -4.2672362e-13
000300 e4 2d 15 2a 08 b3 2d 2b 7a 4e b0 2a 19 54 b6 2b
       1.324978e-13 6.17104e-13 3.1318334e-13 1.295522e-12
000310 0c 7d 4d ad 1f d2 13 2b 5b eb 69 2b 28 96 b2 2c
       -1.1680667e-11 5.251649e-13 8.310485e-13 5.075735e-12
000320 68 d7 9a 2c 0a 0a c8 2c f8 19 ce b0 1e 10 d1 af
       4.400858e-12 5.6854564e-12 -1.4995853e-09 -3.802833e-10
000330 9c 23 83 2b f6 bf 40 ae 9a 03 a0 ae 58 ea 04 2a
       9.317993e-13 -4.382624e-11 -7.2765974e-11 1.180526e-13
000340 34 8a 93 2c 47 da 87 aa 15 2e 10 2b a6 18 eb ad
       4.193335e-12 -2.4132278e-13 5.122303e-13 -2.6727353e-11
000350 5a 18 8a 2b 6d 05 c9 2a fc 98 a9 2c 94 5a 2f 2b
       9.812249e-13 3.5708537e-13 4.8202536e-12 6.229819e-13
000360 bd 84 40 ae fe d2 12 b1 18 af 3e b0 e5 f2 07 ae
       -4.377364e-11 -2.1365731e-09 -6.937042e-10 -3.091118e-11
000370 50 71 72 b1 12 70 ff af f0 25 27 ae b3 05 bb b1
       -3.5280046e-09 -4.646386e-10 -3.80051e-11 -5.443064e-09
000380 6f 9e 30 b1 4d ce 97 2c dc 19 7a ae 0b 49 b1 2c
       -2.570143e-09 4.314582e-12 -5.6866387e-11 5.038752e-12
000390 8c 33 91 2a 04 b4 38 ad 36 90 3e 2a 16 61 3c 2c
       2.5792942e-13 -1.0499161e-11 1.6925423e-13 2.67703e-12
0003a0 56 38 1d af 6c 49 94 2c 44 48 c5 2b 88 c1 1f aa
       -1.4299081e-10 4.2145645e-12 1.401775e-12 -1.4189182e-13
0003b0 6f 05 61 aa be e0 7e 2c d8 87 6d b0 5a 05 ba af
       -1.99859e-13 3.6220328e-12 -8.6413143e-10 -3.3837005e-10
0003c0 2e 14 9f 2b 39 90 ac 2c 2c 66 9e 2c 27 bc a9 a4
       1.130323e-12 4.904546e-12 4.5019734e-12 -7.361081e-17
0003d0 1f d8 28 1d 38 3f 00 00 b3 66 05 a4 f8 0d 01 80
       2.2346347e-21 2.2679e-41 -2.8926767e-17 -9.6847e-41
0003e0 32 17 01 80 11 77 63 a5 9b b9 02 a5 31 cb 18 1d
       -1.00156e-40 -1.9729453e-16 -1.1338588e-16 2.022208e-21
0003f0 73 7b ed a5 27 73 b1 a2 b6 d4 07 a3 eb 33 36 a5
       -4.11966e-16 -4.809787e-18 -7.363408e-18 -1.5803574e-16

encoder_cnn.6.bias f4 [32]
000000 2d 15 29 3c ab c0 a6 ad 99 55 1f 3b e6 48 a0 3c
       0.01031999 -1.8957577e-11 0.0024312495 0.01956601
000010 28 b6 6a b2 d9 14 fe b9 d0 7b 7b b2 8e c9 cd 3b
       -1.366201e-08 -0.00048462188 -1.4638275e-08 0.0062801307
000020 e5 c3 a5 3c 9d 93 47 bb 97 64 c5 3b c9 8e e3 b3
       0.020235011 -0.0030452975 0.006023954 -1.0596484e-07
000030 bc 73 c4 b5 a5 32 84 bc e6 09 74 bb 7d 5e 80 b4
       -1.4636821e-06 -0.01613743 -0.0037237345 -2.3910607e-07
000040 2b da 64 b4 fb 23 45 b7 2b 2e a4 aa ab bc e9 3a
       -2.1313524e-07 -1.1750492e-05 -2.9164288e-13 0.0017832717
000050 3c d3 d0 ad c4 7e 60 3b 1c 4b b0 3c 38 77 79 b5
       -2.374067e-11 0.0034255246 0.02152019 -9.2933215e-07
000060 4f 8f a0 bc ec c2 e3 b1 a9 67 7d 28 9a 1e 9c 3c
       -0.019599585 -6.6287296e-09 1.4066799e-14 0.01905756
000070 e2 93 0a b6 92 02 85 bc 71 58 d5 3b 4c da 07 b8
       -2.0649682e-06 -0.016236577 0.006510787 -3.2389813e-05

encoder_lin.0.weight f4 [64, 288]
000000 ea be b4 3b b2 aa 47 3c fd 5f 2c 3c b6 e1 69 bc
       0.005515923 0.012186693 0.010520932 -0.014275005
000010 5c 0d 8b 3e 78 02 67 3d 4f 4f 89 3c 75 6e d0 3d
       0.2715863 0.05639884 0.01676145 0.10177318
000020 7e 1a 69 3c 2e 68 83 a6 b8 49 b1 a5 14 5f 13 a4
       0.014227508 -9.118189e-16 -3.075456e-16 -3.1956078e-17
000030 94 21 82 26 8b e9 f5 ac e2 7b cb a5 6d c3 6c 26
       9.029663e-16 -6.9892473e-12 -3.5298833e-16 8.21438e-16
000040 e8 8b b2 a9 07 bd 9c a6 3d 64 67 bc 3d 60 98 3d
       -7.929058e-14 -1.087591e-15 -0.01412302 0.07440231
000050 f6 fa 8c bd a1 f3 32 b9 7c bf 31 be 02 d5 17 bd
       -0.068838045 -0.00017066162 -0.17358202 -0.037068374
000060 be b5 ee 3b 4f a1 80 bc 72 85 db 3b f4 dd 51 bd
       0.007284849 -0.015701918 0.0066992575 -0.05123706
000070 ba 1a 9e 3c e7 f5 09 3e 5a 74 55 3d 16 c5 1a 3d
       0.019299854 0.1347271 0.052112915 0.037785612
000080 0d 09 96 3d f3 ab a4 3b ce 7e 11 3d f4 a9 0a 3d
       0.07325945 0.0050253808 0.03552132 0.033853486
000090 ff fe c8 b1 66 03 c4 b1 c5 fa ee b0 b6 b8 ee b1
       -5.849756e-09 -5.704737e-09 -1.7388052e-09 -6.947711e-09
0000a0 90 70 c8 31 73 ae 64 b1 84 77 c9 b1 4f 99 2b 31
       5.833563e-09 -3.327753e-09 -5.8634573e-09 2.497092e-09
0000b0 ce 8c 54 b1 18 1b e1 34 0a a5 8e b8 59 a1 a1 b8
       -3.0930098e-09 4.192923e-07 -6.8018286e-05 -7.7071316e-05
0000c0 17 8b bf b8 02 a9 9e ba 13 f0 33 ba 56 2c ac 37
       -9.133497e-05 -0.0012104812 -0.0006864082 2.0524643e-05
0000d0 ab 43 48 ba ae 56 e7 b9 42 cb b1 b1 cd a2 bc b1
       -0.0007639478 -0.00044124335 -5.1744857e-09 -5.4900284e-09
0000e0 54 6a 5c b1 96 29 9d b1 a3 4a 08 b2 b9 a5 a0 b1
       -3.2074654e-09 -4.574029e-09 -7.933212e-09 -4.6754534e-09
0000f0 a9 d3 92 b1 43 4b af b1 14 97 04 b2 3a fc 4c 3b
       -4.273222e-09 -5.1017266e-09 -7.717762e-09 0.0031278268
000100 24 9c 09 3d 9f 91 1c bd 77 38 60 3c b5 26 95 bb
       0.033596173 -0.038224813 0.013685337 -0.0045517334
000110 28 08 2b 3e b4 da dd 3c 1c 5c fe 3c 26 be 0c 3d
       0.1670233 0.027081825 0.03104978 0.034361027
000120 f6 9c 84 3c ce bc ce 3b 88 ee 06 bd f7 4d 3e bc
       0.016188126 0.0063091284 -0.032942325 -0.011615268
000130 f5 99 9e 3d a0 6a d9 3d 3e 1d 92 3b 13 ce 7e bb
       0.07744209 0.1061604 0.0044590523 -0.0038880154
000140 62 74 98 3c 7d 42 c8 3b ca 72 3a bc 02 8a 50 bd
       0.018610183 0.0061114416 -0.011379907 -0.050912865
000150 99 63 26 bc 0d 18 a4 bd 42 4c 16 3e 34 69 85 3c
       -0.010155582 -0.080124 0.14677528 0.016285516
000160 7e d1 13 bd 66 e0 18 3d 33 39 36 3d e3 0b 96 bd
       -0.03608846 0.037323378 0.044488143 -0.07326486
000170 b4 47 54 3d be b7 4e 3c c2 4d af bc 23 c3 ac bb
       0.051826194 0.01261705 -0.021399383 -0.0052722855
000180 d6 58 2b bc fc c4 a1 bc da e5 7d 3d 0e 8f fd ae
       -0.010458192 -0.01974725 0.06198678 -1.15305196e-10
000190 18 fc 16 ae 6e b5 98 32 ac 0d e7 2e 9a 76 24 33
       -3.4329956e-11 1.7777634e-08 1.05070924e-10 3.8292093e-08
0001a0 d0 3a 7c 35 43 78 61 2f 76 e8 f6 b1 0c 78 ef 33
       9.39629e-07 2.0506356e-10 -7.18597e-09 1.1151141e-07
0001b0 1a 07 81 36 ec c6 60 36 3c 10 99 b7 31 dc 9c 36
       3.8453263e-06 3.3494389e-06 -1.8246581e-05 4.674796e-06
0001c0 94 b8 44 37 28 f7 c6 b7 77 c8 91 36 8c f5 c7 b6
       1.1725486e-05 -2.371853e-05 4.344674e-06 -5.9592476e-06
0001d0 48 82 b8 b7 1e 41 e7 3b 94 b4 3e 3c 2e 65 9c bd
       -2.1995176e-05 0.007057323 0.011639733 -0.07636486
0001e0 8b b8 57 bd fa 4d b3 bc dd a4 05 3b e0 47 79 3b
       -0.05266623 -0.021887768 0.0020392456 0.0038037226
0001f0 64 27 49 bd 67 2a 0e 3b 95 43 c4 3c c5 60 ba bd
       -0.04910983 0.0021692754 0.023958007 -0.091004886
000200 0a da a4 bd 53 0d 2f 3d 40 eb 17 be 98 85 ad 3d
       -0.080494 0.042737316 -0.14835835 0.084727466
000210 10 06 ab 3c 70 10 83 bd 2f da 94 3a 9d 92 2f b3
       0.020876914 -0.063996196 0.0011356528 -4.0878707e-08
000220 4b 05 7c b4 2d bf ac b3 09 69 40 b4 a9 c2 00 b5
       -2.3471254e-07 -8.044149e-08 -1.7919605e-07 -4.7966984e-07
000230 83 71 f8 b4 3c ad b7 b3 ea ab 24 b5 f7 e2 a2 b4
       -4.627619e-07 -8.553113e-08 -6.134493e-07 -3.033999e-07
000240 2a ed 0c b5 57 9a a1 35 2a 38 0a b4 cd ab a3 b4
       -5.2499183e-07 1.2040354e-06 -1.2872684e-07 -3.0486117e-07
000250 a4 33 47 35 ad 7c 2e 36 97 a9 42 34 a2 ac db 35
       7.4208424e-07 2.6000591e-06 1.8129354e-07 1.6367014e-06
000260 01 d2 6b 35 33 30 7c b3 25 b4 e6 b5 e5 d9 f0 b2
       8.784992e-07 -5.871716e-08 -1.7188764e-06 -2.8038764e-08
000270 33 c6 96 b5 d7 ef c2 b5 73 d6 07 b6 8e 14 a5 b5
       -1.1233554e-06 -1.4523929e-06 -2.0241393e-06 -1.229944e-06
000280 56 74 08 37 40 b6 97 b4 89 5e d3 b1 dc e0 0d 2c
       8.133318e-06 -2.8258546e-07 -6.1516556e-09 2.0162127e-12
000290 aa 01 39 b0 6c 94 1f 2d 9f fc c3 27 a2 08 c9 2c
       -6.730497e-10 9.07106e-12 5.4397265e-15 5.713722e-12
0002a0 54 15 97 af fe 71 f4 a7 a7 9a 45 b0 39 65 7d bb
       -2.7481895e-10 -6.7847195e-15 -7.1887957e-10 -0.003866507
0002b0 a1 76 84 3d 24 c6 6e bd c0 54 3d bd 85 a2 3d 3d
       0.06467939 -0.05829443 -0.046223402 0.04629757
0002c0 71 ed db bb f2 81 d7 3c c3 59 09 3d ff be b0 bc
       -0.006711655 0.02630708 0.03353287 -0.021575449
0002d0 1f a0 40 a6 c3 d9 5f a6 ab 93 2b 26 d4 6b 9c 26
       -6.6830386e-16 -7.766379e-16 5.952767e-16 1.0853901e-15
0002e0 c8 f1 d5 25 b0 64 81 a6 ba 82 b5 26 09 71 28 a6
       3.7113447e-16 -8.978465e-16 1.2594831e-15 -5.84399e-16
0002f0 63 03 17 a4 1d 82 42 3c 5d 8c 4e 3d ab 3b 4a bd
       -3.2745774e-17 0.011871842 0.05042683 -0.04937331
000300 e2 71 4f bd 34 cc a0 bb ee 3a 02 bc 8b 42 33 3a
       -0.050645716 -0.0049071554 -0.00794862 0.0006838224
000310 66 9f 75 bc ca 17 b4 bc 7d b7 9a 3c af c1 10 bc
       -0.014991617 -0.021984 0.018886322 -0.00883524
000320 25 18 10 3c c7 e4 39 bd 2f 3d 55 3e 7d 93 39 3d
       0.008794819 -0.045384195 0.20824121 0.04530667
000330 db d3 83 bc e3 ec e8 3b 71 cf 02 3b 15 1f a0 b2
       -0.016092231 0.007108317 0.001996007 -1.8640586e-08
000340 18 27 c9 b3 38 52 cc 32 f3 ec 8b 33 0e c0 7d b6
       -9.366903e-08 2.3786114e-08 6.515793e-08 -3.7811728e-06
000350 c2 47 0e 31 2e 3d cf b3 54 63 32 b5 f1 44 b7 34
       2.070451e-09 -9.650317e-08 -6.645471e-07 3.4136568e-07
000360 e1 7b 08 3b 1a ea e3 bd d2 9c c6 bd 5b 82 f7 3c
       0.002082579 -0.11128636 -0.0969788 0.030213526
000370 9e fd 3b bc 40 99 93 3d 0b 00 fd 3c 97 d9 2b bc
       -0.011474041 0.072069645 0.03088381 -0.010488889
000380 4a 0a 4d 3d 00 6c 0c 2f d4 3b 70 31 22 c2 07 30
       0.05005864 1.2771295e-10 3.4958605e-09 4.9388593e-10
000390 d9 b7 93 30 95 d1 3e 31 ea 4d 30 b1 8b b6 0f b0
       1.074791e-09 2.7767773e-09 -2.565566e-09 -5.2282506e-10
0003a0 cc 47 c8 31 46 ae 9b 30 a4 95 35 30 7c 0b bd aa
       5.8289285e-09 1.1327266e-09 6.606007e-10 -3.3581113e-13
0003b0 98 bc 29 2f 61 a4 e6 30 6e 1e db a7 1f 30 e7 ab
       1.5437462e-10 1.6781422e-09 -6.0817703e-15 -1.6426893e-12
0003c0 13 e4 30 31 29 a4 21 2a 8a 71 9c 2d 1e fb 16 bd
       2.5741016e-09 1.4356627e-13 1.7785568e-11 -0.036860578
0003d0 1c 7f 1e 3d b4 93 e6 bc 8e 26 eb 3c fa 12 a7 3d
       0.03869544 -0.028146602 0.028704908 0.08157916
0003e0 9a 47 2e 3d a4 c0 f4 3c d1 90 a7 bc e5 6f 87 bb
       0.042548753 0.029877014 -0.020454796 -0.004133212
0003f0 f0 8e b6 b7 fd f6 eb 35 92 d6 e0 b7 45 14 e1 b6
       -2.1762651e-05 1.7580747e-06 -2.6802798e-05 -6.707882e-06

encoder_lin.0.bias f4 [64]
000000 40 9b a0 3b 17 12 6b b8 3c 06 67 3b 5d 82 aa b8
       0.0049013197 -5.6045214e-05 0.0035251519 -8.130514e-05
000010 f6 55 a7 b7 d3 e8 3c 3b e4 e4 06 ba 7e 1c a5 bb
       -1.994798e-05 0.0028825297 -0.00051458017 -0.005038797
000020 9a a5 91 3a e8 f8 84 bb 83 a6 b9 b5 2c 44 b5 b9
       0.0011111975 -0.0040579922 -1.3832035e-06 -0.00034573802
000030 83 a7 80 35 04 30 a2 b4 43 ba 86 b6 b0 74 f4 b5
       9.585495e-07 -3.0209787e-07 -4.015195e-06 -1.8213377e-06
000040 9c 3e a6 bb cc a3 11 3b e1 69 56 bb ef 05 48 bb
       -0.0050733816 0.0022222875 -0.0032716917 -0.0030521115
000050 d6 98 b3 3b f9 50 4e 3b 5e d5 be 3b b9 60 96 ba
       0.005480866 0.003148137 0.005823775 -0.0011472917
000060 d8 5f ec 3b 79 cd 73 af 7d 58 07 b9 bf b0 9c b8
       0.007213574 -2.217372e-10 -0.00012907568 -7.471581e-05
000070 0d bc 74 bb ea 18 7a b6 00 0a f9 b7 7c 17 f2 3a
       -0.0037343532 -3.7267405e-06 -2.968777e-05 0.0018470134
000080 ed f7 1c bb e0 e4 d6 36 de ed 93 37 0c 9d ba ba
       -0.0023951486 6.4043415e-06 1.7634531e-05 -0.0014237477
000090 52 b8 6c bb 50 5b 4b b7 5a 92 73 bb cb 88 eb 23
       -0.0036120606 -1.2121003e-05 -0.003716609 2.5536685e-17
0000a0 f9 4c be 2c e0 19 14 bb 19 86 00 bb 2d 39 50 ba
       5.4086705e-12 -0.002259843 -0.0019611178 -0.000794309
0000b0 30 56 e9 ba c8 e8 5e b3 c6 79 f4 3b dc 5b 04 36
       -0.0017802175 -5.1900116e-08 0.0074608056 1.9723002e-06
0000c0 55 fc 2c 39 9d e7 88 3a e5 eb ca bb 4a 12 7f b7
       0.00016497199 0.0010445003 -0.0061926716 -1.5203443e-05
0000d0 0a 2e 89 b6 b2 29 02 bc b7 03 7f 38 e8 06 13 b7
       -4.088278e-06 -0.007944511 6.0800197e-05 -8.763491e-06
0000e0 8b 0b 45 38 e6 8d 66 35 33 2f f3 b9 68 d8 84 34
       4.697921e-05 8.5888166e-07 -0.00046383738 2.4744372e-07
0000f0 0f 62 9a b6 13 68 1f bb 57 dc ca b7 ac 6f a3 b6
       -4.600973e-06 -0.0024323508 -2.418288e-05 -4.870779e-06

encoder_lin.3.weight f4 [8, 64]
000000 83 c5 39 be 2d 47 bc b9 97 87 ce bd 55 76 81 3b
       -0.18141751 -0.00035911184 -0.100844555 0.003950874
000010 1e 9c 99 b9 b2 82 58 3e e7 dd 1c be c3 11 c1 3d
       -0.0002929875 0.21143606 -0.15319024 0.09427216
000020 41 69 53 bd ff 50 7b 3e ec a1 28 b8 25 ba a3 ba
       -0.05161405 0.24542616 -4.0205123e-05 -0.0012491388
000030 61 1b 81 b8 a7 8d f0 35 76 d9 cb 38 41 49 0c bb
       -6.156299e-05 1.792262e-06 9.7202996e-05 -0.0021405967
000040 50 c0 51 3e a4 26 b2 bd f2 de ae 3d 4a e3 4d 3d
       0.20483518 -0.08698776 0.08538617 0.050265588
000050 6f 3c 40 be f0 6c 65 be f6 c2 00 bf 52 fa 6c bb
       -0.18773054 -0.22404838 -0.50297487 -0.0036159945
000060 28 d1 55 be 64 18 c8 30 e2 ca c7 3a ab ab 2e 3a
       -0.20880568 1.4558847e-09 0.0015242959 0.0006663154
000070 0f 20 1e 3e c5 b4 1c b8 aa c1 dc b9 47 88 6f be
       0.15441917 -3.7361653e-05 -0.0004210596 -0.2339183
000080 56 0c ab bd cc 90 48 ba 4f 6d 2b 3e c4 38 81 3d
       -0.08351962 -0.0007650971 0.16740917 0.06309655
000090 d9 8a e7 3d 40 c4 a3 38 f3 42 ce 3e 36 1a 86 b7
       0.1130578 7.809e-05 0.40285453 -1.598625e-05
0000a0 b8 3e a5 b0 12 9e 77 bd 17 63 29 3e 1d 64 b5 bd
       -1.2023156e-09 -0.060453482 0.16541706 -0.08856986
0000b0 6b c3 d5 3d 10 48 82 b6 ea a9 70 be 81 30 81 38
       0.10437664 -3.882691e-06 -0.23502317 6.160234e-05
0000c0 18 e9 ab 39 e0 9d d8 3d f0 9b 93 3e 10 b4 d7 39
       0.0003278933 0.10576987 0.28829908 0.00041142153
0000d0 34 74 41 ba 3f b4 ea 3e 30 e2 63 3c 84 d9 07 b8
       -0.00073796813 0.45840642 0.013908908 -3.2389085e-05
0000e0 b2 f8 7c be 98 33 3e 37 32 c6 c0 bb f0 86 3f 33
       -0.24704245 1.1336895e-05 -0.0058830017 4.4593378e-08
0000f0 8c dd 31 3a 02 ed d3 bd b8 74 10 b9 49 be 7e b8
       0.0006785027 -0.1034794 -0.00013776391 -6.0735536e-05
000100 33 98 4e 3e 0c 9b b4 b9 aa 29 71 be a9 80 37 bb
       0.20175247 -0.00034447794 -0.2355105 -0.0028000271
000110 12 7f 93 38 73 f8 86 3b eb f1 15 bd c5 1c 2d be
       7.033175e-05 0.004118973 -0.036607664 -0.16905506
000120 a2 24 85 3e 10 e3 f4 3d 90 95 36 36 72 e9 3b 3b
       0.2600451 0.11957371 2.720717e-06 0.002867308
000130 9a 64 32 b9 cc 4d 45 36 61 58 2a 37 95 6f 18 3a
       -0.0001701288 2.9400571e-06 1.0153367e-05 0.0005814967
000140 d3 3f 8f 3e 93 25 28 bd c4 3b 40 be 71 9e 0c be
       0.27978382 -0.04105146 -0.18772799 -0.13732316
000150 ca 79 85 be 2e 25 e0 bc 3e 14 49 3e a7 09 73 bb
       -0.2606948 -0.027361479 0.19636628 -0.003708461
000160 6e 50 cb bb bd de 0a af 88 61 19 b9 8b b3 fe 39
       -0.0062046563 -1.263016e-10 -0.0001462755 0.00048580425
000170 4d a6 aa bd ed 9e 15 37 da 0f 18 b9 00 d2 7a bc
       -0.083325006 8.918095e-06 -0.00014501755 -0.015308857
000180 85 21 27 3e be 59 0b b9 d3 82 d3 3e 6b f2 dd 3d
       0.1632138 -0.00013289505 0.41310748 0.10837253
000190 4e 37 a8 bd 70 46 35 3a de ae c4 be f2 a3 93 25
       -0.082136735 0.0006915098 -0.38414663 2.561153e-16
0001a0 f2 de a8 2f 5c 41 4c bd 95 0a cb be 70 03 53 bd
       3.0717434e-10 -0.04986702 -0.3965651 -0.05151695
0001b0 d8 2b 11 3f 3d 62 cb b2 e8 d0 2f bd 39 d1 0a b7
       0.56707525 -2.3676984e-08 -0.042923838 -8.274154e-06
0001c0 6b 24 9e b9 6a 42 8a 3e 04 af 3c 3d 87 25 2d 39
       -0.00030163242 0.27003795 0.046065345 0.00016512546
0001d0 e0 51 c1 39 8f 61 20 be 16 e8 9e ba 0d 23 74 38
       0.0003687283 -0.15662216 -0.001212361 5.8206777e-05
0001e0 fb ac de be 0f 09 d7 b7 45 bc c2 3b ae 22 63 b5
       -0.4349135 -2.5634215e-05 0.0059428536 -8.4614555e-07
0001f0 29 76 91 39 71 24 01 3d 17 bb ab 38 a8 7c 35 b9
       0.0002774459 0.031528894 8.1887636e-05 -0.00017307943
000200 20 5d 76 be aa 01 54 ba 57 73 92 3e cc 11 70 ba
       -0.24058962 -0.0008087406 0.28603622 -0.00091579254
000210 93 0e 62 3a 36 e9 83 3e d5 f7 93 bc 78 0d 29 3d
       0.00086233875 0.25763863 -0.018062511 0.04127261
000220 0c 91 c4 bd 04 9d 2d bd 4a e2 52 b9 1c 63 53 3a
       -0.09597978 -0.04238607 -0.0002011146 0.00080637797
000230 60 74 34 39 4a 03 86 b6 6e df 40 39 a0 29 74 39
       0.00017209491 -3.993894e-06 0.00018393781 0.0002328516
000240 30 16 1d bd 3f 94 10 be 73 55 68 3e 47 bc ad be
       -0.038351238 -0.14119051 0.22688846 -0.33932707
000250 7c a6 4e be a8 f9 d6 bd 3b a8 64 3e 43 7a b2 ba
       -0.20180696 -0.10496837 0.223298 -0.0013616759
000260 85 c0 95 3d 0d c4 3f b0 1f a8 ad ba 58 60 b3 b8
       0.07312111 -6.9764e-10 -0.0013248957 -8.5533306e-05
000270 ee 49 0a be 02 0a 2c 37 b1 b8 0f 3a 85 69 1e 3e
       -0.13504764 1.0254329e-05 0.0005482538 0.1546994
000280 43 d1 e7 be e4 4f bf b9 01 f2 f3 bd f7 4b e6 bd
       -0.45276842 -0.00036489882 -0.11911393 -0.11244958
000290 75 cd e9 3d 95 bd 20 3a 57 55 4c bd 71 01 9f b7
       0.11416141 0.00061317655 -0.049886074 -1.8954948e-05
0002a0 22 fe eb 2e d9 93 c8 be b0 20 8d bd 66 6b 82 be
       1.0731706e-10 -0.391753 -0.06891 -0.25472564
0002b0 43 03 36 3e ef 07 68 b5 8b 7f 67 3d 89 b6 8f b8
       0.17774682 -8.643828e-07 0.05651812 -6.852771e-05
0002c0 1b 6e b2 39 46 8f b3 3d 12 b1 16 be b6 cb 55 b9
       0.0003403284 0.087675616 -0.14715984 -0.00020389151
0002d0 56 1e 75 3a 4e 3b d4 bd 45 e1 29 bc 0d 4c c2 b7
       0.00093505287 -0.10362874 -0.01036865 -2.3162016e-05
0002e0 89 4d 51 bd 39 d2 32 b7 b9 45 93 3b b1 db a6 35
       -0.051099334 -1.0658573e-05 0.0044943956 1.2431902e-06
0002f0 c0 b5 f7 b9 9e 9a 8a bd 89 fd 90 b9 90 77 47 39
       -0.00047246926 -0.06767772 -0.0002765472 0.0001902266
000300 c5 be eb 3e 59 0f 98 ba e8 56 77 3e 7d d2 d7 ba
       0.46043983 -0.0011601254 0.24154246 -0.0016465929
000310 99 ec 72 38 56 bb 8a 3e f6 64 98 be 17 44 4a 3e
       5.7917645e-05 0.2709605 -0.29764527 0.19752537
000320 df 3d fa 3d 88 95 a0 3c 30 c5 40 b6 ca cd 76 3a
       0.12218832 0.019602552 -2.8725008e-06 0.000941482
000330 cd 83 2e b8 07 82 d2 34 7a 58 8c b7 ae 0d 12 ba
       -4.160758e-05 3.9210155e-07 -1.67305e-05 -0.00055714964
000340 23 f7 87 be 33 01 53 be 33 90 b2 3c 27 1d 25 be
       -0.26555738 -0.20605926 0.021797275 -0.16124402
000350 85 2a 32 3e 0b 65 9e be b9 5d ca 3c f8 02 a8 bb
       0.17399032 -0.30936465 0.024702894 -0.005127307
000360 ed 89 82 3d 66 a1 45 b1 8b 9b 0d 3b f3 ad 22 b8
       0.063739635 -2.8759017e-09 0.0021607603 -3.8785813e-05
000370 b7 a3 89 3e 77 d3 72 37 05 12 63 37 34 97 fa 3d
       0.26882717 1.44735595e-05 1.353445e-05 0.12235871
000380 4f fb 62 be 7e 99 d9 b8 77 d6 bb bd 99 bf 8c be
       -0.22166179 -0.000103759565 -0.09171765 -0.27489927
000390 e0 0f 1d 3e df 1d aa b9 41 f4 03 be 05 11 95 2b
       0.15338087 -0.00032447182 -0.12886144 1.0591811e-12
0003a0 51 26 8e 2e 03 eb 20 3e 94 18 17 be 53 1a 26 3d
       6.464219e-11 0.1571465 -0.1475547 0.04055245
0003b0 18 27 63 3e c8 df 0a b6 94 85 59 be 97 fc 8e b6
       0.22182882 -2.069386e-06 -0.21242362 -4.261335e-06
0003c0 71 6f 58 b9 43 73 13 be 5c 35 33 3e 1e 92 d5 39
       -0.0002064088 -0.14399438 0.17500824 0.00040735392
0003d0 2e a4 69 b9 f0 9f 0c 3e 37 32 96 3c 5b 80 62 38
       -0.00022281773 0.13732886 0.018334491 5.400214e-05
0003e0 b7 b4 97 3b 96 b5 da b6 0f 97 91 3b a6 ae 93 35
       0.004629697 -6.5180457e-06 0.0044430564 1.1003183e-06
0003f0 66 5e 08 3b e0 ca 4e be 15 12 aa 38 85 16 7b b9
       0.002080822 -0.20194578 8.1096e-05 -0.00023945615

encoder_lin.3.bias f4 [8]
000000 a7 27 29 3d e1 d2 b1 3c 29 46 bc bd c6 c6 e7 bb
       0.04129758 0.021707 -0.091930695 -0.007073256
000010 47 98 3f 3c 03 28 13 3d 00 89 26 bd 26 33 35 3d
       0.011694021 0.03592683 -0.040657997 0.044238232

decoder_lin.0.weight f4 [64, 8]
000000 c4 66 46 be d7 e5 e6 3d e0 c2 60 3c ac c9 85 be
       -0.1937514 0.11274307 0.013718337 -0.26130426
000010 51 ba 8b 3e 0f 0a 40 bc 3d 05 b3 bd ef ce 01 bd
       0.27290586 -0.011721148 -0.087412335 -0.031691488
000020 72 94 67 be 1f ca 22 3e 4d b4 c6 bc 21 0a 58 be
       -0.22615221 0.15897416 -0.024255896 -0.21097614
000030 21 09 65 3b 6b c5 40 be ad 77 8a 3e 81 95 2c be
       0.0034948068 -0.18825309 0.2704443 -0.16853906
000040 16 71 9a 3d f8 f2 b0 bc b1 24 1b be 93 04 6e 3b
       0.07541101 -0.021600232 -0.15150715 0.0036318644
000050 13 9d 63 3e b8 53 58 bd 26 d9 80 bd 99 a6 ce bc
       0.22227888 -0.052814215 -0.06291418 -0.025225924
000060 81 f3 10 3c 58 3b c7 be 6e 85 38 be d7 ee 38 be
       0.008847118 -0.38912463 -0.1801965 -0.1805986
000070 7d 72 0a 3d aa 23 6c 3b 66 10 e0 3d 49 7d f7 3d
       0.03380059 0.0036032 0.10940628 0.12084443
000080 63 b7 aa 3e c6 4e 81 3d bb 1b 18 be 75 32 d9 bd
       0.33343038 0.06313853 -0.14854328 -0.10605327
000090 06 7f c7 bb 9b 59 2c 3d b6 e9 13 3e 28 5c b0 bd
       -0.0060881404 0.042077642 0.14444622 -0.086113274
0000a0 b3 db b0 be a3 f5 54 3d a1 0c 8a 3d e3 6b 66 bd
       -0.34542617 0.05199207 0.0674069 -0.056255233
0000b0 b9 76 96 3d 98 26 2c 3e c2 39 3d be 48 50 1d be
       0.07346863 0.16811597 -0.18479064 -0.15362656
0000c0 33 b3 33 bd c0 09 1f 3d 2c 80 23 be b6 fc c8 bd
       -0.04387207 0.038827658 -0.15966862 -0.09813826
0000d0 1d 11 2a 3d 43 19 67 be 1a 1d 03 be 63 8f 29 3e
       0.041520227 -0.2256823 -0.1280407 0.16558604
0000e0 d3 5d 7e bd b8 60 c1 3b b0 ea 95 be 46 47 45 3d
       -0.062101196 0.0059014224 -0.29280615 0.048163675
0000f0 b3 c4 a4 bc f8 ef 1f bd 69 76 a4 3b ae 5b 4d 3c
       -0.020113325 -0.03904721 0.0050189984 0.012534065
000100 ba 1d f8 bd 58 14 e1 bc e2 e0 ed bb b0 f4 4d 3e
       -0.12115045 -0.027475521 -0.007259474 0.20112872
000110 7f f9 e7 3d dd 6c ab be 23 cf 8b 3d 22 22 3a 3c
       0.113268845 -0.33481494 0.068266176 0.011360677
000120 19 3f 1f be 50 28 93 be f5 15 56 bd 1c 16 9f be
       -0.15551414 -0.28741693 -0.052267034 -0.31071556
000130 13 35 69 3e fb 84 03 3e f0 a9 74 3c 0e c4 04 3d
       0.22774152 0.12843697 0.014933094 0.032413535
000140 30 10 1a 3e 16 5d fd 3d e3 4f 33 be 9b 25 1e 3c
       0.15045238 0.1237127 -0.17510943 0.0096525205
000150 28 f3 20 3e eb 5d 20 3a 61 93 42 bd ed f8 e9 bd
       0.15717757 0.00061175105 -0.047503833 -0.11424432
000160 be 83 5f 3d 9e ac a1 3d f5 be 82 be d3 75 06 be
       0.054569 0.07894252 -0.25536314 -0.13130884
000170 61 01 9f 3b 3e 07 c8 3d 49 42 86 bb 73 4b fd 3d
       0.0048524593 0.09767006 -0.0040972573 0.123679064
000180 d3 ad c8 3c 80 f5 f3 3d 9c 24 0d bd bf 79 b1 bd
       0.024496948 0.1191206 -0.03445874 -0.08665799
000190 81 6f d9 bd 1f 14 09 3e 15 09 81 be b4 f6 8d be
       -0.10616971 0.13386582 -0.25202242 -0.27727282
0001a0 f4 88 8c bc 53 6c c3 bd f9 9a 9c bd dd ba 26 be
       -0.017155148 -0.095421456 -0.07646746 -0.1628222
0001b0 32 03 50 3d f7 5c 85 be 12 af 26 be 6e a4 23 be
       0.050784297 -0.2604749 -0.16277722 -0.15980694
0001c0 7b 5b 5d b9 a4 10 53 3c 79 d0 fa bd 3b 41 1f 3e
       -0.00021110282 0.012882385 -0.12246794 0.15552227
0001d0 1c a8 d3 3d 99 b2 23 3e 57 25 82 3e e2 5b 37 3e
       0.10334799 0.15986098 0.25419113 0.17906144
0001e0 8d eb 44 be d2 9b a5 3e a6 6f 36 3e 9e 81 bd 3d
       -0.1923048 0.32345444 0.17816028 0.09253238
0001f0 f3 57 86 3e 37 70 0d 3e c4 ab f9 3c ef b4 6a 3e
       0.26238975 0.13812338 0.030477412 0.22920583
000200 3c f5 51 3e 43 c1 20 be b5 5a 03 3e 08 a9 3c 3e
       0.20503706 -0.15698723 0.1282757 0.18423855
000210 03 fa 13 3e 76 c1 0c 3e 76 be f2 bc 62 b0 c1 3c
       0.1445084 0.13745674 -0.029631834 0.023643676
000220 c9 98 e8 3d 18 ca 3b be 2e 10 fb 3d b7 b7 8e bd
       0.113572665 -0.18338811 0.122589454 -0.069686346
000230 72 bc e7 3c 38 2f 29 be 17 c9 b5 be bd 27 22 bd
       0.0282881 -0.16521919 -0.35504982 -0.03958868
000240 f1 19 e7 3d 9b e6 bf bd fd d0 ac 3d 57 ac 72 3e
       0.11284245 -0.093701564 0.08438299 0.23698555
000250 f2 3a 81 bb 6e e7 b3 be 5a f7 80 3d 05 9b 0a bd
       -0.0039437944 -0.35137504 0.062971786 -0.033839244
000260 ed a0 a1 3d da 0a 63 3d e9 0e 17 3e de 5a 4c be
       0.07892022 0.05543027 0.14751782 -0.19956538
000270 7a 7f cb 3e bd b9 14 be ee 3e 6d 3d e4 f2 fd 3d
       0.39745694 -0.14523979 0.057921343 0.12399843
000280 bd 12 17 be 4b ce 2f 3d f4 67 49 be 98 f2 38 3e
       -0.14753242 0.042921346 -0.19668561 0.18061292
000290 f8 00 c9 3b 6e 8a ab bd d7 47 87 bd 7a 34 b7 3b
       0.0061341487 -0.08376013 -0.06605499 0.0055909725
0002a0 c3 33 7c 3e 79 9e 2b 3e 5d d1 95 3e c3 91 0f bc
       0.2462912 0.16759671 0.29261294 -0.00876278
0002b0 89 95 b7 bd 22 a5 cf bd 62 67 d4 bc 22 a9 d6 3c
       -0.089640684 -0.101389185 -0.025928203 0.026203696
0002c0 83 1e 96 3e d3 81 0a be 86 7c ba bd 0e 05 94 bb
       0.29320154 -0.13526087 -0.09105782 -0.004517204
0002d0 9b ba 2d 3e 23 1d 3b 3d 6c 35 01 3d a5 66 41 be
       0.16965716 0.045682084 0.031545088 -0.18886812
0002e0 b9 6c f5 3d 5f dd d7 bd 58 5e ce bc cc cc 4e 3e
       0.11983628 -0.1054027 -0.025191471 0.20195311
0002f0 e4 eb 9b 3c cc 39 10 3e 2d 14 6f be 59 a1 c3 3d
       0.01903338 0.14084548 -0.2334754 0.09552259
000300 3c 3a 74 3d 72 83 5f bd b8 f2 7e ba c6 51 53 bd
       0.05962585 -0.054568715 -0.0009725499 -0.051591657
000310 b0 70 34 bd d1 77 cb bd a0 fa aa be 68 44 19 3e
       -0.04405278 -0.099349625 -0.33394337 0.14967501
000320 a6 66 ed bd 24 e9 82 3d 13 0a 46 be 20 e3 3f 3e
       -0.11591844 0.06392124 -0.1933978 0.18738985
000330 b3 a6 18 3d cb 7a 8b bd 05 72 81 bd f0 55 52 3d
       0.03726835 -0.0681053 -0.063205756 0.051351488
000340 79 3e 8e 3d 76 03 dd 3c 1e bf 61 be 82 25 5b 3d
       0.069455095 0.02697919 -0.22045562 0.053502567
000350 ff db 01 3e 1c f8 11 3d 77 5d a3 3b 42 d6 73 bd
       0.12681578 0.035637006 0.004985507 -0.059530504
000360 58 76 58 3e 5e 9c 02 be fb d5 03 be 0b 84 e9 bc
       0.21138895 -0.12754962 -0.12874596 -0.028505346
000370 19 24 8b 3d 61 47 29 be b3 db 87 bd bc 0f 13 3e
       0.067939945 -0.16531135 -0.06633701 0.14361471
000380 6d a8 48 3c 1d 45 7c 3e 66 0f d1 3c f1 43 86 bd
       0.012247187 0.2463574 0.025520038 -0.065559275
000390 15 43 8a be 84 d5 70 bd 3b c3 27 be e5 ad 24 3e
       -0.27004305 -0.058797374 -0.16383068 0.1608196
0003a0 62 8c f4 bd 77 57 ad 3d 16 bb 33 be 77 2a 50 3e
       -0.119408384 0.08463948 -0.17551836 0.20328699
0003b0 92 59 90 3d 11 5c 7b bd 5c b9 c8 bd a4 85 6c 3c
       0.07048334 -0.0613671 -0.098009795 0.014436159
0003c0 de 82 ad 3d b3 b2 18 3e 53 4c ce bd b8 7d 64 be
       0.084722266 0.14911918 -0.100731514 -0.22313583
0003d0 05 39 6f bd ed ea 15 be d1 2b 67 3e 84 a3 88 3d
       -0.058403987 -0.14640398 0.22575308 0.06671813
0003e0 d8 a5 ba bc 4b 38 66 be cd 8e 34 be 27 a6 c0 bd
       -0.022784159 -0.22482412 -0.17632599 -0.09406691
0003f0 8b 9e 56 be e7 09 32 be f8 bf 9f bc a2 b3 1a be
       -0.20958917 -0.1738659 -0.019500718 -0.15107587

decoder_lin.0.bias f4 [64]
000000 9c d5 ea bb 2f c0 48 3c 4b 32 0b 3d 8f 3f 66 3c
       -0.0071665775 0.012252851 0.03398351 0.0140532395
000010 80 da e2 bb 68 fc b0 bc a9 41 39 3d 85 c0 cf 3c
       -0.00692302 -0.021604732 0.045228634 0.025360355
000020 39 c0 6c bc 19 41 8f 3c 52 c8 43 3d fc 69 28 3d
       -0.014450126 0.017487096 0.047798462 0.0411167
000030 57 96 74 ba 6e 79 91 3c ee c8 87 3c d7 70 28 3d
       -0.0009330264 0.017758097 0.016575303 0.041123237
000040 1d 3e 5c 3c 77 cd 17 3d 06 d9 df 3c 74 d1 67 bc
       0.013442543 0.03706118 0.027325165 -0.014149059
000050 2f 7b c4 bc dc a5 56 3c 05 2c d3 3c 9d 3b 11 3d
       -0.02398452 0.013101067 0.025777826 0.035457242
000060 5d 40 09 3d 96 d8 b8 bc fb c8 27 3d 18 04 bf 3c
       0.033508647 -0.022564214 0.040963154 0.023317382
000070 44 8e 07 3d 3d 41 94 bc 5a 4b 14 3d 0a 78 22 3d
       0.03309466 -0.018097514 0.036204673 0.03966526
000080 1f 10 14 3c 65 80 af 3c 32 f0 fd 3b 83 6d 0c 3d
       0.009037047 0.021423528 0.007749581 0.034284126
000090 78 f0 19 3d bc 08 08 3d 66 24 e2 3c 8c 46 5f bc
       0.037582844 0.033211455 0.027605247 -0.0136276595
0000a0 03 6b e4 3c 15 e8 95 3c ca 6a c6 ba 74 a5 40 3b
       0.027883058 0.018299142 -0.0015138027 0.0029395493
0000b0 50 1f a4 3b 97 b5 80 3c 02 cf 1f 3d 04 ee 00 3d
       0.0050086156 0.015711589 0.039015777 0.03147699
0000c0 48 aa a5 3c 1a 1a 6d 3c 43 96 7f 3c 43 81 14 3d
       0.020222798 0.014471555 0.01559979 0.036256086
0000d0 4b 5e 59 3d eb 2c 2e 3d ff 27 13 3d b9 9a 33 3d
       0.05306844 0.042523306 0.035926815 0.043848727
0000e0 cc 79 bb 3c 5c dc eb 3c 50 9f b0 3c a9 ad 8f 3c
       0.022885226 0.028791599 0.021560341 0.017538862
0000f0 ce bd b7 3c e9 51 c6 3a c4 8d aa 3d b3 eb fd 3c
       0.022429373 0.0015130612 0.08327821 0.03099618
