Nicola_Dainese_Ex4_NN/params/occluded_net_params_4.pth (torch_old, 201845 bytes, 19 tensors)

encoder_cnn.0.weight f4 [8, 1, 3, 3]
-0.008146056 -0.14756633 -0.13410506 -0.24887532 -0.39529353 -0.37491018 -0.27790084 -0.39399174
-0.33587152 0.3303903 0.506816 0.4370002 0.48314458 0.6199254 0.48917395 0.40617418
0.47037527 0.30002183 -1.1116104e-21 2.6274425e-24 -3.1598703e-22 -5.2366175e-21 4.09804e-21 -1.645061e-21
-4.5620998e-21 4.420374e-21 -1.5467146e-21 5.3758e-41 7.33e-43 -6.6885e-41 3.4094e-41 7.2472e-41
-3.3233e-41 2.7788e-41 -1.089e-41 -1.7378e-41 0.32770202 0.50554013 0.4341739 0.48381785
0.62125844 0.48994777 0.40851274 0.47429377 0.30310982 -7.1500176e-07 -8.3897554e-08 5.3228854e-07
-3.6754523e-07 7.671906e-07 1.0574969e-06 1.9968434e-07 7.8012016e-07 2.981881e-07 0.3251063 0.5025464
0.43375292 0.48051494 0.6190062 0.48958567 0.40686688 0.47381118 0.3036591 3.6748e-41
4.1265e-41 -2.245e-42 6.1907e-41 4.551e-42 -3.9243e-41 1.3422e-41 -2.3019e-41 7.2771e-41
00000000: 0977 05bc a11b 17be d652 09be 2cd9 7ebe
00000010: ea63 cabe 3af4 bfbe 0549 8ebe 49b9 c9be
00000020: 5af7 abbe eb28 a93e b2be 013f 7dbe df3e
00000030: ba5e f73e 6eb3 1e3f 0275 fa3e 10f6 cf3e
00000040: 07d5 f03e 769c 993e 58fb a79c dc49 4b18
00000050: a000 bf9b 75d5 c59d d0d1 9a1d 3798 f89c
00000060: ec59 ac9d 3cff a61d 9fbb e99c db95 0000
00000070: 0b02 0000 73ba 0080 0a5f 0000 06ca 0000
00000080: a45c 0080 764d 0000 5b1e 0080 7130 0080
00000090: 8fc8 a73e 146b 013f 0b4c de3e f9b6 f73e
000000a0: cb0a 1f3f 6fda fa3e 9528 d13e a2d6 f23e
000000b0: 3631 9b3e 8cee 3fb5 2b2b b4b3 97e2 0e35
000000c0: 0853 c5b4 f0f0 4d35 51ef 8d35 d068 5634
000000d0: 7369 5135 a916 a034 5574 a63e e2a6 003f
000000e0: dd14 de3e 0e06 f63e 3177 1e3f f9aa fa3e
000000f0: db50 d03e 6197 f23e 3579 9b3e 7066 0000
00000100: 0873 0000 4206 0080 92ac 0000 b00c 0000
00000110: 656d 0080 6a25 0000 2b40 0080 dbca 0000

encoder_cnn.0.bias f4 [8]
1.591797 -0.0017296828 -2.6414384e-20 -2.4525731e-18 0.0007633125 -2.693943e-06 0.00041285035 -8.227388e-16
00000000: 01c0 cb3f 86b6 e2ba 107a f99e ccf7 34a2
00000010: 0919 483a 97c9 34b6 d673 d839 6923 6da6

encoder_cnn.3.weight f4 [16, 8, 3, 3]
0.3353266 0.34938914 0.35779652 0.38557932 0.40487406 0.33986852 0.2826123 0.27615076
0.20087992 -0.08848897 -0.11051602 -0.12131658 -0.16333283 -0.1839242 -0.15373935 -0.030186823
-0.031339638 0.08573461 -1.7212974e-21 -4.022795e-24 1.1297473e-21 1.103665e-21 1.4103718e-21 -1.7267987e-21
1.3186768e-20 9.7711526e-21 2.3533088e-21 -6.18071e-40 2.8843e-41 -4.6502e-41 2.13137e-40 4.03423e-40
-1.63927e-40 -2.64051e-40 3.09133e-40 3.18788e-40 -0.09037191 -0.10750559 -0.1227689 -0.16542271
-0.18606094 -0.15621582 -0.025846168 -0.028667176 0.09053828 2.9623735e-07 -6.666967e-08 1.3461391e-09
2.2016259e-07 -1.3757655e-08 1.4840876e-07 3.771723e-07 3.3289624e-07 3.8962193e-07 -0.08890901 -0.109401815
-0.11747194 -0.1639687 -0.18598346 -0.1517245 -0.02903217 -0.029807894 0.09161104 2.41689e-40
-3.4731e-40 8.3596e-41 3.14663e-40 3.29302e-40 1.13884e-40 1.13016e-40 -1.84798e-40 -2.428e-41
4.78702e-40 1.46415e-40 2.03313e-40 2.58597e-40 -2.56024e-40 3.80744e-40 1.9857e-40 -5.35278e-40
-1.37833e-40 -1.01748e-40 2.43128e-40 -1.62223e-40 -7.08918e-40 -3.5939e-41 4.0399e-40 -3.39556e-40
1.25824e-40 -2.01481e-40 2.12818e-40 3.5873e-41 4.4256e-41 1.11578e-40 6.5554e-41 -8.172e-41
1.30988e-40 1.27117e-40 -7.7247e-41 -1.07445e-40 -1.07551e-40 5.9643e-41 -9.1185e-41 -1.17828e-40
-4.192e-41 -9.7462e-41 -8.6436e-41 -1.73377e-40 2.968e-41 -3.3303e-41 1.7165e-41 7.4176e-41
7.7471e-41 3.5499e-41 4.183e-42 5.778e-41 -7.57e-41 -8.0385e-41 -4.2734e-41 1.04732e-40
-1.03151e-40 -6.8277e-41 4.7121e-41 -1.13606e-40 -6.9821e-41 9.1751e-41 1.3552e-40 -2.9067e-41
-6.0232e-41 2.353e-41 5.9283e-41 -2.87308e-40 7.7132e-40 -4.8825e-40 1.25932e-40 1.31844e-40
1.15159e-40 -1.1947e-40 1.4901e-41 -4.3013e-41 -5.4873e-41 -9.942e-41 -1.61725e-40 -1.11655e-40
-0.0006920513 -0.00024499098 -0.00045618726 -0.00075672043 -0.00012801142 -0.00047803103 -0.0004838939 -7.142014e-05
-0.00068701507 -0.000853393 -0.0013893204 -0.0014246944 -0.00087791355 -0.0014193361 -0.001225966 -0.001110114
-0.0023443268 -0.0017616241 2.5553542e-25 4.9030353e-23 3.2743032e-23 2.9996606e-23 -1.4962197e-23 -2.3419701e-23
3.8937625e-23 -2.895471e-23 -2.133798e-23 1.49122e-40 4.1533e-41 1.2096e-41 1.8587e-41 -2.4467e-41
1.83988e-40 -1.65702e-40 5.765e-42 6.1723e-41 -0.0007980939 -0.0013415266 -0.001322113 -0.00084425404
-0.0016562905 -0.0011990129 -0.0010670363 -0.0021548825 -0.0018263404 -5.1823188e-37 -2.6542678e-37 -4.8499904e-38
1.491978e-37 2.6296962e-37 1.1072954e-38 -3.44494e-37 1.3783366e-37 9.882303e-38 -0.0007878683 -0.0013245642
-0.0013688772 -0.00088210835 -0.0015077525 -0.0014256277 -0.0011188694 -0.0023624192 -0.0015586711 -1.03903e-40
3.6959e-41 1.24225e-40 -1.56016e-40 -1.12778e-40 1.01866e-40 -8.2248e-41 1.40037e-40 2.892e-41
0.33247653 0.321974 0.3195927 0.40187493 0.37647155 0.4024648 0.36293885 0.34279796
0.33836752 0.0075728223 0.014040471 0.02704291 -0.15964675 -0.17467098 -0.1999916 -0.17058112
-0.15518759 -0.13195458 -6.2123805e-21 -4.031415e-22 -1.0642133e-21 7.978567e-22 -2.1934695e-21 6.689404e-22
3.4994676e-21 1.7204363e-21 -3.6086223e-21 -4.5668e-41 -8.1041e-41 2.48986e-40 5.34703e-40 -2.4416e-40
-3.43654e-40 -1.14255e-40 1.11437e-40 -2.24875e-40 0.0056128968 0.016161503 0.024292413 -0.16219585
00000000: eeaf ab3e 22e3 b23e 1b31 b73e a76a c53e
00000010: a74b cf3e 3f03 ae3e 8fb2 903e a263 8d3e
00000020: 77b3 4d3e b539 b5bd 3956 e2bd d474 f8bd
00000030: b940 27be a056 3cbe d96d 1dbe 5b4a f7bc
00000040: fe5d 00bd a195 af3d bc0e 029d d59f 9b98
00000050: fbb8 aa1c f9c7 a61c 1e21 d51c 2579 029d
00000060: 4c17 791e 6592 381e 9dcf 311d eeba 0680
00000070: 6750 0000 a181 0080 2452 0200 9464 0400
00000080: f6c8 0180 11e0 0280 bd5d 0300 a778 0300
00000090: e814 b9bd e42b dcbd 436e fbbd 9264 29be
000000a0: c286 3ebe 0af7 1fbe 58bb d3bc 6dd7 eabc
000000b0: 226c b93d 8d0a 9f34 0a2c 8fb3 0f03 b930
000000c0: d565 6c34 ce5a 6cb2 4a5a 1f34 2b7e ca34
000000d0: e9b8 b234 3b2d d134 ed15 b6bd 0f0e e0bd
000000e0: 2195 f0bd 69e7 27be 7372 3ebe ab5d 1bbe
000000f0: e0d4 edbc af2f f4bc 929e bb3d bba1 0200
00000100: 29c8 0380 08e9 0000 276d 0300 f695 0300
00000110: 763d 0100 0b3b 0100 2403 0280 af43 0080
00000120: 6d36 0500 2598 0100 c136 0200 ddd0 0200
00000130: b1c9 0280 5c25 0400 8829 0200 23d4 0580
00000140: 3980 0180 a21b 0180 bea5 0200 36c4 0180
00000150: 2db8 0780 2f64 0080 2966 0400 8bb2 0380
00000160: bf5e 0100 a631 0280 4051 0200 0064 0000
00000170: 5e7b 0000 0937 0100 bdb6 0000 cde3 0080
00000180: 246d 0100 5a62 0100 55d7 0080 832b 0180
00000190: cf2b 0180 43a6 0000 30fe 0080 7548 0180
000001a0: db74 0080 af0f 0180 f3f0 0080 4ee3 0180
000001b0: bc52 0000 d65c 0080 d92f 0000 c6ce 0000
000001c0: f5d7 0000 f562 0000 a90b 0000 11a1 0000
000001d0: 05d3 0080 15e0 0080 2077 0080 f323 0100
000001e0: 8b1f 0180 54be 0080 5b83 0000 b03c 0180
000001f0: a2c2 0080 c4ff 0000 c679 0100 0751 0080
00000200: e7a7 0080 9841 0000 42a5 0000 e620 0380
00000210: 2066 0800 0b51 0580 0c5f 0100 876f 0100
00000220: 0441 0100 094d 0180 8a29 0000 e777 0080
00000230: f798 0080 2415 0180 d3c2 0180 4037 0180
00000240: c76a 35ba 2272 80b9 6b2c efb9 a65e 46ba
00000250: ce3a 06b9 3da0 fab9 24b3 fdb9 65c7 95b8
00000260: cd18 34ba 3cb6 5fba db19 b6ba d0bc baba
00000270: c823 66ba 0409 baba 98b0 a0ba 3f81 91ba
00000280: 47a3 19bb 4ce6 e6ba 342b 9e16 a318 6d1a
00000290: e955 1e1a 000e 111a 9bb4 9099 5f80 e299
000002a0: 724a 3c1a 3204 0c9a 485e ce99 b19f 0100
000002b0: c773 0000 b821 0000 d033 0000 3444 0080
000002c0: e200 0200 e9cd 0180 1210 0000 0fac 0000
000002d0: 2d37 51ba 2ad6 afba c04a adba ee50 5dba
000002e0: e317 d9ba 3228 9dba ccdb 8bba ee38 0dbb
000002f0: d161 efba 5d58 3083 dea3 b482 8007 8481
00000300: d813 4b02 c5f7 b202 e492 7800 5273 ea82
00000310: 059c 3b02 cd82 0602 f288 4eba 009d adba
00000320: e66b b3ba 4a3d 67ba c79f c5ba 21dc baba
00000330: 07a7 92ba d1d2 1abb 534c ccba a421 0180
00000340: 0767 0000 4a5a 0100 e9b2 0180 613a 0180
00000350: f61b 0100 46e5 0080 5e86 0100 9e50 0000
00000360: 5d3a aa3e c7d9 a43e a8a1 a33e 8dc2 cd3e
00000370: e1c0 c03e de0f ce3e 1fd3 b93e 3783 af3e
00000380: 823e ad3e 7025 f83b 010a 663c 1889 dd3c
00000390: 707a 23be f3dc 32be 99ca 4cbe d1ac 2ebe
000003a0: 7fe9 1ebe 1a1f 07be 75b2 ea9d 20af f39b
000003b0: c2d1 a09c 2c23 711c dfbb 259d c22c 4a1c
000003c0: c634 841d 14fe 011d 7454 889d 4e7f 0080
000003d0: e9e1 0080 12b6 0200 89d2 0500 9ea8 0280
000003e0: f8bd 0380 7f3e 0180 a436 0100 dc72 0280
000003f0: 64ec b73b 2165 843c e200 c73c ab16 26be

encoder_cnn.3.bias f4 [16]
0.2268455 -7.4470005e-14 -0.003009623 0.23876277 -2.1210553e-06 -0.001075464 0.2384942 -0.00088131474
-0.0011028629 0.17965364 -0.0010325054 -0.0015089201 0.041267514 -2.8639935e-05 -9.501766e-05 -4.933413e-07
00000000: 304a 683e 09b1 a7a9 183d 45bb 3a7e 743e
00000010: 7457 0eb6 95f6 8cba d337 743e 0808 67ba
00000020: f08d 90ba 20f7 373e 2255 87ba f5c6 c5ba
00000030: 2008 293d cb3f f0b7 3844 c7b8 286e 04b5

encoder_cnn.6.weight f4 [32, 16, 3, 3]
0.025109893 0.005996591 0.097422995 -0.1175859 0.055348657 -0.006508616 -0.046924364 -0.04147456
0.07741867 1.33398e-40 4.8797e-41 1.35462e-40 1.28803e-40 1.10212e-40 1.26847e-40 2.933e-41
7.3135e-41 1.81755e-40 -0.00085283344 -0.00084796955 -0.0010682563 -0.0013565987 -0.0013380153 -0.0013914846
-0.00015899894 2.9240398e-05 -0.00021456093 -0.030759329 0.04329025 0.06840335 -0.1288062 0.023884527
-0.008650598 -0.015003596 -0.013095409 0.15461627 -1.0621076e-07 9.106487e-08 6.9278705e-08 -3.4031592e-07
-3.4940044e-09 -3.840459e-08 -9.451965e-08 1.0084968e-07 4.3111563e-09 -0.00029892332 -0.00027726806 -0.0002536214
-0.0003354774 -0.00023074637 -0.0004127436 -0.00027983048 -0.00025043287 -0.0002459333 -0.04753795 0.14948623
0.012058489 -0.12436042 0.10173482 -0.044932462 -0.035091177 0.041533537 0.15840508 0.0024926024
0.0025421595 0.001612408 0.0029021953 0.0018501326 0.0011395176 0.002829881 0.0013816331 0.0001404058
-9.517843e-06 2.8876795e-05 -5.5419812e-05 -0.00016619365 -0.00020292967 -8.217365e-05 -0.00030545794 -5.883805e-05
0.000104277315 -0.09501362 0.21170826 -0.036180828 -0.11592598 0.048547655 -0.06378249 -0.036153458
0.08534887 0.16039695 -0.0005638159 -0.0012895716 -0.00036175683 -0.00024384519 0.0006068462 -6.334192e-05
-0.00055210205 -0.0003251914 -0.00043747568 -0.00019536994 -0.00020704737 -0.00018403333 -1.2665155e-05 -0.00032116624
-0.000196804 -1.8122946e-06 -0.00018692676 -2.254703e-05 -0.027091483 0.06605614 -0.072376 0.032449204
-0.041642517 0.020030286 -0.027308064 0.0043068836 -0.060825814 1.2043841e-06 -9.783933e-06 -6.319497e-06
5.5607206e-06 -1.28510455e-05 -3.9565834e-06 1.9516667e-06 -1.0156639e-05 -3.6067803e-08 1.1675918e-05 -2.4531004e-05
-5.8108246e-05 -1.6376189e-05 -2.9130028e-05 -7.2944415e-05 8.772231e-06 -4.701195e-05 -9.941432e-05 4.2797102e-14
7.856353e-14 3.91563e-14 3.2669193e-14 -4.578292e-14 -9.2040585e-14 -1.3211757e-14 -1.05529375e-13 6.021003e-14
-1.4865537e-10 -2.0450434e-10 -2.0931805e-10 -1.6244725e-10 -2.6220376e-10 -3.6532863e-10 -1.8281612e-10 -2.5363864e-10
-3.098167e-10 3.85145e-40 -6.4144e-41 -2.92343e-40 -4.81623e-40 -3.31242e-40 4.13394e-40 2.8251e-40
-1.78992e-40 4.46784e-40 -4.441548e-15 4.079691e-14 4.7949915e-14 -1.5170924e-14 2.8468527e-14 2.0487846e-13
-3.0025294e-15 -5.6410907e-14 4.0087234e-14 -1.6538562e-10 -2.2563221e-10 -2.6496558e-10 -1.5389687e-10 -1.9624502e-10
-3.8631057e-10 -2.1326295e-10 -3.3483016e-10 -2.2197383e-10 1.379073e-22 -2.22291e-40 2.048e-40 8.7053e-41
-1.08881e-40 -2.6798e-40 3.97333e-40 2.64241e-40 -2.37321e-40 -7.9189554e-21 3.10055e-20 9.484787e-15
1.0634173e-20 -2.8158165e-20 1.2134444e-19 4.1323006e-20 -1.010483e-20 -1.0189243e-14 -1.833768e-10 -2.4357255e-10
-4.1232698e-10 -1.774728e-10 -2.9345698e-10 -5.3046567e-10 -2.216714e-10 -3.9726783e-10 -2.0986436e-10 2.0518517e-20
-5.0747956e-14 -9.8682123e-14 3.5769315e-16 1.4960414e-13 6.84759e-14 5.7392558e-18 -6.64171e-14 -7.499963e-16
-6.3981606e-20 -6.856515e-21 8.608399e-22 1.5620165e-20 1.2392233e-20 -9.640317e-21 -2.3811242e-21 3.988132e-22
3.7793555e-21 -1.5155396e-10 -2.6985325e-10 -3.7766537e-10 -1.8929167e-10 -4.1896553e-10 -4.4987428e-10 -3.4771228e-10
-5.9575334e-10 -2.0578174e-10 3.29053e-40 -2.6489491e-20 3.2681702e-20 -1.806203e-21 -1.815257e-20 9.876368e-21
-2.4533891e-20 2.0168535e-21 -1.8974226e-20 -1.6244291e-14 2.2168015e-13 1.3983045e-13 1.6329308e-14 3.2332337e-13
9.6771295e-15 -8.170482e-14 3.2482686e-13 3.2986317e-13 -8.08777e-11 -8.199577e-11 -3.8586428e-10 -5.6489882e-11
00000000: 43b3 cd3c 0d7f c43b b585 c73d e0d0 f0bd
00000010: 46b5 623d 3a46 d5bb c333 40bd 3ae1 29bd
00000020: ae8d 9e3d dc73 0100 0788 0000 9d79 0100
00000030: 0d67 0100 3a33 0100 9961 0100 c351 0000
00000040: dfcb 0000 a9fa 0100 af90 5fba 464a 5eba
00000050: bc04 8cba e6cf b1ba 5860 afba 7a62 b6ba
00000060: f4b8 26b9 4749 f537 c3fb 60b9 fdfa fbbc
00000070: 1e51 313d 0e17 8c3d c6e5 03be 7ca9 c33c
00000080: 3dbb 0dbc a5d1 75bc 208e 56bc ba53 1e3e
00000090: fc15 e4b3 718f c333 5fc6 9433 aab4 b6b4
000000a0: 2d1b 70b1 4bf2 24b3 bafa cab3 b392 d833
000000b0: 5521 9431 cfb8 9cb9 4a5e 91b9 7df8 84b9
000000c0: 04e3 afb9 82f4 71b9 8265 d8b9 36b6 92b9
000000d0: 884c 83b9 9cf0 80b9 27b7 42bd eb12 193e
000000e0: f890 453c adb0 febd 585a d03d 1a0b 38bd
000000f0: c4bb 0fbd 121f 2a3d f134 223e ee5a 233b
00000100: 5c9a 263b 6f57 d33a c232 3e3b 2680 f23a
00000110: de5b 953a 8675 393b ea17 b53a e539 1339
00000120: d3ae 1fb7 723c f237 9272 68b8 4544 2eb9
00000130: 85c9 54b9 a454 acb8 df25 a0b9 e0c8 76b8
00000140: 75af da38 8096 c2bd 0dca 583e 5932 14bd
00000150: 9a6a edbd e8d9 463d 65a0 82bd a615 14bd
00000160: 63cb ae3d 193f 243e 0bcd 13ba d806 a9ba
00000170: 2eaa bdb9 b2b0 7fb9 c214 1f3a 6fd6 84b8
00000180: f1ba 10ba 737e aab9 fe5c e5b9 38dc 4cb9
00000190: db1a 59b9 12f9 40b9 6d7c 54b7 3462 a8b9
000001a0: 2c5d 4eb9 f83d f3b5 c501 44b9 6123 bdb7
000001b0: f5ee ddbc 7148 873d de39 94bd 75e9 043d
000001c0: 5891 2abd 8e16 a43c 29b5 dfbc c220 8d3b
000001d0: 7d24 79bd 53a6 a135 ac25 24b7 110c d4b6
000001e0: 3a96 ba36 d29a 57b7 cbc2 84b6 61f9 0236
000001f0: 6f66 2ab7 f8e8 1ab3 b0e3 4337 eec7 cdb7
00000200: 41b9 73b8 995f 89b7 425c f4b7 bcf9 98b8
00000210: 722c 1337 b22e 45b8 a87c d0b8 b3bd 4029
00000220: cbe8 b029 2458 3029 0421 1329 1d30 4ea9
00000230: c941 cfa9 7a00 6ea8 8ba1 eda9 b894 8729
00000240: c472 23af dbda 60af cb25 66af d69c 32af
00000250: e625 90af 6fd7 c8af 2a02 49af 7770 8baf
00000260: d352 aaaf a131 0400 cfb2 0080 ef2e 0380
00000270: 923e 0580 5e9b 0380 6080 0400 8613 0300
00000280: f5f2 0180 74dd 0400 0d06 a0a7 a3bb 3729
00000290: 7df2 5729 c5a5 88a8 fa35 0029 32ac 662a
000002a0: e45a 58a7 590d 7ea9 6f89 3429 ead7 35af
000002b0: d215 78af 97aa 91af 1e36 29af 10c6 57af
000002c0: 6160 d4af 2f7c 6aaf 2813 b8af 1410 74af
000002d0: 3eb8 261b a86b 0280 e63a 0200 abf2 0000
000002e0: 842f 0180 05eb 0280 9a53 0400 99e0 0200
000002f0: 8e95 0280 b895 159e 596b 121f dcdc 2a28
00000300: b5df 481e 22f9 049f 1b42 0f20 7324 431f
00000310: f6df 3e9e 978d 37a8 fb9f 49af cae7 85af
00000320: ddad e2af 2722 43af 6654 a1af 34d0 11b0
00000330: f4ba 73af 7a66 daaf 91bf 66af bbca c11e
00000340: 698c 64a9 5f36 dea9 3132 ce25 7570 282a
00000350: ab31 9a29 bdbd d322 da8e 95a9 f62b 58a6
00000360: 8212 979f 1284 019e 2116 821c 3e87 931e
00000370: 2915 6a1e b619 369e a4e9 339d 5b11 f11b
00000380: afc7 8e1d a6a2 26af 785a 94af ad9f cfaf
00000390: de20 50af 2854 e6af 2d52 f7af 2728 bfaf
000003a0: 6ac2 23b0 6942 62af 4495 0300 a92f fa9e
000003b0: c155 1a1f 0c79 089d 3972 ab9e 2f8f 3a1e
000003c0: 4fb7 e79e 9f63 181d dd34 b39e c950 92a8
000003d0: f496 792a 626f 1d2a d214 9328 cf03 b62a
000003e0: e253 2e28 9ffb b7a9 7cdc b62a 4bb2 b92a
000003f0: 19da b1ae 844f b4ae 9221 d4af f471 78ae

encoder_cnn.6.bias f4 [32]
0.01186092 3.0436792e-10 -0.004158974 0.0004234926 0.0055235773 0.0061772806 0.012279912 0.0064713866
0.0016531018 -0.0024108607 0.017122574 0.010197034 0.019690754 0.0025444338 -5.1513903e-06 0.00082102534
0.0031416316 0.0079760505 0.0025697346 3.970963e-06 0.020197818 0.0057230624 -1.4367472e-06 0.008962132
-1.1584999e-08 4.9833596e-13 0.0014718035 0.015595365 -0.0013726238 0.010769865 0.0054592686 0.009275515
00000000: 4e54 423c fa53 a72f 0148 88bb 3708 de39
00000010: 20ff b43b c96a ca3b af31 493c ed0d d43b
00000020: e4ac d83a 88ff 1dbb a444 8c3c 7611 273c
00000030: 814e a13c 84c0 263b 1bda acb6 143a 573a
00000040: d5e3 4d3b fbad 023c fe68 283b 503e 8536
00000050: e575 a53c 8788 bb3b 42d6 c0b5 e8d5 123c
00000060: 5d07 47b2 e444 0c2b 88e9 c03a b483 7f3c
00000070: 9de9 b3ba 1674 303c aae3 b23b 54f8 173c

encoder_lin.0.weight f4 [64, 288]
0.058132984 -0.052324556 0.0366627 0.007342084 -0.10521183 -0.008826199 0.011888517 0.048077174
-0.038236618 -2.4207347e-10 -5.73892e-11 1.4461494e-11 -3.1597492e-11 -6.5145236e-14 3.5921947e-12 1.1156378e-11
5.6830493e-14 3.53384e-11 0.021343432 -0.093615875 -0.030186104 -0.038369596 0.010990232 -0.103418924
0.013124184 -0.024073882 -0.0055132844 0.014707868 -0.05133256 -0.06163411 -0.051230326 0.037648655
-0.020779097 0.04360433 -0.009022026 0.10083635 -0.012678212 -0.025273327 0.038644776 -0.021962494
0.013654253 -0.008265505 0.011019787 0.04352372 0.0031375035 0.015908225 -0.013654598 0.10309092
-0.018537434 -0.0709969 0.033256896 0.020334357 -0.005124915 0.0016956144 0.00036749933 -0.10920567
0.041719273 0.022204727 0.09934523 0.054105498 0.011878209 0.016162708 0.004992982 0.0071382434
0.01590281 -0.0787571 -0.09611686 0.03674958 -0.097418174 0.019106917 -0.006590302 0.036186017
-0.00028957106 -0.075740196 -0.011407681 -0.0055573406 -0.18194288 -0.03420712 -0.0008389871 -0.037747335
-0.034468792 0.009490095 -0.16097102 -0.04541486 -0.04855094 -0.04401841 0.009431175 0.029147217
-0.053406045 0.06724339 0.0049316115 -0.09271424 -0.0045751566 0.0042314576 0.07016712 0.061414607
0.025559116 0.021643708 0.049069334 -0.014594936 -0.09387821 -0.00218862 -0.025881905 -0.09797661
-0.029062396 -0.015057788 0.02707327 -0.04680624 0.020154681 0.04091601 0.009585917 0.025081545
0.032530446 0.013305462 0.013231197 0.06715867 -0.0071630604 -0.056324724 -0.0448399 0.040598672
0.032341037 -0.019155571 0.040868986 -0.044095665 -0.013305199 -0.037113037 2.21085e-06 2.7865426e-06
-4.2857e-08 3.7776613e-06 6.7214073e-06 8.872536e-08 -2.2758604e-06 -4.5843632e-07 1.2249639e-06 0.004605686
-0.045761663 0.019464245 0.03632846 0.01841698 0.022116713 -0.020398786 -0.040354453 -0.01386907
-0.030895395 0.02553573 -0.106330335 0.04970999 -0.08101601 0.030994153 -0.031381696 -0.0540963
-0.012224612 -0.05524212 -0.099775456 -0.0884894 0.059419192 0.02680498 0.10225142 -0.03290863
-0.043041438 -0.01641689 -0.03059292 -0.11220254 0.061661683 0.043781657 0.07193188 0.04937122
-0.055511937 -0.07939913 0.0057056462 2.1917604e-07 1.6539881e-06 7.6775757e-07 -9.500482e-07 -4.0400864e-06
1.6701586e-07 6.1845884e-07 -4.2685997e-06 1.1111218e-06 0.026683193 -0.033973586 0.039533302 0.009690751
-0.01759329 -0.007353074 0.016841983 0.08218499 -0.016318753 -0.0032453095 -0.060622074 -0.07585872
-0.020713119 0.038623802 -0.04849941 -0.029764015 -0.019102372 -0.0044527887 6.3785524e-09 -1.0378564e-08
3.7086437e-08 6.358752e-07 -1.5153748e-06 -1.5875356e-07 -1.1438168e-06 1.5016609e-06 -3.7150306e-07 -0.02997859
-0.056746393 -0.02446809 -0.0026626154 0.033004314 -0.0051913275 -0.026523149 0.02591683 0.0153714325
1.6172486e-09 3.327403e-08 2.2454186e-08 -7.107253e-09 -2.0957774e-08 2.9155274e-08 5.3936056e-09 8.325729e-09
-4.6381365e-09 -6.349404e-13 8.193551e-12 -2.2488628e-12 -3.912748e-12 3.7812906e-13 2.9199549e-12 -4.5203226e-13
-1.0438707e-12 -2.1944952e-12 -0.00013912345 -0.00041229362 -0.00036288463 -8.977786e-06 -9.401254e-06 -6.639531e-05
-0.00014124345 -9.64274e-05 -0.00047737831 0.00227381 -0.0029112108 0.0045155436 -0.01167841 -0.008676271
-0.007990592 0.021079386 0.07194137 0.046488114 0.025222048 0.162787 -0.107398465 -0.018533388
00000000: da1c 6e3d 4652 56bd a12b 163d dd95 f03b
00000010: 4d79 d7bd c39b 10bc 0ec8 423c 92ec 443d
00000020: 009e 1cbd d014 85af 7f66 7cae c768 7e2d
00000030: 9df7 0aae acb1 92a9 3ac7 7c2c dc43 442d
00000040: 19f1 7f29 806b 1b2e 6cd8 ae3c aeb9 bfbd
00000050: d948 f7bc 7029 1dbd 6010 343c 4dcd d3bd
00000060: d106 573c 9736 c5bc c8a8 b4bb 45f9 703c
00000070: 1742 52bd 0c74 7cbd e4d6 51bd 7a35 1a3d
00000080: ed38 aabc 749a 323d 1fd1 13bc 4a83 ce3d
00000090: 46b8 4fbc 020a cfbc fc49 1e3d b0ea b3bc
000000a0: 17b6 5f3c 0a6c 07bc 568c 343c ee45 323d
000000b0: 939e 4d3b f751 823c 89b7 5fbc 5521 d33d
000000c0: d1db 97bc d366 91bd 6238 083d 3d94 a63c
000000d0: e7ee a7bb 613f de3a edac c039 39a7 dfbd
000000e0: d4e1 2a3d b0e6 b53c 8375 cb3d ba9d 5d3d
000000f0: d29c 423c a867 843c 2b9c a33b ede7 e93b
00000100: 9c46 823c 674b a1bd ebd8 c4bd ba86 163d
00000110: 2e83 c7bd 1c86 9c3c 76f3 d7bb ca37 143d
00000120: 92d1 97b9 ad1d 9bbd 48e7 3abc 5a1a b6bb
00000130: 3c4f 3abe c41c 0cbd 79ef 5bba f39c 1abd
00000140: 262f 0dbd 587c 1b3c 96d5 24be ef04 3abd
00000150: 5add 46bd a64c 34bd 3785 1a3c 25c6 ee3c
00000160: 4cc0 5abd e7b6 893d 5b99 a13b f7e0 bdbd
00000170: 32eb 95bb 0aa8 8a3b c7b3 8f3d e28d 7b3d
00000180: 5a61 d13c 254e b13c edfc 483d 991f 6fbc
00000190: 3843 c0bd f36e 0fbb 4a06 d4bc f6a7 c8bd
000001a0: 4314 eebc f1b4 76bc c3c8 dd3c e6b7 3fbd
000001b0: 6e1b a53c 8c97 273d 400e 1d3c d077 cd3c
000001c0: a53e 053d 27ff 593c aac7 583c 7c8a 893d
000001d0: 1bb8 eabb c1b4 66bd 0baa 37bd cb4a 263d
000001e0: 0978 043d 25ec 9cbc 3d66 273d a89d 34bd
000001f0: 0dfe 59bc d703 18bd 1d5e 1436 7000 3b36
00000200: c511 38b3 ba83 7d36 7388 e136 4889 be33
00000210: fcba 18b6 021f f6b4 7069 a435 4beb 963b
00000220: 9570 3bbd 7b73 9f3c 27cd 143d 35df 963c
00000230: 1c2e b53c 5b1b a7bc b64a 25bd 193b 63bc
00000240: 5718 fdbc 4f30 d13c b8c3 d9bd b49c 4b3d
00000250: b9eb a5bd 73e7 fd3c 188a 00bd 1594 5dbd
00000260: bd49 48bc 9045 62bd 1357 ccbd ee39 b5bd
00000270: 8a61 733d 1e96 db3c 3169 d13d 33cb 06bd
00000280: 384c 30bd b77c 86bc 019e fabc 72ca e5bd
00000290: f690 7c3d 6554 333d 0651 933d 7a39 4a3d
000002a0: 7c60 63bd 039c a2bd 6ef6 ba3b a756 6b34
000002b0: 99fe dd35 e617 4e35 d106 7fb5 1490 87b6
000002c0: f854 3334 2b04 2635 fe3a 8fb6 db21 9535
000002d0: b696 da3c e327 0bbd aced 213d f5c5 1e3c
000002e0: ce1f 90bc 0ef2 f0bb 33f8 893c 9b50 a83d
000002f0: e8ae 85bc 42af 54bb da4e 78bd d15b 9bbd
00000300: 8fae a9bc fe33 1e3d 51a7 46bd aad3 f3bc
00000310: 947c 9cbc b3e8 91bb 572a db31 684d 32b2
00000320: f848 1f33 03b1 2a35 e263 cbb5 d975 2ab4
00000330: 3f85 99b5 ad8c c935 fe72 c7b4 a995 f5bc
00000340: e86e 68bd 4e71 c8bc 467f 2ebb 882f 073d
00000350: 031c aabb 1347 d9bc 884f d43c 76d8 7b3c
00000360: e045 de30 2fe9 0e33 47e1 c032 0f34 f4b1
00000370: a206 b4b2 2071 fa32 a852 b931 f208 0f32
00000380: 7b5d 9fb1 47b8 32ab 7924 102d e93f 1eac
00000390: e7aa 89ac 24de d42a 3b79 4d2c b778 feaa
000003a0: 68e9 92ab 836c 1aac abe1 11b9 1d29 d8b9
000003b0: 8d41 beb9 4c9f 16b7 14ba 1db7 b63d 8bb8
000003c0: c01a 14b9 1139 cab8 a248 fab9 3404 153b
000003d0: 03ca 3ebb 20f7 933b cd56 3fbc eb26 0ebc
000003e0: f9ea 02bc adae ac3c ff55 933d 526a 3e3d
000003f0: 789e ce3c a3b1 263e baf3 dbbd 55d3 97bc

encoder_lin.0.bias f4 [64]
-0.00028947133 -4.1512943e-05 0.005830745 0.0023869893 -0.0038182996 1.2843614e-06 -0.003580057 2.5648557e-12
0.003899803 -0.0013969715 -0.0024051457 -4.430951e-05 -0.0019167765 -0.00081720727 -2.794574e-05 0.004537365
0.009529752 0.01048845 -0.0024052742 0.0014499164 -1.0718289e-06 0.0017612082 0.0006004447 0.00514036
0.00016683765 -3.7232167e-06 -0.004853255 -0.00046026672 -0.0018263052 3.0826006e-05 0.0070268214 0.0010443147
-0.00024087788 -1.2432438e-06 0.0035478212 -7.4181815e-05 0.0011816773 3.6746347e-05 0.007630708 0.0029190173
-0.00015674788 -0.001406057 0.0041054697 -0.002197973 0.004572299 -0.00017542847 0.001047844 -1.6705173e-06
0.0028887657 0.00012630077 4.2943302e-05 -5.091548e-05 0.0034726388 -0.0029046189 -0.0055823843 0.011397816
-0.0019350835 0.006431205 -2.8550512e-05 -0.00323653 -1.5841786e-05 -0.003772312 0.00085128204 -0.0034877486
00000000: 2fc4 97b9 2f1e 2eb8 d60f bf3b 096f 1c3b
00000010: 703c 7abb 5262 ac35 649f 6abb 557c 342c
00000020: d693 7f3b 961a b7ba a69f 1dbb f9d8 39b8
00000030: 593c fbba da39 56ba 056d eab7 2dae 943b
00000040: ad22 1c3c bfd7 2b3c cea1 1dbb 1f0b be3a
00000050: c3db 8fb5 57d8 e63a 2967 1d3a 7770 a83b
00000060: 24f1 2e39 60dc 79b6 0e08 9fbb f44f f1b9
00000070: a260 efba 2c4b 0138 4041 e63b 63e1 883a
00000080: 2a94 7cb9 88dd a6b5 9082 683b 0f92 9bb8
00000090: 83e2 9a3a 1720 1a38 050b fa3b fc4c 3f3b
000000a0: b05c 24b9 724b b8ba 2d87 863b de0b 10bb
000000b0: 39d3 953b 39f3 37b9 cf57 893a 8a36 e0b5
000000c0: 7251 3d3b 9b6f 0439 051e 3438 158e 55b8
000000d0: 3695 633b 6b5b 3ebb 6fec b6bb e8bd 3a3c
000000e0: a1a2 fdba dcbc d23b c27f efb7 f71b 54bb
000000f0: fae3 84b7 e538 77bb 9228 5f3a b692 64bb

encoder_lin.3.weight f4 [4, 64]
-0.01581184 0.0009748158 0.096978925 0.366429 -0.09595979 4.3057873e-05 0.023329 4.218271e-11
0.37833008 0.10218239 -0.1268651 -0.50371885 0.16685103 -0.08588837 6.193243e-05 0.1736688
0.249581 0.11458504 -0.2791964 -0.0515115 -6.111092e-06 0.032103494 0.0072574504 0.15501542
-0.00024469098 0.00012965147 0.5330152 -0.00054180814 -0.0004471286 -0.13891596 0.18612663 -0.07674458
-0.0037900999 2.9789113e-05 -0.40685803 0.053451322 -0.05826 0.0003313641 -0.09410553 -0.055758014
0.015356442 -0.038802564 0.16042113 -0.4938786 0.15258867 0.26822168 -0.24833743 4.994792e-06
0.06604479 0.0001985874 -2.2128022e-06 -0.00021417341 0.06846078 -0.07514961 -0.35768205 0.24970372
-0.0010134494 0.26821688 -4.9959002e-05 -0.19276938 -3.7381298e-05 0.04712804 0.039944164 0.23028195
0.50843704 -0.000104409664 0.2911057 0.16719016 0.39085016 -4.3817718e-07 -0.15573706 2.3397656e-10
-0.2878997 0.23971997 -0.029645259 -0.19906323 -0.30332276 -0.003008671 4.68405e-05 -0.0854149
-0.21734047 0.18456018 0.38387185 0.3376989 -1.08455815e-05 -0.062717676 -0.009816753 0.09942005
0.00067304104 0.00011717262 0.3037559 -0.0012290115 0.012484566 -0.1008405 0.13135584 0.15412514
0.01055072 -0.00020633436 -0.19290543 -0.10930578 0.017778872 -8.082504e-05 0.078282714 -0.1771086
-0.00041653574 -0.39872146 0.07366256 0.12688951 0.09461882 -0.29180828 0.4145314 -2.9732864e-06
-0.025269622 0.00017650257 0.0004880184 -0.00019198116 -0.2842758 -0.45316544 0.1928683 -0.19340767
0.28703827 0.10998035 -4.1991843e-05 0.04331458 6.1115898e-06 -0.4971843 0.17540547 -0.4909297
0.40683123 -0.0011976084 0.22950715 -0.09348888 -0.2775082 8.9195615e-05 -0.29180694 2.829191e-11
0.17194189 -0.3297095 -0.37828782 -0.029845938 -0.32859695 -0.22776105 -1.8334398e-05 -0.10107107
0.48335698 0.26458344 -0.16518359 0.19973835 1.9546109e-05 -0.16616721 0.0057193614 -0.028651433
0.0014367407 -3.7405545e-05 -0.18850043 -0.00029587687 -0.0032429437 -0.19897448 0.07419992 -0.019665986
-0.0029941797 -9.6136726e-05 0.31881252 -0.15769738 -0.03705622 -3.7643553e-05 0.49503583 0.24141996
0.00505843 -0.13072167 -0.092709705 -0.01767065 -0.0539534 -0.2688006 0.099677645 -4.4401454e-06
-0.13495792 0.00023740195 -0.00044754503 -0.000122005426 0.23546815 0.00878152 -0.31839916 0.28071204
-0.09972242 -0.035758313 -3.062521e-05 -0.52521056 1.643584e-05 0.16185573 -0.18163691 -0.10752729
0.16833864 -0.0004773997 0.2807062 -0.013071954 -0.21021035 9.974982e-06 0.031594202 2.7971042e-10
0.30082527 0.2277298 -0.2499704 0.1846523 0.26514465 -0.274324 3.4112905e-05 -0.22193402
0.100900225 -0.24818875 0.027354049 -0.27426565 -4.379948e-07 0.25406218 0.0048757726 0.0014192178
0.00019550577 -7.3510804e-05 0.007019218 -0.0029332351 -0.006922419 0.44647127 -0.0016913626 0.38344923
0.0040286607 -0.00021414101 0.0020253528 0.11612171 -0.47180533 -0.00024426632 -0.23215455 0.41403773
0.0015846763 -0.20232385 -0.049896326 -0.12799785 -0.009467857 -0.32621735 0.38645366 -2.7598571e-06
0.17800806 0.00025373502 -1.3191422e-05 0.00062321575 -0.30109966 -0.32454515 -0.093404636 0.28583863
-0.36657304 -0.009981721 0.00019520977 0.03286745 -2.7885508e-05 -0.011668129 0.052971847 -0.2020118
00000000: d587 81bc c88a 7f3a e39c c63d 959c bb3e
00000010: 9186 c4bd 0a99 3438 761c bf3c 8285 392e
00000020: 7bb4 c13e 0045 d13d ede8 01be b8f3 00bf
00000030: ffda 2a3e 3ee6 afbd b8e1 8138 3cd6 313e
00000040: 2992 7f3e 90ab ea3d d5f2 8ebe b9fd 52bd
00000050: e10d cdb6 f47e 033d e8cf ed3b 5dbc 1e3e
00000060: de49 80b9 0df3 0739 af73 083f 2108 0eba
00000070: 966c eab9 fc3f 0ebe fb97 3e3e 432c 9dbd
00000080: 5363 78bb a2e3 f937 b24f d0be c6ef 5a3d
00000090: 0aa2 6ebd f0ba ad39 66ba c0bd 8462 64bd
000000a0: 9699 7b3c 70ef 1ebd 7045 243e a8dd fcbe
000000b0: 3440 1c3e 5a54 893e 2b4c 7ebe f098 a736
000000c0: 7e42 873d e63b 5039 a77f 14b6 bd93 60b9
000000d0: 2a35 8c3d 0ae8 99bd 1a22 b7be 55b2 7f3e
000000e0: b8d5 84ba b953 893e 128b 51b8 5665 45be
000000f0: ddc9 1cb8 5509 413d 7e9c 233d 08cf 6b3e
00000100: ee28 023f 83f6 dab8 ce0b 953e e633 2b3e
00000110: 831d c83e 9d3e ebb4 8979 1fbe 46a1 802f
00000120: 9767 93be 2779 753e 9dda f2bc 3bd7 4bbe
00000130: 1f4d 9bbe 202d 45bb 9b76 4438 02ee aebd
00000140: 808e 5ebe 58fd 3c3e da8a c43e dfe6 ac3e
00000150: 6bf5 35b7 2072 80bd 72d6 20bc bd9c cb3d
00000160: 056f 303a 92ba f538 e585 9b3e c816 a1ba
00000170: 118c 4c3c 7785 cebd 2582 063e fbd2 1d3e
00000180: eddc 2c3c 755b 58b9 0089 45be b5db dfbd
00000190: ffa4 913c 9d80 a9b8 b052 a03d f55b 35be
000001a0: 7b62 dab9 3825 ccbe 65dc 963d 53ef 013e
000001b0: 83c7 c13d e567 95be 763d d43e ac88 47b6
000001c0: 3d02 cfbc 8c13 3939 b9dc ff39 8d4e 49b9
000001d0: 998c 91be 4d05 e8be 457f 453e a90c 46be
000001e0: aef6 923e 613d e13d 6620 30b8 a16a 313d
000001f0: 2812 cd36 f18e febe 7e9d 333e 235b fbbe
00000200: 2f4c d03e 12f9 9cba ec03 6b3e 1977 bfbd
00000210: 8e15 8ebe 880e bb38 b867 95be b8db f82d
00000220: 8911 303e afcf a8be f1ae c1be 787f f4bc
00000230: dc3d a8be 313a 69be d2cc 99b7 59fe cebd
00000240: 917a f73e 7b77 873e e325 29be 3688 4c3e
00000250: f3f6 a337 bd27 2abe 7b69 bb3b 69b6 eabc
00000260: 0551 bc3a e6e3 1cb8 4206 41be ec1f 9bb9
00000270: 9187 54bb f7bf 4bbe 21f6 973d 901a a1bc
00000280: 003a 44bb 039d c9b8 653b a33e 6c7b 21be
00000290: 43c8 17bd 75e3 1db8 5675 fd3e cb36 773e
000002a0: 30c1 a53b e7db 05be 96de bdbd 0ac2 90bc
000002b0: 3efe 5cbd 3ba0 89be cb23 cc3d 8ffc 94b6
000002c0: 6932 0abe 1aef 7839 7aa4 eab9 2add ffb8
000002d0: 901e 713e 5de0 0f3c 3705 a3be 7db9 8f3e
000002e0: 453b ccbd 4f77 12bd 9273 00b8 3374 06bf
000002f0: b3df 8937 82bd 253e 07ff 39be 4537 dcbd
00000300: f760 2c3e 814b fab9 b9b8 8f3e c02b 56bc
00000310: 6241 57be 395a 2737 ec68 013d bec5 992f
00000320: c505 9a3e 0032 693e 3ef8 7fbe 7e15 3d3e
00000330: 0ac1 873e 3274 8cbe 7414 0f38 ac42 63be
00000340: c7a4 ce3d 3125 7ebe 9915 e03c 8c6c 8cbe
00000350: 8c25 ebb4 7014 823e f2c4 9f3b 0c05 ba3a
00000360: ae00 4d39 d029 9ab8 7801 e63b 853b 40bb
00000370: 76d5 e2bb e297 e43e b6b0 ddba 7553 c43e
00000380: db02 843b 0a8b 60b9 c8bb 043b 38d1 ed3d
00000390: 7890 f1be df10 80b9 ecb9 6dbe c1fc d33e
000003a0: eab4 cf3a fc2d 4fbe 1760 4cbd de11 03be
000003b0: 121f 1bbc f605 a7be 41dd c53e fc35 39b6
000003c0: bf47 363e bd07 8539 ba50 5db7 4d5f 233a
000003d0: bc29 9abe c82a a6be ee4a bfbd 7159 923e
000003e0: 76af bbbe 5f8a 23bc 39b1 4c39 05a0 063d
000003f0: aceb e9b7 ae2b 3fbc 02f9 583d 2edc 4ebe

encoder_lin.3.bias f4 [4]
0.13629715 0.01596796 -0.026474748 0.016724115
00000000: 7b91 0b3e 3dcf 823c 92e1 d8bc 0301 893c

decoder_lin.0.weight f4 [64, 4]
0.00960885 -0.18100479 -0.27331674 0.21665533 -0.31827435 -0.2777462 -0.21342064 -0.070960976
-0.09531353 0.16043048 0.33175674 0.27298 0.2171374 -0.22485583 -0.1594166 -0.16803464
-0.009560219 -0.15448992 -0.34772184 0.06643505 -0.18559738 0.055345535 -0.35330433 -0.19270353
0.21435946 -0.17087743 0.3606521 0.3350524 0.2701904 -0.106029764 -0.0732179 -0.10032481
0.02631988 -0.14983276 -0.28830847 0.14048168 0.21287835 -0.35680723 -0.040672455 -0.1262732
0.08864675 -0.07323008 -0.24812135 0.16640934 0.004764901 0.1915191 0.3754926 -0.21546884
0.04284047 -0.37015748 -0.09217176 -0.23910262 -0.00053032074 -0.0030608373 -0.00043336878 -0.003003296
0.17684676 0.31815746 -0.08737974 -0.008015394 -0.026483316 -0.15145849 -0.17194206 -0.2503787
0.21733993 0.07788788 -0.021006167 -0.011463996 0.21035533 0.12433507 0.218699 -0.20307751
-0.22805206 -0.4107757 0.1461798 0.01550503 -0.09132829 0.27640507 -0.013574056 0.28506094
0.33925682 -0.15721558 0.025520751 0.0064071002 0.00085936364 0.0017222777 0.0052942345 0.001599578
0.029013587 0.37114987 -0.1500251 0.06682035 -0.016931586 0.14558621 0.15565236 -0.35449177
0.27197614 0.003918877 0.011388177 0.028168783 0.27549666 -0.05382125 -0.17560318 -0.041589532
-0.009729924 0.38886422 0.064271666 0.23208433 -0.0020949948 0.16031972 -0.27344173 -0.2526488
0.07157527 -0.31925258 -0.1970995 -0.19960901 -0.05770883 0.07223293 -0.2446542 0.30402455
0.061479613 -0.32490975 -0.08480731 -0.28214857 0.26033852 0.085255206 -0.11279844 0.013395567
-0.38281178 0.1968176 -0.0803436 -0.021793853 0.23659854 0.19455178 -0.109702334 -0.13816795
0.23257017 0.20850703 -0.116089754 -0.13833223 0.12001309 -0.054326385 -0.03205638 -0.2533382
0.18538946 -0.059232242 -0.1894183 -0.15071934 0.13573816 0.022393733 -0.256885 0.14096703
-0.3948524 0.031088307 0.047808263 0.03521729 0.09322181 -0.11191891 0.04839497 -0.27136448
0.25425023 0.028942546 0.36262083 0.09352566 0.051397678 -0.17610957 -0.1856782 0.29189894
0.051551756 -0.07499695 0.24680726 -0.26831147 -0.05343792 0.36715028 0.05861327 0.2934269
-0.1192954 -0.17990288 0.33632123 0.08628809 0.26828906 0.12830615 0.09221491 -0.13945863
-0.2932218 0.23408945 0.15297551 -0.27566424 0.19449198 0.08752498 -0.20081717 0.05519142
-0.29447848 0.2515412 -0.23267001 -0.122419365 0.2833471 -0.24318871 0.2741824 0.1434975
0.14625834 -0.19027214 0.013128695 0.3690858 -0.0801234 0.20372781 -0.33582485 -0.061572924
0.040432207 -0.36024085 0.2694972 -0.073930785 -0.3459378 -0.1095187 0.012879294 -0.27499247
0.25507036 -0.03077258 -0.11225776 0.09255117 0.27259415 -0.089874536 0.026183436 0.16035232
-0.09928366 0.1413799 -0.26720732 -0.276514 -0.12958698 -0.19201301 -0.20413603 0.27366376
-0.06885098 0.2774364 0.09969489 0.30199176 0.07302131 0.24858525 -0.23538129 0.040188123
0.034629155 0.38681337 0.070602715 -0.09385726 0.1291461 -0.29541907 0.07448473 -0.29169214
-0.16147856 0.037342537 -0.2970522 -0.24368025 -0.15307228 -0.30882585 0.19801623 0.24111499
00000000: 706e 1d3c 5259 39be 2cf0 8bbe e5da 5d3e
00000010: dbf4 a2be c034 8ebe f18a 5abe fd53 91bd
00000020: bd33 c3bd e347 243e 05dc a93e 09c4 8b3e
00000030: 4459 5e3e 9b40 66be 1b3e 23be 4611 2cbe
00000040: 77a2 1cbc 9b32 1ebe 9908 b2be 190f 883d
00000050: 3d0d 3ebe 00b2 623d 4ee4 b4be 1354 45be
00000060: 0c81 5b3e 7efa 2ebe 64a7 b83e fd8b ab3e
00000070: 6556 8a3e 2226 d9bd 44f3 95bd 1877 cdbd
00000080: ca9c d73c c26d 19be 2b9d 93be 6eda 0f3e
00000090: c8fc 593e 70af b6be 2998 26bd c34d 01be
000000a0: 6d8c b53d a7f9 95bd 8613 7ebe 3667 2a3e
000000b0: e322 9c3b 951d 443e 9140 c03e dda3 5cbe
000000c0: 7d79 2f3d 4885 bdbe 8cc4 bcbd 51d7 74be
000000d0: 3905 0bba 5498 48bb c635 e3b9 f2d2 44bb
000000e0: 5117 353e 89e5 a23e 26f4 b2bd 0053 03bc
000000f0: 8af3 d8bc ef17 1bbe 9411 30be a331 80be
00000100: 5c8e 5e3e ae83 9f3d 2015 acbc 7cd3 3bbc
00000110: 6367 573e 63a3 fe3d a1f2 5f3e 8df3 4fbe
00000120: 7b86 69be 3151 d2be 28b0 153e cf08 7e3c
00000130: 540a bbbd f784 8d3e b865 5ebc 82f3 913e
00000140: 12b3 ad3e 1ffd 20be e510 d13c a7f2 d13b
00000150: eb46 613a 0dbe e13a 427b ad3b eea8 d13a
00000160: e7ad ed3c 5b07 be3e 2ea0 19be 1cd9 883d
00000170: 1cb4 8abc 8d14 153e 5563 1f3e f27f b5be
00000180: 7540 8b3e ec69 803b 7a95 3a3c 38c2 e63c
00000190: e60d 8d3e ac73 5cbd 52d1 33be c959 2abd
000001a0: 426a 1fbc 3619 c73e dda0 833d 84a7 6d3e
000001b0: 2e4c 09bb da2a 243e 8e00 8cbe 2f5b 81be
000001c0: 0e96 923d 1375 a3be 74d4 49be 4e66 4cbe
000001d0: 1860 6cbd dcee 933d a186 7abe 1ba9 9b3e
000001e0: 0cd2 7b3d 925a a6be 74af adbd c775 90be
000001f0: 174b 853e 489a ae3d de02 e7bd 1579 5b3c
00000200: e8ff c3be 8e8a 493e 2f8b a4bd 0689 b2bc
00000210: e346 723e 9538 473e 9eab e0bd e67b 0dbe
00000220: e026 6e3e de82 553e 77c0 edbd f7a6 0dbe
00000230: 6cc9 f53d 5885 5ebd 8d4d 03bd 8bb5 81be
00000240: bcd6 3d3e 829d 72bd dff6 41be 2c56 1abe
00000250: f2fe 0a3e 1073 b73c 6e86 83be a959 103e
00000260: 182a cabe e8ac fe3c 99d2 433d 0140 103d
00000270: 14eb be3d be35 e5bd ce39 463d 49f0 8abe
00000280: 162d 823e eb18 ed3c 70a9 b93e 628a bf3d
00000290: 5f86 523d 1156 34be 6d22 3ebe c773 953e
000002a0: ef27 533d 0098 99bd 0bbb 7c3e 1f60 89be
000002b0: b8e1 5abd 1ffb bb3e 7814 703d 0d3c 963e
000002c0: 2651 f4bd 7638 38be 4c32 ac3e cfb7 b03d
000002d0: 2f5d 893e b062 033e 2cdb bc3d 3ece 0ebe
000002e0: 2b21 96be 25b5 6f3e 9da5 1c3e dd23 8dbe
000002f0: e828 473e 4c40 b33d 04a3 4dbe 6610 623d
00000300: e2c5 96be 02ca 803e 0c41 6ebe 01b7 fabd
00000310: df12 913e 7606 79be a361 8c3e 02f1 123e
00000320: bfc4 153e b3d6 42be bd19 573c d0f8 bc3e
00000330: bd17 a4bd 069e 503e 3cf1 abbe e433 7cbd
00000340: 3e9c 253d 7d71 b8be 89fb 893e 0669 97bd
00000350: c21e b1be 574b e0bd ad03 533c d0cb 8cbe
00000360: 9598 823e c716 fcbc 65e7 e5bd 788b bd3d
00000370: 7691 8b3e 2410 b8bd a57e d63c 6633 243e
00000380: 3b55 cbbd e4c5 103e 66cf 88be 3e93 8dbe
00000390: 73b2 04be 0f9f 44be 0909 51be a81d 8c3e
000003a0: be01 8dbd 250c 8e3e d62c cc3d aa9e 9a3e
000003b0: 328c 953d 228d 7e3e cb07 71be 4d9c 243d
000003c0: 4dd7 0d3d 670c c63e 2898 903d 3c38 c0bd
000003d0: e03e 043e 2b41 97be 738b 983d ac58 95be
000003e0: a35a 25be 7df4 183d 3a17 98be 5187 79be
000003f0: fbbe 1cbe 6c1e 9ebe c4c4 4a3e d9e6 763e

decoder_lin.0.bias f4 [64]
0.001864294 -0.00029239286 -0.050866015 0.12368319 -0.028034603 0.049036577 0.13399361 0.20817935
-0.014485101 -0.05397536 0.014457773 0.068809524 -0.0019750097 -0.0028084172 0.030234171 0.035085306
-0.12864184 0.04615328 0.022214768 0.12025142 0.046696916 -0.009669185 0.033294354 0.03452761
-0.05982908 0.037845533 -0.06478748 -0.027895547 0.049496073 0.08463348 0.028211912 0.04136855
0.052257914 0.08434932 0.09301622 0.0006672174 -0.09477774 0.04758517 0.030736871 0.04482204
0.12325449 0.016995989 0.04578871 0.06369734 -0.016822357 -0.018909398 0.04956287 0.076068215
0.09448656 0.1260277 0.1130541 0.073396295 -0.008313743 -0.007306915 0.022061199 -0.005633458
-0.0005579639 0.005522535 0.015648577 0.0650579 -0.037408944 0.0075606247 0.018329553 0.038818907
00000000: 545b f43a 4e4c 99b9 e258 50bd 9d4d fd3d
00000010: d3a8 e5bc 94da 483d 9f35 093e f82c 553e
00000020: eb52 6dbc 4415 5dbd 4ce0 6c3c 02ec 8c3d
00000030: 2a6f 01bb 6c0d 38bb a7ad f73c 9cb5 0f3d
00000040: b0ba 03be 390b 3d3d bffb b53c 6046 f63d
00000050: 4445 3f3d 806b 1ebc a95f 083d d36c 0d3d
00000060: 560f 75bd eb03 1b3d 4caf 84bd 3485 e4bc
00000070: 65bc 4a3d 5154 ad3d ab1c e73c 1272 293d
00000080: 650c 563d 56bf ac3d 4a7f be3d 34e8 2e3a
00000090: d51a c2bd abe8 423d e4cb fb3c 5197 373d
000000a0: da6c fc3d 2c3b 8b3c f18c 3b3d c073 823d
000000b0: 0acf 89bc e2e7 9abc 7002 4b3d a7c9 9b3d
000000c0: 2b82 c13d 680d 013e e888 e73d cc50 963d
000000d0: 5e36 08bc d86e efbb b0b9 b43c df98 b8bb
000000e0: 5344 12ba 62f6 b43b 7231 803c 143d 853d
000000f0: 1f3a 19bd 1ebf f73b dc27 963c 9300 1f3d

decoder_lin.3.weight f4 [288, 64]
-0.00320751 -0.003651403 0.012916659 -0.024745537 0.0015385004 -0.005348673 0.028864136 -0.005952966
-0.002692656 -0.03170186 -0.009132973 0.014993701 -0.011708433 -0.00020669836 -0.0061320956 -0.00793687
0.0067655114 0.016515082 -0.026624247 -0.023958841 0.01295972 -0.002296937 -0.030322203 0.0004955929
0.018940955 -0.009810324 -0.010441908 -0.012572271 -0.006792097 -0.0146088945 -0.01636045 -0.0008241073
-0.011731477 -0.007910274 -0.004738502 -0.0075286957 -0.012034395 -0.013666782 -0.002402793 -0.008351736
0.03008732 -0.015301237 0.0043832245 -0.0069591226 0.006174659 0.013301169 -0.027507892 -0.0113133155
-0.017503835 0.027561039 -0.01062711 -0.011345956 -0.012871864 -0.009107791 -0.0015463392 0.013992853
-0.0138684865 -0.005785848 0.0022792744 -0.026914889 -0.00922994 -0.024725998 -0.009576923 -0.019690767
0.06630029 0.013298674 0.016652161 -0.00031704784 0.052114926 -0.009537973 -0.007841599 -0.0027728975
0.054669708 0.013577293 0.049371704 -0.009616963 0.010182588 0.0027505409 -0.0010844201 -0.00016920948
0.0065915543 -0.03183845 0.008253144 -0.0041942215 0.0011422074 0.0012580795 -0.002102053 -0.019158999
0.013213896 0.014835422 -0.009819476 0.0088706445 0.011700412 0.0042118747 0.0046160836 0.0056797382
-0.025515074 -0.0016559857 -0.0049226 -0.002254741 0.016648665 0.027833972 0.0035891344 -0.014635668
-0.05541785 0.05726509 -0.038549073 -0.012090839 -0.0108922785 -0.01054843 0.0010927996 0.011362525
-0.0061680647 -0.012621399 0.025470277 0.0024479756 -0.0012499366 -0.008318375 0.032491636 0.020606447
0.00055206066 0.052343074 -0.0016087142 -0.015313203 -0.007176187 0.0067944517 -0.018094454 0.030829739
-0.0016732034 0.046850942 0.038628694 -0.024947807 -0.0036807368 -0.0027828587 0.07191977 -0.011085219
-0.005672985 -0.0057990234 -0.0031205642 0.0143072475 -0.074410126 -5.7302695e-05 -0.031144338 -0.007829216
0.020438371 0.02771265 -0.0013979628 -0.06587974 -0.00420436 0.00051336014 -0.029302357 -0.010473444
0.003503346 -0.01201346 -0.06947835 -0.000769294 -0.050654024 -0.020828336 -0.07781189 0.0014126947
-0.01230928 -0.0016550651 0.0016754994 -0.012209346 0.0012651475 -0.016179921 0.008890195 -0.031085454
0.035350055 -0.0018402706 -0.00035091845 -0.07536379 0.049115427 0.03621849 -0.021055508 -0.013473376
-0.00484006 0.035501517 0.021312628 -0.0043120896 0.030892944 -0.019820504 -0.010281905 0.0089752525
-0.001232919 0.016161399 -0.062375758 -0.016443036 -0.026030147 -0.035023954 -0.0023723193 0.041885793
-0.0061279656 -0.005428575 -0.022290276 0.011290154 -0.019430507 -0.021366993 -0.0065389746 -0.001087488
-0.009240864 0.032029163 -0.010576585 -0.01829592 0.031761114 -0.0019362393 -0.008353996 0.0027907863
-0.012956137 -0.016605988 0.025039488 -0.0003059727 0.006787455 0.0009222858 0.00021373591 -0.00349386
-0.0073619373 -0.009300866 2.3572944e-05 -0.016095096 0.0220648 -0.0071355966 0.026561545 -0.015264613
-0.015846938 -0.02449762 -0.024290048 0.0027794177 -0.0119272005 -0.01431575 -0.020907603 0.010021779
-0.01678723 0.00017127166 0.006779113 9.150888e-05 -0.0008403156 -0.02477405 -0.015015217 -0.01453791
-0.01862203 -0.005448798 0.001985938 -0.01737659 0.026341645 -0.0051476285 -0.010126862 -0.0035890713
-0.010340614 -0.013363612 -0.002040709 -0.0041813026 -0.011382674 0.029974075 -0.016800528 0.0034653065
00000000: 1735 52bb 604c 6fbb 65a0 533c 27b7 cabc
00000010: 82a7 c93a ec43 afbb 7b74 ec3c 1911 c3bb
00000020: 4577 30bb cfd9 01bd 77a2 15bc 24a8 753c
00000030: bad4 3fbc 2bbd 58b9 bfef c8bb a509 02bc
00000040: 39b1 dd3b a34a 873c 181b dabc 5545 c4bc
00000050: 0155 543c 3588 16bb 4566 f8bc adea 013a
00000060: 102a 9b3c 7bbb 20bc 8914 2bbc edfb 4dbc
00000070: 3d90 debb 255a 6fbc 5a06 86bc e808 58ba
00000080: 6235 40bc 189a 01bc 7045 9bbb 47b3 f6bb
00000090: e92b 45bc a3ea 5fbc 2d78 1dbb b8d5 08bc
000000a0: af79 f63c 0ab2 7abc 27a1 8f3b 5a09 e4bb
000000b0: cb54 ca3b 25ed 593c 3b58 e1bc 7c5b 39bc
000000c0: 3464 8fbc b0c7 e13c 541d 2ebc 63e4 39bc
000000d0: 83e4 52bc d838 15bc 89ae caba 4842 653c
000000e0: a638 63bc 3697 bdbb e15f 153b 9d7c dcbc
000000f0: 2d39 17bc 2d8e cabc 87e8 1cbc 884e a1bc
00000100: 72c8 873d aee2 593c 1d6a 883c 7139 a6b9
00000110: 7676 553d 2945 1cbc 0d7a 00bc 80b9 35bb
00000120: 58ed 5f3d 4b73 5e3c fc39 4a3d 7790 1dbc
00000130: dfd4 263c 6b42 343b 1a23 8eba d36d 31b9
00000140: f7fd d73b 0969 02bd 3238 073c ae6f 89bb
00000150: 1fb6 953a 25e6 a43a 99c2 09bb 55f3 9cbc
00000160: 197f 583c 4510 733c dee1 20bc 2e56 113c
00000170: 16b3 3f3c c403 8a3b 8442 973b 191d ba3b
00000180: fd04 d1bc a90d d9ba c34d a1bb 47c4 13bb
00000190: c862 883c 1204 e43c af37 6b3b 71ca 6fbc
000001a0: d4fd 62bd cd8e 6a3d a2e5 1dbd a818 46bc
000001b0: 8775 32bc 52d3 2cbc 453c 8f3a e229 3a3c
000001c0: 7a1d cabb fcc9 4ebc 0ba7 d03c 376e 203b
000001d0: ead4 a3ba cb49 08bc f315 053d dace a83c
000001e0: 2ab8 103a b165 563d 7edb d2ba 3be4 7abc
000001f0: 3826 ebbb fea3 de3b d23a 94bc a68e fc3c
00000200: 644f dbba c6e6 3f3d 1f39 1e3d 585f ccbc
00000210: 8438 71bb 9f60 36bb ac4a 933d c79e 35bc
00000220: 73e4 b9bb bc05 bebb 6182 4cbb f268 6a3c
00000230: 5664 98bd 4d58 70b8 6922 ffbc 1d46 00bc
00000240: 5f6e a73c a405 e33c d93b b7ba f5eb 86bd
00000250: bac4 89bb 0493 063a 7f0b f0bc cf98 2bbc
00000260: 6498 653b 1ad4 44bc aa4a 8ebd 72aa 49ba
00000270: 987a 4fbd 30a0 aabc d75b 9fbd 2b2a b93a
00000280: ddac 49bc c5ee d8ba 6e9c db3a b509 48bc
00000290: 4ed3 a53a c18b 84bc 2ea8 113c eca6 febc
000002a0: 38cb 103d 3c35 f1ba 7afb b7b9 5558 9abd
000002b0: 422d 493d d759 143d 9a7c acbc 6fbf 5cbc
000002c0: 5e99 9ebb 0a6a 113d d297 ae3c 6e4c 8dbb
000002d0: 3313 fd3c 9c5e a2bc 6f75 28bc f00c 133c
000002e0: e699 a1ba e964 843c b97d 7fbd 8cb3 86bc
000002f0: 2d3d d5bc 4775 0fbd ea78 1bbb 7090 2b3d
00000300: 1acd c8bb 30e2 b1bb 199a b6bc 57fa 383c
00000310: ba2c 9fbc d509 afbc e544 d6bb 0b8a 8eba
00000320: fe66 17bc 0331 033d 6a49 2dbc 53e1 95bc
00000330: f117 023d 69c9 fdba 33df 08bc a0e5 363b
00000340: fa45 54bc 4809 88bc 9d1f cd3c f66a a0b9
00000350: 4d69 de3b 8dc5 713a 4c1e 6039 3ef9 64bb
00000360: 683c f1bb a962 18bc 83be c537 ddd9 83bc
00000370: 3dc1 b43c b9d1 e9bb 9997 d93c 6d18 7abc
00000380: 70d1 81bc 3caf c8bc ecfb c6bc e426 363b
00000390: 4e6a 43bc 9c8c 6abc 6c46 abbc 6332 243c
000003a0: 5f85 89bc 6397 3339 5223 de3b 75e8 bf38
000003b0: a048 5cba f3f2 cabc 6202 76bc 6a30 6ebc
000003c0: 3a8d 98bc d58b b2bb 8326 023b 5a59 8ebc
000003d0: 6fca d73c 70ad a8bb 23eb 25bc a036 6bbb
000003e0: ae6b 29bc 0df3 5abc 6abd 05bb 4f03 89bb
000003f0: 657e 3abc 318c f53c 43a1 89bc 321a 633b
