Nicola_Dainese_Ex4_NN/params/occluded_net_params_16.pth (torch_old, 208037 bytes, 19 tensors)

encoder_cnn.0.weight f4 [8, 1, 3, 3]
0.00015289457 0.00016976989 6.9910595e-05 0.00010443482 0.0001480802 -7.156616e-05 4.3427186e-05 9.669626e-05
-0.00011386036 0.3571667 0.6097784 0.47792724 0.6772645 0.9001387 0.66523445 0.52993673
0.6564196 0.37480107 0.3538645 0.5970869 0.4668004 0.6635699 0.87750804 0.6474367
0.5167766 0.6367899 0.36265904 -0.02427717 -0.09764851 -0.0736977 -0.10534519 -0.1857458
-0.14634931 -0.06312344 -0.12572594 -0.0718491 -0.021515321 -0.0826578 -0.060277306 -0.088868104
-0.15469392 -0.11929163 -0.05245847 -0.10260851 -0.05512269 0.3580558 0.61526406 0.4826079
0.6819927 0.9094907 0.6734876 0.53113216 0.6613053 0.37738213 -0.024726335 -0.09456986
-0.06984214 -0.10166489 -0.17751494 -0.13814647 -0.05961272 -0.118183106 -0.06477344 4.513e-41
1.06102e-40 1.0259e-41 -1.205e-42 -1.05055e-40 -1.606e-41 -2.15115e-40 1.16463e-40 2.6007e-41
00000000: 5352 2039 4204 3239 f79c 9238 0404 db38
00000010: fa45 1b39 ca15 96b8 9625 3638 69c9 ca38
00000020: 51c8 eeb8 8ede b63e 701a 1c3f e1b2 f43e
00000030: 3561 2d3f 7d6f 663f ce4c 2a3f efa9 073f
00000040: 1d0b 283f ede5 bf3e ba2d b53e b0da 183f
00000050: 7600 ef3e b8df 293f 5ea4 603f 69be 253f
00000060: 794b 043f aa04 233f 72ae b93e eae0 c6bc
00000070: f1fb c7bd d2ee 96bd 38bf d7bd 2634 3ebe
00000080: 98dc 15be dd46 81bd 4dbe 00be 9f25 93bd
00000090: e640 b0bc 7e48 a9bd 56e5 76bd 7b00 b6bd
000000a0: 1568 1ebe 2c4f f4bd b1de 56bd 6924 d2bd
000000b0: 54c8 61bd 1753 b73e f281 1d3f 6218 f73e
000000c0: 1397 2e3f 62d4 683f af69 2c3f 47f8 073f
000000d0: 4e4b 293f 3b38 c13e e28e cabc d8ad c1bd
000000e0: 6509 8fbd af35 d0bd 7ac6 35be 4576 0dbe
000000f0: 782c 74bd fc09 f2bd f0a7 84bd ce7d 0000
00000100: c527 0100 991c 0000 5c03 0080 da24 0180
00000110: c52c 0080 a757 0280 a744 0100 7f48 0000

encoder_cnn.0.bias f4 [8]
-0.0029524453 -0.00071026146 -0.00227615 0.8772497 0.7213478 -0.0017652633 0.83276284 -6.6096946e-09
00000000: d07d 41bb d730 3aba 762b 15bb 7093 603f
00000010: 40aa 383f 6860 e7ba f22f 553f 7d1b e3b1

encoder_cnn.3.weight f4 [16, 8, 3, 3]
-2.0407e-41 9.5102e-41 -2.9036e-40 -2.14361e-40 7.7332e-41 1.86e-42 8.8929e-41 1.0004e-40
8.9099e-41 -2.25674e-40 1.1344e-40 2.45374e-40 1.49188e-40 -4.8058e-41 -1.55892e-40 -1.15733e-40
-2.32653e-40 2.4893e-41 3.96e-42 -9.2993e-41 1.6675e-40 1.89394e-40 9.452e-42 -2.46243e-40
-1.19536e-40 2.86036e-40 1.42127e-40 2.0857e-41 3.626119e-39 1.1528335e-38 1.0343507e-37 4.5839038e-37
-1.035875e-34 1.1046894e-38 5.305412e-36 -1.2961904e-34 1.3567e-41 -6.983e-41 1.0798e-41 -6.728e-42
-7.1569e-41 2.2771e-41 6.4918e-41 6.6555e-41 -6.7082e-41 -2.3336e-41 2.6064e-41 5.118e-42
4.5062e-41 -7.1114e-41 3.488e-41 -7.099e-42 -2.7003e-41 6.8494e-41 -6.634e-41 -1.861904e-38
3.227531e-39 4.6530816e-38 -2.6408692e-35 -6.626434e-35 5.5159637e-38 8.816413e-36 -1.0293271e-34 9.1132e-41
-2.577e-42 -4.7828e-41 6.2446e-41 8.8488e-41 1.9565e-41 -3.8747e-41 -1.43461e-40 3.33e-41
6.0134615e-05 0.00014586501 -0.00025787493 7.314918e-05 0.00016877873 0.00048755342 -0.00018193042 0.00053696305
6.8265166e-05 0.07922684 0.00807133 0.001067329 -0.019446967 -0.12886363 -0.094297074 -0.024665618
-0.103349455 -0.0449499 0.07747033 0.009508908 0.0018253571 -0.017272757 -0.12582034 -0.09345847
-0.023766935 -0.100810446 -0.04295597 0.116301894 0.13371938 0.13219963 0.14427355 0.16277853
0.15632053 0.14223266 0.1548691 0.1431645 0.09530887 0.109721385 0.10897101 0.118006706
0.13211493 0.12777533 0.11806302 0.12700011 0.11873799 0.07941399 0.008381691 0.001994222
-0.01894103 -0.12743548 -0.09498347 -0.024977589 -0.103587694 -0.045099713 0.11010066 0.12716247
0.12548904 0.13731445 0.15521136 0.14918189 0.13511574 0.14712892 0.13611172 4.12713e-40
4.4345695e-12 3.9374774e-36 -9.81446e-11 -3.2077e-40 -1.59756e-40 -3.4858e-40 -5.69723e-40 -3.12065e-40
8.21814e-05 -6.4012005e-05 -0.000112261834 4.938509e-05 -8.3114326e-05 -4.292516e-05 -9.227698e-05 -5.3473974e-05
-4.1186693e-05 -0.072999686 0.022300022 0.10492534 0.0077036945 0.41964686 0.41933316 0.034766663
0.35471117 0.16810592 -0.07062446 0.019712904 0.100070745 0.006215913 0.40898073 0.40885532
0.03359057 0.34424528 0.1652935 0.04899926 0.021289522 0.0074030524 0.021907408 -0.05592213
-0.04655252 0.017001241 -0.037598763 0.0017849815 0.039383158 0.01580411 0.0048051253 0.019413836
-0.04698467 -0.04162785 0.0129337385 -0.033012282 0.0003827892 -0.07306111 0.022615464 0.104264565
0.007645382 0.42261595 0.41778883 0.037188143 0.3601834 0.17105718 0.045825787 0.018759686
0.0074119237 0.021200806 -0.05424523 -0.04644927 0.015880736 -0.0368976 0.0019796172 1.59615e-40
1.134966e-39 8.00338e-40 -2.69782e-40 -2.89005e-40 2.1185e-40 -1.5071e-41 -1.2878e-40 -4.96226e-40
-1.3277512e-05 -3.4831355e-05 3.2663345e-05 1.6074471e-06 6.955532e-05 0.00016713275 0.000102541446 5.0336803e-05
0.00021707542 0.121984854 0.17070001 0.19293332 0.11659812 0.012313527 0.009233989 -0.07773608
-0.25078553 -0.19449241 0.118932575 0.16642801 0.1880565 0.11370764 0.014606769 0.007592026
-0.075020984 -0.24459113 -0.19113263 0.09541314 0.08988664 0.08575145 0.1061794 0.13149749
0.12920113 0.14158382 0.17159502 0.15649906 0.07777765 0.0740275 0.0706852 0.08594324
00000000: e338 0080 1b09 0100 6829 0380 8d55 0280
00000010: 92d7 0000 2f05 0000 e6f7 0000 df16 0100
00000020: 5ff8 0000 1675 0280 393c 0100 01ac 0200
00000030: e09f 0100 f785 0080 90b2 0180 9e42 0180
00000040: 8b88 0280 6445 0000 0a0b 0000 3a03 0180
00000050: d5d0 0100 f40f 0200 591a 0000 6dae 0280
00000060: 384d 0180 5a1d 0300 318c 0100 243a 0000
00000070: 257c 2700 4f88 7d00 ddc9 0c02 6ffb 1b03
00000080: 00b1 0987 3f4a 7800 d2aa e104 134b 2c87
00000090: d225 0000 a8c2 0080 1a1e 0000 c112 0080
000000a0: 81c7 0080 7a3f 0000 f7b4 0000 87b9 0000
000000b0: ffba 0080 0d41 0080 a848 0000 440e 0000
000000c0: 9d7d 0000 3dc6 0080 3b61 0000 ca13 0080
000000d0: 464b 0080 efbe 0000 eeb8 0080 4fbe ca80
000000e0: 0b25 2300 7e56 7d01 a669 0c86 2c29 b086
000000f0: a828 9601 1e81 3b05 30d2 0887 0afe 0000
00000100: 2f07 0080 5385 0080 13ae 0000 abf6 0000
00000110: 8a36 0000 036c 0080 e98f 0180 d45c 0000
00000120: 0d39 7c38 57f3 1839 6333 87b9 ab67 9938
00000130: 32fa 3039 509e ff39 93c4 3eb9 fbc2 0c3a
00000140: 9529 8f38 ae41 a23d 9d3d 043c 9ee5 8b3a
00000150: 3f4f 9fbc d4f4 03be d31e c1bd 8d0f cabc
00000160: e1a8 d3bd 631d 38bd c4a8 9e3d 40cb 1b3c
00000170: d240 ef3a 997f 8dbc 0cd7 00be 2867 bfbd
00000180: e0b2 c2bc b575 cebd 99f2 2fbd b02f ee3d
00000190: bced 083e 575f 073e 72bc 133e 6aaf 263e
000001a0: 7d12 203e 70a5 113e 0196 1e3e b799 123e
000001b0: 4c31 c33d 9bb5 e03d 312c df3d 80ad f13d
000001c0: 2349 073e 89d7 023e 06cb f13d 510c 023e
000001d0: e72c f33d cda3 a23d 5c53 093c 7eb1 023b
000001e0: 382a 9bbc 727e 02be b286 c2bd cd9d ccbc
000001f0: c925 d4bd 7aba 38bd 747c e13d e136 023e
00000200: 3380 003e 299c 0c3e baef 1e3e 23c3 183e
00000210: c85b 0a3e f7a8 163e df60 0b3e 7a7e 0400
00000220: 0d07 9c2c 557b a704 7fd2 d7ae 2d7e 0380
00000230: 56bd 0180 b3cb 0380 2834 0680 e965 0380
00000240: ce58 ac38 2f3e 86b8 1d6e ebb8 d622 4f38
00000250: aa4d aeb8 8a0a 34b8 d484 c1b8 3e49 60b8
00000260: e0bf 2cb8 dc80 95bd 89ae b63c 19e3 d63d
00000270: 466f fc3b f4db d63e d6b2 d63e 7d67 0e3d
00000280: b49c b53e f523 2c3e 8fa3 90bd f57c a13c
00000290: e4f1 cc3d dcae cb3b ec65 d13e 7c55 d13e
000002a0: 4496 093d eb40 b03e b342 293e 73b3 483d
000002b0: 5d67 ae3c 4e95 f23b 2a77 b33c 9a0e 65bd
000002c0: dbad 3ebd 3046 8b3c 2901 1abd 0af6 e93a
000002d0: 3c50 213d 9f77 813c 5074 9d3b c409 9f3c
000002e0: ff72 40bd f781 2abd 08e8 533c e337 07bd
000002f0: 19b1 c839 10a1 95bd 1144 b93c a988 d53d
00000300: 1d86 fa3b 1e61 d83e 6be8 d53e 9852 183d
00000310: f569 b83e 9d29 2f3e d2b3 3b3d eaad 993c
00000320: b9df f23b 50ad ad3c 3f30 5ebd 9741 3ebd
00000330: 5118 823c f021 17bd 77bc 013b f1bc 0100
00000340: d35b 0c00 04b7 0800 0bf0 0280 a125 0380
00000350: 8d4e 0200 032a 0080 fc66 0180 4767 0580
00000360: 7bc2 5eb7 e217 12b8 0000 0938 76bf d735
00000370: 3ade 9138 5b40 2f39 850b d738 bb20 5338
00000380: bd9e 6339 32d3 f93d fccb 2e3e 5090 453e
00000390: ffca ee3d adbe 493c 284a 173c 1834 9fbd
000003a0: f666 80be 0529 47be ec92 f33d 1b6c 2a3e
000003b0: e291 403e 8ddf e83d 3b51 6f3c 88c6 f83b
000003c0: 9aa4 99bd 1976 7abe 46b8 43be f767 c33d
000003d0: 7d16 b83d 759e af3d 9674 d93d 47a7 063e
000003e0: 4d4d 043e 59fb 103e 9bb6 2f3e 4a41 203e
000003f0: e349 9f3d bb9b 973d 67c3 903d 0203 b03d

encoder_cnn.3.bias f4 [16]
-7.8981827e-10 0.18013752 0.030460516 0.15630175 0.25810012 0.031702895 0.029936153 -0.00019252503
0.030288957 0.029841216 -5.221569e-08 0.15512909 0.1412071 -6.223982e-08 -0.0007615673 0.029736605
00000000: 851a 59b0 f875 383e 5588 f93c 910d 203e
00000010: b325 843e e5da 013d aa3c f53c 8be0 49b9
00000020: 8c20 f83c 9175 f43c c243 60b3 29da 1e3e
00000030: 9898 103e b4a8 85b3 eba3 47ba 2e9a f33c

encoder_cnn.6.weight f4 [32, 16, 3, 3]
-7.2709e-41 1.66e-40 -1.26362e-40 -2.7852e-40 1.63411e-40 2.40851e-40 -2.38759e-40 9.0126e-41
-3.36958e-40 -3.264943e-06 -3.8583166e-06 -2.6510922e-06 -3.7136654e-06 -3.9161873e-06 -2.0378307e-06 -3.481142e-06
-3.669059e-06 -1.611101e-06 4.5808392e-07 -3.1769932e-07 -2.6696068e-06 -3.9604305e-07 -3.752377e-07 -4.588412e-06
1.051257e-06 -7.9754585e-07 -6.363434e-06 -2.0718737e-06 -3.0754186e-06 -2.8221948e-06 -2.970425e-06 -2.8304732e-06
-2.4174938e-06 -1.7338684e-06 -2.8356424e-06 -2.7270382e-06 -3.8055953e-06 -4.3746077e-06 -3.3190747e-06 -4.1438743e-06
-4.858225e-06 -3.2662433e-06 -3.9421843e-06 -4.4850894e-06 -2.9813236e-06 1.0048657e-06 -5.9753137e-07 -1.1117912e-06
1.4703141e-06 -5.4260073e-07 -1.6752472e-06 6.2898415e-08 -4.021592e-07 -3.9272177e-06 -1.2578374e-06 1.5382535e-06
-7.815293e-07 2.5515453e-06 1.9543768e-06 -1.9318734e-06 -1.4640142e-06 9.745528e-07 -3.0093906e-06 -4.3831751e-13
-1.3518919e-11 3.8457498e-11 -3.296943e-13 6.050506e-13 -1.4860039e-11 3.5159003e-14 -3.8747603e-12 6.328515e-11
7.548745e-07 -3.8620902e-07 -2.3574073e-06 -1.2064616e-07 -4.310425e-07 -4.008833e-06 9.1545314e-07 -6.536306e-07
-5.943675e-06 2.3403054e-06 -8.372343e-08 -6.0827716e-07 1.5012574e-06 -3.6358114e-07 -1.0236892e-06 6.8468927e-07
1.836678e-07 -2.7772398e-06 -2.66314e-40 -7.8185e-41 1.42148e-40 -3.1431e-41 -1.03358e-40 -1.01817e-40
7.7842e-41 -1.44869e-40 -1.01385e-40 -2.8073064e-06 -3.0797855e-06 -3.1118402e-06 -3.167862e-06 -3.4875513e-06
-2.782122e-06 -3.21019e-06 -3.3475303e-06 -2.1770206e-06 -2.4237625e-06 -3.4555542e-06 -3.303672e-06 -2.9919079e-06
-3.862637e-06 -2.8349214e-06 -2.993056e-06 -3.6561062e-06 -2.2263205e-06 1.16341e-40 7.1199e-41 1.79548e-40
1.89461e-40 -8.6204e-41 1.48015e-40 -1.34006e-40 2.156e-41 -1.34791e-40 7.5108195e-09 1.0966805e-08
7.528417e-09 9.576835e-09 1.3201652e-08 8.784508e-09 9.4058255e-09 1.3368531e-08 7.1698083e-09 1.8412709e-06
-1.6884233e-07 -9.581076e-07 2.562215e-06 1.4314296e-07 -1.5068122e-06 2.8808992e-07 -1.8748695e-07 -3.329326e-06
6.9465e-41 1.10265e-40 6.98e-41 3.007e-42 1.2519e-40 -5.5896e-41 2.9729e-41 -6.7949e-41
-4.4617e-41 -1.053114e-08 -9.046642e-09 -7.0228534e-09 -9.067214e-09 -8.164306e-09 -6.7649752e-09 -6.344859e-09
-6.877592e-09 -6.1624235e-09 -1.6249269e-10 -3.5273233e-09 -8.337907e-09 -3.4409269e-09 -7.1208888e-09 -1.1192523e-08
-1.2743709e-08 -1.5865613e-08 -1.540447e-08 -7.540895e-09 -7.57026e-09 -7.624341e-09 -5.9031766e-09 -6.4884915e-09
-6.767503e-09 -6.0447305e-09 -7.389958e-09 -8.184593e-09 -9.836945e-09 -9.155431e-09 -8.013028e-09 -9.218057e-09
-8.862935e-09 -7.9154185e-09 -7.34553e-09 -7.870502e-09 -7.437096e-09 -2.1465618e-10 -1.304091e-09 -6.6288677e-09
-1.4097511e-09 -3.5004575e-09 -8.4529095e-09 -8.672369e-09 -1.1653828e-08 -1.4662633e-08 -6.8976613e-10 -1.3595544e-09
-6.0346457e-09 -6.7012893e-09 -5.944614e-09 -9.459412e-09 -9.487717e-09 -9.428971e-09 -9.873361e-09 -1.3880194e-12
-8.135939e-12 3.0267514e-11 3.3765514e-12 9.792067e-12 5.6661544e-11 3.8433895e-11 4.4118143e-11 5.726618e-11
-1.446449e-10 -3.1416838e-09 -7.961178e-09 -3.3050245e-09 -6.7512747e-09 -1.0733586e-08 -1.2402634e-08 -1.5480687e-08
-1.5263742e-08 -3.6316877e-10 -7.0275563e-10 -6.2377232e-09 -2.6342855e-09 -3.7966643e-09 -8.69605e-09 -9.6679225e-09
-1.277275e-08 -1.5867908e-08 6.1967e-41 8.807e-42 -9.2945e-41 6.1652e-41 9.474e-41 7.1927e-41
4.9127e-41 -1.3309e-40 -4.846e-42 -9.71896e-09 -8.30686e-09 -7.671866e-09 -1.1311991e-08 -9.634274e-09
-8.648249e-09 -8.203442e-09 -8.136594e-09 -6.9986177e-09 -1.0591039e-08 -9.344404e-09 -7.83324e-09 -1.1654929e-08
00000000: afca 0080 bece 0100 3f60 0180 6708 0380
00000010: 86c7 0100 659f 0200 9099 0280 3cfb 0000
00000020: 4dab 0380 4b1b 5bb6 b076 81b6 6be9 31b6
00000030: 4938 79b6 cb67 83b6 aac1 08b6 909d 69b6
00000040: f439 76b6 023d d8b5 93ee f534 4390 aab4
00000050: 7f27 33b6 be9f d4b4 4774 c9b4 29f6 99b6
00000060: ea18 8d35 ef16 56b5 7b85 d5b6 850a 0bb6
00000070: 4a63 4eb6 f064 3db6 8357 47b6 29f3 3db6
00000080: 3a3c 22b6 44b7 e8b5 f74b 3eb6 2902 37b6
00000090: a163 7fb6 98c9 92b6 45bd 5eb6 9c0b 8bb6
000000a0: d603 a3b6 a231 5bb6 1b47 84b6 a07e 96b6
000000b0: c012 48b6 ecde 8635 0b66 20b5 db38 95b5
000000c0: 9c57 c535 3da7 11b5 0ed9 e0b5 c512 8733
000000d0: 57e8 d7b4 8bc6 83b6 f7d2 a8b5 fd75 ce35
000000e0: 49ca 51b5 373b 2b36 f027 0336 55a5 01b6
000000f0: 257f c4b5 61cd 8235 f0f4 49b6 36c0 f6aa
00000100: ccd3 6dad 4b23 292e f599 b9aa 7e4e 2a2b
00000110: d5b5 82ad 9257 1e29 bd54 88ac 5f2a 8b2e
00000120: 95a2 4a35 2a58 cfb4 f333 1eb6 f78a 01b4
00000130: 086a e7b4 9d83 86b6 76bd 7535 2775 2fb5
00000140: c86f c7b6 240e 1d36 71cb b3b3 7d48 23b5
00000150: d07e c935 3632 c3b4 b165 89b5 7dcb 3735
00000160: 3836 4534 9e60 3ab6 60e6 0280 f3d9 0080
00000170: 408c 0100 9e57 0080 1f20 0180 d31b 0180
00000180: fed8 0000 d693 0180 9f1a 0180 2865 3cb6
00000190: 50ae 4eb6 02d5 50b6 7497 54b6 ad0b 6ab6
000001a0: 7eb4 3ab6 a56e 57b6 22a6 60b6 ee18 12b6
000001b0: eca7 22b6 f8e5 67b6 a7b4 5db6 96c8 48b6
000001c0: cd9b 81b6 943f 3eb6 4fdc 48b6 6d5b 75b6
000001d0: e567 15b6 5044 0100 79c6 0000 82f4 0100
000001e0: 2410 0200 4df0 0080 9b9c 0100 8e75 0180
000001f0: 1a3c 0000 be77 0180 ef08 0132 8568 3c32
00000200: 5456 0132 5e87 2432 7bcd 6232 adea 1632
00000210: 4297 2132 6cab 6532 4d5a f631 9621 f735
00000220: 074b 35b4 5498 80b5 85f2 2b36 d6b2 1934
00000230: ac3d cab5 c7aa 9a34 0550 49b4 636d 5fb6
00000240: a4c1 0000 6033 0100 93c2 0000 6208 0000
00000250: fb5c 0100 d19b 0080 df52 0000 6abd 0080
00000260: 607c 0080 72ec 34b2 8d6b 1bb2 ac4d f1b1
00000270: 07c6 1bb2 ff42 0cb2 5a71 e8b1 f801 dab1
00000280: f04f ecb1 40bd d3b1 a0a9 32af 5465 72b1
00000290: 813e 0fb2 6d75 6cb1 00ac f4b1 3d49 40b2
000002a0: 6def 5ab2 da48 88b2 ca52 84b2 358d 01b2
000002b0: 5b0e 02b2 35fc 02b2 e4d4 cab1 60f1 deb1
000002c0: 9687 e8b1 03b2 cfb1 c2ea fdb1 389c 0cb2
000002d0: 57ff 28b2 034a 1db2 aba9 09b2 725d 1eb2
000002e0: 9a43 18b2 61fc 07b2 f763 fcb1 d536 07b2
000002f0: 6389 ffb1 5804 6caf 9f3b b3b0 23c4 e3b1
00000300: 35c1 c1b0 b38c 70b1 4a38 11b2 7bfd 14b2
00000310: 1436 48b2 f1e6 7bb2 fa99 3db0 11db bab0
00000320: 4e59 cfb1 2a41 e6b1 6141 ccb1 ef82 22b2
00000330: 6cff 22b2 0efd 21b2 809f 29b2 ab58 c3ab
00000340: 0321 0fad 311e 052e 8b9a 6d2c 8d43 2c2d
00000350: 3a33 792e b808 292e 9d08 422e fddb 7b2e
00000360: eb09 1faf 16e5 57b1 a2c5 08b2 9b1e 63b1
00000370: d7f8 e7b1 cf66 38b2 5c13 55b2 64fa 84b2
00000380: 531d 83b2 76a7 c7af 082c 41b0 9853 d6b1
00000390: d706 35b1 d073 82b1 a265 15b2 f917 26b2
000003a0: 266f 5bb2 e64d 88b2 bdac 0000 8d18 0000
000003b0: 1803 0180 dcab 0000 1908 0100 81c8 0000
000003c0: f288 0000 0073 0180 820d 0080 70f8 26b2
000003d0: f5b5 0eb2 39cd 03b2 aa56 42b2 fc83 25b2
000003e0: 6793 14b2 1fef 0cb2 1ec9 0bb2 7e78 f0b1
000003f0: e2f3 35b2 2089 20b2 f492 06b2 eb3a 48b2

encoder_cnn.6.bias f4 [32]
-8.760763e-07 -4.248476e-09 -5.6349972e-12 0.009257141 0.018173747 0.019364974 0.016144536 0.008797862
-0.002423021 -3.1770414e-05 0.02041492 0.018734477 0.029712508 -0.027810352 0.012293888 -0.00037281238
-0.0013926671 0.0069633494 -0.029211648 0.029746106 -4.514819e-05 -0.00015680343 -0.0018152248 -0.0038160014
0.022062464 0.019862507 0.015948337 0.022613762 0.022526128 0.0049468707 0.0028281081 -0.0036597347
00000000: 812b 6bb5 fdf9 91b1 8b43 c6ac 43ab 173c
00000010: 1ce1 943c 4ba3 9e3c 8c41 843c e824 103c
00000020: 8ccb 1ebb 3941 05b8 313d a73c 0c79 993c
00000030: a567 f33c 89d2 e3bc 4e6c 493c 0876 c3b9
00000040: 278a b6ba cf2c e43b 444d efbc 1bae f33c
00000050: 805d 3db8 9a6b 24b9 d6ec edba e115 7abb
00000060: 57bc b43c b2b6 a23c 16a6 823c 7f40 b93c
00000070: b788 b83c 5c19 a23b c857 393b 29d8 6fbb

encoder_lin.0.weight f4 [64, 288]
2.1409753e-07 -3.843254e-07 1.9499639e-07 4.4976173e-07 -5.6028577e-09 2.830768e-07 5.9959615e-07 -1.8086982e-10
7.50005e-09 8.130007e-10 2.685159e-10 6.5003103e-10 4.6632853e-10 -3.855735e-10 1.2091973e-10 7.816641e-10
1.1853687e-10 6.6710325e-11 1.1068579e-11 1.1137824e-12 -1.4619545e-12 2.016815e-11 8.324575e-12 -3.6737037e-12
2.1148274e-12 -7.2232277e-12 -2.093508e-12 0.034410108 -0.065989524 0.010481351 0.0014321014 -0.08451582
-0.03108265 0.016791847 0.043998037 0.016644388 0.01772738 0.030576345 -0.052726753 0.010962629
0.02863504 0.08528416 0.0026317616 0.012883816 -0.023269875 0.021298343 0.010122206 -0.030441875
0.0051957686 0.07570351 0.026859675 0.030386826 -0.0076682046 -0.0041463207 0.018998332 -0.0027398893
-0.04932801 -0.0316104 0.007450545 0.03307707 0.019570516 -0.00038578472 0.0066532907 0.028359812
0.025857061 -0.08403827 0.0008713158 0.038000252 0.10908002 0.00096312695 -0.024814673 -0.033665106
-0.002663767 -0.02268969 0.023714207 -0.0036185784 -0.023461498 -0.088178955 0.02253287 -0.0013626057
0.050159033 -1.1484585e-05 -4.638501e-06 2.9883875e-06 -7.82223e-06 -1.2529149e-06 -1.7927801e-05 2.612788e-06
-1.8449653e-06 -2.6077846e-06 -0.02592503 0.023308419 0.089200914 0.012157491 -0.041582275 0.002750436
-0.0048007644 0.015126588 0.018878777 -0.02711673 0.014777117 0.007460725 0.026775405 -0.016506953
0.015609643 -0.018334044 0.017861465 -0.005183461 -0.00087249937 0.080925606 0.06054597 0.027213417
-0.022571709 -0.028857946 -0.0041494924 0.042367373 0.030547814 -0.024472442 0.0003449663 -0.0010803335
-0.019787233 -0.018896146 -0.05443272 0.00096616993 -0.0021232928 0.008149543 0.0022027122 -0.00031080568
0.086908065 -0.0065341457 -0.0038586387 -0.0038962776 0.014725371 0.03353901 0.009494341 0.0023240466
0.024930447 0.07754909 0.02240542 -0.035952955 -0.076863766 -0.017173585 0.01247144 0.012394891
0.019272797 0.0021267382 -0.06670658 -0.0010515547 0.007560808 0.014504458 0.019776717 0.014030271
-0.017098017 -0.02107139 -0.043770842 0.061726447 0.021830281 0.050096877 -0.029985925 -0.002045233
-0.019613598 0.038000125 0.0104534235 -0.060245626 0.030770209 0.008889847 0.0060652625 -0.018397221
-0.003423519 -0.013938435 -0.00900063 0.030204397 -0.029064875 0.0036457754 -0.016951116 0.01028619
0.07575797 0.025880955 0.036755774 0.005232653 8.62848e-06 1.7516289e-06 -1.2457465e-05 -1.2694438e-05
-1.34156735e-05 6.186336e-06 -6.6086873e-06 -8.753834e-06 3.3656485e-07 -1.1304761e-05 6.230159e-06 0.00033198114
-3.4773984e-06 -8.0691934e-05 0.00082543213 -7.632053e-05 1.253629e-05 0.00038458107 0.014608073 -0.0141650615
-0.035644047 0.032691494 -0.01858139 -0.015127566 0.001634895 0.009616251 -0.003668824 0.031296086
-0.0048682396 -0.06498552 0.0030189063 0.021095494 0.031915136 -0.00077609764 -0.019086292 -0.022428717
0.01815133 -0.031085648 -0.07081566 0.010391666 0.08661931 0.07409463 0.022973327 0.016888557
-0.019330028 0.013909802 -0.00044794887 -0.054145306 0.027717676 -0.012725329 0.08960942 0.012293609
0.003597561 0.00515353 0.016310554 0.03390401 -0.08502557 0.027493838 0.021083593 0.042414818
0.0044874973 0.012301388 -0.0051306793 0.00687717 0.042705085 -0.011647897 0.03096234 -0.030252455
0.041889977 0.010149447 0.021566646 0.0077300593 0.010638039 0.017144388 -0.044141445 0.0093559995
00000000: aee2 6534 4855 ceb4 3360 5134 c876 f134
00000010: 4283 c0b1 c7f9 9734 eff3 2035 54de 46af
00000020: 92d9 0032 d779 5f30 419e 932f dead 3230
00000030: f42e 0030 a5f8 d3af e1f3 042f b9dc 5630
00000040: 2a55 022f 93b2 922e 73b8 422d 3dc0 9c2b
00000050: 76c0 cdab a366 b12d 8e72 122d c841 81ac
00000060: 58d1 142c 0d25 feac 4a51 13ac 9df1 0c3d
00000070: 8425 87bd f9b9 2b3c 59b5 bb3a a116 adbd
00000080: 0ba1 febc 0e8f 893c 4937 343d d059 883c
00000090: 0339 913c 3e7b fa3c 02f8 57bd 999c 333c
000000a0: 0894 ea3c 76a9 ae3d a279 2c3b a416 533c
000000b0: 77a0 bebc dd79 ae3c 9cd7 253c 3d61 f9bc
000000c0: 4441 aa3b 710a 9b3d d208 dc3c cbed f83c
000000d0: 9045 fbbb dcdd 87bb 64a2 9b3c b78f 33bb
000000e0: 2b0c 4abd e879 01bd b423 f43b d27b 073d
000000f0: 5952 a03c 2643 cab9 d903 da3b d652 e83c
00000100: 30d2 d33c 421c acbd 0369 643a 27a6 1b3d
00000110: 5865 df3d 5b7a 7c3a 2448 cbbc 6ce4 09bd
00000120: 9892 2ebb bbdf b9bc 4c44 c23c ac25 6dbb
00000130: 5432 c0bc 2b97 b4bd da96 b83c 7699 b2ba
00000140: 8f73 4d3d ebad 40b7 6ca4 9bb6 1b8c 4836
00000150: 393c 03b7 d429 a8b5 a963 96b7 5b57 2f36
00000160: 86a0 f7b5 6601 2fb6 ba60 d4bc 4cf1 be3c
00000170: f8ae b63d 3730 473c 2d52 2abd a940 343b
00000180: bb4f 9dbb 82d5 773c aaa7 9a3c e823 debc
00000190: b91b 723c 1979 f43b 1858 db3c 9739 87bc
000001a0: 97bf 7f3c 4731 96bc 3552 923c 06da a9bb
000001b0: 71b8 64ba 53bc a53d 0dff 773d acee de3c
000001c0: 4ee8 b8bc 8067 ecbc 77f8 87bb 6989 2d3d
000001d0: 693f fa3c 6e7a c8bc 98dc b439 fa99 8dba
000001e0: d618 a2bc 17cc 9abc d8f4 5ebd 9146 7d3a
000001f0: f126 0bbb a985 053c 615b 103b a2f3 a2b9
00000200: dbfc b13d 631c d6bb 37e1 7cbb b158 7fbb
00000210: af42 713c 3360 093d 278e 1b3c 084f 183b
00000220: f03a cc3c 0fd2 9e3d 928b b73c 6843 13bd
00000230: c06a 9dbd 9eaf 8cbc 0355 4c3c f113 4b3c
00000240: fce1 9d3c bf60 0b3b 769d 88bd 52d4 89ba
00000250: a8c0 f73b 1ba4 6d3c c802 a23c 39df 653c
00000260: 2411 8cbc e89d acbc 0e49 33bd dfd4 7c3d
00000270: 6bd5 b23c 6232 4d3d 0ba5 f5bc 5109 06bb
00000280: b2ac a0bc 05a6 1b3d d644 2b3c 1ec4 76bd
00000290: ce11 fc3c b9a6 113c 1cbf c63b c5b5 96bc
000002a0: 1e5d 60bb 095e 64bc 6177 13bc 366f f73c
000002b0: 7619 eebc f6ed 6e3b 11dd 8abc 6887 283c
000002c0: ff26 9b3d 4c04 d43c 398d 163d ad76 ab3b
000002d0: 0ac3 1037 8319 eb35 6800 51b7 32fa 54b7
000002e0: e113 61b7 3994 cf36 31c0 ddb6 6edd 12b7
000002f0: 1fb1 b434 94a9 3db7 a90c d136 c10d ae39
00000300: 405d 69b6 2739 a9b8 d061 583a 460e a0b8
00000310: f552 5237 99a1 c939 b356 6f3c 9314 68bc
00000320: 7eff 11bd 84e7 053d 0038 98bc 9cd9 77bc
00000330: f949 d63a 7b8d 1d3c a770 70bb 5330 003d
00000340: c185 9fbb 2117 85bd d8d8 453b 75d0 ac3c
00000350: 72b9 023d 0873 4bba db5a 9cbc 6ebc b7bc
00000360: 19b2 943c 54a7 febc cd07 91bd ce41 2a3c
00000370: 7765 b13d edbe 973d 8f32 bc3c df59 8a3c
00000380: 025a 9ebc f0e5 633c aeda eab9 78c7 5dbd
00000390: 2e10 e33c e67d 50bc 2585 b73d 226b 493c
000003a0: 0fc5 6b3b f1de a83b b69d 853c eede 0a3d
000003b0: e321 aebd c23a e13c 80b7 ac3c 29bb 2d3d
000003c0: db0b 933b c38b 493c 421f a8bb e259 e13b
000003d0: 87eb 2e3d d2d6 3ebc bca4 fd3c ffd3 f7bc
000003e0: d394 2b3d de49 263c 89ac b03c 704c fd3b
000003f0: 2b4b 2e3c 6372 8c3c a9cd 34bd e849 193c

encoder_lin.0.bias f4 [64]
0.005425876 -0.010460813 -0.009091447 0.004109895 0.005468479 0.00022907603 -0.00066315517 0.006912461
0.0020919559 0.004384465 -0.0012428329 2.2405507e-06 0.0030807704 -0.0007412669 0.0028518883 -0.007750509
0.0015180409 0.00028744788 -0.010584008 0.0025315448 -0.002699421 0.0052054017 0.0017183552 -0.001876456
0.0057434165 0.0021004777 0.002359617 -0.008407789 -7.8079e-05 0.004597581 0.002881802 0.0057574552
0.0053134114 0.011580344 -0.005451652 9.092422e-07 0.002088807 0.003125674 0.0046524093 0.00630603
0.0010427594 -0.0004631624 0.0026205643 0.005091793 0.014064025 0.0045041526 -0.0078043425 -0.0028805218
-0.0011217579 -3.2886939e-24 0.0035340257 0.0031076265 -0.0010953122 0.010868972 0.00818098 0.0004464951
-0.0015201998 0.00035549587 -0.0026225576 0.00180664 8.675237e-05 0.009394351 5.276956e-07 -0.0019600766
00000000: 8ccb b13b d463 2bbc 4bf4 14bc 4cac 863b
00000010: ed30 b33b 2134 7039 97d7 2dba ed81 e23b
00000020: 3219 093b 8fab 8f3b 8de6 a2ba 5e5c 1636
00000030: c0e6 493b 9451 42ba bfe6 3a3b fbf7 fdbb
00000040: 00f9 c63a 9ab4 9639 8c68 2dbc 46e8 253b
00000050: c5e8 30bb 1392 aa3b 6f3a e13a 6af3 f5ba
00000060: 4533 bc3b 2ba8 093b cea3 1a3b d3c0 09bc
00000070: 58be a3b8 4ea7 963b 9ddc 3c3b 09a9 bc3b
00000080: 201c ae3b 7cbb 3d3c c6a3 b2bb a612 7435
00000090: 5ee4 083b 1cd8 4c3b 3d73 983b d0a2 ce3b
000000a0: 33ad 883a 9bd4 f2b9 c6bd 2b3b 0ed9 a63b
000000b0: cc6c 663c 9297 933b 92bb ffbb 23c7 3cbb
000000c0: f307 93ba 4b73 7e98 1d9b 673b 52a9 4b3b
000000d0: 9490 8fba c613 323c 8409 063c 8f17 ea39
000000e0: 7141 c7ba d961 ba39 37df 2bbb c7cc ec3a
000000f0: d3ee b538 c4ea 193c f7a6 0d35 a174 00bb

encoder_lin.3.weight f4 [16, 64]
0.15179944 -0.004860015 0.022565765 0.12818371 -0.10923658 -0.17782609 -0.007854942 0.0096165445
0.019688236 -0.09853231 0.072695486 2.854077e-05 -0.10321512 0.16178942 -0.08043807 0.026260344
-0.044932265 -0.0027542694 0.2118055 -0.1291535 0.039156787 -0.015810095 0.05833633 -0.18519282
-0.002396521 -0.0898445 0.09121756 -0.09943908 -0.025017915 -0.1825621 0.040747046 0.10792339
0.21310033 -0.038089152 0.08766002 2.1144817e-06 -0.09132008 -0.058814645 0.160015 0.23286824
-0.0030571546 0.07893927 0.092669256 0.049422942 -0.09300868 -0.0041327253 -0.105623886 0.01414363
-0.19813974 9.2921226e-23 -0.01182397 -0.10835709 0.070319444 -0.016482053 0.0463111 0.12588575
-0.06537868 -0.1948892 -0.0033996936 0.3216929 0.00066143007 -0.04350245 8.795371e-07 -0.11545466
0.05910909 0.09456434 0.06420734 -0.039585587 -0.026920617 0.18235886 0.004360523 0.108203106
-0.046552908 -0.15684575 0.21469389 9.619975e-06 -0.18611467 -0.1667396 0.06993439 -0.00041058226
0.21949457 0.22508271 0.107516125 -0.13077275 0.17986687 0.114544965 -0.0039031748 -0.05821857
-0.2575308 -0.17245775 0.09054282 -0.042785045 -0.10033345 -0.05408102 -0.16571075 -0.047091372
-0.1055598 -0.20902564 -0.08649222 -8.690737e-06 0.016678644 0.14555016 0.004217776 0.019927604
0.11855472 0.020991256 -0.18849818 -0.062347498 -0.050576504 0.0071075405 -0.053413738 0.0756179
0.062338125 1.7197898e-23 -0.0008506287 -0.0899519 -0.02100635 -0.15422848 -0.2447833 0.1316033
0.099543944 -0.007954213 0.028273288 -0.009830174 -0.00060010696 0.17518072 -1.6128233e-06 0.22171935
-0.11405023 0.067032896 0.10162241 0.03422756 0.04010063 -0.01431687 -0.008271477 -0.050344642
0.13173594 -0.11931921 -0.08416864 -4.4802932e-06 -0.15360889 0.034554686 0.020766187 0.034690242
-0.021627493 -0.19892485 0.02193115 -0.058297448 -0.032708824 0.28119963 0.10833463 0.02950663
0.15650754 0.14377569 -0.1094664 0.25840095 0.15535332 -0.025818488 0.11379369 -0.17260969
-0.06845362 -0.16062328 0.11414989 -1.1182702e-05 -0.019546257 -0.18341678 -0.11401576 -0.06029621
0.15160479 0.008883207 -0.08665422 0.076292224 -0.027001595 0.03216105 0.101880066 -0.19449334
-0.11395317 1.3427917e-22 0.09194696 -0.07063593 0.07974519 -0.12974314 0.13559744 -0.18089618
0.098433115 0.082041286 -0.042090323 0.037270132 0.0030926866 -0.20134562 -9.737248e-07 -0.17039613
0.014415446 -0.16421206 0.07763724 -0.2150734 -0.13809443 -0.13264486 -0.0023959582 0.16406941
0.053969383 0.05361647 -0.15646525 6.6803364e-06 0.022899639 0.09688386 0.08912712 0.00457043
-0.10290846 -0.16732386 -0.11247146 -0.2296083 0.11486512 -0.09058896 0.22321808 0.112448886
-0.03675837 -0.088814616 0.07502056 -0.08983919 0.16607048 0.2733454 -0.13681693 0.14346117
-0.11273476 0.005752498 0.0024977596 1.3219942e-05 -0.040945537 -0.17797017 -0.22864679 0.071330205
-0.04142069 -0.028136913 0.1816967 -0.08122237 0.015977822 0.102271475 0.09984318 0.14291866
0.21850246 5.32445e-23 -0.008104464 -0.11083097 -0.083104104 -0.0461228 0.031541806 0.16326462
-0.013669263 0.21486804 0.049050804 -0.1439132 0.0013217559 0.10181943 -4.862608e-07 0.038464
00000000: 5071 1b3e c340 9fbb d7db b83c 9742 033e
00000010: 6eb7 dfbd 0b18 36be 04b2 00bc b68e 1d3c
00000020: 3949 a13c 4fcb c9bd 5fe1 943d d66a ef37
00000030: 7362 d3bd 20ac 253e b7bc a4bd ef1f d73c
00000040: e50a 38bd f980 34bb 8ae3 583e d140 04be
00000050: de62 203d 2c84 81bc 13f2 6e3d 30a3 3dbe
00000060: f30e 1dbb 6500 b8bd 46d0 ba3d b7a6 cbbd
00000070: 5ff2 ccbc 8ff1 3abe 60e6 263d f006 dd3d
00000080: f936 5a3e 5f03 1cbd 1987 b33d 85e6 0d36
00000090: 0606 bbbd a0e7 70bd f9da 233e 0375 6e3e
000000a0: 8b5a 48bb e9aa a13d 61c9 bd3d b66f 4a3d
000000b0: 567b bebd d06b 87bb 5651 d8bd afba 673c
000000c0: 25e5 4abe 74ab e01a 53b9 41bc 52ea ddbd
000000d0: a403 903d 5f05 87bc b5b0 3d3d 32e8 003e
000000e0: 42e5 85bd 0991 47be 65cd 5ebb efb4 a43e
000000f0: d263 2d3a a02f 32bd 5419 6c35 7e73 ecbd
00000100: 601c 723d f3aa c13d 237f 833d 7f24 22bd
00000110: a088 dcbc 48bc 3a3e b8e2 8e3b 9799 dd3d
00000120: 43ae 3ebd 2c9c 20be b7d8 5b3e 7a65 2137
00000130: d894 3ebe c9bd 2abe c339 8f3d 6b43 d7b9
00000140: 2fc3 603e 157c 663e 6a31 dc3d 4be9 05be
00000150: 052f 383e 8d96 ea3d 68cc 7fbb 9876 6ebd
00000160: 14db 83be c498 30be 846e b93d 5f3f 2fbd
00000170: a07b cdbd 0f84 5dbd 14b0 29be e2e2 40bd
00000180: bd2f d8bd d10a 56be d522 b1bd 6ece 11b7
00000190: a7a1 883c 1a0b 153e 4535 8a3b 373f a33c
000001a0: d1cc f23d dbf5 ab3c ab05 41be 1760 7fbd
000001b0: 4f29 4fbd 5fe6 e83b 5dc8 5abd 8fdd 9a3d
000001c0: 4356 7f3d ef53 a619 bafc 5eba b438 b8bd
000001d0: 8215 acbc 12ee 1dbe 79a8 7abe 04c3 063e
000001e0: b2dd cb3d 6352 02bc 629d e73c bd0e 21bc
000001f0: 7f50 1dba 9362 333e 3078 d8b5 660a 633e
00000200: 2b93 e9bd 8b48 893d 691f d03d 3332 0c3d
00000210: 8f40 243d 4e91 6abc 1785 07bc 2f36 4ebd
00000220: c9e5 063e a15d f4bd 9c60 acbd 6d55 96b6
00000230: a64b 1dbe 3789 0d3d da1d aa3c 5b17 0e3d
00000240: 242c b1bc f5b2 4bbe f5a8 b33c 4ec9 6ebd
00000250: b0f9 05bd 66f9 8f3e 8cde dd3d e3b7 f13c
00000260: 8343 203e ef39 133e ec2f e0bd 214d 843e
00000270: f114 1f3e 4b81 d3bc ab0c e93d 98c0 30be
00000280: 6931 8cbd 6e7a 24be 6bc7 e93d 579d 3bb7
00000290: 791f a0bc 9cd1 3bbe 1881 e9bd 29f9 76bd
000002a0: 493e 1b3e df8a 113c c577 b1bd 193f 9c3d
000002b0: 7332 ddbc 4ebb 033d 7fa6 d03d 4329 47be
000002c0: 4860 e9bd 6455 221b b04e bc3d 92a9 90bd
000002d0: 7251 a33d 63db 04be 0eda 0a3e d93c 39be
000002e0: 4d97 c93d 4305 a83d e766 2cbd 91a8 183d
000002f0: acae 4a3b 8c2d 4ebe eeb0 82b5 537c 2ebe
00000300: c32e 6c3c 3527 28be 4600 9f3d 343c 5cbe
00000310: a068 0dbe 0ed4 07be 8205 1dbb d001 283e
00000320: 000f 5d3d f29c 5b3d 6d38 20be a727 e036
00000330: 0698 bb3c 0c6b c63d 4888 b63d 8cc3 953b
00000340: acc1 d2bd f256 2bbe 7057 e6bd 701e 6bbe
00000350: 673e eb3d b486 b9bd 4893 643e 9a4b e63d
00000360: f28f 16bd 70e4 b5bd 61a4 993d 9cfd b7bd
00000370: 610e 2a3e eef3 8b3e bd19 0cbe 7ce7 123e
00000380: 7be1 e6bd 737f bc3b 74b1 233b 38cb 5d37
00000390: 82b6 27bd d03d 36be 6222 6abe 9215 923d
000003a0: bea8 29bd 627f e6bc b30e 3a3e ea57 a6bd
000003b0: ece3 823c b573 d13d 957a cc3d 4559 123e
000003c0: 1cbf 5f3e c0bc 801a 96c8 04bc 59fb e2bd
000003d0: 7c32 aabd 43eb 3cbd fb31 013d d72e 273e
000003e0: 0bf5 5fbc 5e06 5c3e 7fe9 483d fb5d 13be
000003f0: c53e ad3a b586 d03d 9687 02b5 6d8c 1d3d

encoder_lin.3.bias f4 [16]
-0.008751906 -0.016304743 -0.017423848 0.0008431404 -0.016173523 -0.012418311 0.009755344 -0.023640586
0.008289353 -0.013854647 -0.018250974 0.023810104 0.011155041 -0.01472813 0.004235258 -0.013997412
00000000: 2864 0fbc 8691 85bc 75bc 8ebc 3206 5d3a
00000010: 567e 84bc 2c76 4bbc e1d4 1f3c e7a9 c1bc
00000020: 11d0 073c 9afe 62bc 1183 95bc 680d c33c
00000030: a2c3 363c 414e 71bc ebc7 8a3b 6755 65bc

decoder_lin.0.weight f4 [64, 16]
0.045165703 -0.024959862 0.14618962 0.004050029 -0.035231233 0.13231508 -0.113763765 0.091090135
-0.008002434 0.19179742 0.037736244 0.00049420766 -0.24929318 0.16995406 -0.1121988 0.11861956
0.025787031 0.079542436 -0.09157524 0.04659896 -0.14431888 -0.2179821 0.13251221 -0.103918985
-0.09782506 -0.013590029 -0.03947259 -0.17912157 -0.049608797 -0.048054837 0.045616977 0.09564956
-0.035942934 0.08915301 -0.18255022 0.029122127 0.0003541535 -0.045951378 -0.25944474 0.23861554
-0.21928704 0.02886323 0.030391105 -0.09188713 0.08187241 -0.14659855 -0.14038453 0.039851394
-0.122306466 -0.12726468 0.053841814 0.14410599 -0.15123251 0.07625953 -0.05329302 -0.09468799
0.19526947 0.015324123 -0.04454515 -0.12658307 -0.06629711 0.062060315 0.035027895 -0.07569376
0.16527905 -0.06700186 -0.10343628 0.011090861 -0.16314481 -0.0683551 -0.059869174 0.02361829
0.092847094 0.039054368 -0.12350898 0.004974672 -0.18580186 -0.22008976 0.03715335 -0.21452709
0.020987617 0.14399977 0.06527935 -0.18640669 -0.21160917 0.11466613 0.012050427 0.109367505
0.15322465 0.06842506 -0.05319757 -0.08020038 0.17453371 -0.0045221 -0.029866843 -0.09061743
0.10592721 0.025430543 -0.13227189 0.27473265 -0.0528314 0.14867821 0.026754098 -0.07245609
-0.058655005 -0.11321417 0.14476003 0.05914719 -0.20708477 0.04787533 -0.110153995 -0.051461957
-0.092792936 -0.04143685 0.04363891 -0.021827465 -0.10545394 -0.13691095 -0.105184436 -0.2089197
-0.07029022 0.022402106 -0.054907165 0.117954075 -0.08599787 0.09133828 0.15281296 0.11494845
-0.15961908 -0.05810321 -0.093746044 -0.049590148 -0.15832126 0.06456799 -0.117108166 -0.02017554
-0.064798616 0.029683458 -0.071003795 -0.2544685 0.13424067 0.073383585 -0.231562 -0.06700174
0.08109323 0.07902556 0.06245961 0.009705587 -0.11770081 0.29254273 0.06560003 -0.082715295
-0.05479612 0.2529568 -0.09985418 -0.09220351 0.017704103 -0.03639094 -0.07201241 0.007988658
-0.0015605366 -0.14242043 0.2980935 -0.010273701 -0.06361505 0.053130392 -0.024812507 -0.06570942
0.21685535 0.013990774 0.025177073 -0.033135988 -0.04260649 -0.14894255 -0.11705768 0.12840797
-0.16751875 -0.060331512 -0.00065643777 0.19601694 -0.034050994 0.054976393 -0.061866626 -0.058933213
0.24527223 -0.017401213 -0.15000233 -0.030838927 0.049192656 0.041738983 0.1306477 0.12231326
-0.016487356 0.21536762 0.084544584 -0.093768194 -0.16782244 -0.0019204804 -0.12541194 -0.14974001
0.159825 -0.0049216887 0.09930745 0.05756042 0.057946347 -0.13701437 -0.10108225 -0.06256147
-0.06103214 0.1000082 0.17457274 -0.117633596 -0.03287188 0.15742078 0.013997464 0.084187195
0.05510542 -0.2254705 -0.059479814 0.21606046 0.008357111 -0.14804618 -0.054610178 0.16743737
0.14436716 -0.40053472 0.079059936 -0.047807198 0.09831089 0.10534922 0.10843478 -0.070316836
-0.058553528 -0.05708835 -0.07045432 -0.005727332 -0.13002579 -0.10681094 -0.12874454 0.011049031
-0.16811123 -0.06321616 0.0130638005 0.1511626 -0.120152295 0.069205925 0.16057299 0.100832425
-0.23137781 0.0066523235 -0.06280836 0.06708012 -0.12016683 -0.11066749 0.0031379312 0.08350185
00000000: acff 383d a078 ccbc bbb2 153e 1bb6 843b
00000010: a04e 10bd 9b7d 073e fafc e8bd 778d ba3d
00000020: a41c 03bc 8b66 443e 5291 1a3d b78d 013a
00000030: b646 7fbe 7008 2e3e 7cc8 e5bd d0ee f23d
00000040: 533f d33c 25e7 a23d cd8b bbbd 8dde 3e3d
00000050: 54c8 13be b336 5fbe 48b1 073e 7ad3 d4bd
00000060: 8158 c8bd b7a8 5ebc 03ae 21bd a56b 37be
00000070: 9832 4bbd 26d5 44bd ded8 3a3d ebe3 c33d
00000080: e638 13bd da95 b63d 72ee 3abe 8791 ee3c
00000090: aead b939 8337 3cbd f1d5 84be a257 743e
000000a0: c88c 60be 9572 ec3c c4f6 f83c 522f bcbd
000000b0: b9ac a73d ee1d 16be f6c0 0fbe 373b 233d
000000c0: d07b fabd ac51 02be 3c89 5c3d 8590 133e
000000d0: b2dc 1abe f52d 9c3d c849 5abd c7eb c1bd
000000e0: b8f4 473e 0812 7b3c fa74 36bd fe9e 01be
000000f0: c7c6 87bd f532 7e3d 6979 0f3d 5405 9bbd
00000100: e93e 293e 4538 89bd 66d6 d3bd 71b6 353c
00000110: 6f0f 27be c2fd 8bbd 6139 75bd 257b c13c
00000120: 9e26 be3d 79f7 1f3d 47f2 fcbd 9302 a33b
00000130: d842 3ebe 365f 61be 1c2e 183d fdac 5bbe
00000140: 39ee ab3c ad74 133e 2eb1 853d 65e1 3ebe
00000150: 13b0 58be 13d6 ea3d 276f 453c 12fc df3d
00000160: ece6 1c3e 7022 8c3d b2e5 59bd 1940 a4bd
00000170: f7b8 323e 202e 94bb 4fab f4bc a295 b9bd
00000180: 5df0 d83d b753 d03c 4872 07be c2a9 8c3e
00000190: bd65 58bd 1a3f 183e 692b db3c dc63 94bd
000001a0: 3b40 70bd d5dc e7bd f93b 143e 5344 723d
000001b0: 080e 54be ec18 443d 6b98 e1bd c6c9 52bd
000001c0: 390a bebd b0b9 29bd b7be 323d 83cf b2bc
000001d0: 3cf8 d7bd 6232 0cbe f06a d7bd 0cef 55be
000001e0: 52f4 8fbd 9f84 b73c 56e6 60bd e891 f13d
000001f0: a71f b0bd 900f bb3d 007b 1c3e 186a eb3d
00000200: 2f73 23be a2fd 6dbd edfd bfbd 0a1f 4bbd
00000210: f81e 22be 393c 843d 68d6 efbd 2d47 a5bc
00000220: 23b5 84bd b92a f33c 706a 91bd b249 82be
00000230: 6376 093e 224a 963d 971e 6dbe 3538 89bd
00000240: 3514 a63d 27d8 a13d a6d5 7f3d 2f04 1f3c
00000250: 1f0d f1bd 29c8 953e 4f59 863d a366 a9bd
00000260: e571 60bd 8e83 813e 5980 ccbd 32d5 bcbd
00000270: 3208 913c ab0e 15bd 3e7b 93bd dce2 023c
00000280: eb8a ccba a9d6 11be b69f 983e 0653 28bc
00000290: 9b48 82bd 419f 593d 9943 cbbc a992 86bd
000002a0: 540f 5e3e 8f39 653c 2640 ce3c 9ab9 07bd
000002b0: 2584 2ebd 6584 18be f0bb efbd 617d 033e
000002c0: 098a 2bbe 2d1e 77bd cb14 2cba aab8 483e
000002d0: 0e79 0bbd ed2e 613d dc67 7dbd f463 71bd
000002e0: a528 7b3e fd8c 8ebc 369a 19be eba1 fcbc
000002f0: 3d7e 493d 7ff6 2a3d 83c8 053e 607f fa3d
00000300: 7e10 87bc 5489 5c3e b625 ad3d 8a09 c0bd
00000310: a5d9 2bbe a1b8 fbba fd6b 00be 7255 19be
00000320: 2aa9 233e 1e46 a1bb b461 cb3d 7ac4 6b3d
00000330: 2659 6d3d 7f4d 0cbe 3604 cfbd 3a20 80bd
00000340: d6fc 79bd 19d1 cc3d 32c3 323e e2e9 f0bd
00000350: aaa4 06bd ea32 213e 9f55 653c 566a ac3d
00000360: 39b6 613d bde1 66be 1ba1 73bd f43e 5d3e
00000370: 44ec 083c 6b99 17be ecae 5fbd b474 2b3e
00000380: fcd4 133e e312 cdbe 2dea a13d 7bd1 43bd
00000390: 3857 c93d 55c1 d73d 0e13 de3d 4602 90bd
000003a0: d3d5 6fbd 79d5 69bd 5b4a 90bd 58ac bbbb
000003b0: 7b25 05be b2bf dabd 9cd5 03be ff06 353c
000003c0: 5a25 2cbe 7977 81bd 8d09 563c 5eca 1a3e
000003d0: 6812 f6bd d6bb 8d3d 3f6d 243e 3b81 ce3d
000003e0: 4eee 6cbe bcfb d93b aba1 80bd 4d61 893d
000003f0: 071a f6bd a3a5 e2bd c0a5 4d3b 0503 ab3d

decoder_lin.0.bias f4 [64]
-0.004603752 0.011209293 0.0022786327 0.0011703824 0.03402448 0.0014265376 -0.0031742537 0.0068125683
-0.0002116125 -0.0016026291 0.0067891893 0.013693666 0.0019455327 0.0038996176 0.015539245 -0.007586159
0.0032840692 0.0054009855 0.0035703212 0.013605234 0.010774032 0.015756823 0.015719712 -0.0037021483
-0.0015700497 -0.007596584 0.00025988262 0.006572935 -0.0027187036 -0.015978536 0.008317399 0.0015287802
0.025949715 0.008363335 0.014083211 0.006003152 0.00061902293 -0.012776763 0.01408203 0.012464906
0.012631392 0.0054589235 0.03035673 0.03208127 0.00054390996 -0.008369515 -0.0038444456 0.012005716
0.020990718 -0.0022197806 -0.0024966327 -0.0018000101 0.008035295 0.016449476 0.0057282187 2.7036856e-05
0.010585415 -0.003072646 -0.0005628837 0.024358638 0.009892938 0.0014658736 0.011555335 0.007978156
00000000: 12db 96bb 2fa7 373c 1d55 153b 8467 993a
00000010: 415d 0b3d a9fa ba3a 2407 50bb f73b df3b
00000020: 4ce4 5db9 4f0f d2ba d977 de3b 665b 603c
00000030: 3f01 ff3a ba90 7f3b 5198 7e3c 5095 f8bb
00000040: 8a39 573b c0fa b03b 0dfc 693b 7de8 5e3c
00000050: 9185 303c 7414 813c a0c6 803c be9f 72bb
00000060: 20ca cdba c4ec f8bb db40 8839 c661 d73b
00000070: 472c 32bb 6be5 82bc b345 083c 5a61 c83a
00000080: 7f94 d43c 5f06 093c 45bd 663c 17b6 c43b
00000090: ed45 223a a155 51bc 51b8 663c 9b39 4c3c
000000a0: e6f3 4e3c c5e0 b23b adae f83c a667 033d
000000b0: 2e95 0e3a 4a20 09bc 18f3 7bbb 9fb3 443c
000000c0: baf4 ab3c bd79 11bb 8c9e 23bb 51ee ebba
000000d0: 78a6 033c 0dc1 863c c8b3 bb3b 35cd e237
000000e0: 736e 2d3c 725e 49bb 7c8e 13ba c48b c73c
000000f0: fd15 223c 8e22 c03a 9652 3d3c d0b6 023c

decoder_lin.3.weight f4 [288, 64]
-0.0033797182 0.026069969 -0.020967575 -0.00025761162 -0.020355696 -0.012537454 -0.02605391 0.04581868
0.011985378 -0.018733157 -0.00028859254 -0.0014918896 0.022466462 -0.055872962 0.010413894 -0.04288029
0.04479711 0.012695155 0.014728905 0.025165029 0.0019225312 -0.017072622 -0.004615954 -0.012262345
0.016028032 0.0049077086 -0.028580293 0.038076177 0.006893255 0.022815995 -0.021609396 -0.033629384
0.033616595 0.014780515 0.004051401 0.0020751967 0.0009792276 0.00029903682 0.009493191 0.024452243
-0.016756123 0.0029394429 0.0033307734 -0.0025764809 0.0008607159 6.652827e-06 0.00049314747 -0.016624633
-0.00626508 0.021543106 0.031533916 -0.028080013 -0.008335978 -0.008573838 -0.0072864653 0.012559276
0.008499632 0.040960252 0.047301278 0.018312179 0.0014179809 -0.0633774 0.011271263 0.024580777
0.018380262 0.09433388 -0.008046132 0.027727116 0.06263267 -0.03326269 0.03325378 0.065608144
-0.02011283 -0.0016161293 -0.02659576 0.027168134 -0.06879179 -0.018098298 -0.021524841 0.07916709
0.06649453 0.051272444 -0.09506817 -0.018260434 0.00022826441 -0.018476823 0.006145402 0.010108987
-0.005451942 -0.01421214 0.042107504 0.031783722 0.010952187 0.07743044 0.025726285 0.016869402
-0.03643138 -0.05967504 -0.0024072048 0.011613692 0.030966263 0.0060404204 -0.048544876 0.019861115
-0.1009645 0.015619908 -0.06258458 -0.078514695 0.0103117 0.21903965 -0.052244525 0.008946994
0.015494066 0.006027093 -0.037265368 0.037309755 0.08769398 0.037378736 0.020243263 -0.0100103635
0.009628066 0.07966353 0.068464115 3.1719887e-06 -0.048676524 0.08057108 0.006091381 -0.0013341152
-0.00876048 -0.0017115878 0.0079639815 0.019961625 -0.01716571 0.0990089 -0.038954034 -0.045298498
0.13962528 0.0076004746 0.0039009692 0.02034746 0.06628158 -0.03185161 4.4180056e-06 -0.04324431
-0.036836706 -0.0398572 0.009310063 0.0058204466 -0.0043014972 0.039691675 -0.028752383 0.035617217
0.009018351 0.0071838573 -0.050084565 0.016786354 -0.027996164 0.10328242 -0.008341767 0.009038007
-0.0006089887 -0.035782926 -0.022313127 0.013543069 0.032691922 0.019730285 0.03566943 0.010333556
0.017629681 0.0068750787 -0.026303578 0.0092053 0.024603514 0.06166343 0.11747331 0.0016438668
0.045751605 -0.016511511 0.0037133687 -0.030965189 0.03210837 -0.028233895 -0.02016751 0.0034566664
-0.0056165955 0.0006515057 0.08904065 -0.01611782 -0.012346388 -0.02199198 0.0016098935 -0.019768646
-0.026491743 -0.016322112 0.03560192 0.01847852 0.008071553 0.06882924 0.036904518 -0.066643074
-0.026555207 0.046666805 0.022062967 0.0103610605 0.015780663 0.018732116 0.056155734 0.04960429
-0.0026651854 0.032251704 -0.035583116 0.01690298 -0.018124342 0.04595482 0.011006093 -0.0023512004
0.02622569 0.061314046 0.022865048 0.027048085 -0.0072746235 -0.023771089 0.008529559 0.062444437
-0.003799361 -0.001482783 -0.004452666 -0.021734498 0.0400361 -0.004229855 -0.021232512 -0.026008334
0.022295797 0.0010397924 0.008547929 0.029761085 0.030722182 -0.008608107 0.020901699 -0.027436296
0.04240995 0.03043894 -0.03996686 0.083506696 0.026615718 -0.023159586 0.04645135 0.008627711
0.0039846865 -0.05897668 0.012193897 -0.02997359 -0.024287643 -0.017102847 0.019078188 0.018635044
00000000: 437e 5dbb b090 d53c 31c4 abbc 0c10 87b9
00000010: fdc0 a6bc e569 4dbc 026f d5bc 5eac 3b3d
00000020: 525e 443c 4776 99bc 3c4e 97b9 828b c3ba
00000030: 960b b83c 0cdb 64bd 0a9f 2a3c 3ea3 2fbd
00000040: 2d7d 373d 57ff 4f3c 8151 713c e426 ce3c
00000050: 71fd fb3a e2db 8bbc 6e41 97bb 01e8 48bc
00000060: 384d 833c d8d0 a03b 3821 eabc c4f5 1b3d
00000070: d0e0 e13b 9ce8 ba3c 3006 b1bc f7be 09bd
00000080: 8eb1 093d f929 723c 9dc1 843b 0600 083b
00000090: 6d59 803a 0bc8 9c39 5489 1b3c 1250 c83c
000000a0: 2344 89bc aba3 403b 1b49 5a3b 2dda 28bb
000000b0: aba1 613a 593b df36 9146 013a 6230 88bc
000000c0: 4d4b cdbb 2b7b b03c b529 013d 0e08 e6bc
000000d0: a093 08bc 4879 0cbc 4dc3 eebb 6cc5 4d3c
000000e0: 0a42 0b3c f0c5 273d fcbe 413d 6c03 963c
000000f0: 8bdb b93a 03cc 81bd 1aab 383c a05d c93c
00000100: 3492 963c 1f32 c13d ecd3 03bc fa23 e33c
00000110: 8f45 803d 753e 08bd 1e35 083d 905d 863d
00000120: a9c3 a4bc 4dd4 d3ba 5adf d9bc b58f de3c
00000130: b6e2 8cbd e242 94bc dd54 b0bc 5b22 a23d
00000140: 492e 883d 0e03 523d 1ab3 c2bd e896 95bc
00000150: 435a 6f39 b55c 97bc 5e5f c93b 2aa0 253c
00000160: 34a6 b2bb 09da 68bc eb78 2c3d a62f 023d
00000170: cd70 333c da93 9e3d eebf d23c b331 8a3c
00000180: 1239 15bd d16d 74bd 32c2 1dbb 5b47 3e3c
00000190: f6ac fd3c b8ee c53b fed6 46bd c7b3 a23c
000001a0: 7ac6 cebd a5ea 7f3c 582c 80bd 50cc a0bd
000001b0: 68f2 283c ee4b 603e 5bfe 55bd 6a96 123c
000001c0: d3da 7d3c ec7e c53b 92a3 18bd 1dd2 183d
000001d0: e798 b33d 721a 193d 33d5 a53c 8202 24bc
000001e0: 09bf 1d3c a226 a33d ea36 8c3d 5ade 5436
000001f0: 0961 47bd 7302 a53d 359a c73b 7add aeba
00000200: 1e88 0fbc 5b57 e0ba 5c7b 023c 9086 a33c
00000210: 1a9f 8cbc 2ec5 ca3d 448e 1fbd eb8a 39bd
00000220: eef9 0e3e 670d f93b 67a7 7f3b b7af a63c
00000230: a3be 873d d576 02bd 613e 9436 f220 31bd
00000240: 16e2 16bd 4e41 23bd 3c89 183c 72b9 be3b
00000250: 93f3 8cbb bd93 223d 1e8a ebbc 5ce3 113d
00000260: b5c1 133c 9066 eb3b 7925 4dbd 8983 893c
00000270: 3658 e5bc bc85 d33d e8ab 08bc 2614 143c
00000280: 8aa4 1fba 1e91 12bd 05ca b6bc c0e3 5d3c
00000290: f7e7 053d 68a1 a13c 1c1a 123d 134e 293c
000002a0: 1f6c 903c 5748 e13b 9a7a d7bc d4d1 163c
000002b0: 4f8d c93c cb92 7c3d d995 f03d 0477 d73a
000002c0: 0966 3b3d 2643 87bc fd5b 733b b5aa fdbc
000002d0: 1184 033d c54a e7bc 5536 a5bc 3d89 623b
000002e0: 6b0b b8bb cfc9 2a3a f25a b63d 8509 84bc
000002f0: 8148 4abc 8628 b4bc 1003 d33a dbf1 a1bc
00000300: 3605 d9bc f3b5 85bc 52d3 113d 4460 973c
00000310: 8c3e 043c 58f6 8c3d 3129 173d 2a7c 88bd
00000320: 4e8a d9bc b125 3f3d 65bd b43c 70c1 293c
00000330: 7346 813c 1874 993c 8e03 663d de2d 4b3d
00000340: 64aa 2ebb 5d1a 043d 9abf 11bd 1e78 8a3c
00000350: 8079 94bc 1f3b 3c3d e652 343c 9916 1abb
00000360: 42d7 d63c 7024 7b3d 7b4f bb3c f293 dd3c
00000370: f75f eebb 96bb c2bc 90bf 0b3c bdc5 7f3d
00000380: b3fe 78bb f159 c2ba abe7 91bb 8c0c b2bc
00000390: e5fc 233d 989a 8abb ceef adbc 6e0f d5bc
000003a0: ada5 b63c a549 883a 9d0c 0c3c 85cd f33c
000003b0: 16ad fb3c 0509 0dbc 0a3a ab3c 15c2 e0bc
000003c0: 0eb6 2d3d 155b f93c 4ab4 23bd 8f05 ab3d
000003d0: 3509 da3c 2cb9 bdbc c543 3e3d 3e5b 0d3c
000003e0: f991 823b 8891 71bd e9c8 473c 2d8b f5bc
000003f0: e1f6 c6bc 451b 8cbc dc49 9c3c 85a8 983c
