Nicola_Dainese_Ex4_NN/params/occluded_net_params_2.pth (torch_old, 200811 bytes, 19 tensors)

encoder_cnn.0.weight f4 [8, 1, 3, 3]
00000000: f6a3 3bbc 1d26 4dbd 177a 87bd 9c18 f8bc
00000010: 8089 95bd dc28 a6bd 1e23 30bd ca4e 9abd
00000020: aaf8 9dbd e6ff 923e 2560 e33e 37ee d13e
00000030: 6ab6 ca3e b5a0 083f 95d7 e53e ccb2 cd3e
00000040: 2713 f63e 29f1 b53e 714e 2dbc 08da 42bd
00000050: 3d89 80bd f471 f5bc 4a6d 90bd cd2f a1bd
00000060: b401 2ebd 2b85 96bd a59e 99bd a03c 883e
00000070: fc65 d33e 63af c33e 9db8 b93e b3a5 f93e
00000080: c1fe d13e 5491 bc3e 2b6a df3e c0ce a33e
00000090: 18ed 863d 152b 973d c140 4b3d a8de 983d
000000a0: 4b05 9b3d 5b2d 343d 3295 883d 60cb 763d
000000b0: 496a cd3c 9e7a 923e 0145 e43e c2b9 d43e
000000c0: ae3e c73e 8bd6 073f 3f56 e63e c57c ca3e
000000d0: d5d7 f43e 6938 b53e 90f8 943e 1382 e53e
000000e0: ef22 d33e 0099 cb3e 7172 083f e703 e63e
000000f0: 713f cf3e 59b6 f73e a7f4 b63e 789e 99bb
00000100: e1a3 c4bc f7aa 03bd 41d9 50bc 9e8a 0ebd
00000110: 7d68 1dbd eacd a0bc 3084 1bbd fe10 1dbd
-0.011452666 -0.050085176 -0.06615084 -0.030285172 -0.07301617 -0.08113262 -0.04300224 -0.07534559
-0.077134445 0.2871086 0.4440929 0.41002056 0.39592296 0.5337022 0.4489104 0.40175474
0.48061487 0.35535553 -0.010577784 -0.047571212 -0.06276176 -0.029961564 -0.07052095 -0.078704454
-0.042482093 -0.073496185 -0.07500962 0.26608753 0.41288745 0.38219747 0.3627366 0.4875923
0.41014674 0.36829627 0.43635687 0.31993675 0.06588191 0.07381264 0.0496223 0.07464343
0.07569369 0.043988567 0.06669082 0.060252547 0.025075095 0.28609174 0.44583896 0.41547972
0.38915008 0.5306174 0.44987676 0.39548317 0.47820917 0.353946 0.29095888 0.448258
0.4123759 0.39765167 0.53299624 0.44924852 0.4047809 0.48381308 0.3573353 -0.0046880804
-0.024003925 -0.032145467 -0.01274711 -0.034800164 -0.038429726 -0.019629437 -0.03796786 -0.038346283

encoder_cnn.0.bias f4 [8]
00000000: 0a3e eb3e 9853 36bb 42f3 e23e 8574 55bb
00000010: ad35 ca3e d5f0 26ba c6b3 203b 76a6 643e
0.4594577 -0.0027820822 0.44326216 -0.0032570672 0.39494076 -0.0006368284 0.0024521216 0.22329125

encoder_cnn.3.weight f4 [16, 8, 3, 3]
00000000: 939e 033c 47aa 8dbc 652a 8abc 3d41 26bc
00000010: 8cd5 2abd d59e eabc 2b8d b7bb 13f4 dfbc
00000020: 264d 39bc f3b6 78bd 7dbc 893d 36c5 dd3d
00000030: d61d 943d b876 9b3e 16f6 723e e351 893d
00000040: dd0a 603e d3cc db3d aa51 ee3b f4fd 85bc
00000050: 2275 90bc 920e 01bc a1b2 26bd fe6e d6bc
00000060: 8c1f 0bbc ce20 babc 93c8 25bc cdb4 65bd
00000070: c7ec 5c3d bfac e23d a5ec 7b3d aa28 913e
00000080: 203f 563e 320c 7f3d 8862 4e3e 4acb c63d
00000090: 1245 0bbc fdfb a13b 1910 763c 6b52 143c
000000a0: f418 243d 279f 223d bfb9 073c 0165 183d
000000b0: bd6a c33c 3545 7abd e35c 8a3d c81d cc3d
000000c0: 153a 973d 75ec 993e 8a0c 7b3e aa5b 9d3d
000000d0: 5bb8 5f3e a985 dc3d 319d 73bd c19b 8b3d
000000e0: 884e d73d 27d7 973d ef12 9b3e d271 773e
000000f0: 7bb3 a33d 6ea1 5c3e 958b d53d 6d66 b13b
00000100: 23d9 20bc 2673 45bc 42c5 35bb 45ff abbc
00000110: db0c 68bc 9caf 9dbb 7f7b 4dbc b1b0 ecbb
00000120: e175 183c 0ed0 5a3c 3001 693c be3f 343c
00000130: 24fd 693c 97f9 713c 64f5 363c 6af6 663c
00000140: 7acb 6b3c 63ce 7a3c f18a 66bb fede 55bc
00000150: 838b 023c 956c 00bc 237f 14bc f257 e53b
00000160: 065e c3bb 6d0a 1ebc 068e 153c 6c00 503c
00000170: ea72 633c 25fc 2e3c 4a6f 5d3c f9cb 5d3c
00000180: a347 363c 25c9 5b3c 9007 5d3c 8891 693c
00000190: 2ac5 7bbb 61b8 54bc 5b93 fe3b 6b53 f3bb
000001a0: 840f 0bbc c78f ca3b 41a9 c0bb 1dd2 e8bb
000001b0: a8c5 503c f0b4 353c d37d 0f3c 915a 543c
000001c0: 1e11 343c 4081 203c 0bb9 463c 45ac 2b3c
000001d0: 7991 1d3c b176 713c 7ce6 55bb c384 46bc
000001e0: 4985 063c 3946 f9bb 2414 0cbc 23ac ce3b
000001f0: 9325 d3bb f0be 15bc 6a9e 753c 46b3 2cbb
00000200: 127e 62bc 97a3 fc3b 3621 09bc 6f6b 0bbc
00000210: 2ba5 cd3b 713c dcbb 75a5 18bc 78ff a13b
00000220: 0160 cf3b f58d e93b 3311 bf3b ae54 d93b
00000230: 9666 df3b e3cb ba3b c8c2 e03b 30cd e23b
00000240: de9d 6d3d 6a85 a03d 9d45 ad3d 20c3 873d
00000250: 974e b23d 50ce bb3d 1a9c 8a3d e3f4 b13d
00000260: fadf b63d 768a 9e3d e706 1abb 03d1 6ebd
00000270: af75 6d3d 4815 e7bc 6b29 9ebd 1dfa 443d
00000280: 4031 0cbd 34b7 88bd 3448 643d 16d4 993d
00000290: 7405 a83d 06f9 813d 7234 ab3d ea3b b23d
000002a0: d27e 873d 37ba ac3d 8340 b03d 38c7 903d
000002b0: d7cf 06bb 7076 64bd 0348 5e3d 08eb dfbc
000002c0: b96f 93bd cfb6 353d b06f f7bc ea82 76bd
000002d0: 0f57 913d 8176 893d add0 6b3d 3119 993d
000002e0: 2d6c 8b3d aaba 733d f2c6 933d d913 873d
000002f0: 8ee9 763d fd1a 9a3d f2ed 2c3a 12f7 71bd
00000300: adda 723d b531 eebc ad43 96bd 66c9 393d
00000310: c63b 08bd 8ccd 84bd 21d3 993d 271b 143a
00000320: 521e 7ebd 8170 723d d0b9 eabc bfa8 95bd
00000330: 6ea3 393d b5bb 03bd ed9b 89bd be14 e33c
00000340: 59f1 1c3d 140d 2e3d 0749 043d 1cec 2b3d
00000350: e837 363d 33f0 073d dcbd 2e3d 516d 373d
00000360: 69f2 863d 46bc af3d 8b69 ba3d e93f 9c3d
00000370: afdb c23d 8d94 cb3d 3800 9e3d b812 c33d
00000380: 815e c63d 36b1 933d 2e6e bcba 6eba 4fbd
00000390: fd4b 373d 13c8 0dbd c6b4 98bd 0089 133d
000003a0: 2c40 2cbd 9218 87bd 12eb 813d 84b6 a83d
000003b0: 48ff b43d 1086 943d 7932 bb3d 167c c13d
000003c0: 2fdc 993d fc57 bd3d b6ab be3d fad7 863d
000003d0: 5625 1cbb 42c0 4cbd ee7a 293d 0ea8 05bd
000003e0: b01a 90bd 67d2 063d fca8 16bd 88e2 74bd
000003f0: b082 9c3d 6a38 953d dbe3 843d 3e32 a23d
0.0080334125 -0.017293109 -0.016865918 -0.01014739 -0.04170756 -0.02864019 -0.0056015453 -0.027338063
-0.0113098975 -0.06072135 0.067254044 0.108286306 0.07232253 0.30364013 0.23726687 0.06705072
0.21879144 0.107324265 0.0072729187 -0.016356446 -0.017633978 -0.007877009 -0.040697698 -0.026175972
-0.008491408 -0.02272072 -0.010118621 -0.05608063 0.053936746 0.11068105 0.06150498 0.28351337
0.20922518 0.06226749 0.20154774 0.09706743 -0.008500354 0.0049433694 0.015018486 0.009052853
0.04006286 0.03970256 0.008284031 0.0372057 0.023854608 -0.061101157 0.06755998 0.09966618
0.07384125 0.30063215 0.24516502 0.07683499 0.2184767 0.10767681 -0.05947608 0.06816817
0.105130255 0.07414084 0.30287883 0.24164513 0.079932176 0.21545956 0.10427014 0.0054138214
-0.009817394 -0.012051379 -0.0027735983 -0.020995745 -0.014163221 -0.004812194 -0.012541651 -0.0072232117
0.009305448 0.013355268 0.0142214745 0.011001525 0.014281545 0.0147689795 0.011166904 0.014096836
0.014391774 0.0153079955 -0.003517803 -0.013053654 0.0079678325 -0.007838388 -0.009063515 0.0069990093
-0.005962136 -0.00964604 0.009128099 0.012695413 0.013882378 0.010680233 0.013515303 0.0135374
0.011125478 0.013414656 0.013490573 0.014255889 -0.003841708 -0.0129834125 0.007769031 -0.0074257157
-0.008487586 0.0061816904 -0.0058795516 -0.0071051256 0.012742437 0.011090502 0.008758026 0.012961046
0.010990409 0.009796441 0.012129079 0.010478084 0.009617203 0.014737771 -0.00326386 -0.012116614
0.008210489 -0.007607248 -0.008549724 0.0063071414 -0.006443688 -0.009139761 0.014991382 -0.0026351972
-0.013824003 0.007709931 -0.0083697345 -0.008509501 0.006275793 -0.0067210724 -0.009316792 0.0049437843
0.006328583 0.0071275183 0.0058309077 0.006632409 0.006817649 0.0057005747 0.0068591572 0.006921433
0.058011882 0.07837947 0.08460543 0.06629014 0.08706396 0.0917021 0.06768055 0.086892866
0.08929439 0.07741253 -0.002350265 -0.058304798 0.05797356 -0.02820839 -0.077227436 0.04809009
-0.034226656 -0.06675568 0.05573292 0.07511155 0.08204165 0.063463256 0.083596125 0.08702834
0.06615986 0.08433955 0.08606055 0.07069248 -0.002057066 -0.055777013 0.054267894 -0.027333751
-0.07199044 0.044363793 -0.030204624 -0.060183443 0.07096683 0.06712056 0.057572056 0.07475508
0.06807742 0.05950419 0.0721568 0.065955825 0.06028133 0.07524679 0.0006596736 -0.059073515
0.059290577 -0.029076437 -0.07337127 0.045358084 -0.03326013 -0.064845175 0.07510973 0.0005649798
-0.062040634 0.059189323 -0.028653055 -0.073075764 0.045321874 -0.032161433 -0.067191936 0.027719852
0.038316105 0.04249294 0.032296207 0.04197322 0.04448691 0.033188056 0.042661533 0.044781987
0.06589205 0.08580832 0.09102162 0.076293774 0.095145576 0.09940443 0.077148855 0.09525055
0.09685994 0.07211535 -0.0014376098 -0.050714903 0.044750202 -0.034614634 -0.07456355 0.036019325
-0.042053387 -0.06596483 0.06343664 0.08237937 0.088377535 0.07252133 0.09140486 0.09447496
0.075127 0.09245297 0.09310095 0.06584163 -0.0023825965 -0.04998804 0.041377 -0.032630973
-0.0703634 0.0329155 -0.03678225 -0.05978635 0.07642114 0.07286151 0.064887725 0.07919739

encoder_cnn.3.bias f4 [16]
00000000: 88a7 133c 4a28 0f3d 6ba4 353e bc17 483e
00000010: f959 043d 7891 d93b d7f0 e9b9 a3ce 1834
00000020: 2055 213e 6448 113d 291d 1d3c 60ac b53b
00000030: 0d72 b93b 0df7 883b c562 75b8 1648 383e
0.0090121105 0.034950532 0.17738502 0.19540304 0.032312367 0.0066396557 -0.00044620663 1.4231277e-07
0.15755129 0.035469428 0.009589472 0.0055442303 0.005659348 0.0041798414 -5.8504538e-05 0.17996249

encoder_cnn.6.weight f4 [32, 16, 3, 3]
00000000: 4ac4 fcbb a47c d7bb da5c 2ebb 2a93 b8bb
00000010: 330b dfba 9abf 06bb ec78 84bb f840 24bb
00000020: dd34 10bb 9088 3638 e996 5839 d1ea 3639
00000030: 1ca1 0139 4f1c 5439 8324 1c39 1279 4339
00000040: 9680 2d39 900b 1539 3b3f 9e39 15ce 1c3a
00000050: 74d2 183a 2a33 ce39 c7b1 4a39 6329 1b39
00000060: 318c 0c3a e338 ee38 fe2e 8939 dec9 3839
00000070: 50bb 5d39 7e42 5839 d2c8 9e39 102f abb8
00000080: fad6 aab8 85ef bb39 643e 10b9 c5a7 76b8
00000090: fa42 d339 5bd4 a03a dd92 2f3a a751 f439
000000a0: aea2 4c3a 3c73 e239 0a97 193a 057a cb39
000000b0: 8725 f539 8dd4 5ebb 623c cfbb 7cb5 32bb
000000c0: 4f66 69bb aaef 98ba 0f9f 19bb 495f 35bb
000000d0: 4ee5 95ba 51b3 aeba 00cd 2535 c2de 1435
000000e0: 6449 8a34 e06f 7333 9671 ac32 0b2f b533
000000f0: cddb 6cb4 2c68 3bb4 8cb4 b4b3 cd5f 582e
00000100: cdc1 f3ac dfd0 ca2e f260 942e edc6 d12d
00000110: 41bc d52e 9a59 f32e c487 e72e 23fa 0f2f
00000120: 8f39 e139 4d4e 803a 2c09 4b3a 0de0 213a
00000130: 8cdd 233a 25cc f339 3a03 683a 0b1d d739
00000140: fa7d 1b3a 2fb1 95bb 7c3b 58bb f754 00bb
00000150: 96e9 79ba d9c3 7238 5974 63ba 2f54 be3a
00000160: d132 f4ba 09a8 fcb9 62e3 07bc 1f42 d3bb
00000170: 636c 3cbb 8451 64bb 3b35 8eba ffa1 b9ba
00000180: cbfd 52bb 73a9 5abb 1d41 d3ba 966b f1bb
00000190: 56be bdbb b880 17bb 067f c4bb 4225 2abb
000001a0: c160 06bb eaaa 80bb d875 1dbb fe65 04bb
000001b0: 8e3a 7ebb f579 f1bb 3e0f 79bb 4519 3abb
000001c0: c824 17bb cf34 c8ba 1597 84bb dea9 f9ba
000001d0: a6fa d2ba 8528 59bb 19b3 a2bb ea16 2ebb
000001e0: 9d19 49bb c876 29bb 47e5 2bbb 9bdc 26bb
000001f0: 8027 38ba a81e f1ba 1cbb b834 8177 2335
00000200: 5212 3635 dae7 c734 061b e034 0471 8134
00000210: ec31 f934 72a1 9134 1c73 9934 4676 8239
00000220: fd17 a039 ff65 a539 24ce 4839 aa0b a8b8
00000230: 983d 7eb8 f24f 9239 104a 05b9 3af7 cfb6
00000240: 9f91 74bc 4080 ae3d 3f9c 09bc 5c86 92bb
00000250: 7f29 9b3d 3871 7ebd 4ad7 313d 87ba 81bd
00000260: 76aa 60bd ec5a 7abb dbf5 8bbb 0ff2 103b
00000270: 9a6d a3ba d50e 513b 8d28 ad3b a188 e9bb
00000280: 5a83 be3b 2794 1c3b 3376 abbb 0e9b fdb9
00000290: 66be 353c 51ec cfbb 917a 2e3d 3543 853c
000002a0: a0f7 ccbc 9fb9 563d 500a eb3b 7ba4 2e3a
000002b0: e2d8 e8bb d7fd 8b3c 42eb 7cbb 7a5b 113d
000002c0: 9cc4 e23c 2fd0 debc 6e5e 673d 70c1 713c
000002d0: 9dba f8bb 3fa1 083c ad3f 8b3b ee34 2cbc
000002e0: 3f74 103d a5ae abb9 f4ac 76bc e9b4 d23c
000002f0: 1f34 0abc 7137 a9bd 51c1 b13d 761d 1dbc
00000300: 85c9 f7bd 7de5 2a3e adb6 82bd 686c e4bc
00000310: 56a9 633d 0f7c dbbd 29ca 47b9 8e97 30ba
00000320: ecb8 2cba f95c ffb9 5fde 53ba 1e65 d8b9
00000330: c8f3 eeb9 604a 00ba d783 e5b8 c43d 94b1
00000340: 2504 86b1 5881 13b1 37e0 a7b1 6210 1ab1
00000350: cf16 2e31 75ef f9b0 b027 43b1 4a94 5431
00000360: 053b 5fbc c430 4a3c cbbd 683c 52a6 43bc
00000370: d1ce 723d c3c2 633c 13d0 ffbc 0cd4 693d
00000380: 10ce 943b 2242 00bc fa01 833d 1d29 a73b
00000390: b8f9 833d faa8 a6bc f8a8 59bd 1e35 863d
000003a0: 4a6c 56bd 6269 e6ba 0199 b7bb 2a8c a63d
000003b0: 0dbf 25bc 040c 293d 66b8 cf3a 0a36 6bbd
000003c0: bd3b 243d 1531 8dbd cf12 a5bc 9fd3 e6bc
000003d0: 9df2 7f3d 77b1 d7bb 4a99 11bc cba3 a93d
000003e0: 4124 6ebd b948 4b3d deec 63bd 7c30 62bd
000003f0: 4d17 9fbd 3dd8 d73d fe89 5bbc 9b02 05be
-0.007713829 -0.0065761376 -0.0026605637 -0.0056327777 -0.0017016887 -0.002056098 -0.0040427353 -0.0025063138
-0.0022004165 4.3519365e-05 0.00020655584 0.00017444348 0.00012362417 0.00020228441 0.00014890921 0.00018641751
0.00016546468 0.00014214055 0.0003018322 0.00059816364 0.00058297 0.00039329502 0.00019330448 0.0001479737
0.00053614663 0.0001135932 0.00026165688 0.00017622809 0.00021145982 0.00020624136 0.0003028573 -8.1626815e-05
-8.146274e-05 0.00035845875 -0.00013756152 -5.8807218e-05 0.00040294958 0.0012270318 0.00066976045 0.00046600142
0.00078062236 0.00043191935 0.00058589934 0.0003881009 0.00046758002 -0.0034001202 -0.006324337 -0.0027268818
-0.003561396 -0.0011668105 -0.0023440754 -0.0027675203 -0.0011436136 -0.0013328587 6.1765604e-07 5.545845e-07
2.5757902e-07 5.6679596e-08 2.0075088e-08 8.4370264e-08 -2.2059176e-07 -1.745363e-07 -8.4147445e-08 4.9197802e-11
-6.9279916e-12 9.2229994e-11 6.747482e-11 2.384889e-11 9.719559e-11 1.1066277e-10 1.05287806e-10 1.309464e-10
0.0004295823 0.000978896 0.0007745202 0.0006175049 0.00062509696 0.0004650067 0.00088505785 0.00041029634
0.0005931553 -0.004568241 -0.003299444 -0.0019581893 -0.0009533403 5.7879693e-05 -0.00086767 0.0014520938
-0.0018630867 -0.00048190381 -0.008293958 -0.0064470912 -0.0028751127 -0.0034838626 -0.0010849604 -0.0014162658
-0.003219473 -0.003336516 -0.0016117428 -0.0073675616 -0.005790512 -0.0023117494 -0.0059965877 -0.0025962149
-0.0020504447 -0.0039266245 -0.002402654 -0.0020202394 -0.0038792226 -0.0073692747 -0.003800347 -0.002839641
-0.0023062695 -0.0015274527 -0.0040463307 -0.0019047817 -0.0016096428 -0.0033135724 -0.0049651978 -0.002656395
-0.0030685433 -0.0025858153 -0.002622919 -0.002546108 -0.0007024929 -0.0018395977 3.440881e-07 6.0896133e-07
6.7826943e-07 3.7235333e-07 4.1742913e-07 2.4110352e-07 4.6416187e-07 2.7125822e-07 2.8582224e-07 0.00024883653
0.0003053545 0.00031547245 0.0001915028 -8.013037e-05 -6.0615683e-05 0.00027906854 -0.00012711459 -6.1978617e-06
-0.014927297 0.085205555 -0.008399068 -0.0044715833 0.07576274 -0.062119693 0.043418206 -0.063344054
-0.054850064 -0.0038201166 -0.0042712516 0.0022116934 -0.0012468577 0.003189971 0.005284375 -0.007126883
0.005813998 0.0023892017 -0.0052325963 -0.00048371445 0.011092758 -0.00634531 0.042597357 0.016267398
-0.02502042 0.052423116 0.00717286 0.0006662083 -0.0071059326 0.017088814 -0.0038592373 0.03548763
0.027681641 -0.027198879 0.05648654 0.014755592 -0.0075906054 0.008339225 0.004249534 -0.010510666
0.03526711 -0.00032745782 -0.015055884 0.02572103 -0.008435278 -0.08262528 0.0867945 -0.009589544
-0.12098984 0.16689105 -0.06382499 -0.027883723 0.055581413 -0.10717022 -0.0001905343 -0.00067364506
-0.0006588835 -0.0004870666 -0.0008082147 -0.0004127407 -0.0004557653 -0.0004893895 -0.00010944128 -4.314389e-09
-3.9003845e-09 -2.1464839e-09 -4.88583e-09 -2.2419262e-09 2.5333298e-09 -1.8185192e-09 -2.8398794e-09 3.0934353e-09
-0.013624911 0.012340728 0.014205406 -0.011941509 0.059279267 0.013901415 -0.031227147 0.05708699
0.004541166 -0.007828267 0.063968614 0.0051013366 0.064441144 -0.020344246 -0.053139657 0.065531
-0.052349366 -0.0017579014 -0.0056029563 0.08132203 -0.010116351 0.041271225 0.0015847802 -0.057424583
0.040096033 -0.06894127 -0.02015057 -0.02817708 0.062487233 -0.0065824348 -0.008886645 0.08283194
-0.058140043 0.0496299 -0.055645816 -0.05522202 -0.07768116 0.10539291 -0.013399599 -0.12989275

encoder_cnn.6.bias f4 [32]
00000000: 93ef 7eba b026 7b3c 2f1e 30b4 bb27 84bc
00000010: 1bf4 973d 38b1 0db7 2019 613d 9dd6 ad3d
00000020: a305 9ab6 6740 a6b3 79c4 813c 7d55 9eba
00000030: c999 233d 15de c13a f261 082c f2df dfb3
00000040: 54be bebb 3d01 96b7 c425 00bd bb7e cebc
00000050: 92ba 15bc 6376 8a3c 69c8 acb6 f3e3 db3c
00000060: 7384 45b5 77f6 d83c 1a32 64b9 f6d3 b83b
00000070: 23be 5db7 cad4 99b8 a186 a5b5 1b84 d73c
-0.00097250304 0.015329048 -1.6402258e-07 -0.016132226 0.07419606 -8.445517e-06 0.0549556 0.084882
-4.590214e-06 -7.741692e-08 0.015840756 -0.0012079921 0.039941583 0.0014790917 1.9381133e-12 -1.0424982e-07
-0.0058210287 -1.788197e-05 -0.031286016 -0.025206914 -0.00913872 0.016902154 -5.1493303e-06 0.026842093
-7.358096e-07 0.026484711 -0.00021762439 0.005640502 -1.3216896e-05 -7.3352436e-05 -1.233264e-06 0.02630811

encoder_lin.0.weight f4 [64, 288]
00000000: 6003 271a a764 bb17 2e8b 7618 bd2a b6b8
00000010: d9b6 239a acb5 9c1a fdea 1619 e62f 8a97
00000020: c81b 309a ad86 6326 b932 0927 9602 1229
00000030: cb64 9625 5f3b 8da6 703e ffaf dc30 5fa5
00000040: 26ae 5a2e 5188 ac2b b5d2 4419 c985 8695
00000050: 8fef 2e97 acc3 f397 b168 d792 d95a fb17
00000060: 902a 2015 8e5b cb94 e54b 6698 d36e 95a5
00000070: 3e86 a0a5 5d48 84a6 7b57 cda6 7f8f 00b6
00000080: bb11 7d27 b934 0c27 1bd6 da2c c0c4 27a6
00000090: a673 49a7 b139 50a6 d243 2129 1728 16a7
000000a0: 406f b6a4 09cf 51aa d990 a726 f89c e226
000000b0: 0d6a afb0 9a9a 1024 c70e 8721 a51f 0d22
000000c0: 1d68 ba23 2cf3 4e23 5582 a0a3 da70 8124
000000d0: 4644 5f22 4e78 5d21 7def ed26 2da3 4e27
000000e0: 8197 eaa5 1006 f226 25d6 7427 6c41 4ea6
000000f0: 07e9 c9a6 b92d 0325 bb72 1529 26a1 e4a5
00000100: 20d6 71a6 1633 8927 3324 daa6 dd0e a226
00000110: 333c 9c24 8b23 55a7 dc37 6d26 98d0 c6a6
00000120: 44e8 0200 45c6 0000 7214 0280 6b58 0180
00000130: 9c7a 0280 bf67 0180 ce0d 0080 91c1 0180
00000140: 0b9e 0280 26df d530 bd3f 8323 c8df aa24
00000150: 34d7 8122 9306 8f20 3b58 f6a3 13e8 1ca2
00000160: 4777 b8a4 718d d423 9768 49a3 9dc8 8fa7
00000170: ecbd 80b2 c6cb f223 6853 aca7 ee51 73a7
00000180: 226d d9a6 2cf9 7627 5efa c0a5 a50e 9d23
00000190: 85fd 1ba5 76be 72a3 f230 bba3 195e c921
000001a0: 699f 4ea2 10a0 7721 32fc 47a2 0561 8021
000001b0: c014 fba7 4bac 6727 fdc5 23a4 5d9d 51b0
000001c0: 3655 04a6 6ab0 0ea7 9238 54a7 7402 4427
000001d0: 6de7 33a6 fdfa 4e23 da76 2225 7eaf 32a7
000001e0: 217f 9aa6 a053 1ca4 bef8 092d e901 1825
000001f0: b121 c4aa 1396 89b4 a45e 191b 73b6 c219
00000200: 27b1 0a9a 2f39 2c9a e3e1 fb99 c141 1019
00000210: 0fde 419b b57e 4399 a307 2d9a 1b86 87a4
00000220: 1c4c a3a5 751f 7325 c5a9 1ca4 9ada 9725
00000230: 5b5f bfa5 8083 fc24 a446 5ca5 4313 a4a5
00000240: fc9f 81a1 935e 07a7 f537 b9a4 57d8 77a5
00000250: 8149 0d27 7d71 f0b1 194e 56a6 6860 33a7
00000260: d326 8627 74e7 eca5 d686 eea5 f0c2 97a5
00000270: f00c a1a5 d824 c324 9f1a f225 0ab9 f5a5
00000280: 3d92 1026 d137 0ea5 d1b8 a025 3279 04a8
00000290: fb0c d3b5 bf88 6b26 1af0 2faa 4666 4b27
000002a0: 7ac2 72a5 b031 be24 0330 b5a5 adb1 7228
000002b0: 2604 2eb9 c999 9bb8 61d0 0127 90df d1b8
000002c0: 9386 9daf 7762 0028 d1ca 88b1 4eab 8727
000002d0: fd67 eea3 7d6b b2b6 9c88 2aa8 1bde 81a8
000002e0: 0a99 86b6 3077 c1aa fdcf 2bb9 bcf5 6bb8
000002f0: 29fe 9330 94d6 21a5 7001 cba6 af1d afa6
00000300: 94c6 c925 1d95 1c27 00e2 30b5 8f0f 8fa6
00000310: e8ba 2ca7 43da dfb6 9668 0280 a068 0200
00000320: a15e 0280 5d80 0380 dbe6 0080 8526 0180
00000330: 14b3 0180 6615 0100 d08b 0380 4ec8 b8a6
00000340: 9ee5 5021 cfc0 f126 f893 9227 0d20 30a4
00000350: 33d6 19a6 619b 10a7 3347 2aa6 cbcd 03b6
00000360: 451d 301c e4cc cc9a fc02 e19a 7326 0e1e
00000370: 5fcc b59c eed8 5f1b ba74 dd1d 055f f21d
00000380: 1b67 759c 6a13 0ca7 cd3b 6126 3903 0126
00000390: ba1c 0327 aafa 4eac ac8a eea3 b855 c226
000003a0: 7eb2 d325 66dd f9a6 78d5 4d21 c520 e2a1
000003b0: a248 6b20 1216 6d9e 83af ad9d 27f2 7a9f
000003c0: 9455 68a0 b666 049f 5f72 8720 cd21 c6a7
000003d0: 1974 b2af feaa 9026 3a50 242d b012 7aa6
000003e0: 82f2 a024 6837 9eb7 76c3 0127 48a0 5c27
000003f0: 18d0 e124 bf6e 53a5 beec b5a5 a529 0125
3.4537517e-23 1.211e-24 3.1865023e-24 -8.686397e-05 -3.3855313e-23 6.4813595e-23 7.802274e-24 -8.930132e-25
-3.641839e-23 7.8938966e-16 1.9040066e-15 3.2420755e-14 2.6089152e-16 -9.799933e-16 -4.6428594e-10 -1.9358721e-16
4.9722136e-11 1.225917e-12 1.01755144e-23 -5.4333245e-26 -5.65248e-25 -1.5752901e-24 -1.3594216e-27 1.6243428e-24
3.234532e-26 -2.0533874e-26 -2.976512e-24 -2.5922477e-16 -2.7846542e-16 -9.178954e-16 -1.4248444e-15 -1.9157012e-06
3.5120415e-15 1.9457484e-15 6.219703e-12 -5.820641e-16 -2.7957047e-15 -7.2242683e-16 3.5808006e-14 -2.0838414e-15
-7.911838e-17 -1.8634759e-13 1.1627214e-15 1.5724447e-15 -1.2763067e-09 3.1355975e-17 9.151867e-19 1.9125816e-18
2.0210254e-17 1.1218776e-17 -1.7402433e-17 5.613601e-17 3.025828e-18 7.5036934e-19 1.6510092e-15 2.86767e-15
-4.0695192e-16 1.6793766e-15 3.397789e-15 -7.155927e-16 -1.4010339e-15 1.137793e-16 3.318416e-14 -3.9660894e-16
-8.3903865e-16 3.8080526e-15 -1.51366e-15 1.1245037e-15 6.77562e-17 -2.9578956e-15 8.2301596e-16 -1.3795549e-15
2.66992e-40 7.1126e-41 -1.91005e-40 -1.23554e-40 -2.27655e-40 -1.29053e-40 -4.952e-42 -1.61274e-40
-2.40366e-40 1.5561212e-09 1.4230043e-17 7.410485e-17 3.5193375e-18 2.4229493e-19 -2.670874e-17 -2.1264801e-18
-7.9999344e-17 2.3044989e-17 -1.091838e-17 -3.990798e-15 -1.4987528e-08 2.6323994e-17 -4.783002e-15 -3.3767439e-15
-1.508698e-15 3.4274434e-15 -3.3476346e-16 1.7028176e-17 -1.3530003e-16 -1.3159178e-17 -2.029531e-17 1.3645197e-18
-2.8002597e-18 8.3898696e-19 -2.710304e-18 8.699298e-19 -6.968899e-15 3.215109e-15 -3.5512693e-17 -7.6257384e-10
-4.591218e-16 -1.9802093e-15 -2.9451577e-15 2.7201794e-15 -6.241674e-16 1.1220431e-17 1.4091529e-16 -2.4797597e-15
-1.0720355e-15 -3.389794e-17 7.84278e-12 1.3184546e-16 -3.4839972e-13 -2.5627432e-07 1.2686443e-22 2.013282e-23
-2.8680834e-23 -3.561496e-23 -2.6044027e-23 7.4579044e-24 -1.6036337e-22 -1.0106852e-23 -3.578173e-23 -5.87741e-17
-2.8327566e-16 2.1087548e-16 -3.3970908e-17 2.6342455e-16 -3.3197834e-16 1.0951035e-16 -1.9105892e-16 -2.8462517e-16
-8.783728e-19 -1.8786282e-15 -8.0325756e-17 -2.1497134e-16 1.9607527e-15 -6.9978214e-09 -7.4352007e-16 -2.4893502e-15
3.7234565e-15 -4.1096313e-16 -4.1377787e-16 -2.632642e-16 -2.7937815e-16 8.4630185e-17 4.1998347e-16 -4.2626113e-16
5.0158226e-16 -1.2335448e-16 2.7880812e-16 -7.353752e-15 -1.5724503e-06 8.171733e-16 -1.5626424e-13 2.8227352e-15
-2.1056045e-16 8.248354e-17 -3.143103e-16 1.3472226e-14 -0.00016595479 -7.419621e-05 1.8015309e-15 -0.000100075384
-2.8653754e-10 7.1267785e-15 -3.9811785e-09 3.7655756e-15 -2.5848052e-17 -5.3173267e-06 -9.466518e-15 -1.44182e-14
-4.0113273e-06 -3.436639e-13 -0.00016385312 -5.6257224e-05 1.0767894e-09 -1.4037226e-16 -1.4086344e-15 -1.215111e-15
3.5002504e-16 2.1730183e-15 -6.589398e-07 -9.926835e-16 -2.3971117e-15 -6.671327e-06 -2.2119e-40 2.21203e-40
-2.17617e-40 -3.21555e-40 -8.2815e-41 -1.05654e-40 -1.56077e-40 9.9512e-41 -3.25662e-40 -1.2821857e-15
7.0777037e-19 1.6774995e-15 4.068357e-15 -3.8191065e-17 -5.337283e-16 -2.0068246e-15 -5.907709e-16 -1.9640308e-06
5.8271345e-22 -8.470344e-23 -9.306264e-23 7.5253685e-21 -1.2030404e-21 1.8516221e-22 5.8618905e-21 6.4155115e-21
-8.119696e-22 -1.9439427e-15 7.81436e-16 4.4760233e-16 1.8195475e-15 -2.9413507e-12 -2.5862742e-17 1.3484688e-15
3.6723616e-16 -1.7337856e-15 6.9739225e-19 -1.532303e-18 1.9929306e-19 -1.25512396e-20 -4.5974194e-21 -5.3139863e-20
-1.967948e-19 -2.8037048e-20 2.2945574e-19 -5.4992687e-15 -3.2460504e-10 1.0038355e-15 9.340135e-12 -8.67615e-16
6.979976e-17 -1.8860868e-05 1.8008306e-15 3.0618022e-15 9.793072e-17 -1.8338855e-16 -3.1558918e-16 1.1203076e-16

encoder_lin.0.bias f4 [64]
00000000: 8657 96a6 6bfd d6b3 b9d1 6d3c 9c78 76b4
00000010: 66ce 8abb bf5b 04bb 8d1b 2332 5e33 963c
00000020: e32b f03a bab2 a93c be29 59b6 7924 083c
00000030: f3e6 bf34 bb55 043c c6ba df3a 5827 3ab4
00000040: 864a 463b 0b4f 263b 3b2e a63c 8d50 bab3
00000050: a024 ab38 b37c 953b 79cf 2c3c 782e 0a3d
00000060: cca9 44b9 b3d9 d732 8380 1ebc 1ba2 61bc
00000070: 8ea3 98b1 fd3f eebb 64b5 c7bb 5477 633b
00000080: 67f3 1b3c 04a9 d23c 9871 6232 7d31 bab1
00000090: b42d 16bc c6c9 1f3b 2ca6 873c 2ee9 1bb6
000000a0: f341 1d3c cb61 b1bb 61b2 cabb 9507 3c3c
000000b0: aea2 5734 a4b8 073d 44a1 f03a 8d7c d520
000000c0: 21fb 77b8 5c19 0f3c 522f d13b 2675 e33c
000000d0: 1650 4b37 a025 a03c e6e6 fe3c 4788 c533
000000e0: cc7a 4431 18ee b3bb 78fb b63c ca7a 9fbb
000000f0: 479b 493a 7464 f73b dc60 8cae e48e 133d
-1.0432064e-15 -1.0011248e-07 0.014515334 -2.2954413e-07 -0.0042360304 -0.0020196286 9.494113e-09 0.01833504
0.0018323626 0.020715106 -3.2359817e-06 0.008309477 3.574456e-07 0.00807708 0.0017069213 -1.7336913e-07
0.0030256822 0.0025376703 0.020285716 -8.675952e-08 8.160737e-05 0.0045619844 0.010547512 0.033735722
-0.00018755271 2.5128292e-08 -0.009674194 -0.013771559 -4.4423762e-09 -0.0072708116 -0.0060946215 0.0034708576
0.009518481 0.025715359 1.318076e-08 -5.4189386e-09 -0.00916617 0.002438174 0.01655873 -2.3232528e-06
0.009598243 -0.005413269 -0.006185815 0.011476417 2.0082618e-07 0.03313507 0.0018358608 3.6166024e-19
-5.912327e-05 0.0087340735 0.006383815 0.027765822 1.2118389e-05 0.019549191 0.03111596 9.198316e-08
2.8591556e-09 -0.0054910295 0.022336707 -0.0048669325 0.00076906796 0.0075498167 -6.3836686e-11 0.036024943

encoder_lin.3.weight f4 [2, 64]
00000000: 61d8 1439 fb3e f435 711d e43d e5cd 34b6
00000010: 382d f33e 605c cf3e 1283 6635 3bb7 293e
00000020: ea11 a33e acc4 a2bb 4da8 74b6 bdb8 8f3e
00000030: 9faa b435 0b7d 37be 4845 9e3d f276 6c35
00000040: d844 f8be 4ae8 47be 8684 2c3e 9627 93b7
00000050: c3ac 9dba cdbf dd3e 7cad b0be de18 abbd
00000060: 893e 433a 921b 3735 5432 b63d f0ca d1be
00000070: 3fee 3834 f12d 003f dfb2 fc3e 9c14 833d
00000080: 0d62 19be ec54 1bbd ad54 a135 7aff a3b3
00000090: 6838 16bf 5e66 e13d 3aee b5be 9058 d5b8
000000a0: baeb f5be a516 b93d a2a6 be3e b13e c73d
000000b0: 1c17 3b35 a1e5 533d 0bcc 6a3b 570a 9439
000000c0: 07be 073a 739d 9c3e 4b37 b43e 572c 3fbe
000000d0: afef db37 3831 2b3e 3354 963d 79a9 2cb6
000000e0: a91b 6fb5 889f b63e e5e1 933e 178e 933e
000000f0: c954 833b 4a45 6dbe 059b 34b7 2cef 3ebd
00000100: 29d5 0037 a76b 5c33 8ec4 9cbc 0262 1236
00000110: b595 6dbd 2921 30bd 1221 49b3 67fa 403d
00000120: d6f7 113f d2bf 14be 4357 fcb7 010a 02be
00000130: 00b4 b0b6 e925 dabd 4fc6 fc3e 9e8b 8134
00000140: c677 243e 1300 a5be 535f 4abd c627 d8b7
00000150: 2ee7 723a 7d08 b1bd 7d72 023d 5c1b a03e
00000160: 8a7b a23a 2e52 b234 9a60 29bf fb5c e2be
00000170: 838b 3232 25a5 fabc 03ce 81bc 74dc df3e
00000180: 1071 fe3e 6dbc 95be 0b56 1335 31a7 ac32
00000190: 74c4 f3bd fd31 cfbe 6b4d cd3e 8136 8338
000001a0: c530 903d 1e3d 34bf 53b1 233f 354e 8a3c
000001b0: 90f9 0937 e654 433e 3065 033c 9219 47ba
000001c0: 4372 9db8 b9fb aebd edce 1e3e b683 e33d
000001d0: b546 30b8 cc2f 02bd d4a3 c3be 0aa4 2eb4
000001e0: 4827 86b4 3f12 5f3e 42b0 f0bc e589 d0be
000001f0: 2385 1ebc 772f 00be 5295 04ba 55a1 2c3e
0.00014194987 1.8197746e-06 0.11138428 -2.6941937e-06 0.47495437 0.40500164 8.587241e-07 0.16573803
0.31849605 -0.004967293 -3.6456797e-06 0.28070632 1.3460702e-06 -0.17918794 0.07728058 8.808994e-07
-0.48490024 -0.19522205 0.16847429 -1.75422e-05 -0.0012029636 0.43310395 -0.34507358 -0.083543524
0.0007447978 6.821293e-07 0.08896318 -0.40975142 1.7223009e-07 0.500701 0.49355218 0.06400415
-0.1497881 -0.037922785 1.2020079e-06 -7.63675e-08 -0.5867982 0.11005853 -0.35533315 -0.000101731275
-0.48031408 0.09037522 0.37236506 0.09728754 6.9696557e-07 0.051732663 0.0035827185 0.00028236464
0.00051781576 0.30588874 0.35198435 -0.18669258 2.6218446e-05 0.16717994 0.073402785 -2.5728643e-06
-8.907469e-07 0.35668588 0.2888328 0.28819343 0.00400791 -0.23170963 -1.0764929e-05 -0.04661481
7.679025e-06 5.132065e-08 -0.019136693 2.1812743e-06 -0.0580041 -0.043000374 -4.6829037e-08 0.047113802
0.5701879 -0.14526299 -3.0081375e-05 -0.12699129 -5.2661635e-06 -0.10651762 0.49370047 2.4129707e-07
0.16061315 -0.3222662 -0.049407315 -2.5767727e-05 0.0009266016 -0.08644197 0.031847466 0.31270874
0.0012396437 3.3214877e-07 -0.6616303 -0.44211563 1.0392685e-08 -0.030596325 -0.015845304 0.4372288
0.49695635 -0.2924532 5.4886976e-07 2.0099465e-08 -0.11902705 -0.40467826 0.40098128 6.256719e-05
0.07040552 -0.7040576 0.6394245 0.016882995 8.223942e-06 0.19075355 0.00801973 -0.0007595058
-7.507626e-05 -0.08544106 0.15508623 0.11109106 -4.202752e-05 -0.031783864 -0.38210928 -1.626469e-07
-2.4988026e-07 0.21784304 -0.029380921 -0.40730205 -0.009675297 -0.12518106 -0.0005057651 0.16858418

encoder_lin.3.bias f4 [2]
00000000: b8fa 1a3d 2371 ed3d
0.03783676 0.11593845

decoder_lin.0.weight f4 [64, 2]
00000000: 3a81 3ebb f6fb 3ebc 8e8a 8a31 bc63 17b2
00000010: fdb0 53b2 8ef9 7fb3 fd6e d33e 246c 4e3d
00000020: 4de6 2cb2 28c4 8232 70b2 6a2f bf1d d5af
00000030: 8555 55bc fd74 f037 0a4a bd3e 482a 973d
00000040: f7b6 e63b e2b8 a5bb 4736 dd3e 882a 2b3d
00000050: 94b5 20bb cfdb 60bb 78a1 abbe c5a7 9e3e
00000060: 877e ca3e bd72 953d b1f0 e53a 7b3a e33b
00000070: f139 a8be 7d75 9f3e 3b09 9e39 85d3 7cbc
00000080: 9c23 3c33 5853 b431 5783 063e de59 6fba
00000090: 1ba7 10bb 8388 87bb 7b7a 4cbb ca28 5f3c
000000a0: 116a c33a 9230 3c3c b245 d0bb ac75 28bc
000000b0: 300c 05bf 8e98 94bd 62e3 633c cc6b a33a
000000c0: 07f5 b0bc 2bbf 8b3b 29ff f2be 0fc6 0e3e
000000d0: 97cf d33e d673 3e3d 7cb5 113e 5f0c e63e
000000e0: bc91 873c 9f50 063f b36e ad3e 50c2 eebd
000000f0: a950 a83e 8021 92be 4f4d 95bc 85df 22bf
00000100: 39fc ac3a 7e8e 2b3a 52f6 2638 9468 f0bb
00000110: e719 2dbb 0357 1cbc 03da fa3d 9889 c93e
00000120: 9cab 323e 62b8 1b3e d271 edbe f4dd eabd
00000130: d76a c53e 6ba0 f6bd 625f 923d 772f 843e
00000140: 6a84 013d 6bae f43d 84ca 293d d850 f93e
00000150: ef0e 773e 46c4 683e 442a c93e 0386 943d
00000160: fa94 d83e cfbe 1f3d 40cf fbbe 6353 d4bd
00000170: 9971 973c 2eb6 ef3e f6f4 ae32 8490 3333
00000180: bc13 77bd 2909 c53e 076f d63e 5338 463d
00000190: 6faa 59bd 53d7 b23e a18b d73d 65a4 ef3c
000001a0: b40c 22b3 409e 0434 8818 043e cf9e eb3e
000001b0: 5766 e3bc 8fcc ea3e b424 483b 1393 90ba
000001c0: 5440 5dbb 807e 21bc 5ceb 37bb 51af 35bc
000001d0: 82a4 c53c a076 bc3e 5c1b e8ba b75e 22bf
000001e0: c575 883e bf63 953c a23f a73e ccba 90be
000001f0: dcd9 01bf 8b71 d7bd bf8f d5bb 3e79 2abf
-0.0029068724 -0.011656752 4.0320804e-09 -8.812034e-09 -1.2322059e-08 -5.9598783e-08 0.41295615 0.0503961
-1.0064082e-08 1.5223193e-08 2.134557e-10 -3.876561e-10 -0.013020878 2.8664706e-05 0.3697055 0.073811114
0.007040854 -0.00505744 0.43205473 0.041788608 -0.0024522291 -0.0034310704 -0.33521628 0.30987373
0.39549658 0.07297275 0.0017543045 0.0069344616 -0.32856706 0.31144324 0.00030142986 -0.01543129
4.3804548e-08 5.2481646e-09 0.1313604 -0.0009130518 -0.002207226 -0.0041361465 -0.0031200934 0.013620565
0.001490893 0.011486189 -0.0063559646 -0.010281961 -0.5197172 -0.0725566 0.013909193 0.0012468039
-0.021601213 0.0042647324 -0.47460297 0.13942741 0.41369316 0.04649719 0.14229387 0.44931313
0.016548984 0.5246677 0.3387352 -0.11658156 0.3287404 -0.28541183 -0.01822534 -0.63622314
0.0013197727 0.00065443653 3.9806888e-05 -0.0073366854 -0.0026413144 -0.00954223 0.12248614 0.39362788
0.17448276 0.15207055 -0.463759 -0.114681154 0.38558075 -0.12042316 0.07147099 0.25817463
0.03162042 0.1194733 0.0414529 0.4869449 0.2412679 0.22731122 0.3929006 0.07252123
0.4230116 0.03900033 -0.49181557 -0.10367467 0.018486785 0.4681868 2.0367661e-08 4.180812e-08
-0.060321555 0.3848355 0.41881582 0.04839356 -0.053141054 0.34929904 0.10524679 0.029253194
-3.7730118e-08 1.2351029e-07 0.12899983 0.460196 -0.02775876 0.4585919 0.0030539455 -0.001103016
-0.0033760266 -0.00985682 -0.002806387 -0.011089162 0.024126295 0.36809254 -0.0017708349 -0.63425773
0.2665235 0.01823604 0.32665735 -0.28267515 -0.5072305 -0.105197035 -0.00651738 -0.6659125

decoder_lin.0.bias f4 [64]
00000000: 5e69 1f3f 5245 b7b2 af3f f2b3 155b 9a3d
00000010: 5cc5 d5b2 90f7 1ab2 61f3 193f 800c 813d
00000020: 2ec6 47bc 235e 3e3d 4d48 303f bb7b cb3c
00000030: 5514 a53d 6ed8 38bc 6923 c83b bfa3 313f
00000040: e592 94b3 5e38 c0bd 57db 8fbc ad82 be3e
00000050: f8db 90bc c01f 273f 2150 a33d eea7 bebc
00000060: c476 1a3f 789d eabc 826f 763d 47d7 83bd
00000070: 7928 1d3e 3a5a 483d 9b41 e0bd 3961 b63d
00000080: 0f7f 3bbb 792c 233f ffe6 7cbc 439f 82bd
00000090: a409 95bb ef83 bc3c 25ab e73d 602a 6abd
000000a0: 7e62 32bd d2f6 b93d dce4 273c cddb 8f3d
000000b0: 505f e93c d65f 3f3d 3843 ce3d e7bb e8b3
000000c0: c16e 153e 4552 803d b0c2 003e 7b79 5f3e
000000d0: 3763 b834 0bb5 9abd b64f 183e dc22 283f
000000e0: 3de1 2d3f 6e84 2a3f 795e 403d 9b46 a23d
000000f0: 96e1 92ba abd4 f9bd fd14 3d3d 58da a23d
0.6227015 -2.1335527e-08 -1.1280587e-07 0.07536904 -2.4886212e-08 -9.020269e-09 0.6013699 0.06301212
-0.012193246 0.046476495 0.6886032 0.024839273 0.08060519 -0.01128207 0.006107737 0.6939048
-6.918507e-08 -0.09385751 -0.017560644 0.37209073 -0.017683014 0.6528282 0.07974268 -0.023273434
0.6033747 -0.02863954 0.060164936 -0.06437545 0.1534747 0.04891417 -0.10950013 0.089052625
-0.0028609668 0.63739735 -0.015435933 -0.06378033 -0.0045482684 0.02301213 0.1131194 -0.05716932
-0.04355096 0.0908028 0.010247435 0.070243455 0.028487831 0.046722256 0.10071415 -1.0837521e-07
0.1459303 0.06265692 0.12574267 0.21823685 3.434486e-07 -0.075540625 0.14874157 0.6567819
0.6792181 0.6660832 0.046965096 0.07923623 -0.0011206146 -0.12198766 0.046162594 0.07951802

decoder_lin.3.weight f4 [288, 64]
00000000: 1a2a 213d ba26 aeb0 f614 62b2 28d9 2ebd
00000010: 6e6b e3b2 3f81 a531 4292 0c3d 4df2 30bd
00000020: 6c3d 893a d22e 37bd 34ab 213d fac8 7cbc
00000030: c583 40bd 4128 95bb 1897 c7bc cb2e 343d
00000040: 2759 dcb0 310b a5bb 3add b13b 56ca c23c
00000050: 9aec 1b3a 79da 263d f5a6 0fbd 697f 3bbb
00000060: 4dee 1e3d 9342 0dbd 4769 2abd cf6f e5bc
00000070: e19a da3b cb22 00bb cde6 e63c af9c 283d
00000080: 86db b8b8 e722 0b3d 5aa5 2b3b 60bb e2bc
00000090: b780 63bc 3440 25bd 0c6d abbb 701c bcbc
000000a0: 3d7a 6cbc b681 c4ba 985a b6bc e1c6 37bd
000000b0: f9a3 1fbd 9cf1 27bd 3db8 113b 8f2d 42b2
000000c0: 8cdd 103c 3482 31bd 02ba b53b ca16 f73b
000000d0: 39f8 80b3 6f4b e8bc 51ce e13b c509 1c3d
000000e0: 058e 303d 0058 343d 29d5 d6bb 4f56 3b3d
000000f0: 21b4 afbc 7d44 123d 3458 2fbd 4f6b 273d
00000100: 9435 083a 5662 8c30 4737 5d32 3582 de3c
00000110: 321d 2bb1 d997 a8b0 5ef5 b4ba e2ba 1f3d
00000120: a0c9 6b3b 9615 093d 85b7 64ba 368c 8bbc
00000130: 0b46 1f3d 133c 563a a000 bebc 4174 1bbb
00000140: e755 8cb2 e77d 583c 5481 4ab8 dd2d e73b
00000150: 7397 8dba a75f d4bb 4ad7 e4bc bfec d63b
00000160: 3fad ffba b6ae 86bc 78dc e93c dd0e 353d
00000170: e602 cf3c 5448 633c 82be 5abc ec48 81bd
00000180: 0ba0 8339 3626 583b 0329 2a3a 1e5e 2b3d
00000190: 18c5 293d 92ef c1bc e832 ab3c 468e 013d
000001a0: 921d 853c 20bb 153d a4fa 533d b49c 083d
000001b0: 89ce 093d bfc2 dbbc 713f 903c 1ba8 1032
000001c0: ed5f 803b c9b6 fc3c e1f4 9b3b 66f5 9f3c
000001d0: 9a54 5ab2 b14f 3c3d 3d24 0b3c 54cd fab9
000001e0: e56a 9ab8 2599 82bb b904 b63c 1420 80bd
000001f0: 7564 b13c a257 6ebc c1c1 f6bc dd60 94bd
00000200: cb88 4796 e67a a995 3256 1e16 9360 1fb2
00000210: cc44 4d96 db0f 2615 61d8 1d17 9d65 60b0
00000220: f795 5a16 ba5e 1eb3 6a0c 9697 b383 aaac
00000230: 53f7 2ab2 b380 4417 70b5 daac 1c41 eb96
00000240: fc25 9313 e11f 56a4 d8f7 8513 d06a 8496
00000250: 189a 1716 5ea6 1f97 5244 dfb0 8386 ab16
00000260: 28d3 cb15 1098 b125 0a15 39b2 023d a5a2
00000270: 1d1d 3fae e93c f1b1 0424 95b2 c2b4 1ab2
00000280: 1bb6 1899 b3a5 3317 99dd 8e92 62f9 1021
00000290: 65e1 9e1f 5d23 0baa 6742 65b3 8241 ac1b
000002a0: 0804 3719 caab 7f27 6c3b 4f27 b525 fab1
000002b0: b9a4 15b2 5676 50af 575b 8a27 badc fc94
000002c0: e7e2 0eac 000e 8bb3 83e8 4226 6c3d 04a4
000002d0: e401 b297 158f c425 0563 07aa 85cd ce96
000002e0: d898 4615 409e 3a96 cf52 2e22 18e7 ddb2
000002f0: c264 3caa f259 2bb2 ad29 69ae 2b7d 3fb3
00000300: 4755 8dbc 788b 93b0 9067 6731 7c10 4ebd
00000310: b070 c7ad 68a3 0d2c ad72 53bc 6aa7 4abd
00000320: 768e 4cbb f497 4bbd ae4a 94bc c8a1 1a3d
00000330: 0d10 56bd 8333 52ba 900b 193d d511 9ebc
00000340: c758 ed2e 3954 64ba 23db e63a 8a43 1bbc
00000350: c3c1 253a 668c 95bc a250 123d f128 143b
00000360: 9fda 73bc c537 7b3d 57c9 3abd f3dc b1bc
00000370: c80b 843c 5749 afbc 1bd3 0fbb 2cbd 9b3c
00000380: 545d 24b8 7eac a3bc 9679 b83b 44e6 9dbc
00000390: 3dfd 79bc adfd 9e3c 4b35 a1bc 9b5e 99bc
000003a0: 9a78 ffbb 1e9b 113c b535 a6bc e788 49bd
000003b0: 87fa 2fbd 0ddf bf3c 5719 5d3c d8fc 9db1
000003c0: dff8 273d a85f 43bd f6a0 033d a048 b8bc
000003d0: 28c9 90b3 c2ae b5bc 82be dc3c 028b abbc
000003e0: 68ff 8dbc 37db abbc 18b0 433c 10ce 9e3c
000003f0: 4753 c1bc 04e2 91ba 07a0 d53c e70d 053d
0.03934679 -1.2671173e-09 -1.3159697e-08 -0.042687565 -2.6475131e-08 4.8168256e-09 0.03431917 -0.043199826
0.0010470576 -0.044722386 0.039469913 -0.015428776 -0.047000665 -0.004551918 -0.02436404 0.043989938
-1.6032445e-09 -0.0050367345 0.0054279836 0.023778122 0.0005948037 0.040735696 -0.035071332 -0.0028609878
0.03880148 -0.03448732 -0.041604307 -0.028007416 0.006671295 -0.0019551988 0.028186226 0.04116505
-8.814693e-05 0.033968832 0.0026191087 -0.027677238 -0.0138856685 -0.040344432 -0.0052315053 -0.022962779
-0.014433441 -0.001499227 -0.022259995 -0.0448674 -0.038974736 -0.0410019 0.0022235059 -1.1302645e-08
0.008841883 -0.043337062 0.0055458555 0.0075405585 -6.005616e-08 -0.028356282 0.00689105 0.038095254
0.04310419 0.044029236 -0.0065561724 0.045736607 -0.021448197 0.035709847 -0.042808726 0.04087382
0.0005195972 1.0214289e-09 1.2876462e-08 0.027161697 -2.490037e-09 -1.2266766e-09 -0.0013806035 0.038996585
0.0035978332 0.03346785 -0.00087248563 -0.017034631 0.038885158 0.0008172404 -0.023193657 -0.0023720416
-1.6337209e-08 0.013213611 -4.8281e-05 0.007055028 -0.0010802582 -0.006481129 -0.02793469 0.006558984
-0.0019506587 -0.01644073 0.02854751 0.044203628 0.025269937 0.013872225 -0.013351085 -0.06312737
0.00025105508 0.003298176 0.00064910966 0.041837804 0.04144773 -0.023673806 0.020898297 0.031629823
0.016249452 0.03655541 0.0517527 0.03335257 0.033644233 -0.02682626 0.017608376 8.420126e-09
0.0039176852 0.030848878 0.0047594164 0.019526195 -1.2708506e-08 0.045974437 0.008492527 -0.00047836697
-7.363203e-05 -0.0039855414 0.022219049 -0.062561184 0.021654347 -0.0145472605 -0.030121686 -0.07245038
-1.6118256e-25 -6.8452456e-26 1.2790337e-25 -9.2769765e-09 -1.6581477e-25 3.353594e-26 5.1002545e-25 -8.1635126e-10
1.765722e-25 -3.6873395e-08 -9.696657e-25 -4.846312e-12 -9.951537e-09 6.3493457e-25 -6.2160763e-12 -3.8007387e-25
3.7145472e-27 -4.6430855e-17 3.3818313e-27 -2.1393158e-25 1.2246306e-25 -5.1585656e-25 -1.6244803e-09 2.771143e-25
8.232419e-26 3.0807647e-16 -1.0773201e-08 -4.4787934e-18 -4.345423e-11 -7.020948e-09 -1.7362261e-08 -9.005079e-09
-7.894992e-24 5.804716e-25 -9.016088e-28 4.9119153e-19 6.728849e-20 -1.2357949e-13 -5.337861e-08 2.8497347e-22
9.461692e-24 3.5481486e-15 2.8759233e-15 -7.2802444e-09 -8.710395e-09 -1.8959531e-10 3.8401725e-15 -2.5532559e-26
-2.030537e-12 -6.4752385e-08 6.7622383e-16 -2.8674964e-17 -1.1503458e-24 3.4097536e-16 -1.2024763e-13 -3.3410796e-25
4.0106354e-26 -1.5074895e-25 2.3625236e-18 -2.5832875e-08 -1.6732712e-13 -9.973961e-09 -5.3015082e-11 -4.4584493e-08
-0.017252577 -1.0735297e-09 3.3673793e-09 -0.05030869 -2.2673724e-11 2.0128014e-12 -0.012905759 -0.049476065
-0.0031212843 -0.04970546 -0.018102016 0.037751943 -0.0522614 -0.000801854 0.037364542 -0.019295612
1.0793282e-10 -0.000871006 0.0017612915 -0.009476552 0.0006323123 -0.018255424 0.03572143 0.002260741
-0.014883666 0.061332483 -0.04560217 -0.021711802 0.016118899 -0.021397276 -0.0021945897 0.019011103
-3.9187566e-05 -0.019979712 0.0056297285 -0.019274838 -0.015258131 0.019408071 -0.019678732 -0.01872187
-0.0077963592 0.0088870805 -0.020289281 -0.049202826 -0.04296353 0.023421789 0.013494811 -4.5980464e-09
0.041008826 -0.047698647 0.032135926 -0.022495568 -6.742113e-08 -0.022178058 0.02694631 -0.020940308
-0.017333701 -0.020978553 0.0119438395 0.019385368 -0.02359928 -0.001112998 0.026077284 0.03248396

decoder_lin.3.bias f4 [288]
00000000: 0f1b 833d 5f1e 073c 9b08 6e98 34ee 0dbd
00000010: deea f03b 06f3 bcbc 03d0 c53d 03c2 4027
00000020: c2fc a5af f4bd f3b8 bba0 063e fab3 e5bb
00000030: 8e1e 491d 5ba6 4d3e f709 eb3a 683d 533d
00000040: f7db b33d 8e9d 133d 37ac 89b9 1c82 63bc
00000050: 515b 99bd 217a ecaf b8de 9c3e ac3d f6bd
00000060: 650a c5bd 97ec 21bb b783 993d 6ec9 ccba
00000070: a832 8c11 ff3d 35b3 f344 b9bc a124 93be
00000080: 589c edbd c594 76bd 435e c93b de05 a23d
00000090: d2df 993c 38ea baac 2238 133e e936 57bc
000000a0: 0565 c4b5 a92c 293e 6575 9c3d 96a0 e421
000000b0: ac72 353e b1bf 80b4 486c ef3d b940 9228
000000c0: f806 9d27 87a3 923d 0941 aa3d 98c8 64b1
000000d0: 6a87 2f3e db60 9a3c 764a 97b2 0393 cbad
000000e0: aefb ad3d 799f 03ba 2fa3 b3ba 7f93 863d
000000f0: 41ce 70b3 1497 57bc 979c aa3d 6fca 8f3d
00000100: 834d 0eb9 2ab3 38bd 4ddd f73d 5755 0125
00000110: e997 d2bc 9e27 023e f077 50bb f5cc 7dbc
00000120: 8715 9abb 62f6 62b7 06ee 8cb6 3c7f 58bc
00000130: 99f4 0fbc 48a2 15bb a406 8e3d df22 293d
00000140: aa2f 503d 5de7 5d3c 1570 1bba c966 a0bd
00000150: e7d4 6e3d 7cdb 633d 4125 43a7 4258 783d
00000160: 960f f73b 2b67 f23d a5ab 183d 9eb0 f63d
00000170: 339f 843d f8b4 df3c d152 13b1 6a9b fc3d
00000180: 3fbf 76bd 28d6 d2ac 233c 86ba 4432 573c
00000190: 494f b8bc 3cbf b1bd d200 ceba 0455 70bd
000001a0: 68ec 303d 070e 2a91 792c 45bd 83f8 0d3d
000001b0: b44a dc36 799d 473d 0c34 d6bc 163d b9bd
000001c0: f1d1 5a3c 3857 d5af 8498 68bd b94b 903d
000001d0: b2b3 26bc 5c06 873d 5a50 a23d 22b3 ac3d
000001e0: 420d 24bc ac23 ba1a 6671 8bbd 62c9 c9b6
000001f0: 6860 6ab8 387f e0bc 3ec0 862a 1076 193d
00000200: 1598 8eb0 411d 3e36 ff9b a588 a3ce 7b23
00000210: f75a ac3d 9d1c 733e f8ff b03d 1817 2a3d
00000220: 3924 55bc 7668 143e c8da c7a2 eef3 90b7
00000230: f142 b23d 0444 f8ba 6086 893e 5ceb 5a3d
00000240: ca67 933d bca8 5e3c f2c2 573d 12e9 293d
00000250: e304 1eb9 2565 c3bd d649 c63d d2b3 b799
00000260: 0082 c93d 3bf8 1abc c0d2 703c 90da d2bb
00000270: 321d bfb5 130d 4bbb 1aa1 d729 a94f 443d
00000280: e73f 603e 8b92 ef3d 5bb2 463b 2dbd 8bbd
00000290: c766 293d aea5 2633 e682 833b 2c14 95bd
000002a0: e642 bcbc b3c4 debc d6d0 5d3d 5bce 9cb9
000002b0: 31bf a9a5 543a 553d 3412 ca16 6ebd ab3d
000002c0: dd53 1eb1 6d2c d13c 4d20 ce3d 9c66 c43c
000002d0: c1cd c83c cb27 8abc 9fde a0bc cc78 b33d
000002e0: 998b b8bd ab5b b13d dada f8bc 0d66 1f3d
000002f0: b700 693d 5b9d 8b3d 48d3 d0bc fbfc c13c
00000300: 35e7 ae3d 9adf 903d 63fa 13bb c94f c23d
00000310: d41c d0ba 7a82 91b6 8033 bbb6 82f4 01b0
00000320: 7fe1 253d b0cb 3abd f761 b8b9 1953 843d
00000330: e210 c2ba 99a2 0dbd 51fc d03c 422f a92f
00000340: fd30 37bd 5755 6cbc 9624 3abc 8d93 bf3a
00000350: 9165 273d 3f36 0cbd fc6d 15bc b2b8 b03c
00000360: 6ba1 a73d e06d f63d 9868 cb3d 156b 333d
00000370: 43fb 00b8 7f1a 04b9 11c5 edad a549 333d
00000380: 5576 99bc d1f3 5a3c 7a7c a6b1 da4a 4b3d
00000390: 4fdc 05be 5b94 87bc 640d 033e c536 263a
000003a0: 276a 6a3b 924d 0c3e 8332 543d 4b6e 3e3d
000003b0: b4ad 3ebd 0e7e 093e 9d9e d02f 5c79 18b6
000003c0: 6031 ad3d 6dd8 d1b8 9196 49bd 9163 a0ba
000003d0: 4b2e 52b8 774e 1da0 6a22 88ba 8c9c 9f3d
000003e0: 444a 9abd 1e8c c9b5 55a3 f1bd 9513 1b3d
000003f0: 16cc ee3c f475 cb3d d1bf e0aa f697 25be
0.064016454 0.008246987 -3.0765124e-24 -0.034650996 0.007352217 -0.023065101 0.09658816 2.6750527e-15
-3.019292e-10 -0.000116225245 0.13147251 -0.0070099803 2.6617925e-21 0.20082991 0.0017932047 0.051572233
0.08782189 0.036038928 -0.00026258986 -0.013886001 -0.0748812 -4.3014928e-10 0.3063867 -0.12023482
-0.09621123 -0.002470767 0.07495826 -0.0015623996 2.2119325e-28 -4.219873e-08 -0.022615885 -0.28738883
-0.11602086 -0.06020047 0.00614527 0.07911275 0.018783484 -5.3124415e-12 0.14376882 -0.01313565
-1.4632539e-06 0.16520943 0.07639579 1.5492388e-18 0.17719525 -2.3981332e-07 0.11690575 1.6237325e-14
4.358381e-15 0.071600966 0.08313186 -3.329239e-09 0.171415 0.018845012 -1.7612575e-08 -2.3143714e-11
0.0849527 -0.00050210167 -0.0013705249 0.065711014 -5.606694e-08 -0.013158578 0.083306484 0.07021033
-0.0001357105 -0.04509274 0.12102757 1.1217881e-16 -0.025707202 0.12710425 -0.003180977 -0.01549076
-0.0047022733 -1.3528015e-05 -4.2000347e-06 -0.013213929 -0.008786344 -0.0022832323 0.0693486 0.04129302
0.050826706 0.013543931 -0.0005929482 -0.07832105 0.05830851 0.05562924 -2.7081882e-15 0.060631044
0.0075397 0.11836084 0.037273068 0.12045406 0.06475677 0.027307972 -2.143839e-09 0.123343304
-0.06024098 -5.992335e-12 -0.0010241311 0.013134543 -0.022498744 -0.08679053 -0.0015716797 -0.058674827
0.043194205 -1.3414958e-28 -0.048138116 0.034660827 6.5652075e-06 0.048734162 -0.026147865 -0.09044854
0.013355718 -3.8806447e-10 -0.056786075 0.07045693 -0.010174679 0.0659301 0.07925482 0.08432604
-0.0100129265 7.698543e-23 -0.068087384 -6.013711e-06 -5.5879733e-05 -0.027404413 2.3936576e-13 0.03746611
-1.0375084e-09 2.8329234e-06 -9.967251e-34 1.3650494e-17 0.08415788 0.23741384 0.08642572 0.04152593
-0.013009124 0.14492974 -5.41707e-18 -1.7279726e-05 0.08704174 -0.0018941169 0.26860332 0.053447112
0.071975306 0.013590034 0.05267615 0.04148204 -0.00015069875 -0.09540776 0.09682052 -1.8994385e-23
0.09839249 -0.009458597 0.014698684 -0.006434746 -1.4239106e-06 -0.0030983135 9.575865e-14 0.047927532
0.21899377 0.11697873 0.003031871 -0.06823192 0.04135778 3.880057e-08 0.004013407 -0.07279238
-0.022981118 -0.027193403 0.05415424 -0.00029908385 -2.9446383e-16 0.05205758 3.2646348e-25 0.0838574
-2.3039697e-09 0.02553388 0.10064755 0.02397471 0.024512174 -0.016864678 -0.019637404 0.087632746
-0.09011001 0.086600624 -0.030377794 0.038915683 0.056885447 0.068171225 -0.025491372 0.0236802
0.08540193 0.070738986 -0.0022579662 0.09487874 -0.0015877732 -4.336526e-06 -5.5790297e-06 -4.7277393e-10
0.040498253 -0.045604408 -0.00035168204 0.06461162 -0.0014806057 -0.034578893 0.025510939 3.07745e-10
-0.044724453 -0.0144246435 -0.011361262 0.0014616117 0.040868346 -0.03423142 -0.009120461 0.021572445
0.08185085 0.12032676 0.09932059 0.043803293 -3.0751584e-05 -0.00012598372 -2.7031296e-11 0.043771405
-0.018733183 0.013363794 -4.845387e-09 0.04963193 -0.13072322 -0.016550234 0.12798077 0.0006340559
0.0035768838 0.13701466 0.051805984 0.046491902 -0.046552375 0.13426992 3.794768e-10 -2.2720405e-06
0.08456683 -0.00010006209 -0.049215857 -0.0012236704 -5.0111015e-05 -1.3324379e-19 -0.0010386233 0.07793531
-0.07533696 -1.5016446e-06 -0.11798731 0.03786047 0.02915005 0.09934607 -3.9923493e-13 -0.1617125
