Nicola_Dainese_Ex2/Trained model/params.pth (torch_old, 989371 bytes, 8 tensors)

hidden.0.weight f4 [278, 784]
0	0xbcb9965e	-0.022654708
1	0x3c9fecfe	0.019522186
2	0x3cf23cae	0.02956995
3	0xbd05ee3a	-0.032697894
4	0xbcf4dcde	-0.029890474
5	0x3d0f0bd7	0.0349234
6	0x3be6bf40	0.0070418417
7	0xbc59445c	-0.013260927
8	0x3d1408a4	0.036141053
9	0xbc3ec50b	-0.011643658
10	0x3b3a574f	0.0028433388
11	0xbd0ce6b8	-0.034399718
12	0xbd031975	-0.0320067
13	0x3c9fe4f8	0.01951836
14	0xbc7f50cf	-0.015583231
15	0xbb9f615c	-0.004863901
16	0x3c7c4cb8	0.015399151
17	0x3cfeb5ee	0.03109261
18	0x3b7f44a8	0.0038950834
19	0xbccd6681	-0.025073292
20	0xbd11886e	-0.0355305
21	0x3adf7a20	0.0017049946
22	0x3c221990	0.00989379
23	0x3cf3bc92	0.029753003
24	0x3cdc721e	0.026909884
25	0xbc58e5ee	-0.013238413
26	0x3cf20fa2	0.02954847
27	0xbb57b5e0	-0.0032914802
28	0xbd11f7ab	-0.035636585
29	0x3cfd57d6	0.030925673
30	0xbcceb86a	-0.02523442
31	0xbcc07680	-0.023494005
32	0xbcdbe880	-0.026844263
33	0x3cebb615	0.028773347
34	0x3cbb5832	0.022869203
35	0x3d1bc359	0.038028095
36	0xbb8aa285	-0.0042307996
37	0x3b252e2f	0.002520453
38	0xbd4b9e47	-0.049711492
39	0xbd7a63c8	-0.061130315
40	0x3b968558	0.0045935325
41	0xbd3c9087	-0.04603627
42	0x3af5bb74	0.0018747882
43	0x3cf05cac	0.029341064
44	0x3a9d721a	0.0012012154
45	0x3cf0cc90	0.029394418
46	0xbcfbd791	-0.030742439
47	0x3be089e7	0.0068523767
48	0x3c50c77e	0.012742875
49	0xbb6b9804	-0.0035948763
50	0xbc16187d	-0.009161112
51	0x3cbf7449	0.023370879
52	0xbca032fe	-0.019555565
53	0xbc020898	-0.007936619
54	0x3c41ec1c	0.011836078
55	0xbc3a5c38	-0.011374526
56	0x3cb99d72	0.022658084
57	0xbc533d00	-0.0128929615
58	0x3cd8b6a2	0.026454274
59	0xbc161aaf	-0.009161635
60	0x3ccace2e	0.024756517
61	0xbc43f609	-0.011960515
62	0xbd2143a6	-0.039371155
63	0xbcdd0165	-0.026978204
64	0xbc383d5c	-0.011245098
65	0x3c97376e	0.018459048
66	0x3cd82b26	0.026387762
67	0xbd7013c0	-0.058612585
68	0xbcbb82f8	-0.0228896
69	0xbd48d019	-0.049026582
70	0xbd07fb2d	-0.033198524
71	0xbcbea1dd	-0.023270542
72	0x3ce5d4d9	0.028055595
73	0xbca955fd	-0.020670885
74	0xbc19768d	-0.009366644
75	0x3cc4a25b	0.024003198
76	0x3daa07fd	0.08302305
77	0x3ca18748	0.019717827
78	0x3d70a4ae	0.0587508
79	0x3cd55656	0.026042145
80	0xbd225c03	-0.03963853
81	0x3c88cfdc	0.016700678
82	0xbc575ab2	-0.013144182
83	0xbd1222a8	-0.035677582
84	0xbd0b3dcf	-0.033994492
85	0x3cc91722	0.024547163
86	0x3bc00548	0.0058600046
87	0x3cef5f07	0.029220117
88	0x3d0ed3d6	0.03486999
89	0x3c010319	0.007874274
90	0xbd81e58d	-0.063426115
91	0xbd1c7446	-0.038196824
92	0x3c3fa85e	0.011697857
93	0x3ce023c5	0.027360806
94	0x3d8f5d83	0.07000258
95	0x3d144dd6	0.036207043
96	0xbbb448a7	-0.005501825
97	0x3bc8f228	0.006132383
98	0x3c8e8da8	0.017401531
99	0x3c885a7b	0.016644707
100	0x3bacc988	0.005273048
101	0x3c7c1b59	0.01538738
102	0x3cd15b86	0.025556337
103	0x3d8cd154	0.06875864
104	0x3def189f	0.11674618
105	0x3d550179	0.052003358
106	0x3d9c9301	0.07645226
107	0x3d871e7b	0.065976106
108	0x3c7f25f6	0.015573015
109	0xbc2e0af4	-0.010622729
110	0x3a58c05e	0.0008268411
111	0x3cc37288	0.023858324
112	0x3cc7d710	0.024394542
113	0xbc90c78c	-0.017673276
114	0x3cc5f7b0	0.024165958
115	0x3a7ba99d	0.00096001645
116	0x3cb48662	0.022036735
117	0x3d7b6bb2	0.061382003
118	0xbd4f7a4f	-0.050653752
119	0xbbe96bbd	-0.007123439
120	0x3d7aa5d8	0.061193317
121	0x3d865922	0.065599695
122	0x3da3f98c	0.08006582
123	0x3d4de5a2	0.050267823
124	0x3ccc5d97	0.02494697
125	0xbd2ba64c	-0.04190664
126	0xbdb5efec	-0.08883652
127	0xbdb7b2e0	-0.089696646
128	0xbd7f454f	-0.062321957
129	0x3d7b4fc8	0.061355382
130	0x3da812a6	0.08206682
131	0x3da0a063	0.07843091
132	0x3d265097	0.0406042
133	0x3d9fe743	0.078077815
134	0x3de7653c	0.11298606
135	0x3ddc8c7c	0.10768983
136	0xbc5997f7	-0.01328086
137	0xbd70a522	-0.058751233
138	0x3bd57edf	0.0065153684
139	0x3d111d17	0.035428133
140	0xbb469630	-0.003030192
141	0x3bfcf535	0.0077196606
142	0x3d1ddd7e	0.03854131
143	0x3c4b40ee	0.012405617
144	0x3d747a51	0.059686963
145	0xbcda0f4f	-0.026618628
146	0xbd733547	-0.05937698
147	0x3b5e9543	0.0033963479
148	0xbd00d8f3	-0.0314569
149	0xbd52ef28	-0.05149761
150	0x3cdc32e2	0.026879732
151	0x3ba4b7a3	0.005026774
152	0xbc8593ed	-0.016305888
153	0xbcb0b38d	-0.021569991
154	0xbdc901bf	-0.09814786
155	0x3bf3ac13	0.0074362843
156	0x3ca22505	0.019793043
157	0x3d04fa37	0.032465186
158	0x3b9f9176	0.004869635
159	0x3d5c094f	0.053719815
160	0x3d21050a	0.039311446
161	0x3cc9adfd	0.024619097
162	0x3d8440a6	0.06457643
163	0x3d346528	0.044041783
164	0x3c3e316b	0.011608462
165	0xbcbf6b94	-0.023366727
166	0xbd51c5e6	-0.05121412
167	0xbcb021ee	-0.021500554
168	0x3ccd576e	0.025066104
169	0x3cef3760	0.02920121
170	0x3ccb94a4	0.02485115
171	0x3d4aae28	0.049482495
172	0x3d11beb9	0.035582278
173	0x3ce2c322	0.027680937
174	0xbc218506	-0.009858375
175	0x399662a6	0.00028683728
176	0xbd881a2a	-0.066456154
177	0xbd7e42ba	-0.062075354
178	0xbd5408b5	-0.051766116
179	0xbbaf1b62	-0.0053438405
180	0xbd7f17b9	-0.062278483
181	0xbdabe585	-0.08393387
182	0xbcec3f37	-0.028838737
183	0x3c91b0e3	0.017784541
184	0xbc6d21ec	-0.01447342
185	0xbcea32f4	-0.02858875
186	0x3bc10636	0.005890633
187	0xbc9e73c7	-0.019342316
188	0x3d308bf6	0.043102227
189	0x3cdee9f7	0.027211173
190	0xbc24c670	-0.010057077
191	0xbd847837	-0.06468242
192	0xbca6dc3f	-0.020368693
193	0xbcf73e5a	-0.030181099
194	0xbd9a5c7b	-0.075371705
195	0xbd0695cd	-0.032857705
196	0x3cf87b56	0.030332249
197	0x3c3cb1ea	0.011517027
198	0x3c2bfa9e	0.0104967635
199	0x3d5a733c	0.053332552
200	0x3df88cfe	0.12136267
201	0x3c9555ff	0.018229483
202	0x3bfbc0da	0.007682902
203	0x3c749eab	0.0149304075
204	0xbce76985	-0.028248558
205	0x3d291733	0.04128189
206	0x3a75c41e	0.0009375232
207	0xbc8b9628	-0.017039374
208	0xbd5a24b1	-0.053257648
209	0xbdd8b1bf	-0.105807774
210	0xbd83d927	-0.06437903
211	0xbd7c82d0	-0.06164819
212	0x3b55a74a	0.0032600933
213	0x3bd50ab5	0.0065015205
214	0x3ccf9b9e	0.025342759
215	0x3d6112c3	0.054949533
216	0x3db608a0	0.08888364
217	0xbc3a7075	-0.011379351
218	0xbc7323e2	-0.014840098
219	0x3b4bf063	0.0031118623
220	0xbcb2e036	-0.021835428
221	0xbd6f5b4b	-0.058436673
222	0xbd6facb2	-0.058514304
223	0xbbc69459	-0.006060165
224	0xbbead69c	-0.0071666967
225	0x3c3ea428	0.011635818
226	0x3c25eba9	0.010126987
227	0x3dc3b4f4	0.095559984
228	0x3dd24053	0.10266175
229	0xbbf738c9	-0.007544611
230	0x3d0264fa	0.03183458
231	0x3d112444	0.035434976
232	0xbd99deee	-0.075132236
233	0xbb51df8a	-0.0032024109
234	0x3c405208	0.011738308
235	0xbd5f8bc4	-0.05457665
236	0xbda44162	-0.08020283
237	0xbd0f1cde	-0.03493964
238	0xbdacd8f9	-0.08439822
239	0xbcd04ef3	-0.02542827
240	0x3d224221	0.039613847
241	0x3d68c94a	0.05683259
242	0xbc6dcd75	-0.014514317
243	0xbd338bce	-0.0438345
244	0x3c218dd7	0.009860477
245	0x3d3e2ce3	0.046429526
246	0x3dc2c0a7	0.09509402
247	0x3d91b4dd	0.07114575
248	0x3b8dc7d6	0.004326801
249	0xbbd2c2eb	-0.0064319274
250	0xbd9002b8	-0.070317686
251	0xbce27a73	-0.027646279
252	0x3ca4701c	0.02007299
253	0xbd0a0185	-0.033692855
254	0x3c48e45f	0.012261479
255	0x3d81d768	0.063399136

hidden.0.bias f4 [278]
0	0x3b3160c9	0.0027065745
1	0x3cdc2ac7	0.026875867
2	0x3e0f0fea	0.13970914
3	0xbd739e14	-0.059476927
4	0xbd92699c	-0.0714905
5	0xbd8a23b0	-0.06745088
6	0x3e37f145	0.17963131
7	0xbd8dde7a	-0.069272
8	0x3d45b311	0.048266474
9	0x3d9a27b9	0.07527108
10	0x3dbed346	0.09317641
11	0x3dde43ae	0.108527526
12	0x3d3f610c	0.04672341
13	0xbd0a7497	-0.033802595
14	0x3d21ea70	0.039530218
15	0xbc9d8d35	-0.019232372
16	0xbcd622ae	-0.026139583
17	0xbc0faeb2	-0.008769678
18	0x3d7803c2	0.06055046
19	0xbcc626ab	-0.02418836
20	0x3db16cee	0.08663355
21	0x3d1cc3f2	0.038272806
22	0xbddd6485	-0.10810188
23	0xbd68c607	-0.05682948
24	0xbd9510f0	-0.07278621
25	0x3d96337d	0.07334039
26	0xbcc0a905	-0.023518095
27	0xbcac9824	-0.02106864
28	0xbcdb800f	-0.026794462
29	0xbd4f4a2f	-0.050607856
30	0x3d46653d	0.048436392
31	0xbdb0140a	-0.08597572
32	0xbd66fc34	-0.056392863
33	0x3de1bad7	0.11021965
34	0x3d1e3ba4	0.038631096
35	0x3caa723f	0.02080643
36	0x3ddb3f0b	0.10705384
37	0x3dddc430	0.108284354
38	0xbd60bea1	-0.054869298
39	0x3b87c48b	0.004143303
40	0xbcbeb8b5	-0.023281435
41	0xbbd967d8	-0.0066346936
42	0xbd13fb92	-0.036128588
43	0xbd8f381d	-0.06993125
44	0x3d62a05f	0.055328723
45	0xbd13043d	-0.035892714
46	0xbc2cfd2f	-0.010558411
47	0xbc9f6e79	-0.019461857
48	0xbd78a9d2	-0.06070883
49	0xbd88f817	-0.066879444
50	0x3ba3036e	0.004974774
51	0xbc557a00	-0.013029575
52	0x3c9c66c6	0.019091975
53	0x3d2b2e7f	0.04179239
54	0x3b4ad600	0.0030950308
55	0xba2719de	-0.0006374399
56	0x3a8ca0fb	0.0010729128
57	0x3cf997c3	0.030467873
58	0xbae95e88	-0.0017804662
59	0x3d7ce407	0.0617409
60	0x3d7a4c03	0.061107647
61	0x3c3dcaec	0.011584025
62	0xbcd2b664	-0.025721736
63	0xbc5b0534	-0.01336794
64	0x3dbca7a0	0.092116594
65	0xbc024248	-0.007950373
66	0xbca9670f	-0.020679025
67	0x3d24a4de	0.040196292
68	0xbdb6cfd7	-0.08926361
69	0xbc884dd3	-0.016638672
70	0x3a91e3c5	0.0011130503
71	0xbb6d5632	-0.0036214706
72	0x3ba00fce	0.0048846966
73	0xbe069eb4	-0.13146478
74	0xbdc15b03	-0.09441187
75	0xbc7f1e40	-0.015571177
76	0xbca0cd30	-0.019629091
77	0xbca7f6df	-0.02050346
78	0xbc3dd9e3	-0.011587593
79	0x3dd8b5d7	0.10581558
80	0x3db297d3	0.087203644
81	0x3c516d72	0.012782441
82	0xbd94c1b2	-0.07263507
83	0xbbc19870	-0.0059080645
84	0x3df2f99f	0.11864018
85	0x3b191b92	0.002336238
86	0x3b083714	0.0020784782
87	0xbdf575a7	-0.11985331
88	0x3d6e1187	0.058122184
89	0x3e3c83d1	0.18409659
90	0xbd56af28	-0.052413136
91	0x3dae57e3	0.08512857
92	0x3d45d42d	0.04829805
93	0xbcbaa284	-0.022782572
94	0xbcd20079	-0.025634991
95	0xbd5b0d68	-0.053479582
96	0xbd18f4da	-0.037342884
97	0x3d1890b8	0.03724739
98	0x3ca65366	0.02030344
99	0x3dd05d33	0.10174026
100	0xbcda2548	-0.026629105
101	0x3d64f2ca	0.055895604
102	0xbc315885	-0.010824327
103	0x3e0671a5	0.1312929
104	0xbd9b76bf	-0.075910084
105	0x3de4795f	0.11155962
106	0xbdcc0cb9	-0.09963364
107	0xb98d0962	-0.00026900606
108	0xbd5b463f	-0.05353379
109	0xbcce2148	-0.025162354
110	0xbc056b52	-0.008143263
111	0xbac0fc22	-0.0014723579
112	0xbd424ff8	-0.047439545
113	0x3d92003c	0.07128951
114	0xbc8913be	-0.016733047
115	0xbd9e3eb1	-0.07726801
116	0x3d9dbfcd	0.07702599
117	0x3c66418c	0.0140537135
118	0xbb122240	-0.0022298247
119	0xbd2a265e	-0.041540496
120	0x3aa1ed87	0.0012354114
121	0x3d9c326d	0.076268055
122	0xbced5db1	-0.02897534
123	0x3cf9f844	0.03051389
124	0x3e03bca5	0.12864931
125	0x3c3ef681	0.011655451
126	0x3dd517af	0.10404908
127	0x3dd0f83d	0.10203598
128	0x3cf2a654	0.029620327
129	0xbc5a9fa2	-0.0133437235
130	0xbc9ac7b5	-0.018894056
131	0x3d00a84a	0.031410493
132	0xbdaf7809	-0.08567817
133	0x3d425df0	0.047452867
134	0xbd2b049e	-0.04175245
135	0x3dbd610b	0.09247025
136	0x3d9ca944	0.07649472
137	0x3d4d4030	0.050110042
138	0xbd8e20c1	-0.06939841
139	0xbd437d80	-0.047727108
140	0xbb7a4c00	-0.0038192272
141	0xbce5cbcc	-0.02805128
142	0x3cde063a	0.027102578
143	0x3be70952	0.0070506716
144	0xbc5665b3	-0.01308577
145	0xbe285d95	-0.16441949
146	0x3e00d630	0.12581706
147	0xbc3c44b0	-0.011490986
148	0x3d454bfb	0.048168164
149	0x3db0613c	0.08612296
150	0xb9f29b19	-0.00046273394
151	0xbc0f6fd0	-0.0087546855
152	0xbc6fe0d8	-0.014641009
153	0xbc49b593	-0.012311357
154	0x3de17f4d	0.11010609
155	0x3c3eeda4	0.011653338
156	0x3d60676d	0.054786135
157	0x3d672b15	0.05643757
158	0x3d52a466	0.051426314
159	0xbd3bc211	-0.045839373
160	0x3c2b40de	0.010452477
161	0xbd8c8959	-0.068621345
162	0xbdc7b395	-0.097510494
163	0xbb4d7a7a	-0.003135352
164	0x3cd2029c	0.02563601
165	0x3c41ec49	0.01183612
166	0x3c84f1db	0.016228607
167	0xbbe334ac	-0.006933769
168	0x3d9135d9	0.07090349
169	0xbc90810a	-0.017639656
170	0xbcccc920	-0.024998248
171	0x3d8af82f	0.067856185
172	0x3d65d55d	0.056111682
173	0xbd40fb9c	-0.047114953
174	0x3dc5c1dc	0.09656116
175	0xbd8da92b	-0.06917032
176	0x3cda701b	0.026664784
177	0xbb90831b	-0.0044101602
178	0x3ca8b694	0.020594873
179	0xbd30ca5b	-0.04316173
180	0x3cc43607	0.023951543
181	0x3d9c1879	0.07621855
182	0x3c659061	0.014011473
183	0xbd057fec	-0.0325927
184	0x3d01b2db	0.03166471
185	0x3deb718b	0.11496266
186	0x3d2ece79	0.042677376
187	0x3b953297	0.00455315
188	0x3b44a8d8	0.0030007865
189	0x3d3d3c91	0.04620034
190	0xbcda75ec	-0.026667558
191	0x3cbac979	0.022801148
192	0xbd377ebc	-0.044798598
193	0x3cefca48	0.02927126
194	0x3c2294c4	0.009923164
195	0x3da11826	0.07865934
196	0x3d8e780f	0.06956493
197	0x3c831f21	0.016006054
198	0xbd6e8b19	-0.058238123
199	0x3d42523f	0.047441717
200	0x3a351c15	0.00069087866
201	0x3d55218d	0.05203395
202	0x3c9113a5	0.017709563
203	0x3b45a738	0.0030159485
204	0x3d08b509	0.033375774
205	0x3d2974fb	0.041371327
206	0x3c87ae31	0.016562553
207	0xbc2027a9	-0.009775081
208	0x3cf2fead	0.029662455
209	0x3d266c5d	0.040630687
210	0xbd475b3b	-0.04867099
211	0x3c733b6e	0.014845712
212	0xbd622a68	-0.055216223
213	0x3ccc07fd	0.024906153
214	0xbcc50656	-0.024050873
215	0x3d8e73d5	0.06955687
216	0xbdfa5f25	-0.12225179
217	0x3cea0a07	0.028569235
218	0xbd219b6c	-0.039454862
219	0x3a7835a8	0.00094684446
220	0xbcf83226	-0.03029735
221	0x3ca7d00d	0.020484949
222	0xbc48a6e8	-0.012246825
223	0xbbbb1880	-0.0057097077
224	0x3e04ad65	0.1295677
225	0xbdf42a17	-0.119220905
226	0xbe074639	-0.13210382
227	0x3d5f3d04	0.05450155
228	0x3c0f3810	0.008741394
229	0xbd147a03	-0.036249172
230	0xbc2d74a3	-0.01058689
231	0xbd981ee8	-0.0742777
232	0x3bbde922	0.005795614
233	0xbc969715	-0.018382588
234	0x3d0b790b	0.034050982
235	0x3d0a45d5	0.033758003
236	0xbcf94162	-0.030426685
237	0xbcd52fc6	-0.026023757
238	0x3d10c432	0.035343356
239	0x3ccf8616	0.025332492
240	0xbda3d148	-0.079989016
241	0xbc5a88c5	-0.013338272
242	0x3d33ed26	0.043927334
243	0x3cfda372	0.030961726
244	0x3c453d86	0.012038594
245	0xbd2b8f81	-0.041884903
246	0xbd7c42a3	-0.061586987
247	0x3d2efd15	0.042721827
248	0x3d4f3320	0.050585866
249	0x3c5696ec	0.013097506
250	0xbd86cd45	-0.06582121
251	0xbd2c24f2	-0.04202742
252	0x3d6cd98f	0.057824668
253	0xbd49e318	-0.04928884
254	0x3db9cc4f	0.09072172
255	0xbb28084e	-0.0025639716

hidden.2.weight f4 [94, 278]
0	0xbd392fcc	-0.0452116
1	0x3d836e29	0.06417496
2	0xbe2373df	-0.1596217
3	0x3d622922	0.05521501
4	0xbda09733	-0.07841339
5	0xbdf1c904	-0.11805919
6	0xbe713005	-0.23553474
7	0x3dc7432a	0.097296074
8	0x3d598f1f	0.053115007
9	0xbd66a236	-0.05630704
10	0xbd140de7	-0.03614607
11	0xbe812883	-0.2522622
12	0x3df2bdf8	0.1185264
13	0x3d48a2d0	0.048983395
14	0xbddb9627	-0.10721999
15	0x3c2825ec	0.0102629475
16	0x3dd54968	0.10414392
17	0xbd537454	-0.05162461
18	0x3c517483	0.012784126
19	0x3ca4fe40	0.020140767
20	0x3db9ae27	0.0906642
21	0x3aed927a	0.0018125318
22	0xbebd1993	-0.36933574
23	0x3e6ba468	0.23011935
24	0xbcc39729	-0.02387579
25	0x3d1435f0	0.03618425
26	0xbba8af51	-0.0051478525
27	0xbd05f6a8	-0.032705933
28	0x3d8da8df	0.06916975
29	0x3d04d142	0.032426126
30	0xbe46becf	-0.19408725
31	0xbc739f84	-0.014869574
32	0x3ba6e259	0.0050929007
33	0xbe1afa7b	-0.15134613
34	0x3d5c9533	0.053853225
35	0xbe183499	-0.14863814
36	0xbc5de627	-0.013543642
37	0x3cbd313f	0.023094771
38	0x3d08c6a3	0.03339256
39	0xbe123c5e	-0.14280841
40	0x3d51945b	0.051166873
41	0x3da5e174	0.080996424
42	0x3e4dbe4e	0.20092127
43	0x3e105fda	0.14099064
44	0xbdb74841	-0.08949328
45	0x3d24c47b	0.04022644
46	0x3b501611	0.0031751434
47	0xbe19313b	-0.14960186
48	0x3d0b8687	0.034063842
49	0xbd9f97f7	-0.07792657
50	0xbb58883d	-0.0033040189
51	0x3cf0ed90	0.029410154
52	0x3d3d7ea1	0.04626334
53	0xbe277f28	-0.163571
54	0x3da8a7cd	0.082351305
55	0x3d9b1a1c	0.07573339
56	0x3dcf8eb4	0.1013464
57	0xbe35b7c2	-0.1774588
58	0x3ca76a89	0.020436542
59	0x3cdac444	0.026704915
60	0x3c3cb5a2	0.011517914
61	0x3d3d252a	0.04617802
62	0x3e0a77eb	0.13522308
63	0xbca9661e	-0.020678576
64	0x3d02f300	0.031970024
65	0xbdf86f56	-0.12130611
66	0x3d1335bd	0.03593992
67	0x3cf994aa	0.030466396
68	0xbd680831	-0.056648437
69	0xbe0c6335	-0.1370972
70	0xbe813198	-0.2523315
71	0x3d8a5fc4	0.06756547
72	0xbaeb79c0	-0.0017965361
73	0x3df68849	0.12037713
74	0xbe287a72	-0.16452959
75	0x3daec300	0.08533287
76	0xbd281f42	-0.041045435
77	0x3da883fa	0.082282975
78	0x3c1406f4	0.009034861
79	0xbd50a543	-0.050938856
80	0x3d7cde49	0.061735425
81	0xbd3367da	-0.043800212
82	0x3d43d528	0.047810704
83	0x3d16c6b9	0.03681061
84	0xbd988d6b	-0.07448848
85	0x3d846050	0.06463683
86	0x3c2c96e5	0.010534023
87	0x3db84420	0.08997369
88	0xbdefeb81	-0.11714841
89	0xbdedbc1f	-0.11608147
90	0x3e2c31a7	0.16815816
91	0xbe0d7f0c	-0.13817996
92	0xbdca52a5	-0.098790444
93	0xbcf9a030	-0.030471891
94	0x3d6b4c81	0.057446007
95	0x3bee39c5	0.0072700703
96	0x3d945100	0.07242012
97	0xbd4a63f9	-0.049411748
98	0x3d278c15	0.040905077
99	0xbd0ba173	-0.034089517
100	0x3d24fea9	0.040281925
101	0x3e1bbb93	0.15208273
102	0xbca12959	-0.019673036
103	0x3c908e76	0.017646056
104	0x3cedebe7	0.029043151
105	0x3c6f739c	0.014614966
106	0x3b739542	0.0037167822
107	0x3d54b908	0.051934272
108	0x3d0ad7b6	0.033897124
109	0x3dd99250	0.1062361
110	0x3ded55d2	0.115886346
111	0x3cf80967	0.03027792
112	0xbd1cb053	-0.038254093
113	0x3ddacd80	0.10683727
114	0xbdf11233	-0.11771049
115	0x3d890b01	0.06691552
116	0x3c48455a	0.012223566
117	0xbbfdb3dc	-0.007742388
118	0x3bed5ce7	0.007243741
119	0x3cc6b29c	0.02425509
120	0x3c27152b	0.010197918
121	0x3d198b92	0.03748662
122	0x3e0e330f	0.13886665
123	0x3c9ce023	0.019149845
124	0xbe8eef3b	-0.27916893
125	0x3c8c18fe	0.017101761
126	0xbe25ad5b	-0.16179411
127	0xbec293eb	-0.38003477
128	0xbd73ff28	-0.059569508
129	0x3d4937f4	0.049125627
130	0x3b2aecf0	0.0026081167
131	0x3d8d5acc	0.06902084
132	0xbdddaf11	-0.10824407
133	0x3d541fee	0.051788263
134	0x3e467706	0.19381341
135	0x3d9c1e7c	0.07623002
136	0x3ca147dc	0.019687586
137	0xbc810e5c	-0.015753917
138	0xbe810bc4	-0.2520429
139	0xbbf83be8	-0.0075755008
140	0x3de4b645	0.11167578
141	0x3d4a6ac4	0.049418226
142	0xbe181419	-0.14851417
143	0x3e088648	0.13332474
144	0x3e7aed43	0.2450457
145	0xbdfad966	-0.12248497
146	0xbe959a26	-0.29219168
147	0xbd36e399	-0.044650648
148	0xbe4103cc	-0.18849105
149	0x3d4902d7	0.049074974
150	0x3c51ca35	0.012804558
151	0xbd037d8d	-0.032102156
152	0xbd01fd35	-0.031735618
153	0xbcad525d	-0.021157438
154	0xbd28b5b2	-0.041188903
155	0xbc72461d	-0.014787224
156	0x3c73feef	0.014892324
157	0xbe808d19	-0.2510765
158	0x3aa88a04	0.0012858515
159	0xbda4adcf	-0.08040964
160	0xbe764c49	-0.24052538
161	0x3ce7cff6	0.028297406
162	0xbd92968e	-0.07157622
163	0x3c2c5690	0.010518685
164	0x3d9dbbfd	0.077018715
165	0xbe33a25b	-0.17542402
166	0x3e309a35	0.17246325
167	0xbdc522a3	-0.09625747
168	0x3d11ee4a	0.03562764
169	0x3dae4f53	0.08511224
170	0x3da3826e	0.07983862
171	0xbe1d4e36	-0.15361866
172	0xbc010e1c	-0.007876899
173	0xbcee2e97	-0.02907495
174	0xbd2d6fa0	-0.042342782
175	0x3debf277	0.11520856
176	0xbd1fa441	-0.038975004
177	0xbebff635	-0.3749253
178	0xbcbfb690	-0.023402482
179	0xbc10f9be	-0.008848606
180	0x3dd8f821	0.10594202
181	0x3d6e9d8f	0.05825573
182	0xbe2dd877	-0.16977106
183	0x3b9b5ec8	0.0047415234
184	0xbe807079	-0.2508581
185	0x3b981d80	0.0046421885
186	0x3b962615	0.0045821765
187	0x3d85e157	0.06537121
188	0xbd8e7e37	-0.06957667
189	0xbe25da84	-0.16196638
190	0x3e22f4f9	0.15913762
191	0xbc9f588e	-0.019451406
192	0x3d90a46f	0.07062613
193	0x3d65f606	0.05614283
194	0xbe357a60	-0.17722464
195	0xbd2c616e	-0.042085104
196	0xbdea5c0c	-0.11443338
197	0xbae85722	-0.0017726163
198	0xbe4073b9	-0.18794145
199	0xbe0c3612	-0.13692501
200	0xbcfb61cd	-0.030686283
201	0xbcba2173	-0.022721028
202	0xbd52b571	-0.051442567
203	0x3d50189c	0.05080472
204	0x3b907abf	0.0044091637
205	0x3b07770a	0.0020670318
206	0x3cbb77a0	0.02288419
207	0xbc08b692	-0.008344309
208	0x3d2a0ad7	0.041514244
209	0x3ca0bb60	0.019620597
210	0x3debb8fc	0.11509892
211	0x3e053cf3	0.13011532
212	0xbcfd8900	-0.030949116
213	0x3dd6b72a	0.104841545
214	0xbbe5088c	-0.0069895443
215	0xbdbde343	-0.09271862
216	0xbd0dd961	-0.034631137
217	0xbe3bd3ea	-0.18342558
218	0x3de0a68b	0.109692656
219	0xbdc5501d	-0.09634421
220	0x3e1533e8	0.14570582
221	0xbc872f65	-0.016502092
222	0xbd18f314	-0.037341192
223	0xbd5e06a1	-0.05420554
224	0xbcea68cb	-0.028614422
225	0xbe0b1c8b	-0.13585107
226	0x3c7bb437	0.015362791
227	0x3d00f6d4	0.031485394
228	0x3c8ab375	0.016931275
229	0xbc4d27f9	-0.012521737
230	0x3de46005	0.11151127
231	0x3e497021	0.1967168
232	0xbc0f4df6	-0.008746615
233	0x3e0d5df3	0.1380537
234	0x3c46fde7	0.012145496
235	0x3df0f0fd	0.11764715
236	0xbd03945a	-0.0321239
237	0xbdf2344e	-0.118263826
238	0x3dd11236	0.102085516
239	0xbdee0d46	-0.116236255
240	0x3d2c551e	0.04207336
241	0xbc2f83d7	-0.010712585
242	0x3dbc6384	0.091986686
243	0xbe8efc16	-0.279267
244	0x3d1a9312	0.037737913
245	0xbc7f4d0a	-0.015582332
246	0xbd69db6f	-0.057094034
247	0x3c191f28	0.009345807
248	0xbb15929f	-0.0022822989
249	0xbe50470c	-0.20339602
250	0x3cc418ea	0.023937661
251	0xbb915823	-0.0044355555
252	0xbebc8bce	-0.36825413
253	0x3dad5894	0.084641606
254	0xbdd3cbec	-0.103416294
255	0x3ad16baa	0.0015977521

hidden.2.bias f4 [94]
0	0x3e00d170	0.12579894
1	0x3d40892e	0.047005825
2	0xbd0d096e	-0.03443282
3	0x3d9e21fe	0.07721327
4	0x3d63c3cc	0.05560665
5	0x3e080c5b	0.13285963
6	0xbd221c3b	-0.039577704
7	0x3dba37d3	0.09092679
8	0xbba10ade	-0.0049146255
9	0x3e0eb558	0.13936365
10	0x3da59566	0.08085136
11	0x3dbf8e49	0.093533106
12	0x3d98c61b	0.074596606
13	0x3dd28c9b	0.102807246
14	0x3d04847a	0.032352902
15	0xbd074726	-0.033026837
16	0xbd2d62d7	-0.04233059
17	0xbda4296b	-0.08015712
18	0x3d8db77f	0.06919765
19	0x3dc2f6b0	0.09519708
20	0x3e56099a	0.209021
21	0x3c363c39	0.011122757
22	0x3dc9c43e	0.09851883
23	0x3c8a1392	0.016855035
24	0x3e66dc65	0.22545011
25	0xbd900a11	-0.0703317
26	0x3d51df7c	0.051238522
27	0x3e071c60	0.13194418
28	0x3e2169d4	0.15763026
29	0x3cd41405	0.025888452
30	0x3b1fbf38	0.002437545
31	0x3d4d9ab7	0.050196376
32	0x3e401c32	0.18760756
33	0x3de7f71a	0.11326428
34	0x3e362d5b	0.17790739
35	0x3c44e7c8	0.012018152
36	0x3eb8c9fa	0.36091596
37	0x3e23b8d1	0.1598847
38	0x3dfe6086	0.12420754
39	0xbdb86ee2	-0.09005524
40	0x3a691c76	0.00088924856
41	0x3b18fc8a	0.0023343884
42	0x3e60274d	0.21889992
43	0xbe0a9a00	-0.13535309
44	0xbae64711	-0.0017568787
45	0x3e47151b	0.19441645
46	0x3e002c1c	0.12516826
47	0xbce347ff	-0.027744291
48	0xbcbf3077	-0.02333854
49	0xbc5e3d48	-0.013564415
50	0x3d3ca39e	0.046054475
51	0xbdd332bf	-0.103124134
52	0x3c93a590	0.018023282
53	0x3d278503	0.040898334
54	0x3e93354c	0.287516
55	0x3d874de5	0.06606654
56	0x3e13b9bc	0.14426321
57	0xbda21a70	-0.07915199
58	0xbe06539e	-0.13117835
59	0x3ccb9f4c	0.024856232
60	0xbdc5be24	-0.09655407
61	0x3d931c4b	0.07183131
62	0x3e37eb7d	0.17960925
63	0xbd74a718	-0.059729666
64	0x3c703872	0.014661895
65	0x3d1d8e7a	0.038465954
66	0x3d7d860a	0.061895408
67	0xbd81e337	-0.06342166
68	0xbe06d811	-0.1316836
69	0x3c1e654c	0.009667706
70	0xbdadfd30	-0.08495557
71	0xbde6bb80	-0.112662315
72	0x3e20d097	0.1570457
73	0x3da903f0	0.08252704
74	0x3d83e986	0.064410254
75	0x391e4d18	0.00015096774
76	0x3e4541b5	0.19263346
77	0xbd097e52	-0.033567734
78	0x3de13f34	0.10998383
79	0x3df55dae	0.119807586
80	0x3da04fa8	0.07827693
81	0x3dafb7b3	0.0857996
82	0xbb14520e	-0.0022631916
83	0x3bd7f60d	0.006590611
84	0x3da40b50	0.0800997
85	0x3e318269	0.17334904
86	0x3e1aaf9f	0.15106057
87	0x3d4b8e87	0.04969647
88	0x3d6e5820	0.05818951
89	0x3cf663c5	0.03007687
90	0x3da6876d	0.08131299
91	0x3d86dfdf	0.06585669
92	0xbde6975c	-0.11259338
93	0x3d3d8675	0.046270806

hidden.4.weight f4 [24, 94]
0	0x3e1b5597	0.15169369
1	0x3e401594	0.18758231
2	0x3dcad060	0.099030256
3	0xbebf4b48	-0.37362123
4	0x3e4a1189	0.19733252
5	0xbeb021ba	-0.3440073
6	0xbe40276b	-0.18765037
7	0xbe58fcdf	-0.21190213
8	0xbd8c8732	-0.06861724
9	0x3e0a970c	0.13534182
10	0x3d9c5379	0.07633109
11	0xbe18f9e8	-0.14939082
12	0x3e6f7efc	0.23388284
13	0x3bffb99a	0.007804108
14	0x3dc3c20d	0.095584966
15	0xbc2fe498	-0.010735653
16	0xbd483ead	-0.048887897
17	0xbe6d11d5	-0.23151334
18	0xbe9b9c87	-0.30392858
19	0x3e0e8272	0.13916948
20	0x3e574579	0.21022595
21	0x3ca051d0	0.019570261
22	0x3de5c774	0.11219683
23	0xbe35dad5	-0.17759259
24	0xbcf72add	-0.030171806
25	0x3d6a6690	0.057226717
26	0x3e4d6b5a	0.20060483
27	0x3d94ab54	0.07259241
28	0x3c1cf779	0.009580486
29	0x3e05e003	0.13073735
30	0x3db21adb	0.086965285
31	0xbd96d08d	-0.07363997
32	0x3d72b864	0.05925788
33	0x3ce5eb18	0.028066203
34	0xbd268170	-0.040650785
35	0xbccfdd2a	-0.025374014
36	0x3d561e66	0.052275084
37	0xbe9db35c	-0.30800903
38	0x3e818952	0.2530008
39	0xbe2cc849	-0.16873278
40	0x3de5d49a	0.11222191
41	0x3d8383b0	0.06421602
42	0x3e2484e7	0.16066323
43	0x3e2a69ae	0.16641876
44	0xbe213ba7	-0.15745412
45	0x3d88f699	0.0668766
46	0xbd8d2946	-0.06892638
47	0xbe0a223f	-0.13489626
48	0x3e8f08e3	0.27936468
49	0xbdb04aca	-0.08608015
50	0xbca1f787	-0.01977135
51	0xbe4668b5	-0.1937588
52	0xbe11bc19	-0.1423191
53	0xbc8c8837	-0.017154796
54	0x3e6deb7f	0.23234366
55	0x3e8260c4	0.2546445
56	0xbd3be15f	-0.045869227
57	0xbdf3784b	-0.118881784
58	0xbe524ec7	-0.20537864
59	0xbe78a9d3	-0.24283533
60	0x3d827ce0	0.06371474
61	0x3e506f20	0.20354891
62	0x3c701724	0.014653955
63	0xbe9c17e7	-0.30486986
64	0xbe26591f	-0.16244934
65	0xbea662cb	-0.32497248
66	0x3dbd5e2a	0.09246476
67	0xbe754cab	-0.23955028
68	0xbcc46fbe	-0.023979064
69	0x3d535bab	0.051601093
70	0xbde9cac9	-0.11415631
71	0x3dbf6619	0.093456455
72	0xbcce7012	-0.025199924
73	0x3e40d530	0.18831325
74	0xbca52c45	-0.02016271
75	0xbecc44a4	-0.3989612
76	0x3dc54b89	0.09633548
77	0x3d30e645	0.043188352
78	0x3e15a852	0.1461499
79	0x3e41d2c8	0.18928063
80	0xbd47ef92	-0.048812456
81	0x3d591a00	0.05300331
82	0x3e0cbf0c	0.13744754
83	0x3d6f0c12	0.05836112
84	0xbeecf8ee	-0.46283668
85	0x3e70bf3e	0.23510453
86	0x3e721e47	0.23644362
87	0xbd9e7f46	-0.07739119
88	0xbd278976	-0.040902577
89	0xbc9fe620	-0.019518912
90	0xbe135245	-0.14386852
91	0x3e044393	0.12916403
92	0xbc89b10b	-0.016808053
93	0x3dc6245d	0.096749045
94	0x3dca797b	0.09886452
95	0x3e6e1187	0.23248874
96	0xbd313f3f	-0.043273207
97	0xbe1fb5bc	-0.1559667
98	0xbe3a83ba	-0.18214312
99	0xba4d9da8	-0.0007843622
100	0xbe7d03ad	-0.24708433
101	0xbe328cc4	-0.1743651
102	0x3de7cf9d	0.11318896
103	0x3b89f7dc	0.0042104553
104	0xbdc99dea	-0.09844573
105	0xbda06bc0	-0.07833052
106	0x3df9cba7	0.12197047
107	0x3e04b658	0.12960184
108	0xbe3a9e79	-0.18224515
109	0xbc0611b6	-0.008182934
110	0xbbaa1e2a	-0.005191584
111	0xbdc4e3b9	-0.09613747
112	0xbe2df50c	-0.16988009
113	0x3d9d6e47	0.07687049
114	0x3e8b813c	0.27247036
115	0x3d8fdce6	0.07024555
116	0x3dbfdf63	0.093687795
117	0xbd4c13c1	-0.049823526
118	0xbd8a4999	-0.06752319
119	0xbec3280e	-0.38116497
120	0x3d505dbe	0.05087065
121	0xbb4f1672	-0.0031599072
122	0x3e70a15d	0.23499055
123	0x3cb9baa2	0.022672001
124	0x3d934fa8	0.071929276
125	0xbc97c96c	-0.018528663
126	0x3ea06d1c	0.31333244
127	0xbd4fe81b	-0.050758462
128	0x3e3bc276	0.183359
129	0x3b9be112	0.004757055
130	0x3c9b0eee	0.018928017
131	0x3dcec13c	0.1009545
132	0xbde77442	-0.11301471
133	0xbdd30005	-0.10302738
134	0xbd985f3c	-0.074400395
135	0xbcbefa9b	-0.023312857
136	0xbcda11d1	-0.026619824
137	0xbe7bf22b	-0.24604098
138	0xbe5943ac	-0.21217221
139	0x3d6e7d12	0.058224745
140	0xbd8ab40f	-0.06772625
141	0xbe891061	-0.2677031
142	0x3ccf16ee	0.025279488
143	0xbe449ef3	-0.1920126
144	0x3e555b7e	0.20835683
145	0xbd04b5dd	-0.0324
146	0x3e1dd99b	0.15415041
147	0xbc438e78	-0.011935823
148	0x3e28c582	0.16481593
149	0x3e4c1ae2	0.1993213
150	0x3da591cd	0.0808445
151	0xbe629ac4	-0.22129351
152	0x3d7775ab	0.06041495
153	0x3dc4094b	0.09572085
154	0x3e5aa9d0	0.21353841
155	0x3e49c94a	0.19705692
156	0x3e49f7aa	0.19723383
157	0xbe175392	-0.14777973
158	0xbda9eb48	-0.082968295
159	0x3ece96a0	0.40349293
160	0x3e6b0eca	0.2295486
161	0xbe03c580	-0.12868309
162	0x3d6122d3	0.05496485
163	0xbe8bff64	-0.27343285
164	0xbdca2c7c	-0.09871766
165	0xbe5dacdb	-0.2164797
166	0x3db3a628	0.08771926
167	0x3d9cb5ed	0.07651887
168	0x3de2723c	0.11056945
169	0x3deba2b1	0.1150564
170	0x3df17c22	0.117912546
171	0xbd8113c9	-0.06302602
172	0x3d8dc038	0.069214284
173	0x3e048b5f	0.12943791
174	0xbe334923	-0.17508368
175	0x3d8882f2	0.06665601
176	0xbce39ead	-0.027785623
177	0xbd54fbb9	-0.051997874
178	0xbeece05a	-0.46264917
179	0x3d7d1c7c	0.061794743
180	0x3d892353	0.06696191
181	0xbe514cc7	-0.20439444
182	0x3d77b6e2	0.060477145
183	0x3e1f0a5a	0.15531293
184	0xbc029dd1	-0.007972197
185	0xbe323ac6	-0.17405233
186	0x3d465be7	0.04842749
187	0x3e4ae2d3	0.19813089
188	0xbef22e65	-0.4730102
189	0xbdaa942c	-0.08329043
190	0x3e65a357	0.2242559
191	0x3e9f9504	0.31168377
192	0x3e4dc89f	0.20096062
193	0x3d0176c2	0.031607397
194	0xbd5bc2a8	-0.053652436
195	0x3e240848	0.16018784
196	0x3e489c6d	0.19590922
197	0x3e018333	0.12647705
198	0x3db42f6b	0.08798107
199	0xbd89baef	-0.06725108
200	0xbd487af6	-0.04894539
201	0x382e2162	4.1515923e-05
202	0x3e00712b	0.1254317
203	0xbd5b163c	-0.053488
204	0xbd86fe79	-0.065915056
205	0x3e81ce39	0.25352648
206	0xbd0aea03	-0.033914577
207	0xbd2b014b	-0.04174928
208	0xbea1537f	-0.31509015
209	0x3d7b2025	0.061309952
210	0x3e06af2b	0.13152759
211	0xbe711307	-0.23542415
212	0x3e11102e	0.14166328
213	0x3ea35d7b	0.31907257
214	0xbdb9c2d3	-0.09070363
215	0x3d8c50cd	0.06851349
216	0xbdee51f0	-0.11636722
217	0x3da50d8e	0.08059226
218	0x3dbfcd24	0.09365299
219	0xbe5ed083	-0.21759228
220	0xbea84d81	-0.3287163
221	0x3e6a9006	0.22906503
222	0x3e254288	0.16138661
223	0xbe4f0a5e	-0.20218799
224	0x3c59498c	0.013262164
225	0xbd17f993	-0.037103247
226	0xbdde7cb5	-0.1086363
227	0x3d832bc2	0.064048305
228	0x3d03458a	0.03204874
229	0x3cad3850	0.021145016
230	0x3d2c7d6a	0.04211179
231	0xbe01efff	-0.12689207
232	0xbc24e463	-0.010064217
233	0x3d822a2e	0.063557014
234	0x3eaccfab	0.33752188
235	0xbddcbb9c	-0.10777971
236	0xbdc225a2	-0.09479834
237	0x3defe9ee	0.117145404
238	0xbdef205c	-0.11676094
239	0x3df5c328	0.12000114
240	0x3ddba271	0.107243426
241	0x3d042922	0.03226579
242	0xbdcd8998	-0.100360096
243	0x3b798534	0.003807378
244	0x3d07a93f	0.03312039
245	0xbcb31201	-0.02185917
246	0x3e72b90f	0.23703407
247	0xbd58397e	-0.052789204
248	0xbca919a0	-0.020642102
249	0xbdf0ef1f	-0.11764359
250	0xbe4133c4	-0.18867403
251	0xbe918655	-0.284228
252	0xbcbd48ef	-0.023106067
253	0xbec2dda3	-0.3805972
254	0xbe8f7a79	-0.28023127
255	0x3def628f	0.116887204

hidden.4.bias f4 [24]
0	0x3e1c7a65	0.15281065
1	0x3e73eed5	0.23821576
2	0x3d2d4d42	0.042310007
3	0xbd31d365	-0.043414492
4	0x3dcf2fa8	0.101165116
5	0xbd122363	-0.03567828
6	0x3c8f9d1c	0.01753097
7	0x3db62bc4	0.088950664
8	0x3e13f983	0.1445065
9	0x3dc7df2c	0.097593635
10	0x3dc47075	0.09591762
11	0x3c3994e2	0.011327
12	0x3d846689	0.064648695
13	0x3e91f81b	0.28509602
14	0x3e6e2601	0.23256685
15	0x3e0811db	0.13288061
16	0x3e197f40	0.14989948
17	0x3e906c24	0.28207505
18	0x3e51f857	0.2050489
19	0x3e353045	0.17694195
20	0x3dc3bbc9	0.095573016
21	0x3d970e21	0.07375742
22	0x3e3a0bdf	0.18168591
23	0x3d0b3378	0.03398463

out_layer.weight f4 [10, 24]
0	0x3e95708d	0.29187432
1	0xbece7372	-0.40322453
2	0x3d9253ea	0.071449116
3	0x3e2c229e	0.1681008
4	0x3cf13b45	0.029447207
5	0x3e05a640	0.130517
6	0x3d7fe9d8	0.06247887
7	0x3e47e47a	0.1952075
8	0x3e7f7ebc	0.24950689
9	0xbd948efe	-0.07253836
10	0x3e6ef0b3	0.23334007
11	0x3e6338e1	0.22189666
12	0x3df1db7f	0.11809444
13	0x3e3c857a	0.18410292
14	0xbec46a72	-0.3836246
15	0xbebcb2fa	-0.36855298
16	0xbeb7b384	-0.35879147
17	0xbea92599	-0.33036497
18	0x3e1f2e91	0.15545107
19	0xbe53e45b	-0.2069258
20	0xbeabbe9f	-0.3354387
21	0xbef07fc1	-0.46972468
22	0xbe97ab7d	-0.29623023
23	0x3e5aca5c	0.21366256
24	0xbe87acfb	-0.2649916
25	0xbe66c907	-0.22537623
26	0xbe8b78e7	-0.2724068
27	0xbe92c6d9	-0.28667334
28	0x3ddc1c4c	0.10747585
29	0x3dd2fe28	0.10302383
30	0xbe23cc02	-0.15995792
31	0xbe74fa26	-0.23923549
32	0xbe9dbd5f	-0.3080854
33	0x3ed16603	0.4089814
34	0xbe5aeb49	-0.21378817
35	0xbeadbb8d	-0.33932152
36	0xbe56f96d	-0.20993586
37	0x3e896586	0.2683527
38	0x3e965f28	0.29369473
39	0x3e703ee5	0.23461492
40	0xbec9cd03	-0.39414224
41	0xbed66ad4	-0.41878378
42	0x3ea8dc7a	0.3298071
43	0x3d769542	0.060200937
44	0x3e97eea3	0.29674253
45	0x3eb38d16	0.35068578
46	0xbec1a328	-0.3781979
47	0xbe5d2cf1	-0.21599175
48	0x3d3d1f93	0.04617269
49	0x3e4b37e1	0.19845535
50	0xbe175293	-0.14777593
51	0x3e3efe8f	0.18651794
52	0x3b29598d	0.002584073
53	0x3cec76d3	0.028865254
54	0xbe9eb3f8	-0.3099668
55	0x3e460e04	0.19341284
56	0xbcf2220b	-0.029557249
57	0xbeaf798d	-0.34272423
58	0xbda89e71	-0.08233345
59	0x3e161fe8	0.14660609
60	0x3e522b35	0.20524295
61	0xbf06ef9b	-0.5270936
62	0xbed03605	-0.40666214
63	0x3e2f6cfe	0.17131421
64	0xbede9006	-0.43469256
65	0xbee2aea5	-0.44273868
66	0x3e3c151c	0.18367428
67	0x3db99ec0	0.09063482
68	0xbda034f2	-0.078225985
69	0x3e9c4f86	0.30529422
70	0x3e215d84	0.1575833
71	0xbee082d6	-0.4384982
72	0xbda1bfd6	-0.07897918
73	0x3d9bc5a4	0.07606056
74	0x3eb6fae1	0.3573828
75	0x3e6066c2	0.21914199
76	0x3e836f51	0.25670865
77	0x3dff2cad	0.12459693
78	0xbe12c357	-0.14332329
79	0xbe42bcb7	-0.19017301
80	0xbe05fa0a	-0.13083664
81	0xbe9afd04	-0.3027116
82	0xbed3ffb0	-0.41406012
83	0xbeae6798	-0.3406341
84	0xbea015e1	-0.31266692
85	0xbe937790	-0.28802156
86	0xbeaf55c0	-0.3424511
87	0x3e32d1b8	0.17462814
88	0x3e81aa3a	0.25325185
89	0xbe752dde	-0.23943278
90	0x3d756716	0.059912764
91	0xbf08e9a5	-0.53481513
92	0x3e876d84	0.2645074
93	0xbe66729e	-0.2250466
94	0x3e46539e	0.19367835
95	0xbddd90f6	-0.10818665
96	0xbeec9f5c	-0.46215332
97	0x3e782d4d	0.24236031
98	0xbe9a4a55	-0.30134836
99	0xbed0e61b	-0.40800557
100	0xbf0e1b81	-0.5551072
101	0xbdd928c9	-0.10603482
102	0xbd9b3324	-0.07578114
103	0xbecb3e9e	-0.3969621
104	0x3ec3765d	0.38176242
105	0xbceb77aa	-0.028743584
106	0x3e8c2f9f	0.27380082
107	0x3e743e7a	0.23851958
108	0xbdb4fb6d	-0.08837018
109	0xbebc7b73	-0.36812934
110	0x3e6729cb	0.22574537
111	0xbe8e0c9a	-0.2774399
112	0xbd949a1f	-0.07255959
113	0x3e08bb94	0.13352805
114	0x3dfa72b2	0.12228908
115	0x3e6b79e4	0.22995716
116	0xbcc49ca3	-0.024000471
117	0xbe1992a6	-0.14997348
118	0x3e4444fe	0.19166943
119	0xbdd79e51	-0.10528243
120	0xbe44ab02	-0.1920586
121	0xbe6150ba	-0.22003451
122	0x3ebc675f	0.36797616
123	0xbeabf240	-0.3358326
124	0x3e943aea	0.28951198
125	0x3e25d424	0.16194206
126	0xbe1a8885	-0.1509114
127	0xbeac3a05	-0.33638015
128	0xbd906190	-0.070498586
129	0xbea7f7a3	-0.3280612
130	0xbe946f2a	-0.2899106
131	0xbe6ac0e5	-0.22925146
132	0xbe5c6a66	-0.21524963
133	0x3e9ccd5e	0.30625433
134	0xbeb2695f	-0.34846017
135	0xbd9945f0	-0.07484043
136	0x3e632617	0.22182499
137	0x3e910bde	0.28329366
138	0x3e940354	0.2890879
139	0x3eacd82b	0.33758673
140	0xbe669f91	-0.22521807
141	0xbe819a50	-0.25313044
142	0xbeead8ca	-0.45868522
143	0xbde396b2	-0.11112727
144	0x3e67cdd1	0.22637106
145	0x3e3e3058	0.18573129
146	0xbe716032	-0.23571852
147	0xbef9480f	-0.4868779
148	0xbe9e3eda	-0.30907327
149	0xbdb70a7a	-0.08937545
150	0x3e7011fd	0.23444362
151	0xbe16034c	-0.14649695
152	0xbea83f03	-0.32860574
153	0x3e5fd8ee	0.21860096
154	0xbeb246bd	-0.34819594
155	0x3e05d3be	0.13069054
156	0x3e12659e	0.14296576
157	0x3e9673eb	0.29385313
158	0xbee3f085	-0.4451944
159	0x3c14be97	0.009078643
160	0xbe98f94c	-0.29877698
161	0x3e06709e	0.13128898
162	0xbe1d2367	-0.15345536
163	0x3e82feae	0.2558493
164	0xbe46e9e2	-0.19425157
165	0x3d5d9969	0.05410138
166	0xbf150f5b	-0.58226556
167	0x3e429e96	0.19005808
168	0xbf0835a7	-0.53206867
169	0xbe942024	-0.2893077
170	0xbe2da352	-0.16956833
171	0x3e26bfe6	0.16284141
172	0x3e20dac0	0.15708447
173	0x3cc55fdc	0.02409356
174	0xbeaaf02c	-0.33386362
175	0x3e731a14	0.23740417
176	0x3ea75c2b	0.32687506
177	0x3e89dbe0	0.26925564
178	0x3e5d8ed2	0.21636513
179	0x3e0982a9	0.13428749
180	0xbee66e5b	-0.4500607
181	0xbe9178b5	-0.28412405
182	0x3e424ae0	0.18973875
183	0x3e1aed28	0.1512953
184	0x3e273abb	0.16330998
185	0xbf304736	-0.6885866
186	0xbedbcabc	-0.42928112
187	0x3c7d66dd	0.015466419
188	0x3c225b17	0.009909413
189	0x3e638006	0.22216806
190	0xbe9eca4f	-0.31013724
191	0xbec583ff	-0.38577268
192	0x3eb66011	0.35620168
193	0x3e9f7bbb	0.31149086
194	0xbe9858ff	-0.297554
195	0xbd680a26	-0.056650303
196	0xbe65dda9	-0.22447838
197	0xbe37279c	-0.17886204
198	0x3d7ff762	0.062491782
199	0x3e688cd8	0.22709978
200	0xbe963121	-0.29334357
201	0xbe74eb30	-0.23917842
202	0xbe98f298	-0.29872584
203	0xbf0ebe5a	-0.55759203
204	0xbedc4da9	-0.43028
205	0x3e930228	0.28712583
206	0x3e582b3b	0.21110241
207	0x3e229305	0.15876396
208	0x3e4c90c0	0.19977093
209	0x3e1bbecf	0.15209506
210	0x3df16b07	0.11787992
211	0xbece5977	-0.4030263
212	0xbe467e9d	-0.19384237
213	0xbe90b5ac	-0.28263605
214	0x3dfdad9f	0.12386631
215	0xbebc6409	-0.3679507
216	0xbd8fbcf5	-0.070184626
217	0xbee70ddd	-0.45127764
218	0x3e8e0b20	0.27742863
219	0x3dfe8a9e	0.12428783
220	0xbe4860f7	-0.19568239
221	0xbe6484a2	-0.2231622
222	0xbe42b295	-0.19013436
223	0xbebd51eb	-0.3697656
224	0xbe5d4f9e	-0.21612403
225	0x3e88509c	0.26624
226	0x3e36a4f4	0.17836362
227	0x3e5d87a6	0.21633777
228	0xbebd22ce	-0.36940616
229	0x3e5c1895	0.21493752
230	0x3e6321b5	0.22180827
231	0xbf047456	-0.51740015
232	0x3e67a07e	0.22619817
233	0x3e24bdfe	0.16088101
234	0xbf03f441	-0.51544577
235	0xbb8c8489	-0.0042882604
236	0x3df140bc	0.11779925
237	0xbea27197	-0.31727287
238	0x3e2bc747	0.16775237
239	0xbe25c3d1	-0.1618798

out_layer.bias f4 [10]
0	0xbe13b1ed	-0.14423342
1	0xbce539af	-0.027981607
2	0xbdc1c5f5	-0.094615854
3	0x3be37e1c	0.0069425236
4	0x3d884bd5	0.06655089
5	0x3e96afb5	0.2943093
6	0xbc9dc67c	-0.019259684
7	0xbe742a98	-0.23844373
8	0xbbc2bcaf	-0.005942903
9	0xbdd5554e	-0.10416661
